weights/2dreg/RxSO2.pth (torch_old, 876983 bytes, 88 tensors)

conv_theta.weightnet.net.0.linear.weight f4 [32, 2]
0.11913106 0.40279022 0.17227311 0.54516643 -0.6621921 -0.15741128 0.67246985 0.67571074
-0.3819212 -0.0013933659 -0.22316866 -0.655609 -0.5557049 -0.12135986 0.48958418 0.00594301
-0.38035247 0.45290512 0.30485356 -0.57797706 -0.25454572 -0.6334204 -0.378101 -0.6341302
-0.14109169 -0.3966232 0.54925597 0.52248394 -0.00837109 -0.09993605 0.16052298 0.06105248
-0.61121166 0.37424836 0.13206765 -0.26535973 0.25519606 -0.7079193 0.6007199 -0.26768723
-0.2560276 -0.35173965 -0.4508628 0.49683782 -0.23871398 0.1844484 -0.24416433 -0.67222375
-0.25834802 0.0027964665 0.10850625 -0.04139201 -0.6009544 -0.46563846 0.5400998 0.7013081
0.043406956 -0.09698624 -0.19205059 -0.6731748 -0.12513871 -0.5500522 0.41457278 0.70876145
00000000: fcfa f33d 853a ce3e 5d68 303e 0790 0b3f
00000010: 6c85 29bf 6c30 21be fc26 2c3f 61fb 2c3f
00000020: 2d8b c3be 9aa1 b6ba 5386 64be fed5 27bf
00000030: ad42 0ebf 858b f8bd c7aa fa3e 95bd c23b
00000040: 8fbd c2be 2ee3 e73e c415 9c3e 4ef6 13bf
00000050: d153 82be d727 22bf 7496 c1be 5b56 22bf
00000060: 577a 10be 3212 cbbe 0a9c 0c3f 82c1 053f
00000070: e526 09bc 46ab ccbd 2360 243e 2a12 7a3d
00000080: 5e78 1cbf 7b9d bf3e be3c 073e 3bdd 87be
00000090: 0fa9 823e 333a 35bf c8c8 193f 4d0e 89be
000000a0: 0d16 83be 3817 b4be 7dd7 e6be 8761 fe3e
000000b0: 7071 74be 0be0 3c3e 3706 7abe db16 2cbf
000000c0: 3146 84be ec44 373b 8638 de3d ab8a 29bd
000000d0: 26d8 19bf 2a68 eebe fb43 0a3f ed88 333f
000000e0: 7ecb 313d b9a0 c6bd e9a8 44be 2f55 2cbf
000000f0: 5d24 00be 39d0 0cbf e242 d43e 6471 353f

conv_theta.weightnet.net.0.linear.bias f4 [32]
0.22414519 0.6523778 0.3444965 -0.23752272 0.20441747 0.5660685 -0.41226095 -0.23803976
0.39154944 0.4872727 0.58424425 -0.33369842 0.6688789 -0.5515454 0.43332535 -0.27554676
-0.48110685 0.6434072 0.6131175 0.6587433 -0.02164187 0.03180642 -0.19688097 0.26730245
-0.0020851225 0.26705703 -0.6208891 -0.60343343 0.5548711 0.094066195 -0.5839591 0.29127136
00000000: 5186 653e 3b02 273f d861 b03e 2839 73be
00000010: d052 513e dde9 103f de13 d3be b2c0 73be
00000020: 2b79 c83e cf7b f93e 0891 153f 85da aabe
00000030: a63b 2b3f 1432 0dbf d2dc dd3e 7714 8dbe
00000040: a353 f6be 56b6 243f 45f5 1c3f 67a3 283f
00000050: 4a4a b1bc 7347 023d 2a9b 49be dedb 883e
00000060: 8da6 08bb b3bb 883e 97f2 1ebf 9d7a 1abf
00000070: 080c 0e3f c7a5 c03d 587e 15bf 8521 953e

conv_theta.weightnet.net.0.bn.weight f4 [32]
1.0326099 1.0618879 1.003027 0.99930227 1.0011927 1.0158396 0.973637 1.0173037
0.93757147 0.9997859 0.99174166 1.0074764 0.9880456 1.0490992 0.99337465 0.9745551
0.9856472 1.0122453 0.97198516 1.0269071 0.96695775 1.0298556 0.9731671 1.0148776
1.020688 1.0065036 1.0298839 0.9852338 0.9616841 1.0048563 0.99148333 0.97507936
00000000: 902c 843f f1eb 873f 3063 803f 46d2 7f3f
00000010: 1527 803f 0807 823f 4640 793f 0237 823f
00000020: af04 703f f8f1 7f3f c8e2 7d3f fdf4 803f
00000030: 8ef0 7c3f e248 863f cd4d 7e3f 717c 793f
00000040: 6053 7c3f 4191 813f 05d4 783f b171 833f
00000050: 8b8a 773f 4fd2 833f 7b21 793f 82e7 813f
00000060: e8a5 823f 1cd5 803f 3cd3 833f 4838 7c3f
00000070: ee30 763f 229f 803f dad1 7d3f cd9e 793f

conv_theta.weightnet.net.0.bn.bias f4 [32]
0.010804153 0.01335769 -0.007910147 -0.013281023 -0.006759822 0.017552897 -0.019928806 0.0056354497
-0.039575566 0.02729259 0.010509412 -0.008983005 -0.014832382 0.009160971 0.0009514335 0.006234682
0.012751477 -0.009327667 -0.02882162 0.025933621 0.004868853 -0.0177365 0.016598657 0.044795122
0.007483281 -0.0016653818 0.023271779 0.024554858 -0.017674046 -0.00018225692 -0.013839362 -0.033460792
00000000: e703 313c 36da 5a3c 9099 01bc a698 59bc
00000010: 7f81 ddbb 18cb 8f3c bc41 a3bc 94a9 b83b
00000020: fd19 22bd b694 df3c ab2f 2c3c 742d 13bc
00000030: 8503 73bc e617 163c 9f69 793a 4e4c cc3b
00000040: 92eb 503c 12d3 18bc 511b ecbc bf72 d43c
00000050: e68a 9f3b 234c 91bc e8f9 873c 177b 373d
00000060: 5036 f53b f148 daba 75a4 be3c 4527 c93c
00000070: 29c9 90bc 381c 3fb9 7ebe 62bc 2f0e 09bd

conv_theta.weightnet.net.0.bn.running_mean f4 [32]
0.22369675 0.6518088 0.34737927 -0.24035107 0.20608617 0.5669045 -0.4098519 -0.24014913
0.3933552 0.4857873 0.5851847 -0.33218676 0.66940016 -0.5537843 0.43332112 -0.27624363
-0.47834772 0.64274025 0.6118098 0.6560432 -0.020614898 0.033918437 -0.19579405 0.26824427
-0.0009479369 0.26656744 -0.61835885 -0.6055716 0.55466026 0.09473787 -0.58354974 0.28964293
00000000: c310 653e f1dc 263f b2db b13e 971e 76be
00000010: 4108 533e a720 113f 1cd8 d1be a7e9 75be
00000020: da65 c93e 1db9 f83e aace 153f 6214 aabe
00000030: cf5d 2b3f cfc4 0dbf 44dc dd3e ce6f 8dbe
00000040: fee9 f4be a08a 243f 919f 1c3f 72f2 273f
00000050: 93e0 a8bc 0fee 0a3d 3c7e 48be 5057 893e
00000060: f87e 78ba 877b 883e c44c 1ebf be06 1bbf
00000070: 37fe 0d3f ee05 c23d 8463 15bf 144c 943e

conv_theta.weightnet.net.0.bn.running_var f4 [32]
0.026963567 0.049500037 0.016805585 0.08788252 0.004241174 0.071793675 0.011389713 0.00697492
0.03777992 0.05736809 0.06754902 0.069968484 0.026323983 0.053451836 0.0016375841 0.0013595364
0.033775017 0.012029105 0.08390799 0.022217434 0.022152252 0.046299156 0.007222492 0.0756946
0.0019415738 0.0006224932 0.04598919 0.08897214 0.0015941699 0.07523632 0.049970023 0.08720955
00000000: b3e2 dc3c 8dc0 4a3d deab 893c c0fb b33d
00000010: 8cf9 8a3b 9008 933d eb9b 3a3c df8d e43b
00000020: 1ebf 1a3d cdfa 6a3d 2457 8a3d a34b 8f3d
00000030: 65a5 d73c 50f0 5a3d 34a4 d63a 7932 b23a
00000040: ac57 0a3d b915 453c f4d7 ab3d 5601 b63c
00000050: a478 b53c 2fa4 3d3d a7aa ec3b c505 9b3d
00000060: 687c fe3a d02e 233a 295f 3c3d 0637 b63d
00000070: 77f3 d03a 8015 9a3d 5ead 4c3d ec9a b23d

conv_theta.weightnet.net.1.linear.weight f4 [32, 32]
-0.14205189 0.06790058 -0.06094309 0.08114388 -0.1032225 0.16910386 0.1769861 0.16181503
0.03557568 0.049181934 -0.010991887 0.09237717 0.024416385 -0.13004728 0.13515991 -0.11059853
0.09041204 -0.052585077 -0.10706596 0.16727641 0.15212612 -0.047376193 -0.034948815 0.19209614
-0.049214184 -0.08845325 0.16699308 -0.11331959 0.007162322 -0.0200097 -0.11743032 0.13274066
-0.17646998 0.13471465 0.112087704 -0.15852453 -0.1525627 -0.103484645 -0.032233734 -0.13641196
0.13464011 -0.11127665 -0.049061935 0.07129682 -0.061915684 0.15271425 -0.10747642 0.065129824
0.1079526 -0.08047103 -0.049558457 -0.03744036 0.017115695 0.008726027 0.027887845 -0.18022843
-0.06628729 0.011256619 -0.12627496 -0.07025813 -0.07954174 -0.016678061 0.061195213 0.098493144
-0.16686192 0.10419657 -0.10572902 0.14638124 0.11662301 -0.12672181 -0.056082822 -0.06692799
-0.03268085 -0.019870171 0.07798769 0.07100376 -0.0008271265 0.09680988 -0.096067674 -0.059200436
0.05856054 -0.13564514 0.0885381 -0.05942275 -0.03979216 -0.0214409 0.17408267 -0.0024087802
-0.059128642 -0.08889874 0.103863314 -0.11667417 0.04300213 -0.007416652 0.110481955 0.011585449
0.16303049 0.120098785 -0.096608035 -0.08047005 -0.070324555 -0.029982204 -0.0746663 -0.03692489
-0.045896146 -0.07958741 -0.13857359 0.18445855 0.18973938 0.13256674 -0.066849165 0.14607227
-0.081781365 -0.1171073 -0.09237918 0.063599266 0.16517399 0.09190958 -0.042000152 -0.12836906
0.006135471 0.0007465203 -0.17654726 -0.10405517 -0.038460553 0.043605875 0.10937198 -0.12184704
-0.11718607 -0.039648265 -0.050455216 -0.16527458 -0.050490003 0.15896203 -0.092818975 -0.17381836
0.120674185 0.15984246 0.08131221 0.027711868 0.07541422 -0.06963325 -0.06838124 0.090803325
0.072776906 0.10796092 -0.07321333 0.043635078 0.10988568 -0.20840739 0.03140194 -0.1144873
0.029312165 0.05205861 -0.05327375 0.0022075064 -0.1282924 -0.14110298 0.053648975 0.057971586
0.18901658 0.08821682 -0.088221125 0.13298921 -0.033374183 -0.03808307 0.12904653 -0.08769919
0.13831778 -0.100203216 -0.12477866 0.07440991 -0.14979276 -0.045056272 -0.2016645 0.14520518
0.03793606 -0.10940378 0.08369259 -0.17355366 0.07662173 -0.1452857 -0.05785802 -0.110974416
0.078555614 0.10102724 0.1225901 0.036615092 0.14544304 0.04874207 -0.13920374 0.0066617588
0.07820317 -0.04294072 -0.07346058 -0.15812445 0.030558873 -0.061495382 0.14268973 0.14778917
0.0535851 -0.09801742 -0.16429424 0.010576176 0.04859347 -0.089016125 -0.08400185 -0.14685631
0.14885557 0.099934764 -0.050490487 0.026222648 -0.16468157 0.017701676 -0.038756974 0.013397117
0.14186098 -0.03767176 0.16752513 0.13332458 0.12912554 -0.14316328 -0.03373476 0.13252884
0.068333164 0.015164987 -0.17617422 -0.1261862 0.02182751 -0.111418895 -0.21966493 -0.013734446
-0.121792294 -0.09470907 -0.09149255 0.030876778 -0.15363221 0.069700114 -0.122029655 0.14314288
-0.042128593 -0.14237249 -0.039436694 -0.054853078 -0.18278712 -0.0989976 -0.044177137 0.12555794
-0.20675592 -0.13209963 -0.046994418 0.15343463 -0.15625054 0.13494815 0.16600606 -0.048456997
00000000: 0d76 11be 760f 8b3d 769f 79bd c32e a63d
00000010: 5166 d3bd 9029 2d3e d83b 353e d7b2 253e
00000020: ceb7 113d ff72 493d 5117 34bc 3e30 bd3d
00000030: df04 c83c 1d2b 05be 5c67 0a3e 7b81 e2bd
00000040: f329 b93d 7363 57bd 6645 dbbd 824a 2b3e
00000050: f3c6 1b3e 8a0d 42bd 7d26 0fbd dab4 443e
00000060: d094 49bd fa26 b5bd 3c00 2b3e 1a14 e8bd
00000070: e9b1 ea3b 62eb a3bc 4f7f f0bd 2bed 073e
00000080: 8cb4 34be a3f2 093e 3d8e e53d 4154 22be
00000090: 6539 1cbe c2ef d3bd 8507 04bd 94af 0bbe
000000a0: 19df 093e 03e5 e3bd 2bf5 48bd 1104 923d
000000b0: 4d9b 7dbd 2061 1c3e 991c dcbd c962 853d
000000c0: 4116 dd3d ffcd a4bd cffd 4abd 105b 19bd
000000d0: 3736 8c3c 9cf7 0e3c 0d75 e43c cd8d 38be
000000e0: a1c1 87bd af6d 383c 394e 01be 7fe3 8fbd
000000f0: c8e6 a2bd 6ea0 88bc d5a7 7a3d c6b6 c93d
00000100: dadd 2abe 0365 d53d 7588 d8bd f7e4 153e
00000110: 0bd8 ee3d 5dc3 01be 1ab7 65bd 8b11 89bd
00000120: 5bdc 05bd c5c6 a2bc 03b8 9f3d 6b6a 913d
00000130: 85d3 58ba 4244 c63d 21bf c4bd 287c 72bd
00000140: 2ddd 6f3d 8fe6 0abe 7753 b53d 4565 73bd
00000150: 1bfd 22bd d4a4 afbc ba42 323e a0dc 1dbb
00000160: e030 72bd 8b10 b6bd 4ab6 d43d def2 eebd
00000170: 0023 303d 6307 f3bb 5d44 e23d e5d0 3d3c
00000180: 77f1 263e 5af6 f53d 6fda c5bd 7bcd a4bd
00000190: 5206 90bd 3d9d f5bc a5ea 98bd 8e3e 17bd
000001a0: 99fd 3bbd b9fe a2bd 3ce6 0dbe b4e2 3c3e
000001b0: 0a4b 423e 93bf 073e 37e8 88bd f893 153e
000001c0: fd7c a7bd f4d5 efbd 4c31 bdbd 5540 823d
000001d0: 5f23 293e 173b bc3d 5a08 2cbd 2e73 03be
000001e0: 100c c93b 21b2 433a cec8 34be e11a d5bd
000001f0: d088 1dbd 139c 323d 6bfe df3d f18a f9bd
00000200: 40ff efbd 3866 22bd 21aa 4ebd bd3d 29be
00000210: 9bce 4ebd f1c6 223e e017 bebd 71fd 31be
00000220: 0724 f73d bead 233e 0487 a63d 0004 e33c
00000230: c572 9a3d e19b 8ebd 770b 8cbd 18f7 b93d
00000240: 0f0c 953d 9d1a dd3d dff0 95bd b2ba 323d
00000250: be0b e13d bf68 55be 529f 003d 5178 eabd
00000260: 1120 f03c 693b 553d 9335 5abd d0ab 103b
00000270: 155f 03be 4d7d 10be 07bf 5b3d 9d73 6d3d
00000280: 908d 413e 05ab b43d 47ad b4bd 532e 083e
00000290: 5eb3 08bd fefc 1bbd c624 043e a29b b3bd
000002a0: 2da3 0d3e 5837 cdbd f48b ffbd 3964 983d
000002b0: 4663 19be ed8c 38bd 2481 4ebe abb0 143e
000002c0: d862 1b3d 170f e0bd 0567 ab3d 0db8 31be
000002d0: dbeb 9c3d c6c5 14be 88fc 6cbd 8e46 e3bd
000002e0: c4e1 a03d 5fe7 ce3d 8510 fb3d b5f9 153d
000002f0: 05ef 143e c4a5 473d 6d8b 0ebe e24a da3b
00000300: fc28 a03d 9ce2 2fbd 8072 96bd 60eb 21be
00000310: 9a56 fa3c 95e2 7bbd 421d 123e 0b56 173e
00000320: 0d7c 5b3d 5bbd c8bd c03c 28be b347 2d3c
00000330: f209 473d 164e b6bd 2909 acbd 8061 16be
00000340: 986d 183e 99aa cc3d 1dcf 4ebd e1d0 d63c
00000350: 49a2 28be 1b03 913c a2bf 1ebd 957f 5b3c
00000360: 0144 113e b44d 1abd b58b 2b3e 3d86 083e
00000370: 7c39 043e 6599 12be 762d 0abd a4b5 073e
00000380: 42f2 8b3d 9176 783c 0467 34be f536 01be
00000390: 9bcf b23c 972f e4bd d8ef 60be 7106 61bc
000003a0: 3d6e f9bd d4f6 c1bd 7260 bbbd 4cf1 fc3c
000003b0: c351 1dbe efbe 8e3d afea f9bd 0c94 123e
000003c0: 088f 2cbd 18ca 11be 5f88 21bd 9fad 60bd
000003d0: 8c2c 3bbe 41bf cabd 16f3 34bd 4392 003e
000003e0: d3b7 53be 2045 07be 387d 40bd f81d 1d3e
000003f0: 2400 20be d92f 0a3e 7efd 293e d87a 46bd

conv_theta.weightnet.net.1.linear.bias f4 [32]
0.10429659 0.0018260536 0.1684812 -0.18157914 -0.14367169 0.011757922 0.15645415 0.0265721
-0.049320668 -0.17975788 -0.054146703 0.14611901 -0.039993785 -0.07345285 0.059369195 -0.064016834
-0.01570152 -0.049539644 -0.043017916 -0.017916415 0.13311157 0.006055695 -0.13173057 -0.13066842
-0.18395072 0.110332906 -0.03957366 -0.042030856 -0.07531445 0.048192784 0.028659552 -0.012011172
00000000: 7399 d53d 3158 ef3a 5686 2c3e e2ef 39be
00000010: ac1e 13be 4da4 403c 8435 203e bcad d93c
00000020: 7804 4abd 7312 38be efc8 5dbd 39a0 153e
00000030: 86d0 23bd 736e 96bd 1d2d 733d 421b 83bd
00000040: 79a0 80bc 15ea 4abd 8e33 30bd 72c5 92bc
00000050: 664e 083e da6e c63b 61e4 06be f1cd 05be
00000060: 945d 3cbe 38f6 e13d fd17 22bd 8c28 2cbd
00000070: 763e 9abd cc65 453d 70c7 ea3c 82ca 44bc

conv_theta.weightnet.net.1.bn.weight f4 [32]
1.0149125 0.9680187 0.9913509 1.0337572 0.99886096 0.9672561 1.0127379 1.0224794
1.0038826 1.0410255 1.0261236 0.9739833 1.0665936 1.0136039 0.98668855 1.0505117
0.9805421 0.9805511 0.99916595 0.98018885 1.009997 1.0042077 0.9993368 0.9773355
0.99059534 0.98521316 1.0359927 1.0154794 1.007482 1.0063468 1.0307977 1.0283986
00000000: a7e8 813f 13d0 773f 2cc9 7d3f 2852 843f
00000010: 5ab5 7f3f 199e 773f 65a1 813f 9be0 823f
00000020: 3a7f 803f 5340 853f 0558 833f f856 793f
00000030: 2486 883f c6bd 813f 9f97 7c3f 2b77 863f
00000040: cf04 7b3f 6605 7b3f 57c9 7f3f a8ed 7a3f
00000050: 9547 813f e189 803f 89d4 7f3f a932 7a3f
00000060: a897 7d3f ee36 7c3f 699b 843f 3bfb 813f
00000070: 2cf5 803f f9cf 803f 2ef1 833f 91a2 833f

conv_theta.weightnet.net.1.bn.bias f4 [32]
0.01687999 -0.04465443 -0.024290696 -0.02335382 0.0091141835 0.001580419 -0.018707732 -0.007176045
0.0022246684 0.037447367 0.021981237 -0.011960448 0.011821473 0.060929056 -0.019304505 0.062891915
0.008435004 -0.017105618 -0.02315105 0.03235408 -0.02634384 0.0038761795 -0.0066149626 -0.04257777
0.0075997724 0.032204628 0.027585471 0.017270349 -0.014973816 0.008390145 -0.005777259 0.037159298
00000000: e847 8a3c 90e7 36bd 48fd c6bc 8350 bfbc
00000010: a853 153c 1026 cf3a f540 99bc 0725 ebbb
00000020: becb 113b 6962 193d ff11 b43c c1f5 43bc
00000030: daae 413c bf90 793d 7b24 9ebc 7acd 803d
00000040: f932 0a3c 1521 8cbc 45a7 bdbc b685 043d
00000050: 09cf d7bc 8007 7e3b 54c2 d8bb 0766 2ebd
00000060: 8307 f93b 00e9 033d edfa e13c 8c7a 8d3c
00000070: bd54 75bc d276 093c 294f bdbb 5934 183d

conv_theta.weightnet.net.1.bn.running_mean f4 [32]
0.26321942 -0.17830256 0.15257879 -0.2202898 -0.20763162 0.005490412 0.18284248 -0.2760284
0.0005304566 -0.03216147 0.01155486 0.060728785 -0.21636313 0.1296553 -0.12563908 -0.35209468
0.2546863 0.033349857 0.01092794 0.103905305 0.1267866 -0.098425746 -0.20091853 -0.17955579
-0.24158482 0.14306442 0.073258206 0.039005365 -0.3263523 0.112010054 -0.118981704 -0.2545487
00000000: b2c4 863e f294 36be 9d3d 1c3e a693 61be
00000010: 629d 54be eae8 b33b 0f3b 3b3e 9853 8dbe
00000020: 570e 0b3a bfbb 03bd 9850 3d3c bfbe 783d
00000030: 4c8e 5dbe 5cc4 043e 88a7 00be c145 b4be
00000040: 3e66 823e dc99 083d 1a0b 333c 4ecc d43d
00000050: 59d4 013e 7093 c9bd 96bd 4dbe 79dd 37be
00000060: 0362 77be 7b7f 123e 6608 963d 17c4 1f3d
00000070: a617 a7be 8765 e53d aeac f3bd 3554 82be

conv_theta.weightnet.net.1.bn.running_var f4 [32]
0.23742326 0.28817037 0.040567696 0.06598744 0.061498657 0.2372601 0.08132771 0.34775728
0.119581394 0.043151855 0.091237865 0.042623296 0.01409552 0.045998633 0.054949358 0.050207537
0.13469937 0.3211295 0.0148524 0.119991094 0.13620125 0.23503731 0.13016428 0.068478055
0.043684173 0.16784212 0.0391017 0.05391035 0.07682103 0.22842728 0.023699496 0.047149785
00000000: 151f 733e 118b 933e 502a 263d 6c24 873d
00000010: 04e6 7b3d 50f4 723e 248f a63d 3e0d b23e
00000020: 17e7 f43d 00c0 303d ebda ba3d c495 2e3d
00000030: e5f0 663c 1069 3c3d 9412 613d 6ba6 4d3d
00000040: a2ee 093e 166b a43e 7b57 733c e4bd f53d
00000050: 5778 0b3e 9fad 703e c949 053e 393e 8c3d
00000060: 2dee 323d cede 2b3e 1b29 203d 19d1 5c3d
00000070: 5854 9d3d d7e8 693e 7225 c23c 2220 413d

conv_theta.weightnet.net.2.linear.weight f4 [16, 32]
0.04327657 0.12846938 0.09110709 -0.108428024 -0.057422254 0.0014292302 -0.05144557 -0.031237267
0.088852845 -0.086989135 0.12544206 0.091065444 0.023867533 -0.19304319 -0.108697146 0.0870871
-0.093070105 0.034914155 -0.1619763 -0.022547614 -0.12687546 -0.027976196 -0.005968607 -0.015616074
0.0022332303 0.13205847 0.07664429 -0.16379477 -0.11512533 0.010225558 0.06259103 0.22111218
-0.14435568 -0.1532157 0.07245233 -0.060286835 -0.028885001 0.13420379 -0.10050746 -0.17711373
0.025250165 0.010029877 -0.015355992 0.010790814 0.15339917 -0.13099489 0.036424097 -0.054074142
-0.10573558 -0.116470486 -0.117957704 0.0428221 -0.024453122 0.039793182 -0.056531765 -0.034124196
0.12165411 0.058412448 -0.18309954 0.12767161 0.08819173 0.022455243 -0.05843027 -0.023635967
-0.029617881 -0.16448608 0.13282882 -0.09984651 0.031806227 0.14516956 -0.071642764 0.04246915
-0.13564627 -0.027344456 -0.054366827 0.14576027 0.09875556 0.17793612 -0.044909716 0.020965107
-0.1579069 -0.0104850335 0.043770704 -0.046584062 0.01310536 0.06733918 0.15811706 0.004236863
-0.02467533 0.007947401 0.025892837 0.09100766 0.13038641 -0.14452653 0.18332046 -0.002955306
-0.051596876 -0.07687827 -0.13825153 -0.02417962 0.12214009 -0.030064747 0.04977881 0.09980353
0.036699586 -0.051473647 0.12757598 0.15386093 0.19265546 -0.14070813 0.11229813 0.051648762
0.08401055 -0.10820852 0.090750255 -0.15722913 0.122651875 0.09400198 0.12297758 -0.058400244
-0.09996506 -0.052261632 0.15832767 -0.0037811573 0.10761611 -0.033183698 -0.095427245 0.15351577
0.02994789 0.1803384 -0.13248183 -0.04755898 0.020993698 0.117947765 -0.008274867 -0.09827942
-0.10222752 0.0040933373 -0.1884051 0.021336485 0.15194483 -0.18031324 -0.10988133 0.16426706
0.13311964 -0.1057876 -0.044651367 -0.08593175 -0.012949651 0.055808272 -0.13941427 0.11163325
-0.035629194 -0.06394157 -0.054609187 -0.047088787 0.11647192 0.038813524 0.07096784 -0.08290366
0.011776166 -0.0564241 0.05376313 0.058264434 -0.092347816 -0.09835361 -0.018732795 0.110460415
0.065183446 -0.15248343 -0.150449 -0.18155867 -0.13420942 0.08029316 0.15029041 -0.06712227
0.047863025 0.12656611 0.0059643597 0.023680434 -0.113574184 0.02980644 -0.058949094 -0.11621955
0.06260619 -0.18822302 -0.047974695 -0.18791133 -0.16707702 -0.11876966 -0.013709777 0.08038844
-0.08184181 -0.118725315 -0.06538634 0.07535487 -0.09422319 0.090120494 -0.14032328 0.146783
0.06529178 -0.11510027 0.12535729 0.03446401 0.21277258 -0.012126366 0.067980036 0.07365833
-0.044365317 -0.120450936 0.023063838 0.079277605 0.007389319 -0.101071335 -0.012128327 0.023175476
0.037542593 -0.1534297 -0.034821417 -0.08387694 0.023666417 -0.116550475 -0.052493084 0.06266427
-0.15611365 0.1445953 -0.006707 0.16504204 0.13757311 -0.01720106 -0.109354764 -0.021228636
0.005376819 -0.060270082 0.13713886 -0.13004646 0.20259315 0.024263524 -0.015024805 0.0011285398
0.03490254 -0.16583924 0.03686941 -0.048214987 -0.12864617 -0.0066555496 0.1159542 -0.016145647
-0.020606544 0.035405755 -0.015168407 -0.03971586 0.008304616 -0.065184854 0.12590086 0.010534067
00000000: c642 313d 7a8d 033e 5b96 ba3d 830f debd
00000010: 9933 6bbd 0255 bb3a 97b8 52bd 4ce5 ffbc
00000020: 7bf8 b53d 5c27 b2bd e273 003e 8580 ba3d
00000030: d885 c33c 1dad 45be 9c9c debd b95a b23d
00000040: 8a9b bebd 2502 0f3d 1ddd 25be c6b5 b8bc
00000050: a4eb 01be 562e e5bc 4e94 c3bb 90da 7fbc
00000060: 635b 123b 563a 073e aef7 9c3d d1b9 27be
00000070: d4c6 ebbd 1989 273c ba2f 803d 3b6b 623e
00000080: fad1 13be 94e4 1cbe e361 943d 54ef 76bd
00000090: 3da0 ecbc b86c 093e dbd6 cdbd 4d5d 35be
000000a0: 6fd9 ce3c 5a54 243c b397 7bbc f4cb 303c
000000b0: ac14 1d3e 8623 06be 6f31 153d d97c 5dbd
000000c0: e58b d8bd 1488 eebd cf93 f1bd 3a66 2f3d
000000d0: ea51 c8bc 2dfe 223d da8d 67bd d0c5 0bbd
000000e0: ca25 f93d e441 6f3d 727e 3bbe 59bc 023e
000000f0: de9d b43d 0ff4 b73c 9454 6fbd 37a0 c1bc
00000100: 33a1 f2bc 0a6f 28be 4704 083e 547c ccbd
00000110: 3f47 023d 54a7 143e 71b9 92bd 22f4 2d3d
00000120: dbe6 0abe 7b01 e0bc c0af 5ebd 2e42 153e
00000130: 5b40 ca3d e334 363e 40f3 37bd 04bf ab3c
00000140: 59b2 21be 6bc9 2bbc e948 333d eece 3ebd
00000150: ddb7 563c 20e9 893d 70e9 213e 62d5 8a3b
00000160: eb23 cabc d135 023c 371d d43c 3962 ba3d
00000170: 0484 053e c3fe 13be 5cb8 3b3e cfad 41bb
00000180: 3f57 53bd 5b72 9dbd cf91 0dbe 5714 c6bc
00000190: 9524 fa3d 584a f6bc dee4 4b3d cb65 cc3d
000001a0: 4e52 163d 08d6 52bd 47a3 023e b88d 1d3e
000001b0: 7947 453e cb15 10be 90fc e53d a78d 533d
000001c0: b90d ac3d 6e9c ddbd 45db b93d ac00 21be
000001d0: e830 fb3d 1c84 c03d abdb fb3d 1835 6fbd
000001e0: 7bba ccbd 4b10 56bd a620 223e 4bcd 77bb
000001f0: d665 dc3d a1eb 07bd 5c6f c3bd 3d33 1d3e
00000200: 4755 f53c a1aa 383e 51a9 07be 34cd 42bd
00000210: fafa ab3c 998e f13d 4f93 07bc b846 c9bd
00000220: a95c d1bd 6721 863b 44ed 40be dac9 ae3c
00000230: 6d97 1b3e 09a4 38be 7609 e1bd a035 283e
00000240: 8450 083e 2ba7 d8bd 5ae4 36bd fcfc afbd
00000250: c62a 54bc 3797 643d 9dc2 0ebe f99f e43d
00000260: ebef 11bd ccf3 82bd e2ad 5fbd 2ce0 40bd
00000270: d488 ee3d eefa 1e3d 9657 913d 65c9 a9bd
00000280: d2f0 403c f51c 67bd ba36 5c3d b0a6 6e3d
00000290: da20 bdbd 9e6d c9bd 8575 99bc 1239 e23d
000002a0: e67e 853d 9e24 1cbe 4d0f 1abe 84ea 39be
000002b0: 326e 09be be70 a43d bbe5 193e 6777 89bd
000002c0: 050c 443d 8c9a 013e ad70 c33b 78fd c13c
000002d0: 9599 e8bd a32c f43c 9b74 71bd 8404 eebd
000002e0: ad37 803d 89bd 40be 1d81 44bd d46b 40be
000002f0: 3d16 2bbe 823d f3bd f99e 60bc b2a2 a43d
00000300: ae9c a7bd 4226 f3bd 46e9 85bd a753 9a3d
00000310: 16f8 c0bd 1891 b83d e8b0 0fbe 484e 163e
00000320: b2b7 853d b1b9 ebbd a95d 003e 222a 0d3d
00000330: 0ee1 593e aaad 46bc 1e39 8b3d 2eda 963d
00000340: 68b8 35bd fbae f6bd 60f0 bc3c 4c5c a23d
00000350: 1a22 f23b 7dfe cebd e4b5 46bc 7fda bd3c
00000360: 43c6 193d ad1c 1dbe e7a0 0ebd acc7 abbd
00000370: 13e0 c13c 04b2 eebd fd02 57bd 2056 803d
00000380: 42dc 1fbe ca10 143e 65c6 dbbb c800 293e
00000390: f7df 0c3e 3de9 8cbc 64f5 dfbd ade7 adbc
000003a0: 0730 b03b c3dd 76bd 216e 0c3e e62a 05be
000003b0: 9474 4f3e 4cc4 c63c 9a2a 76bc 83eb 933a
000003c0: f7f5 0e3d c3d1 29be 6104 173d 147d 45bd
000003d0: d2bb 03be cc16 dabb 6579 ed3d e043 84bc
000003e0: 0ecf a8bc a005 113d e984 78bc 19ad 22bd
000003f0: 1610 083c a37f 85bd 28ec 003e 1497 2c3c

conv_theta.weightnet.net.2.linear.bias f4 [16]
-0.06603119 -0.11863826 0.098515786 -0.17673598 0.012055053 -0.033461727 0.013855377 -0.14328283
0.0069823065 -0.08035672 0.050275262 0.074337415 0.14990924 0.045781232 -0.12922947 0.088976175
00000000: 5c3b 87bd 9ef8 f2bd a5c2 c93d 47fa 34be
00000010: 8f82 453c 2a0f 09bd aa01 633c bcb8 12be
00000020: d5cb e43b 1092 a4bd 6fed 4d3d 373e 983d
00000030: cf81 193e 1a85 3b3d bb54 04be 2439 b63d

conv_theta.weightnet.net.2.bn.weight f4 [16]
1.0615102 1.0598934 1.0753069 1.0603758 1.0574979 1.0594702 1.0679164 1.0689195
1.0537319 1.0392691 1.0456601 1.0580059 1.0422554 1.0132067 1.0361272 1.0375292
00000000: 91df 873f 96aa 873f a8a3 893f 65ba 873f
00000010: 175c 873f b89c 873f 7cb1 883f 5bd2 883f
00000020: b0e0 863f c506 853f 31d8 853f bd6c 873f
00000030: a068 853f c2b0 813f d19f 843f c2cd 843f

conv_theta.weightnet.net.2.bn.bias f4 [16]
0.05304094 0.064884156 0.06062837 0.05106673 0.059770145 0.06369745 0.065180026 0.04875635
0.05842271 0.042915598 0.051326834 0.06297862 0.044069134 0.015953664 0.028451338 0.043681882
00000000: 7541 593d fce1 843d 7455 783d 592b 513d
00000010: 8ad1 743d cf73 823d 1b7d 853d bdb4 473d
00000020: a74c 6f3d 44c8 2f3d 163c 523d effa 803d
00000030: d681 343d 42b1 823c c812 e93c c6eb 323d

conv_theta.weightnet.net.2.bn.running_mean f4 [16]
-0.08936168 -0.25072357 0.21319991 -0.0073023727 -0.060934436 -0.26652348 -0.018987812 -0.10188669
-0.095756784 -0.009687563 -0.030070571 0.022690302 0.26138642 -0.076383136 -0.24960397 -0.050548505
00000000: 4203 b7bd d75e 80be 1451 5a3e be48 efbb
00000010: 6396 79bd c475 88be 548c 9bbc f8a9 d0bd
00000020: 221c c4bd 96b8 1ebc 8f56 f6bc 03e1 b93c
00000030: 71d4 853e c36e 9cbd 2f98 7fbe f30b 4fbd

conv_theta.weightnet.net.2.bn.running_var f4 [16]
0.064281225 0.08148586 0.018810216 0.036204938 0.10363635 0.070656314 0.08207702 0.037794024
0.08111323 0.39632472 0.30806103 0.14589453 0.17141524 0.10916996 0.11645801 0.17229241
00000000: e0a5 833d 0fe2 a63d e217 9a3c a14b 143d
00000010: 4b3f d43d 42b4 903d ff17 a83d e8cd 1a3d
00000020: b11e a63d 13eb ca3e 2dba 9d3e 6065 153e
00000030: 7a87 2f3e 8094 df3d 8a81 ee3d 6c6d 303e

conv_theta.linear.weight f4 [128, 16]
-0.111151874 -0.09978961 -0.24679662 0.08134252 0.1455943 -0.036031622 -0.27591783 -0.0075855893
-0.17203294 -0.28412557 -0.2607562 -0.10600277 -0.15361059 -0.18799196 -0.3002488 -0.039043862
-0.16469972 0.0673648 -0.060091946 -0.08536348 0.22677922 -0.026737658 -0.10428448 -0.013745766
0.22967482 0.21824409 0.12823527 -0.049229547 0.19542077 -0.16496621 -0.04811809 -0.18205866
-0.14643201 -0.27564853 -0.17955132 -0.09842667 -0.27902412 -0.29205635 -0.20316786 -0.051348563
-0.14750417 0.061051663 0.19565308 -0.25948167 0.047798265 -0.24333327 -0.14294909 -0.09330137
0.17482024 -0.26281375 -0.15993844 -0.12188977 -0.28470126 -0.051115118 0.015426236 -0.10302287
0.14936353 0.14310713 0.09276531 -0.21290036 -0.28733614 -0.14263357 -0.034743465 -0.20300485
-0.048704103 -0.087774694 -0.14725745 -0.27535287 0.068870686 0.030593868 0.039587844 -0.14613935
-0.065703824 0.21608308 0.22511531 -0.1904681 0.22967896 -0.07374615 0.06101994 0.0036523791
0.16095576 0.05582394 -0.11476151 0.2235154 -0.07763385 -0.12549187 0.27473184 0.29708952
-0.015546044 -0.01319839 0.1187309 0.16399544 0.007109355 -0.15928446 -0.095233284 0.093731664
-0.12267501 0.054486066 -0.06667343 0.12088352 0.124734476 0.024368865 0.055880856 -0.1517965
-0.07810192 0.13854791 -0.18880303 -0.10188051 -0.227077 -0.1838417 0.06989554 0.03154659
0.10701004 -0.11710346 0.24552628 -0.010402638 -0.108567454 -0.08539443 0.19925325 0.07929564
-0.13959756 -0.14377691 -0.23798737 0.0008301956 -0.003197415 0.24269323 0.20027184 -0.2584821
0.06479586 -0.057240844 -0.09183184 -0.17177665 -0.21743745 0.07728225 -0.08363041 -0.2585216
0.16188174 0.232897 -0.23540029 0.1952404 -0.021002516 -0.03453615 -0.12498015 0.17283939
0.18244916 -0.25941512 -0.24326123 -0.19115719 -0.08409571 -0.13710554 0.121286586 -0.14079146
0.014569934 -0.02336385 0.07827917 0.17750233 0.068121076 -0.25785622 0.15364634 -0.058677156
0.19321194 0.052260652 0.14923283 -0.05270667 -0.20125632 -0.29756254 -0.17756687 -0.14488064
-0.28385422 -0.21574694 -0.04748889 -0.16207525 -0.286958 -0.20229496 0.08158745 -0.11813114
0.02209929 -0.22972094 -0.28930393 0.0037211361 -0.21431592 -0.2716805 -0.11964027 0.02071346
-0.14722359 -0.036780752 -0.0073952395 -0.003406123 -0.17371842 0.12945916 -0.057159774 -0.071954384
-0.20617385 0.11948259 0.06814478 0.039686296 0.11629831 0.1173661 0.23910037 0.025578372
-0.012667074 -0.22380991 -0.22475803 -0.091146104 -0.039181158 -0.11742229 0.10770862 0.1316414
-0.29874444 -0.026868325 -0.1026643 -0.15390192 -0.1137051 -0.28112558 0.049287666 -0.29690558
-0.2641709 0.118976764 -0.050266948 -0.06335933 -0.09789694 -0.16564706 0.050562274 0.019667644
0.14100231 0.0071063093 -0.2740823 0.019176967 -0.08389175 0.2697466 -0.00307903 -0.20389117
-0.012089012 -0.17943786 0.19744241 -0.16649066 -0.083723225 0.11806725 -0.05194449 -0.068374455
-0.008446571 0.11495328 0.10935215 0.16561276 -0.18258138 -0.18453725 -0.045646846 0.24106278
0.092809305 0.09701819 0.23251271 0.16426548 0.049442623 0.080624305 0.16882694 -0.21578677
00000000: 98a3 e3bd 7f5e ccbd 41b8 7cbe e896 a63d
00000010: ac16 153e e595 13bd 1a45 8dbe 8990 f8bb
00000020: 6729 30be e878 91be d681 85be fb17 d9bd
00000030: 184c 1dbe f780 40be 36ba 99be 75ec 1fbd
00000040: 0ba7 28be 8ef6 893d f922 76bd 0cd3 aebd
00000050: d038 683e ef08 dbbc 1a93 d5bd ec35 61bc
00000060: e02f 6b3e 617b 5f3e 1b50 033e eca4 49bd
00000070: 621c 483e e7ec 28be 7917 45bd 966d 3abe
00000080: 46f2 15be ce21 8dbe 4ddc 37be ec93 c9bd
00000090: 40dc 8ebe 6988 95be 3c0b 50be df52 52bd
000000a0: 550b 17be 4f11 7a3d 4859 483e c8da 84be
000000b0: 1dc8 433d 5b2c 79be 3f61 12be ca14 bfbd
000000c0: 1404 333e 868f 86be e7c6 23be 58a1 f9bd
000000d0: 5dc4 91be 165e 51bd 53be 7c3c a8fd d2bd
000000e0: c1f2 183e ad8a 123e bdfb bd3d 8d02 5abe
000000f0: b91d 93be 890e 12be 2a4f 0ebd 81e0 4fbe
00000100: f47d 47bd 38c3 b3bd a8ca 16be 0dfb 8cbe
00000110: 130c 8d3d fe9f fa3c dd26 223d 8ea5 15be
00000120: ba8f 86bd e244 5d3e a184 663e 120a 43be
00000130: f630 6b3e 3908 97bd 0bf0 793d c15c 6f3b
00000140: 96d1 243e a5a7 643d 1508 ebbd 39e1 643e
00000150: 7ffe 9ebd f180 00be a7a9 8c3e 1e1c 983e
00000160: d6b4 7ebc 0f3e 58bc 3029 f33d 6cee 273e
00000170: 98f5 e83b 771b 23be ab09 c3bd 63f6 bf3d
00000180: 093d fbbd c82c 5f3d 148c 88bd c791 f73d
00000190: ca74 ff3d 37a1 c73c 53e3 643d 8b70 1bbe
000001a0: e6f3 9fbd 81df 0d3e 9555 41be bba6 d0bd
000001b0: e086 68be 0041 3cbe 6525 8f3d ff36 013d
000001c0: 1428 db3d f0d3 efbd 3e6b 7b3e d46f 2abc
000001d0: 9d58 debd 46e3 aebd 0b09 4c3e c165 a23d
000001e0: aaf2 0ebe 413a 13be f6b2 73be 7ca1 593a
000001f0: b98b 51bb 9384 783e 1014 4d3e c457 84be
00000200: b1b3 843d 6075 6abd 5512 bcbd 38e6 2fbe
00000210: eca7 5ebe 2846 9e3d 6c46 abbd f15c 84be
00000220: 54c4 253e 8d7c 6e3e c60c 71be 19ed 473e
00000230: 780d acbc c775 0dbd 98f5 ffbd cffc 303e
00000240: f4d3 3a3e 0fd2 84be 7919 79be b6be 43be
00000250: 5f3a acbd 6565 0cbe 1a65 f83d a32b 10be
00000260: bcb6 6e3c 8b65 bfbc d450 a03d 2cc3 353e
00000270: 1083 8b3d bb05 84be 7755 1d3e 7557 70bd
00000280: 5ad9 453e 440f 563d 7ed0 183e f3e2 57bd
00000290: 2316 4ebe 1e5a 98be 17d4 35be 975b 14be
000002a0: 5755 91be c4ec 5cbe b683 42bd 0ef7 25be
000002b0: 29ec 92be 6926 4fbe 5217 a73d bdee f1bd
000002c0: 9209 b53c f73b 6bbe a51f 94be 4ede 733b
000002d0: a275 5bbe b519 8bbe f505 f5bd 46af a93c
000002e0: c8c1 16be 6aa7 16bd c453 f2bb 4339 5fbb
000002f0: 3ee3 31be f190 043e 5e20 6abd d25c 93bd
00000300: 3d1f 53be 4ab3 f43d 7e8f 8b3d 198e 223d
00000310: cf2d ee3d a35d f03d bad6 743e bc89 d13c
00000320: 8f89 4fbc 6d2e 65be f826 66be cfaa babd
00000330: 6c7c 20bd 197b f0bd 5696 dc3d 01cd 063e
00000340: 08f5 98be f61a dcbc a941 d2bd 7798 1dbe
00000350: 38de e8bd b1ef 8fbe dde1 493d 0204 98be
00000360: 6941 87be 17aa f33d b7e4 4dbd 89c2 81bd
00000370: 317e c8bd 629f 29be 631a 4f3d 0a1e a13c
00000380: e962 103e 0bdc e83b 8454 8cbe 0419 9d3c
00000390: 70cf abbd 3a1c 8a3e 8dc9 49bb d9c8 50be
000003a0: fe10 46bc 8fbe 37be 582e 4a3e 877c 2abe
000003b0: 1577 abbd 3ecd f13d bfc3 54bd e807 8cbd
000003c0: 7d63 0abc a06c eb3d 05f4 df3d 6496 293e
000003d0: 9df6 3abe 55f7 3cbe 30f8 3abd 29d9 763e
000003e0: ce12 be3d 79b1 c63d d017 6e3e 3635 283e
000003f0: 5984 4a3d 5b1e a53d f8e0 2c3e 35f7 5cbe

conv_theta.linear.bias f4 [128]
0.11173896 -0.22016606 0.051460613 0.2246271 -0.23492222 -0.064691305 0.32749885 -0.18965405
-0.04146566 0.040921036 -0.23286703 -0.17849684 0.1635752 0.07908283 0.11236584 0.20128088
-0.1069638 -0.02909548 -0.042344317 0.20505081 0.049707133 -0.047645178 0.060693964 -0.13519637
0.19901316 0.13461013 -0.15805462 -0.13377142 0.17233211 -0.098299615 0.12819129 -0.07403878
-0.12041051 -0.30281183 -0.11113187 0.10177421 0.073380746 0.18181388 -0.2884684 0.09016553
0.08484804 -0.052288428 -0.120174535 -0.035525475 0.15428667 -0.24577583 -0.045372944 0.09795015
0.17186058 -0.07990963 0.2713592 -0.16829854 -0.14957574 -0.12532705 -0.0039894963 -0.014050935
0.15059684 -0.30102596 -0.1504399 0.25041893 -0.021446288 -0.12484032 0.10202779 -0.25961366
-0.07756735 -0.08810884 -0.03240805 0.17217693 -0.04134457 0.017950788 0.04873433 0.16005547
0.025504082 -0.23550647 0.112950884 -0.06499412 0.06466546 0.29332337 -0.041434836 -0.11761604
0.1227443 0.08716589 -0.063360326 -0.016435023 0.18214294 0.07494453 -0.019867156 -0.076308586
-0.22995298 -0.14027388 0.17703384 0.23851757 -0.13961367 -0.19747145 0.07336882 -0.019205635
0.022022648 0.13708046 -0.012384125 -0.2657948 -0.16707344 0.16984434 0.23190132 0.19874358
0.052654188 -0.08738733 0.19202471 -0.027470902 -0.10677251 0.07563034 -0.12450978 0.26045433
0.031746954 0.025261639 -0.12965193 -0.064245515 -0.24236321 0.12159982 -0.27165782 0.041496046
-0.076904744 0.12568538 0.085557535 0.15244605 0.25743362 -0.16202994 0.18347715 -0.13670516
00000000: 65d7 e43d 3673 61be 5dc8 523d a604 663e
00000010: 738f 70be e07c 84bd eead a73e ac34 42be
00000020: e5d7 29bd d19c 273d b274 6ebe e0c7 36be
00000030: 4280 273e 2ef6 a13d 1020 e63d 931c 4e3e
00000040: d60f dbbd a559 eebc 3c71 2dbd d7f8 513e
00000050: b599 4b3d 9727 43bd 3c9a 783d eb70 0abe
00000060: 1bca 4b3e 3dd7 093e 12d9 21be 60fb 08be
00000070: d477 303e 4f51 c9bd 9444 033e a5a1 97bd
00000080: c999 f6bd 270a 9bbe 1b99 e3bd ff6e d03d
00000090: a548 963d 6b2d 3a3e 21b2 93be b5a8 b83d
000000a0: cfc4 ad3d 642c 56bd 111e f6bd 2983 11bd
000000b0: 53fd 1d3e a9ac 7bbe fbd8 39bd 179a c83d
000000c0: 38fc 2f3e a9a7 a3bd 98ef 8a3e 7456 2cbe
000000d0: 622a 19be bc55 00be 52ba 82bb e535 66bc
000000e0: 0f36 1a3e 1320 9abe eb0c 1abe e936 803e
000000f0: 20b0 afbc 48ac ffbd f2f3 d03d 15ec 84be
00000100: a1db 9ebd 6872 b4bd 4ebe 04bd 264f 303e
00000110: ed58 29bd 880d 933c a69d 473d 95e5 233e
00000120: f0ed d03c 9c28 71be cb52 e73d a31b 85bd
00000130: 536f 843d 7b2e 963e 93b7 29bd aee0 f0bd
00000140: 5d61 fb3d 0884 b23d 0fc3 81bd bea2 86bc
00000150: ae83 3a3e 857c 993d 72c0 a2bc ad47 9cbd
00000160: cb78 6bbe f5a3 0fbe 5c48 353e f33d 743e
00000170: e3f6 0ebe f535 4abe 6442 963d 2355 9dbc
00000180: d768 b43c d25e 0c3e c9e6 4abc 4216 88be
00000190: 4d15 2bbe adeb 2d3e 8a77 6d3e 7083 4b3e
000001a0: ebab 573d 21f8 b2bd 20a2 443e a80a e1bc
000001b0: 8cab dabd 14e4 9a3d fcfe febd 455a 853e
000001c0: 1809 023d 7ff1 ce3c 7ac3 04be 2793 83bd
000001d0: 102e 78be 5409 f93d bc16 8bbe c2f7 293d
000001e0: 3c80 9dbd abb3 003e ca38 af3d d11a 1c3e
000001f0: 57ce 833e 2deb 25be 6fe1 3b3e 70fc 0bbe

cnn.0.module.weight f4 [128, 256]
0.07471802 -0.09880088 -0.016489457 0.07201624 0.021096207 -0.06299495 0.075998396 0.007980474
-0.0513444 -0.014213163 -0.013739233 0.016024714 -0.06474755 0.013924932 0.055996455 -0.059145235
0.009216488 -0.022924792 -0.026265677 0.08426278 -0.06656276 -0.016159993 0.004265622 -0.032368515
-0.10142379 -0.048174676 -0.010878651 0.04484747 -0.054580342 -0.020736158 -0.0472561 -0.026062611
-0.028240748 0.010313411 -0.0073565543 -0.010733316 0.05365875 -0.0032154203 0.045907877 -0.06076384
0.031479213 0.002898119 0.02251255 0.05795736 -0.0478758 0.053816617 0.054056372 -0.02753402
0.04728943 0.039713692 -0.031827535 -0.019579923 0.042344242 -0.05030071 -0.03833028 0.06612633
0.03359668 -0.038513277 0.06882824 -0.01157232 -0.014314836 -0.03631025 0.04185242 -0.019445896
-0.034260843 0.016120061 0.029565323 -0.016886791 -0.06204321 -0.0073221372 -0.022232603 0.014864954
-0.026482347 0.037728697 0.051149607 -0.025731614 -0.012175236 0.043419793 -0.06843223 0.03217554
0.036310125 0.07743445 0.027549405 -0.035471186 -0.04485386 -0.0374486 -0.039865244 -0.042250577
-0.02493696 0.050562397 0.009932813 0.043999907 0.085925706 -0.06393445 0.0033243834 -0.03940004
0.04806234 -0.027333304 0.020290038 -0.022483677 -0.062685266 0.05005919 -0.032091387 -0.064771056
-0.0173078 -0.07544109 -0.04691537 0.047453675 0.027899606 -0.0145173995 0.012179939 -0.003399101
0.023854846 -0.024842393 -0.06021241 0.033568114 -0.042428125 -0.018467134 -0.045081396 0.040530175
-0.07697389 -0.09519827 -0.007120626 -0.022926642 -0.024470856 -0.013202826 0.016323362 -0.024658551
-0.09586386 -0.045720093 -0.043659505 -0.052639145 -0.12392537 0.09449212 -0.050192636 0.02434964
-0.13593529 -0.11514818 -0.051232968 -0.022686152 0.07298708 -0.12941852 -0.09884646 0.083465286
0.082498714 -0.054459333 -0.010835008 0.07006618 0.013557596 0.08011591 -0.032802887 -0.051677417
-0.08067981 -0.022205427 -0.013892603 -0.085260436 0.10464744 0.095051 0.10402041 -0.08160349
0.026116297 -0.10033225 -0.04982604 -0.027007317 0.124094315 0.04343255 -0.063973285 0.06156552
0.043739967 -0.002201699 0.035070166 -0.009052754 0.031248206 -0.027528357 -0.0013755971 0.07439287
0.053733516 0.053244915 0.09483114 -0.037805915 -0.108495824 0.031572293 -0.037523627 -0.0757276
-0.041775513 -0.030229496 -0.08379043 0.031401545 -0.009094247 0.12457396 0.0765518 -0.08530685
0.030232375 -0.06495106 0.07524587 0.07812542 0.04900366 -0.01580383 0.09571815 0.028639304
-0.08205273 0.07069683 0.08821656 0.07905513 0.04020868 0.08051132 0.024852773 0.101729654
-0.060468066 -0.11362379 -0.09914739 -0.017762918 0.013840721 0.14115724 -0.034013726 -0.017879028
-0.025605716 -0.06593677 0.064320974 0.052471574 -0.020592289 0.022491863 0.00021703735 0.14113437
-0.11226629 0.05597894 -0.053334627 0.008617447 0.060136344 -0.059371226 0.121983156 0.11482411
0.034197476 -0.089113064 0.039335724 -0.016839065 0.072893314 0.083110735 0.039037067 -0.09687951
0.10856234 0.050680943 0.07062263 -0.016260842 -0.04617709 0.09696043 -0.06567069 0.013850546
0.05341499 0.040227074 -0.03440108 -0.07957278 0.04358991 0.045870885 0.022794683 -0.15916842
00000000: c305 993d 1e58 cabd e614 87bc 407d 933d
00000010: f4d1 ac3c 7f03 81bd 0ca5 9b3d 89c0 023c
00000020: 814e 52bd 54de 68bc 851a 61bc 4346 833c
00000030: 5d9a 84bd 6625 643c 8a5c 653d 4642 72bd
00000040: c100 173c c6cc bbbc 1e2b d7bc f791 ac3d
00000050: 0e52 88bd f661 84bc a1c6 8b3b d994 04bd
00000060: 47b7 cfbd cf52 45bd 5f3c 32bc fbb1 373d
00000070: a38f 5fbd e0de a9bc 9d8f 41bd 4281 d5bc
00000080: 2459 e7bc 95f9 283c 400f f1bb cada 2fbc
00000090: 47c9 5b3d cdb9 52bb e609 3c3d 81e3 78bd
000000a0: 59f0 003d 5eee 3d3b 3d6c b83c b264 6d3d
000000b0: 6a19 44bd d06e 5c3d 376a 5d3d 068f e1bc
000000c0: 90b2 413d d3aa 223d 975d 02bd 1366 a0bc
000000d0: 2871 2d3d 1e08 4ebd 3600 1dbd 3e6d 873d
000000e0: ac9c 093d 19c0 1dbd d2f5 8c3d d499 3dbc
000000f0: c688 6abc 0fba 14bd 716d 2b3d 004d 9fbc
00000100: 1955 0cbd 380e 843c fa32 f23c 2b56 8abc
00000110: 0521 7ebd 8aee efbb 2621 b6bc 238c 733c
00000120: 82f1 d8bc 6889 1a3d 4082 513d 1bcb d2bc
00000130: a47a 47bc f4d8 313d 3226 8cbd 80ca 033d
00000140: edb9 143d f495 9e3d 4aaf e13c 3c4a 11bd
00000150: aeb8 37bd b463 19bd bd49 23bd f10e 2dbd
00000160: 9848 ccbc 841a 4f3d 3dbd 223c 3f39 343d
00000170: d1f9 af3d 11f0 82bd e6dd 593b f061 21bd
00000180: 04dd 443d 18ea dfbc 4b37 a63c b02f b8bc
00000190: 2261 80bd dd0a 4d3d 4272 03bd b0a6 84bd
000001a0: 16c9 8dbc dc80 9abd 552a 40bd c95e 423d
000001b0: b78d e43c 63da 6dbc 5e8e 473c 74c3 5ebb
000001c0: 3d6b c33c 4682 cbbc 4aa1 76bd b87e 093d
000001d0: 1dc9 2dbd 6348 97bc 45a7 38bd f802 263d
000001e0: 7da4 9dbd 50f7 c2bd 2454 e9bb a7d0 bbbc
000001f0: 1b77 c8bc aa50 58bc 92b8 853c bb00 cabc
00000200: 4554 c4bd fe44 3bbd 4fd4 32bd 259c 57bd
00000210: 96cc fdbd 1685 c13d cb96 4dbd e578 c73c
00000220: 9f32 0bbe cfd2 ebbd a9d9 51bd 4fd8 b9bc
00000230: 407a 953d 4a86 04be 0370 cabd d9ef aa3d
00000240: 16f5 a83d c010 5fbd 5185 31bc db7e 8f3d
00000250: ae20 5e3c cf13 a43d 525c 06bd b3ab 53bd
00000260: 753b a5bd 28e8 b5bc cd9d 63bc 069d aebd
00000270: 6651 d63d 19aa c23d a708 d53d bb1f a7bd
00000280: d8f1 d53c ff7a cdbd 6416 4cbd 733e ddbc
00000290: 2925 fe3d 54e6 313d 6d04 83bd 202c 7c3d
000002a0: ae28 333d 614a 10bb bca5 0f3d 0152 14bc
000002b0: 3dfc ff3c 2683 e1bc 614d b4ba 4a5b 983d
000002c0: ad17 5c3d 5717 5a3d d436 c23d 60da 1abd
000002d0: 0f33 debd f351 013d 60b2 19bd 1217 9bbd
000002e0: cd1c 2bbd d9a3 f7bc 519a abbd e89e 003d
000002f0: 0900 15bc a220 ff3d 31c7 9c3d 5cb5 aebd
00000300: e3a9 f73c 1005 85bd 821a 9a3d 3800 a03d
00000310: 10b8 483d 0977 81bc e107 c43d f99c ea3c
00000320: 430b a8bd 80c9 903d e2aa b43d a8e7 a13d
00000330: dbb1 243d 1ee3 a43d 0b98 cb3c a357 d03d
00000340: 5dad 77bd 97b3 e8bd c90d cbbd 8a83 91bc
00000350: 31c4 623c 868b 103e fa51 0bbd 0a77 92bc
00000360: 14c3 d1bc db09 87bd b7ba 833d 6fec 563d
00000370: 29b1 a8bc db40 b83c 8594 6339 8785 103e
00000380: deeb e5bd 2c4a 653d 6975 5abd 3130 0d3c
00000390: 8751 763d 3e2f 73bd 4ed2 f93d e728 eb3d
000003a0: a712 0c3d e980 b6bd 7f1e 213d 14f2 89bc
000003b0: 1749 953d f635 aa3d 55e5 1f3d c468 c6bd
000003c0: ef55 de3d d296 4f3d 99a2 903d 7535 85bc
000003d0: 3024 3dbd 3193 c63d 5b7e 86bd 67ed 623c
000003e0: adc9 5a3d 25c5 243d 26e8 0cbd 0ef7 a2bd
000003f0: 558b 323d 1ce3 3b3d eabb ba3c 0cfd 22be

cnn.0.module.bias f4 [128]
0.024251005 -0.111094 -0.056672923 -0.027511008 -0.060286596 0.06611673 0.08246469 0.07110249
0.07334476 0.036679167 0.08400375 -0.0069428524 0.016262544 -0.035946906 0.052743822 0.077082895
-0.02104097 0.10417936 0.018088637 0.06644658 0.0863808 0.022834184 -0.060117435 0.025320822
0.04203485 0.016784938 -0.03180461 0.029731402 -0.10019736 0.06371901 -0.08376686 -0.0026714508
-0.11712485 0.05430153 -0.049866438 0.08528654 0.035015445 0.042324763 0.072442055 0.046718214
0.037992533 0.08498616 -0.008762445 0.05027611 -0.034266155 -0.055566758 -0.028076375 0.053770524
0.07211132 0.08267561 -0.006301587 0.048561946 0.02123849 -0.08527728 -0.002164493 -0.024960842
-0.086947404 0.016787518 0.089408144 -0.047374677 -0.033764288 -0.06487981 0.09827403 0.032305382
0.059996348 0.0066627297 -0.0053270916 0.024437781 0.024974693 -0.03072712 -0.030688507 -0.08678017
0.026200837 0.045571756 -0.015868185 0.032943785 -0.09153153 -0.07234456 -0.022619173 -0.09647726
-0.06315017 0.049582876 -0.01961436 0.08055078 0.0024272255 0.05967179 -0.088155456 0.097672604
-0.03868903 -0.018535152 0.054819528 -0.0037640142 0.058388177 -0.0106581 -0.017113682 0.01962447
-0.053222816 -0.057960834 0.07245849 -0.011215941 0.03904313 -0.058462713 0.046439458 0.042550754
0.033788145 0.028969841 -0.0016150249 -0.11694741 -0.020008264 0.047283527 0.032349307 -0.021877162
-0.04058488 0.005083547 0.0464974 0.06269314 0.055146698 0.08869715 -0.096086085 -0.03765293
-0.08625988 0.033944264 -0.019801721 -0.03648363 0.07857325 -0.0010684707 -0.022616481 0.07035638
00000000: 0baa c63c 4085 e3bd de21 68bd c45e e1bc
00000010: 14ef 76bd 3568 873d 3fe3 a83d 2f9e 913d
00000020: c735 963d e53c 163d 280a ac3d de80 e3bb
00000030: 0739 853c 103d 13bd e809 583d a3dd 9d3d
00000040: 1d5e acbc fd5b d53d 9f2e 943c 2515 883d
00000050: 6be8 b03d c10e bb3c b33d 76bd 9d6d cf3c
00000060: bc2c 2c3d 9180 893c 8d45 02bd 458f f33c
00000070: 4634 cdbd 1d7f 823d f68d abbd 8213 2fbb
00000080: 27df efbd 486b 5e3d c040 4cbd b6aa ae3d
00000090: 5b6c 0f3d bb5c 2d3d 805c 943d 995b 3f3d
000000a0: 0f9e 1b3d 390d ae3d 5c90 0fbc 53ee 4d3d
000000b0: ab5a 0cbd f899 63bd 6d00 e6bc 7b3e 5c3d
000000c0: 1aaf 933d d551 a93d 8b7d cebb e4e8 463d
000000d0: 57fc ad3c dba5 aebd 2bda 0dbb ae7a ccbc
000000e0: 7b11 b2bd fa85 893c 9e1b b73d f30b 42bd
000000f0: 6c4c 0abd b5df 84bd e543 c93d a652 043d
00000100: bbbe 753d 0753 da3b e28e aebb be31 c83c
00000110: ba97 cc3c 71b7 fbbc 7766 fbbc cdb9 b1bd
00000120: 23a3 d63c 73a9 3a3d fffd 81bc 10f0 063d
00000130: e274 bbbd 6229 94bd d84b b9bc df95 c5bd
00000140: e054 81bd 6a17 4b3d 4bae a0bc cff7 a43d
00000150: 1612 1f3b 686a 743d d98a b4bd 9308 c83d
00000160: 6378 1ebd 08d7 97bc 718a 603d aead 76bb
00000170: 7128 6f3d 509f 2ebc fe31 8cbc 7fc3 a03c
00000180: 2b00 5abd 5768 6dbd 1e65 943d 11c3 37bc
00000190: b0eb 1f3d 9976 6fbd 4d37 3e3d b349 2e3d
000001a0: 7065 0a3d 2952 ed3c 3eaf d3ba 2082 efbd
000001b0: 5fe8 a3bc 5fac 413d b580 043d bc37 b3bc
000001c0: 553c 26bd e293 a63b 0f74 3e3d 4365 803d
000001d0: 81e1 613d daa6 b53d c8c8 c4bd f539 1abd
000001e0: 05a9 b0bd 2409 0b3d 3837 a2bc dc6f 15bd
000001f0: 03eb a03d ed0b 8cba 3346 b9bc 0117 903d

cnn.1.conv.0.depthwise.weightnet.net.0.linear.weight f4 [32, 2]
0.36350602 -0.38951588 0.48396277 -0.72921777 -0.15288246 -0.29222995 -0.09340222 0.025996448
-0.4221184 0.4642348 0.11950807 -0.0822057 0.5861529 -0.6269652 0.050442163 0.6984778
0.07299663 0.5866204 0.2666918 0.66122663 -0.21491784 0.12872064 0.44751632 -0.43774152
0.60676867 -0.36303574 -0.3368907 0.0017789772 0.7616955 0.7111622 -0.25258327 0.3746803
0.25194955 0.6257763 -0.38362822 -0.40598634 0.36366832 0.3160522 0.34699798 -0.23245075
-0.7146967 -0.45305958 -0.34906557 -0.09784339 0.21668299 0.19836119 -0.5335565 -0.059390012
0.100297734 -0.039165486 0.02290244 0.59522426 -0.17905965 -0.002587498 0.43389016 0.27469388
0.21540524 -0.2599715 0.42632708 0.6778487 0.006424343 0.48858064 -0.069277875 -0.5381587
00000000: 761d ba3e a06e c7be f8c9 f73e 04ae 3abf
00000010: 388d 1cbe 2a9f 95be aa49 bfbd 81f6 d43c
00000020: e71f d8be 2fb0 ed3e a6c0 f43d 765b a8bd
00000030: 1e0e 163f cb80 20bf 719c 4e3d 71cf 323f
00000040: 427f 953d c12c 163f d48b 883e 2646 293f
00000050: 6c13 5cbe 58cf 033e dc20 e53e a81f e0be
00000060: 3155 1b3f d2df b9be f07c acbe 922c e93a
00000070: 7afe 423f ba0e 363f 9852 81be 19d6 bf3e
00000080: 88ff 803e e032 203f eb6a c4be 71dd cfbe
00000090: bc32 ba3e 98d1 a13e b8a9 b13e 9207 6ebe
000000a0: 5df6 36bf 6df7 e7be b9b8 b2be 1e62 c8bd
000000b0: 25e2 5d3e 321f 4b3e 2997 08bf f142 73bd
000000c0: e668 cd3d fd6b 20bd e69d bb3c 9e60 183f
000000d0: 6a5b 37be 0393 29bb da26 de3e ada4 8c3e
000000e0: 3193 5c3e fc1a 85be 8b47 da3e 7e87 2d3f
000000f0: 4c83 d23b 3e27 fa3e 8fe1 8dbd c5c4 09bf

cnn.1.conv.0.depthwise.weightnet.net.0.linear.bias f4 [32]
0.6470185 0.2759578 0.56894886 -0.31653744 -0.48043633 -0.27066004 -0.22849853 0.6532276
0.18111075 0.68060774 0.4550553 0.2522614 0.7660996 -0.22977494 0.2769295 -0.53766
0.594128 0.11576112 0.13121411 0.5577601 -0.6786303 0.11656045 0.5035425 0.49689505
0.107751355 0.20431334 -0.7517858 -0.21798971 0.75812364 0.19792467 -0.21268792 0.23507686
00000000: 01a3 253f 574a 8d3e a2a6 113f 3211 a2be
00000010: c0fb f5be f493 8abe 85fb 69be ed39 273f
00000020: 1975 393e 4f3c 2e3f 02fd e83e 6828 813e
00000030: 1a1f 443f 1f4a 6bbe b4c9 8d3e 16a4 09bf
00000040: c618 183f 2b14 ed3d fe5c 063e 5ec9 0e3f
00000050: b7ba 2dbf 3fb7 ee3d 29e8 003f 0769 fe3e
00000060: beac dc3d 8437 513e 0975 40bf b238 5fbe
00000070: 6414 423f c4ac 4a3e ddca 59be fdb7 703e
