weights/2dreg/SE2.pth (torch_old, 878133 bytes, 88 tensors)

conv_theta.weightnet.net.0.linear.weight f4 [32, 3]
000000 bc e5 3f 3e 1f 28 c8 3d f5 b0 7a be e0 c5 dc 3d
       0.1873998 0.097732775 -0.24481566 0.10779929
000010 24 08 93 be c9 bf 91 be 99 7f 81 be d1 82 e2 be
       -0.28717148 -0.28466633 -0.25292662 -0.4424043
000020 5b bf 73 be 60 11 d7 3e b3 3e bb be 2d 8e f1 3e
       -0.23803465 0.42005444 -0.36571273 0.47178784
000030 7e f3 a9 3e fa dd 0c 3f c8 83 51 3e 20 5c 7d 3d
       0.33193582 0.5502621 0.20460427 0.061855435
000040 2d 52 f7 bb cd 00 61 be 50 3b 74 be 71 80 86 3e
       -0.007547638 -0.21972962 -0.23850751 0.26269868
000050 8a e9 fe be 80 e6 be 3e 7b 19 e4 3c 65 87 67 be
       -0.4978755 0.37285233 0.027844181 -0.22610243
000060 54 56 c1 bd e8 52 69 be 37 50 df be 20 5f e6 3e
       -0.09440294 -0.22785532 -0.43615887 0.4499445
000070 10 33 0b 3f fe a2 d4 3e c0 8b 52 bd 95 eb 00 be
       0.5437479 0.41530603 -0.051402807 -0.12589867
000080 e2 79 30 be ec 13 e0 3e d2 17 ae 3e 4d 31 ae 3e
       -0.17233995 0.437652 0.34002548 0.3402199
000090 b0 fc 2d 3d d4 01 bb bd e8 67 2b be 54 38 df 3e
       0.04247731 -0.09131208 -0.16738856 0.43597662
0000a0 21 18 cc 3e 36 bc de be a4 2e 00 bf 5d 52 70 be
       0.3986216 -0.4350297 -0.5007117 -0.23468919
0000b0 76 a9 59 3d c7 6d 8d be c9 2b 08 bf 34 9b eb be
       0.053140126 -0.27622816 -0.5319181 -0.46016848
0000c0 b8 a6 72 3e 3e ab 12 3e e5 4b 10 bf af 6a 00 bf
       0.2369641 0.14323136 -0.56365806 -0.50162786
0000d0 78 59 9b be 99 f2 d3 3e 30 22 8d 3d cc dd d1 3e
       -0.30341697 0.41396025 0.068912864 0.4098953
0000e0 e9 38 db 3e 2f 7a e6 be 17 b6 8b 3e 75 da b9 3c
       0.42816857 -0.45015094 0.2728736 0.022687176
0000f0 be 44 03 3f ff de 84 be 7e d5 5c 3e 37 eb a1 be
       0.5127677 -0.25951383 0.21565816 -0.31624767
000100 31 22 e8 bd d0 e4 00 be 62 cc 97 3e 3d 32 ea 3e
       -0.113346465 -0.12587285 0.2964812 0.45741454
000110 16 1e 08 bd f8 53 ae 3e 60 bd 15 3e 24 01 a1 bb
       -0.033231817 0.34048438 0.14623022 -0.004913466
000120 60 d4 89 bc 08 3d 7e 3e 71 15 04 bf 24 3b 34 be
       -0.016824901 0.24827969 -0.51595217 -0.17600685
000130 40 c4 00 bd 8a 95 6c 3e 24 ca f0 3e ad c2 15 3f
       -0.03143716 0.2310392 0.4702922 0.58500177
000140 26 36 11 3f 6c f4 da be 60 9a 1f 3c e4 44 75 be
       0.5672325 -0.42764604 0.009741396 -0.23952061
000150 c0 12 44 3c 29 52 8e be cc 37 88 3e 02 be 05 be
       0.011967361 -0.27797058 0.2660507 -0.13060763
000160 b5 29 63 be 3a 61 6b 3d 28 03 a5 3e 6b 37 46 be
       -0.22183879 0.05746577 0.3222897 -0.19357078
000170 94 13 08 be 1c d8 a2 3e 89 e6 da 3e 62 57 50 be
       -0.13288718 0.31805503 0.4275401 -0.20345834

conv_theta.weightnet.net.0.linear.bias f4 [32]
000000 cd 0a 13 3d fa b0 da 3e 64 19 1b 3e c5 83 b0 3e
       0.035898972 0.42713147 0.15146405 0.34475532
000010 7c 1a a4 3c 02 a8 78 bd 67 25 d9 be 0f 00 0f bf
       0.02003216 -0.0607071 -0.42411348 -0.55859464
000020 fe a3 ce bd 4e 61 d0 3e 53 92 09 3f f1 b4 0d bf
       -0.10089873 0.40699238 0.537389 -0.5535422
000030 02 75 bd 3e a9 6b c6 bd 67 86 0b 3e 98 15 ad 3c
       0.37003332 -0.09688503 0.13625489 0.02112846
000040 79 55 f7 3e a6 bb 49 bd 48 15 b8 3e f9 82 09 bc
       0.48307398 -0.04925122 0.35953736 -0.008393043
000050 42 32 11 be 3b 34 80 be 3b 43 5f 3e 98 9d d3 3e
       -0.14179328 -0.2503985 0.2180299 0.41331172
000060 a9 69 4f 3e 12 85 96 bd 71 19 0d bf 16 b7 fb 3d
       0.2025515 -0.073496 -0.55116946 0.1229078
000070 bc 84 05 3f aa 3d 71 be cc d6 8e bd 15 d0 b8 bd
       0.5215566 -0.23558679 -0.06974563 -0.090240635

conv_theta.weightnet.net.0.bn.weight f4 [32]
000000 e6 5e 7b 3f ff 65 76 3f 0a 77 78 3f 67 e5 83 3f
       0.9819168 0.96249384 0.9705664 1.0304383
000010 13 e1 76 3f 27 22 7f 3f 0b 9b 81 3f b0 f0 83 3f
       0.96437186 0.9966149 1.012544 1.0307827
000020 51 bf 7c 3f d6 71 82 3f 97 17 71 3f 26 b9 84 3f
       0.98729426 1.019099 0.9417662 1.0369003
000030 a9 72 82 3f 65 9b 85 3f 55 35 84 3f 21 81 85 3f
       1.0191242 1.0438048 1.0328776 1.0430032
000040 9b 9d 79 3f ec b1 80 3f cb 3e 7a 3f ef 36 7f 3f
       0.9750611 1.0054297 0.97752064 0.99693197
000050 bf 8b 7a 3f cc d0 80 3f 3a 6b 84 3f 8e d0 81 3f
       0.97869486 1.006372 1.0345223 1.0141771
000060 45 1b 7e 3f 3c c5 81 3f 46 eb 7f 3f ef 78 80 3f
       0.9926036 1.0138316 0.99968374 1.0036906
000070 82 8a 86 3f 09 20 7b 3f 07 60 7b 3f ec e0 76 3f
       1.0511019 0.98095757 0.981934 0.96436954

conv_theta.weightnet.net.0.bn.bias f4 [32]
000000 c0 dd 37 bd 9b 75 f1 bc de ed 7d 3c 87 d4 0f 3c
       -0.04488921 -0.029475024 0.0154986065 0.008778698
000010 54 90 13 bc 67 7d 76 bc 93 fb 0b b9 75 a5 ad 3c
       -0.0090065785 -0.015044547 -0.00013349792 0.02119706
000020 84 83 33 3d 0a 46 a2 3c 43 8d 1f bc 63 3d 92 3c
       0.043826595 0.019808788 -0.009738269 0.017851537
000030 a3 6b ae 3c 87 85 3a bc c5 96 44 3c 84 6e 0c 3d
       0.02129156 -0.011384374 0.011998837 0.034285083
000040 8e e5 16 bc 2f 92 28 3d 55 2d e1 bc 04 68 11 bd
       -0.009210004 0.041155037 -0.027487436 -0.035499588
000050 4f 88 ad bc ca 6a 9f b9 61 ab 66 3c 0f f8 01 bd
       -0.021183161 -0.00030406407 0.014078946 -0.031730708
000060 74 06 6b bc 42 7d 24 3c 4f e9 87 bc 5a e5 01 3d
       -0.0143448 0.010039629 -0.016590742 0.031712867
000070 80 d5 47 3d 19 9e c2 3b 7a d7 ed bc 06 e8 2f 3c
       0.048787594 0.005939257 -0.029033411 0.010736471

conv_theta.weightnet.net.0.bn.running_mean f4 [32]
000000 a6 21 14 3d 74 a4 da 3e 75 b6 1a 3e 1b 1e b0 3e
       0.036164902 0.42703593 0.15108664 0.3439797
000010 99 a2 a8 3c 52 11 78 bd 1c d3 d8 be ff f7 0e bf
       0.020585345 -0.060563393 -0.42348564 -0.5584716
000020 65 a0 ce bd 54 98 d0 3e 94 8f 09 3f 93 a8 0d bf
       -0.100891866 0.40741217 0.5373471 -0.5533535
000030 e8 76 bd 3e 46 c9 c4 bd b6 32 0b 3e 7f b4 aa 3c
       0.3700478 -0.09608702 0.13593563 0.02083802
000040 d0 99 f7 3e c5 5d 4c bd 54 2d b8 3e b5 ae 04 bc
       0.48359537 -0.049894113 0.35972083 -0.008098294
000050 fd ab 11 be 02 3d 80 be c0 d2 5f 3e a0 b5 d3 3e
       -0.14225765 -0.25046545 0.21857738 0.41349506
000060 ce 14 50 3e ac f2 96 bd 7a 00 0d bf 1d 12 fc 3d
       0.20320436 -0.07370505 -0.5507885 0.12308142
000070 c1 6a 05 3f 5f 8f 71 be f3 2a 8f bd 78 74 b7 bd
       0.5211602 -0.23589848 -0.06990614 -0.089577615

conv_theta.weightnet.net.0.bn.running_var f4 [32]
000000 28 04 2a 40 92 1b c8 40 ab 78 1a 41 7c ff 59 41
       2.6565037 6.2533655 9.65446 13.624874
000010 c8 ef 52 41 18 8b ec 3f 90 d9 41 41 26 ff fd 3f
       13.18354 1.8479948 12.115616 1.984349
000020 69 28 14 41 30 3f 8f 41 24 fd de 3f 2a 95 0d 41
       9.259866 17.905853 1.7421002 8.848917
000030 4f f4 b1 3f 2b 00 55 41 0f b7 0d 40 d7 5d 97 41
       1.3902682 13.312541 2.214298 18.92082
000040 0c e7 4e 41 cd 29 21 41 ae ff 56 41 1f 88 37 40
       12.931408 10.072705 13.437422 2.8676832
000050 c6 52 8b 40 36 74 8c 3f 59 b8 00 41 44 a9 51 3f
       4.353854 1.0972965 8.045007 0.81898904
000060 12 8e 48 41 31 07 05 40 ce 28 cb 41 94 9f 0c 40
       12.534685 2.078564 25.394924 2.1972399
000070 f2 29 b5 40 ad 8b 00 40 43 f4 06 40 3e 2b 09 41
       5.6613703 2.0085251 2.1086586 8.573057

conv_theta.weightnet.net.1.linear.weight f4 [32, 32]
000000 8f 3a 28 be bc ad 08 be 3a 4c 52 3a 76 85 ee 3d
       -0.16428588 -0.13347524 0.0008022223 0.116465494
000010 45 f0 a9 3c 3d 08 96 bc f7 85 97 3d 82 9f 20 be
       0.020744452 -0.018314475 0.07398599 -0.15685847
000020 68 4f ca bd be d2 21 be dc 17 97 bd 7f 24 16 be
       -0.09878427 -0.15803048 -0.07377598 -0.1466236
000030 ee 5b fa bd d5 08 74 bd e8 51 11 be 4f 79 8c 3d
       -0.122245654 -0.059578735 -0.14191401 0.06859075
000040 c4 61 af 3d 53 ce 33 be ba 30 fa bd b4 d2 bf bc
       0.08563569 -0.17559175 -0.12216325 -0.0234159
000050 6d f6 9d 3d be fb 1a be 30 56 26 3d af e9 7d bd
       0.077130176 -0.15135095 0.04060954 -0.061990436
000060 e3 1c a7 bb 21 11 5e be 00 a9 26 3e 04 da c2 bb
       -0.005099879 -0.21686222 0.16275406 -0.0059463996
000070 bc 5e 7d bd ff 27 19 3c b9 43 12 3e 06 94 bb 3d
       -0.061857924 0.009347915 0.14283647 0.091590926
000080 17 c2 12 be ce 95 ee 3d 68 69 0d 3e 40 2b cf bd
       -0.14331852 0.11649667 0.1380974 -0.10115671
000090 c8 22 2e 3d d6 51 91 3d fa 0c 08 3c e4 83 86 bb
       0.04251364 0.07095687 0.008303875 -0.004105078
0000a0 85 d4 a5 3d 9b 10 0d 3c f8 42 66 bd 64 22 a1 3d
       0.080971755 0.008609916 -0.05621621 0.078678876
0000b0 78 03 ed bd be 9b 5a bd e9 a8 15 be e7 ae ef bd
       -0.11572927 -0.053371184 -0.14615215 -0.11703282
0000c0 8d d8 1c 3e 8c 58 b2 bd f6 50 8b 3d 9d d4 b6 3c
       0.15316983 -0.08708295 0.068025514 0.022318179
0000d0 91 69 31 bd 53 4e e9 bd cb 3a f3 3d d1 3b ae 3c
       -0.043313567 -0.11391892 0.11876448 0.021268757
0000e0 25 66 ac bb 30 76 bd bc 04 dd be bd e8 df 31 3c
       -0.0052612 -0.023127645 -0.09319499 0.010856606
0000f0 ba 1b 19 bd 0c 71 cd 3c 1f 87 f6 3c 44 54 99 3d
       -0.037379958 0.025078319 0.030093728 0.074867755
000100 20 e1 d3 3c e5 4a 18 bd fa 65 52 3e cc 85 0a 3c
       0.025864184 -0.0371808 0.20546713 0.008454751
000110 b5 83 e5 3d 36 27 fa 3d 07 b6 b3 bc 28 c7 0e bd
       0.11206762 0.1221451 -0.021937383 -0.0348579
000120 d3 a8 45 bd 9d 45 c6 bd 74 d8 0f be 63 8f 42 3d
       -0.048256706 -0.096812464 -0.14047414 0.047500025
000130 fa 64 4c 3e 95 83 93 bd 44 38 b4 3d 65 f6 c5 3d
       0.19960395 -0.07202832 0.08799794 0.09666137
000140 c8 11 0c be 60 5b 1b 3e 3b 5b 39 be e9 14 71 bd
       -0.13678658 0.15171576 -0.18101208 -0.058857832
000150 23 d8 c5 3d 21 38 e3 bd 07 1d cc bc 82 c0 19 bc
       0.096603654 -0.1109469 -0.024916185 -0.009384276
000160 81 43 17 3d 2f b4 43 bc e9 45 a2 3c 0f 6c 14 be
       0.03692961 -0.011944815 0.019808726 -0.14494346
000170 d8 8c 31 bd ec 9a 17 3e 92 78 37 3e 85 15 07 3e
       -0.04334721 0.14805192 0.17917088 0.13191803
000180 09 a4 14 bd 7c 23 82 3d e9 44 70 bd 1f 81 08 be
       -0.03628925 0.06354424 -0.058659468 -0.13330506
000190 54 73 bc bd af c7 60 3b 01 9d c1 bc f2 6e f4 3d
       -0.092016846 0.0034298708 -0.023634436 0.11935224
0001a0 30 19 cb 3d c4 65 cd 3d f4 9e 14 be ba d0 78 3d
       0.099169135 0.10029176 -0.14513761 0.060745932
0001b0 05 e8 56 be f7 96 1e 3c 23 b8 ca bb 22 b5 60 be
       -0.20986946 0.0096795475 -0.0061865016 -0.21944097
0001c0 06 63 42 bc 11 3f 86 bd 04 d6 14 3d 00 60 a0 bc
       -0.011864429 -0.06554998 0.036336914 -0.019577026
0001d0 56 00 a3 3d b9 3d 82 bd e7 b7 9e bd d9 7e 56 bd
       0.079590484 -0.06359429 -0.0774992 -0.052367065
0001e0 ce 2f a7 bd 2a 87 8f 3d 7f 0f 29 bd 53 5d 0e 3e
       -0.08163415 0.070082024 -0.041274544 0.13902788
0001f0 a1 3e 99 3c cc 59 27 be 96 26 31 be a7 06 03 3e
       0.018706622 -0.16342849 -0.17299876 0.12795506
000200 63 35 18 3e 5c de 19 3e 8b c4 ef bd 07 23 bd 3d
       0.14864115 0.1502623 -0.117074095 0.092351966
000210 7b 86 16 be 4a eb 08 3e 00 3e d6 3c 5f 56 fc bd
       -0.14699738 0.13371006 0.02615261 -0.123211615
000220 b7 16 67 3a 02 56 dc 3d 10 5a 97 3d fa 52 10 3e
       0.00088153355 0.10758592 0.07390225 0.14094153
000230 0a 93 cc bd ea d5 4b bd 81 5e d2 3c 54 a0 18 be
       -0.09988983 -0.04976455 0.025679829 -0.1490491
000240 03 3e be bd c8 57 de bd f8 82 dc 3d be 68 43 bd
       -0.092891715 -0.10856587 0.10767168 -0.04770731
000250 35 68 80 3c ce 4d 18 3d a8 0b a8 bd de c6 44 bc
       0.01567469 0.037183575 -0.08205348 -0.012010304
000260 6b 35 03 3e 37 72 53 3e e7 85 51 3b 91 04 06 be
       0.12813346 0.20649038 0.003197068 -0.1308768
000270 41 dd 10 3c 60 a8 32 3e da 4b 13 be 63 0c ad bd
       0.008841814 0.17447042 -0.14384404 -0.08449628
000280 51 86 e1 bb e3 31 b2 bc 73 db 82 3d 04 10 08 3e
       -0.006882467 -0.021752303 0.06389513 0.1328736
000290 9b e6 bd 3c b8 99 c5 3d 31 b4 34 be c9 86 35 3d
       0.02318125 0.0964846 -0.17646863 0.044317994
0002a0 04 47 ab ba b4 32 9c bd 75 6a 30 be e2 8e d8 bd
       -0.0013067429 -0.07626858 -0.1722811 -0.10574128
0002b0 af 06 11 3e 3f 75 57 bd 11 81 70 bd 06 74 94 bd
       0.14162706 -0.05260205 -0.058716837 -0.07248692
0002c0 df a7 c8 bd 7a b7 c1 3d 99 b5 95 bd 6a 52 1a 3e
       -0.09797644 0.094588235 -0.07310028 0.15070501
0002d0 84 18 00 be 09 4e ec bc 6d 8f 6b 3d 89 6d 8d bd
       -0.12509352 -0.028845804 0.05750983 -0.06905658
0002e0 cc 70 ee 3d 7b 14 e4 3d 5a a5 85 3d 55 2a d1 bd
       0.11642608 0.11136719 0.06525679 -0.10213152
0002f0 a1 7d d7 3d e3 62 d9 3d fe 9a 0c 3e 76 0d 9e bd
       0.10522009 0.10614564 0.13731 -0.07717411
000300 65 b5 e5 bc d6 6d 18 3e b2 e3 3e be 9e 81 3e 3e
       -0.028040597 0.14885649 -0.18641546 0.18604133
000310 51 f0 22 be 41 e5 ad 3d 18 4c e5 bd 45 1d cf bc
       -0.15911986 0.08490992 -0.11196154 -0.025282511
000320 c8 a9 da 3c 99 62 ef 3c 5c 66 23 be 3b be 18 be
       0.026692286 0.02922182 -0.15957016 -0.14916317
000330 0f c1 ab 3c 66 d6 03 3e 40 6b f2 3d 33 be b8 bd
       0.020966081 0.12874755 0.118368626 -0.090206526
000340 14 b9 08 3e a4 1c e9 3d 45 81 09 be 5b fe cb 3c
       0.13351852 0.11382416 -0.13428219 0.02490156
000350 57 0a b2 bc c2 ce 22 bd 72 7d bb 3d ef b0 b4 3d
       -0.021733446 -0.03974796 0.09154786 0.0882281
000360 bf 0a 27 3e 93 05 a7 bd 5f 46 a8 bd 1d 58 b8 bd
       0.16312693 -0.0815536 -0.08216547 -0.09001181
000370 b0 f1 44 3e 49 45 12 3e 9c 20 f4 bd e9 9c 0c 3e
       0.19232821 0.14284243 -0.11920282 0.13731731
000380 2d db 09 3e 30 dc 38 be d7 09 8d bd d2 f0 c0 bc
       0.13462515 -0.18052745 -0.068866424 -0.023552332
000390 7c 2e 21 be 6a 66 11 be 10 c6 24 3b 26 ad ba 3d
       -0.15740389 -0.14199224 0.0025142469 0.09115057
0003a0 c9 ff 61 3d 82 6e 33 be 54 9f a4 3d f3 8b f4 bd
       0.055175576 -0.17522624 0.08038202 -0.11940756
0003b0 52 bb dc bc 0f 85 47 be 3f 9a 83 bd 38 1d 1c be
       -0.02694479 -0.19484352 -0.064259045 -0.15245521
0003c0 e9 5d b1 bd 73 19 0d 3e ca e4 e7 bd 6e ce e1 3d
       -0.0866049 0.1377924 -0.11322935 0.110257015
0003d0 b6 2d d8 bd 0b fe 90 bd 86 af 9d 3d 23 ed 95 3d
       -0.10555594 -0.07079705 0.07699494 0.07320621
0003e0 25 64 c3 bc 07 ab 4a 3d f1 19 bd bd 52 2e 24 3d
       -0.023851464 0.04947951 -0.092334636 0.040083237
0003f0 c8 ab 3b bd df 99 a5 bd 9f 3c 63 3d ce 59 38 be
       -0.04581812 -0.08085989 0.055477735 -0.18003008

conv_theta.weightnet.net.1.linear.bias f4 [32]
000000 af 91 0e be 19 aa b7 3d 35 b5 20 be d7 6b ce 3d
       -0.13922761 0.089679904 -0.15694125 0.100791626
000010 50 e8 30 3d 78 1b 31 be a0 41 37 be 0b 6c 35 be
       0.0431903 -0.17295635 -0.17896128 -0.17716996
000020 64 62 10 3d 06 9d 2e bd 27 19 0d be 85 58 0e 3e
       0.035250083 -0.042630218 -0.13779126 0.13900955
000030 db d6 51 bd 44 18 7b 3b ee f8 bc 3c 6e 34 23 3d
       -0.051230293 0.0038314024 0.023067918 0.039844923
000040 d0 fc 69 3d 07 25 a2 bd b6 ac 27 bd ce e2 e7 bd
       0.057125866 -0.07917219 -0.040936194 -0.113225564
000050 64 90 5d bc fd 2a 3e 3e 94 6f ee 3d 6f 6d 6d 3d
       -0.013523195 0.18571086 0.116423756 0.057965692
000060 56 47 a4 bd ba cf cd 3c b6 c2 de bd 7a a7 25 be
       -0.08021419 0.025123466 -0.10876982 -0.16177168
000070 a4 47 7c 3d f6 54 56 3d 43 27 95 3d 3a c2 65 3d
       0.06159176 0.05232712 0.07282879 0.056093432

conv_theta.weightnet.net.1.bn.weight f4 [32]
000000 68 b5 86 3f 3b af 7d 3f 85 91 7a 3f 70 94 7f 3f
       1.0524111 0.99095505 0.97878295 0.9983587
000010 0f 4a 85 3f b3 c1 7d 3f c5 e3 82 3f ea ad 7d 3f
       1.0413226 0.99123687 1.022576 0.99093497
000020 4d 2a 7b 3f f2 ed 81 3f 2a 33 76 3f cc ff 7c 3f
       0.9811142 1.015074 0.9617182 0.98827815
000030 d1 0f 90 3f 09 ee 7c 3f 8c ff 7b 3f 35 bc 80 3f
       1.1254827 0.9880071 0.9843681 1.0057436
000040 21 19 82 3f 70 dc 8a 3f 53 7a 80 3f d9 ea 82 3f
       1.0163919 1.0848522 1.003733 1.022792
000050 13 68 78 3f 84 d7 76 3f 82 e7 77 3f 34 a1 80 3f
       0.97033805 0.964226 0.9683763 1.0049195
000060 57 ea 87 3f 28 eb 7c 3f 89 23 77 3f 61 21 79 3f
       1.061839 0.9879632 0.965386 0.9731656
000070 d3 24 79 3f 01 94 7f 3f 2f 7b 79 3f 26 81 7d 3f
       0.97321814 0.9983521 0.9745359 0.9902519

conv_theta.weightnet.net.1.bn.bias f4 [32]
000000 b1 73 9c 3b 1e 0b 3b bc be 21 aa bc e4 43 68 bc
       0.0047745337 -0.011416225 -0.020768043 -0.014176343
000010 ea b4 9d 3c 81 e1 20 3d 89 dd 8c 3c cf ea a6 bc
       0.019251306 0.039277557 0.01719548 -0.020375637
000020 89 6e 07 bd ee 98 17 3d 39 86 4d 3c f5 d1 22 3d
       -0.0330644 0.03701108 0.012544208 0.039751012
000030 03 e4 bd 3b 9f d4 97 3c 8a 2b 76 3c f9 b6 31 bc
       0.0057950034 0.018534003 0.015025029 -0.010846847
000040 2f 31 cb 3b 33 3b 97 bb 05 9d 2d bc 6e 11 ba bc
       0.0062009315 -0.0046152114 -0.010596518 -0.02271339
000050 09 4d 27 bd 65 5c 96 bd 05 4e 3a bc 21 6a df bc
       -0.04084495 -0.073418416 -0.01137114 -0.027272286
000060 61 af 2d 3c 6f fa 57 bc ff 7a b9 3c 15 93 b6 bc
       0.010600896 -0.013182267 0.022641657 -0.022286931
000070 f4 ff d1 bc e7 3e c9 bc 9c c8 03 bd bb fc 42 bc
       -0.025634743 -0.024566127 -0.032173738 -0.011901076

conv_theta.weightnet.net.1.bn.running_mean f4 [32]
000000 6b 22 d4 be de fc 7b 3d 9a e4 3e bd 42 6d 6b bd
       -0.4143251 0.06152045 -0.04660473 -0.057477243
000010 c6 fe 90 3d f5 c5 0d be 19 17 b5 bd 4a 82 df be
       0.07079844 -0.13845046 -0.08842296 -0.4365409
000020 f5 7a ba bd 45 7b 82 3d 82 37 2b 3d c4 42 11 3e
       -0.091054834 0.06371168 0.041800983 0.14185625
000030 f0 9d 9a be e8 8d c7 bd c4 08 02 3e e5 7b b9 3d
       -0.30198622 -0.09743863 0.12698656 0.09056834
000040 2d 55 27 3e 77 8a 8a be 0b b8 93 bd 5d 3d 1d be
       0.16341086 -0.27058765 -0.07212838 -0.1535544
000050 f0 68 21 be 69 5f 80 3e ce e9 d6 3c 19 ac 3e 3d
       -0.15762687 0.25072792 0.026234534 0.046550844
000060 d8 ac ca be ce 03 18 3e 4b 6d b3 be e0 44 bf bd
       -0.39584994 0.14845201 -0.3504432 -0.09339309
000070 c2 a8 db 3b 19 ea dc 3c d6 68 b7 3d 14 91 b5 bd
       0.006703467 0.026967095 0.08955543 -0.08865562

conv_theta.weightnet.net.1.bn.running_var f4 [32]
000000 e0 e2 25 3d db 47 c7 3d 01 2f 26 3e 4b 07 1f 3e
       0.040499568 0.09730502 0.16228868 0.15530126
000010 7d 33 d7 3d 55 8c 97 3d ef 98 b0 3d 29 4a 0b 3d
       0.105078675 0.07399813 0.0862292 0.03400627
000020 9b 62 45 3e 24 25 20 3e 01 a5 a8 3d 01 8b af 3d
       0.19275896 0.15639168 0.08234597 0.08571435
000030 1c dd e7 3c d4 92 19 3d c5 43 cf 3d 0c 16 fe 3d
       0.028303675 0.03749354 0.10120348 0.12406549
000040 fd a5 dd 3d c2 70 83 3c c5 d9 b1 3d 90 a3 15 3e
       0.108226754 0.016044978 0.08684114 0.14613175
000050 10 c6 28 3e 82 3d 2d 3e 36 ff 33 3d 02 c7 5f 3e
       0.16481805 0.16917995 0.04394456 0.21853259
000060 f1 2e 14 3d 8e 5d 5d 3e 7e 13 5c 3d 75 82 f3 3e
       0.03617758 0.2161772 0.053729527 0.47560468
000070 d1 8e 61 3e 79 fe 0e 3e 6c 1a 67 3d 63 c0 46 3d
       0.22027136 0.13964261 0.056421682 0.048523318

conv_theta.weightnet.net.2.linear.weight f4 [16, 32]
000000 bd 80 5c 3c 8a 60 ae 3d 2b 53 03 3e f7 a3 03 3e
       0.013458428 0.08514507 0.12824695 0.12855516
000010 20 5b e1 bd 3f 06 df bd c1 60 00 bc 61 ac 81 bd
       -0.11003709 -0.10889863 -0.007835568 -0.06331707
000020 0c f7 79 bd 0c 16 96 bd 0c 3d 09 be 33 f4 9e 3d
       -0.061026618 -0.07328424 -0.13402194 0.07761421
000030 d5 af 11 be 56 fc 0f 3e db 00 ae 3d e7 2a 32 bd
       -0.14227231 0.14061102 0.08496257 -0.043497946
000040 53 74 4d be 4e 2c c0 bd e7 0a 7a bd 18 0a dc 3c
       -0.20063905 -0.093834504 -0.061045554 0.026860282
000050 16 16 08 bc 6e 48 43 bd b8 35 17 3e 36 79 c9 bc
       -0.008306047 -0.047676496 0.14766586 -0.02459393
000060 00 2d 4c 3e 41 09 64 3b 00 52 07 3e 88 25 03 3e
       0.19939041 0.0034795555 0.13214874 0.12807286
000070 ed f3 8f bc ef ac 76 bd db 40 8e bd 02 12 19 be
       -0.017572368 -0.060223516 -0.06945964 -0.14948276
000080 06 4d a2 3d 71 e7 14 3e 6d 97 32 3d 1e 41 3d 3c
       0.07924847 0.14541413 0.043601442 0.01155117
000090 98 1d 4d bb 59 4a 19 bd 8e 2d 24 be 66 f4 59 3d
       -0.0031298157 -0.03742442 -0.16033003 0.053211592
0000a0 8e f7 90 3d b2 af eb bd 50 50 3f bc 1c 12 9b bd
       0.07078467 -0.115081206 -0.011676863 -0.075718135
0000b0 9b 09 a9 3d 55 e1 4b bd ea 1d a8 bd 55 ca 0d be
       0.08253785 -0.04977544 -0.08208831 -0.13846715
0000c0 a4 a8 d1 3d fa 51 49 3e 9f d7 1c 3e c8 a6 35 3d
       0.10237244 0.19660178 0.15316628 0.044348508
0000d0 86 cd 1b be 06 e2 23 bd fe 0a f8 3d 11 e7 04 bd
       -0.1521512 -0.040010475 0.121114716 -0.032446925
0000e0 2b 21 2e 3e 41 fa dd bd 38 10 a7 bd 2a f0 d6 bd
       0.1700484 -0.10838748 -0.0815739 -0.104950264
0000f0 37 21 cc bd ec 18 68 bd 88 3f e6 bd 46 8f a0 bd
       -0.09967273 -0.056664392 -0.112425864 -0.07839827
000100 9e fe 3a 3e c4 7b 14 3d c2 ba e1 3d a1 a4 ad bb
       0.18261191 0.036250845 0.11021949 -0.0052991663
000110 54 07 01 be f4 7f 80 3d ae 5d 9c bb 2d 68 91 bd
       -0.12600452 0.06274405 -0.0047719097 -0.07099948
000120 68 6b 46 3d 0d f1 f2 bd 1e b0 82 3d ae df 56 be
       0.048442274 -0.11862383 0.06381248 -0.20983765
000130 e4 f8 a1 bd c2 06 b6 3c ac 2d 2f 3d 4e a6 12 bd
       -0.079088 0.02222002 0.042768165 -0.03580313
000140 c1 fe a4 3d 9a 00 c7 3c 71 a7 56 ba 72 26 a2 3d
       0.08056403 0.024292279 -0.0008188403 0.07917489
000150 3c ac d1 bd 1c 8f 33 bd 6e 75 bb 3d 07 e1 2f 3e
       -0.10237929 -0.04383765 0.09153257 0.17175685
000160 17 f8 87 3c 64 f3 38 be 2e 4f 47 3d 34 28 68 3d
       0.01659779 -0.18061596 0.048659496 0.056678966
000170 ac c4 cf 3d d5 10 31 be 02 c2 2c 3d d5 ab b1 3d
       0.10144934 -0.17291577 0.042177208 0.086753525
000180 66 c9 bd bc 41 92 23 be 5f dc df bc fc 3b ab bd
       -0.023167323 -0.1597376 -0.02732676 -0.083610505
000190 54 24 00 be 67 2b fe 3d 88 6c ab 3b 1d a9 f9 3d
       -0.12513858 0.12410622 0.005231444 0.12190459
0001a0 5b bc 37 bd b0 37 3c be 67 f7 a0 3d 51 5d 0c bd
       -0.044857364 -0.18380618 0.07859688 -0.03426868
0001b0 7e 9d 36 3e 87 42 9b bc bc c4 38 be 11 53 43 be
       0.17833516 -0.018952621 -0.18043798 -0.19074656
0001c0 8e dd 17 be 52 bd e9 bd 2d 21 2b 3e 82 96 2c be
       -0.1483061 -0.11413063 0.16711874 -0.16854289
0001d0 fe 9c 14 3e 4c 10 09 be 7c 82 95 3d 94 15 1e be
       0.14513013 -0.13385123 0.073002785 -0.15437919
0001e0 ec 7a 83 3e 48 5a e4 bd fc 68 8d 3d e9 4c 0d 3e
       0.2567972 -0.11150032 0.0690479 0.1379887
0001f0 02 50 dd 3d 4e 0a e9 bd f8 c8 24 bd 20 96 49 3d
       0.10806276 -0.113789186 -0.04023072 0.049215436
000200 76 45 34 3d 59 d1 24 be 64 f3 0a 3e 48 5c e3 3c
       0.044011556 -0.16095485 0.13569409 0.027753964
000210 e8 12 b3 3d 20 8b 89 bd 35 7e ed bd 01 bd ab bd
       0.087438405 -0.06715989 -0.11596338 -0.08385659
000220 41 3c de bd 14 2b 14 be c4 7d 0b be 50 e9 7d bd
       -0.10851336 -0.14469558 -0.13622195 -0.061990082
000230 cf a2 18 3e a5 cc 63 bc 0a d2 18 be b0 e0 23 3d
       0.14905857 -0.0139037715 -0.14923874 0.0400092
000240 b9 47 02 3e d4 f1 2d 3d 83 0b 16 3e a4 c0 87 3d
       0.12722673 0.042466953 0.14652829 0.0662854
000250 bc 15 dd bd 1e 85 0f 3e 7b 58 30 3d b6 40 02 be
       -0.10795161 0.14015624 0.04305313 -0.12719998
000260 c6 fb 68 3e 53 8b 40 bd 52 4a 1e bd 6b 22 46 3c
       0.22752294 -0.04700787 -0.038645096 0.012093167
000270 dc d5 10 3e 7b 9c 15 be c8 65 1a 3e bf 2d c0 bd
       0.14144081 -0.14610474 0.15077889 -0.093837254
000280 e5 31 49 3e 6a d2 d7 bd ec 80 17 bd d9 b5 b1 bc
       0.1964794 -0.1053818 -0.036988184 -0.021693157
000290 97 c4 b8 bd b7 20 66 3d e1 06 a1 bd f4 24 3a 3d
       -0.090218715 0.056183543 -0.0786264 0.045445397
0002a0 dc ec f6 3a 1b 09 e1 bd 65 7e f1 bd 31 1e 11 3e
       0.00188389 -0.10988065 -0.11791686 0.14171673
0002b0 11 d0 05 3e 49 26 45 3c 7b d7 29 be fe f5 f5 bd
       0.13067652 0.012033054 -0.16586106 -0.1200981
0002c0 70 6a 28 be 7c e7 21 3e 5c ed 52 3c 5d 51 04 3e
       -0.16446853 0.1581096 0.012873974 0.12921663
0002d0 2a 5e 2d 3d 8d 3e 23 be f4 9a f2 3d 91 44 1f bd
       0.04232613 -0.1594183 0.11845961 -0.03888375
0002e0 78 cd 7d 3c b8 c9 7f bd e4 8e 2a 3e c2 4f 81 3d
       0.015490882 -0.062448233 0.16656071 0.06314041
0002f0 e0 15 3b 3c f2 3d 1f be b1 d8 f2 3d 59 2f 5a 3d
       0.01141879 -0.15550974 0.11857737 0.05326781
000300 20 78 12 3e e6 35 35 bd 7a 35 31 3e 2d 03 b8 bc
       0.14303637 -0.044240855 0.17305556 -0.022462452
000310 e0 ac 04 3e 71 bf d3 bd 8b bb 10 be 22 fc a9 bd
       0.12956572 -0.10339249 -0.14134042 -0.08300044
000320 97 b2 37 be 6b d7 23 be 41 65 4b bd b7 44 97 bd
       -0.1793922 -0.16000144 -0.04965711 -0.07386153
000330 8e fb 15 3e 8b 7f c5 3d 78 aa 14 3e 7b 4a a7 3d
       0.14646742 0.096434675 0.14518154 0.08168503
000340 81 6f f9 bd 02 fc 3b 3d 26 6d 12 be f6 f1 42 3c
       -0.12179471 0.04589463 -0.1429945 0.011898508
000350 84 7b 10 3e dc 29 e0 bd 63 ef 3f 3e 0c 02 c7 bc
       0.14109617 -0.10945484 0.18743663 -0.024292968
000360 8a 1d 04 3d 78 cf 25 3d 44 a8 cf bd 0b 04 e2 bd
       0.032254733 0.04048106 -0.10139516 -0.110359274
000370 70 a7 d5 bd dc 57 39 bd ec 9d 00 be d2 00 c9 3d
       -0.10432327 -0.045249805 -0.12560242 0.098146096
000380 05 ed ea bb 28 71 5d bd 4c d1 30 be db d7 06 3d
       -0.007169368 -0.054062992 -0.1726734 0.0329207
000390 91 9c b7 bd f2 f0 c5 3c 3c 0e 15 bd 8a 85 38 3e
       -0.089654095 0.024162743 -0.036390528 0.18019691
0003a0 96 1a 30 be ae 2d 67 bb 4b bc 44 be 1d af 9a 3d
       -0.17197642 -0.003527503 -0.19212453 0.075529315
0003b0 c1 76 d7 3c 14 fc 80 bd 25 50 3a 3d 2b 6a 01 be
       0.026301743 -0.0629808 0.045486588 -0.12638156
0003c0 c0 df ba bc 16 cd 92 bd 56 37 18 bd 29 a2 7b 3d
       -0.02281177 -0.07168023 -0.037162147 0.061433945
0003d0 42 00 ae bd 08 ea e8 bc 20 54 0e bd 54 1b 37 be
       -0.08496143 -0.028431907 -0.034748197 -0.17881519
0003e0 5e d4 8b bc 93 1b 0b 3d ee 56 10 3e 64 65 d1 bd
       -0.017069038 0.033961844 0.14095661 -0.10224417
0003f0 04 51 1c bd 63 77 14 3c f2 f7 69 3c 30 12 51 3e
       -0.0381632 0.009061667 0.014280306 0.20417094

conv_theta.weightnet.net.2.linear.bias f4 [16]
000000 e2 57 35 3e 1b 23 2e be b3 44 26 3d d1 28 12 be
       0.17709306 -0.17005579 0.04059286 -0.14273383
000010 29 5e 24 3c 59 19 35 be b5 39 51 3d b2 8c 08 3e
       0.010032215 -0.1768545 0.051080424 0.13334921
000020 4e 6e 31 3d f0 7f 2d 3e 36 28 88 bd 3e dd 18 3d
       0.043318085 0.16943336 -0.06648295 0.037320368
000030 72 42 5d 3d 2d 78 2d 3e a1 c7 83 bd 49 90 24 3e
       0.054018445 0.16940375 -0.064345606 0.16070665

conv_theta.weightnet.net.2.bn.weight f4 [16]
000000 b6 4a 84 3f b0 19 85 3f 03 fd 83 3f 67 72 84 3f
       1.03353 1.0398464 1.0311588 1.0347413
000010 60 0b 83 3f 1c 07 84 3f b2 c1 83 3f 22 fc 81 3f
       1.0237846 1.031467 1.0293486 1.015507
000020 e7 75 83 3f 76 51 84 3f 29 f1 7f 3f c2 49 84 3f
       1.0270356 1.033736 0.99977356 1.0335009
000030 a0 d5 84 3f e3 b9 83 3f 38 cb 84 3f ed 72 84 3f
       1.0377693 1.0291103 1.0374517 1.0347573

conv_theta.weightnet.net.2.bn.bias f4 [16]
000000 b0 17 06 3d a4 09 0c 3d 4f bf 03 3d 85 2b f3 3c
       0.032737434 0.03418888 0.032164868 0.029683838
000010 f9 9f 98 3c 62 a2 d2 3c f2 b7 c7 3c c2 a4 34 3c
       0.018630968 0.025712196 0.024379704 0.011025609
000020 8a be f0 3c 63 1f ea 3c 82 f6 91 bb 29 1e e1 3c
       0.029387731 0.02857942 -0.004454435 0.027480202
000030 8b e4 08 3d 7d f0 de 3c f1 f3 fd 3c 48 46 eb 3c
       0.03342108 0.027214283 0.03100011 0.028720036

conv_theta.weightnet.net.2.bn.running_mean f4 [16]
000000 4a c5 04 3e f3 bc 50 be f3 5c 9e 3d 57 67 80 be
       0.12965885 -0.20384578 0.077325724 -0.25078842
000010 6a 53 6c 3c da df 1c be b0 01 56 3c 7c 4f 15 bb
       0.014424184 -0.15319768 0.013061926 -0.0022782972
000020 65 b8 24 be c7 b6 61 3e 0d 74 49 3d 0f 91 ad 3c
       -0.16085966 0.2204238 0.04918294 0.021187333
000030 93 44 d9 3c 37 8e 82 3d 89 47 77 bc d1 af 96 3e
       0.026521957 0.063747816 -0.015092739 0.29431012

conv_theta.weightnet.net.2.bn.running_var f4 [16]
000000 42 1a fb 3d e2 09 2a 3e 5c 94 5d 3e 38 96 2e 3e
       0.12260868 0.16605332 0.21638626 0.17049491
000010 09 0b 7b 3d d8 7c 52 3e e6 3d 85 3d 81 b2 a0 3d
       0.06128982 0.20555437 0.06505947 0.07846547
000020 1d 24 26 3e d4 35 6f 3d d9 34 18 3e b9 0d b1 3d
       0.16224714 0.058400944 0.1486391 0.086451955
000030 c6 e5 9f 3d de 62 00 3e 55 85 d3 3d fa 42 91 3d
       0.07807498 0.12537715 0.103281654 0.07092853

conv_theta.linear.weight f4 [128, 16]
000000 e8 0b 48 be ca 71 1f be 25 d3 fd bc 1c ae 6a 3d
       -0.19535792 -0.15570751 -0.03098447 0.05729495
000010 5f 83 02 3e fa 70 fe bd 05 9f 37 bd 83 ba 38 be
       0.12745427 -0.12423892 -0.044829387 -0.18039899
000020 a2 0a 19 be 30 26 9f 3d b8 e9 8d bc cd 3d 65 be
       -0.14945462 0.077709556 -0.01732336 -0.22386856
000030 a3 a5 67 bc d2 bb 9a 3d 5f a6 0d bc ef 0d 3a bc
       -0.014138612 0.07555355 -0.008645623 -0.011355861
000040 0b 2c 7e 3d 8a ae 45 be c7 6f 82 be 92 74 0a 3e
       0.06205372 -0.19304863 -0.25475904 0.1352103
000050 bb f4 c7 3c 79 89 76 be 79 2f 54 3d 25 21 2b bd
       0.024408689 -0.24075879 0.051803086 -0.041779656
000060 79 2f 7a be b3 7a 22 3e 0b 03 50 3e 43 f8 17 bd
       -0.24432172 0.15867119 0.20313661 -0.037101995
000070 c5 99 08 3d 00 00 da bd 71 fd 2e be ce d4 25 be
       0.03334977 -0.10644531 -0.17088868 -0.1619446
000080 31 7c 0d 3e 04 60 ba bb 17 05 4c be 5e 5c ec bd
       0.13816907 -0.0056877155 -0.19923817 -0.11541055
000090 db c1 fd 3d f1 dd 85 bd 1b 76 0f 3d 43 81 f0 3d
       0.123904906 -0.065364726 0.035024744 0.11743405
0000a0 97 c9 f8 bd e8 49 7e 3e 22 9a af 3d ce 1b 2c 3e
       -0.12147825 0.2483288 0.085743204 0.16807482
0000b0 82 06 87 3e 61 6b 61 3d b8 7e 19 3e b3 82 35 3e
       0.26372153 0.055034045 0.14989746 0.17725639
0000c0 a1 45 4e be 16 cc 31 be 64 4b 66 be 9b 01 9f bd
       -0.20143749 -0.17363009 -0.22489697 -0.07763978
0000d0 2f a6 64 3e 28 22 51 be 2e 01 d4 bc 11 5d 44 3e
       0.22329019 -0.20423186 -0.025879469 0.19176127
0000e0 21 71 24 3d a5 c1 50 3e fe 54 00 3d 75 00 02 bd
       0.04014695 0.2038637 0.031331055 -0.031738717
0000f0 bb 7a 6e 3e ef 5e 5b 3e 07 cd 10 3d 2f 01 37 be
       0.23289005 0.21422933 0.03535178 -0.17871545
000100 18 2a 4d 3b 91 63 f6 bc b9 d2 dd 3d af 2c 2f 3d
       0.0031305607 -0.030076774 0.10831208 0.042767223
000110 b7 8c 72 3c 35 3b ec 3d ef 89 6c 3e 7d 11 91 bd
       0.014804057 0.1153473 0.23099492 -0.07083414
000120 26 9b 8c bc 26 23 a1 3d 86 f3 ed bd dc 52 2f bd
       -0.017163824 0.07868032 -0.11618714 -0.04280363
000130 99 f8 84 3d 30 58 a7 bd a3 32 61 3e 72 bd 8b 3e
       0.06492729 -0.08171117 0.21991973 0.27292973
000140 55 b2 04 3e 99 d6 eb bd a8 d9 28 be 28 33 6a be
       0.12958653 -0.11515541 -0.1648928 -0.22871077
000150 71 fa 86 be 25 2c d3 3d 9d 63 24 be b3 cf eb 3d
       -0.26362947 0.10311154 -0.16053624 0.11514225
000160 2d 72 3f be 0f 06 b7 3d 58 8d f9 3d 3d 16 2c bd
       -0.18695898 0.089367025 0.12185162 -0.042013396
000170 d0 e3 a8 bd c9 1c 6c 3d 3a 06 b7 39 2b cc 07 be
       -0.08246577 0.05764464 0.0003490912 -0.13261478
000180 48 b9 41 3d f8 9e 29 bd 33 a9 40 be c1 51 53 3e
       0.04729584 -0.04141137 -0.18814544 0.20636655
000190 ce 6f f5 3d ac 06 14 be 97 71 83 3e 2c 0c d2 bd
       0.11984216 -0.1445567 0.256726 -0.10256228
0001a0 ba 76 27 bd 29 38 4d 3e 53 ef 81 3d a2 bf 5a 3e
       -0.04088471 0.20040955 0.063444756 0.21362165
0001b0 f3 f6 70 3e 8e 09 8c bd 26 37 35 be 81 9e 60 3d
       0.23531704 -0.0683776 -0.17696819 0.05483866
0001c0 5c 4f 51 3d 2a 31 3f bd 6a 95 5f bd 7b 2c 11 3e
       0.051101074 -0.046677746 -0.05458585 0.14177124
0001d0 36 fa fa 3d 07 7e 1c 3e 86 69 ef 3c d8 94 5d 3e
       0.12254755 0.1528245 0.029225122 0.2163881
0001e0 90 c8 cc bd c6 80 14 3e 9f 93 02 3e f3 da 8b 3d
       -0.09999192 0.14502248 0.12751625 0.068288706
0001f0 b1 f8 79 3e 6e be 12 3e 60 64 2e bd 63 9b b4 bc
       0.24411274 0.14330456 -0.042576194 -0.02204675
000200 e3 eb 40 3c 0e c7 c5 bd fc a3 59 3e 5b 86 16 3e
       0.01177499 -0.09657107 0.21253961 0.1469969
000210 30 b7 3c 3d 2f aa 17 be f2 b9 80 3e 5b de e6 bd
       0.04607314 -0.14811014 0.25141865 -0.1127288
000220 11 7c 73 3e 15 ae 1c bd 6f 61 8e 3e 8d c9 34 3e
       0.23777796 -0.038251955 0.2780871 0.1765501
000230 13 fd 18 3e 0b c8 d4 bd 03 61 08 be 41 8c 71 3d
       0.1494029 -0.10389718 -0.13318257 0.058971647
000240 77 09 35 be 35 d6 bc bd 13 d7 dd bd c7 e3 e9 bb
       -0.17679392 -0.09220544 -0.10832038 -0.007137749
000250 db e8 15 bd 06 c7 87 be 98 01 e1 3d a1 af d5 bd
       -0.03659902 -0.2651903 0.10986632 -0.10433889
000260 c3 9d 68 3e fa 2c cc 3d 05 0a 38 3d 5e 4b 51 be
       0.22716431 0.09969516 0.04493143 -0.20438907
000270 f5 57 3b be 7d 2a 78 be b6 64 47 be 4b c1 11 be
       -0.18295272 -0.24234958 -0.19472012 -0.14233892
000280 e7 97 49 bd e5 d4 51 3e a3 5d bd bd fe bc ca 3d
       -0.04921713 0.20491369 -0.092463754 0.09899329
000290 82 f2 d5 3d 96 e5 2d be 69 a7 08 3e d8 81 01 ba
       0.10446645 -0.16982111 0.13345112 -0.00049403077
0002a0 84 c0 bf 3c 3d 3a 8f 3c 15 93 2a 3d f3 f7 49 3e
       0.023407228 0.017483825 0.041644175 0.19723491
0002b0 aa 62 33 be 28 8c 5c be ed 8c 1f be 77 a1 c9 bd
       -0.17518106 -0.2153784 -0.15581103 -0.0984525
0002c0 3b 37 b1 bd 4b dd 8c be be e7 48 3e 87 44 ef bb
       -0.086531125 -0.27512583 0.19619653 -0.0073018703
0002d0 c8 b0 17 be e7 99 9e 3c d3 3f 60 be 4b b1 59 3e
       -0.1481353 0.019360496 -0.21899347 0.21259038
0002e0 dd a5 15 be 3d d8 ff 3d 54 e8 92 bd 70 e0 43 bc
       -0.14614053 0.12492416 -0.07173219 -0.011955366
0002f0 ad 52 72 be a6 a6 1c 3e 24 39 d6 bd 50 a8 fd bd
       -0.23664351 0.15297946 -0.104601175 -0.12385619
000300 a5 db 32 3e c5 5e 4a 3e c6 c8 c2 bd 09 df 5b bd
       0.174666 0.19762714 -0.09510951 -0.0536795
000310 c2 4e 80 3d 84 ad 67 3e 55 71 2a 3c 69 7d a7 3c
       0.06265022 0.22624785 0.010402997 0.020445542
000320 c2 c0 48 3e 51 24 1f 3d a3 87 bb bc 81 c3 a8 3c
       0.19604781 0.038852993 -0.022891825 0.020601036
000330 98 b7 29 be bb 18 66 3e ca 88 27 be cb 8b 02 be
       -0.16573942 0.22470371 -0.16360775 -0.1274864
000340 00 bc ef bd 52 37 34 3e 8c 67 81 be 88 69 c6 3b
       -0.1170578 0.17599228 -0.25274312 0.006055061
000350 f4 74 4c bd 4e 5b af 3d 87 74 f7 3d 22 00 9a 3d
       -0.049916223 0.08562337 0.12082773 0.075195566
000360 76 7b 20 3e c9 5f a0 bd 5b e5 57 3e fe 67 5c 3e
       0.15672097 -0.078307696 0.21083586 0.21524045
000370 89 ce 26 3b c8 f7 c1 3d ae 07 49 be be 90 82 be
       0.0025452694 0.09471089 -0.19631836 -0.25501055
000380 39 cc 55 3e 4a 2d 44 3e b7 5b aa bd 24 06 2c be
       0.20878686 0.19157901 -0.083182745 -0.16799217
000390 70 45 a4 bd 92 b1 28 3e d4 27 61 be 53 8a 1d bd
       -0.08021057 0.16473988 -0.2198785 -0.038461994
0003a0 42 f7 d6 3d 7a 29 66 3e 53 3c 77 be 85 b4 32 be
       0.104963794 0.2247676 -0.24144106 -0.17451675
0003b0 ef 57 d4 bd 1e 1d 74 be 6a 35 0c be 93 0d 0d 3d
       -0.103683345 -0.23839232 -0.13692251 0.034436774
0003c0 13 21 29 3d c5 2c 00 3e 17 27 3c be e6 89 15 3e
       0.041291308 0.12517078 -0.18374287 0.14603385
0003d0 e3 23 1b 3e 8d c1 8a bd 15 02 64 be 60 80 3a be
       0.15150408 -0.06775198 -0.22266419 -0.18213034
0003e0 de 5e c3 3d e5 15 7e 3e 78 6f 8b bd 6c 57 77 3b
       0.09539579 0.2481304 -0.0680837 0.0037741316
0003f0 d2 0f dc 3d 0f 92 71 be e4 11 93 bd 9e f8 11 3c
       0.10745205 -0.23590873 -0.07181147 0.008909373

conv_theta.linear.bias f4 [128]
000000 b7 23 00 bb 61 61 48 3e cb 85 05 be 35 72 40 3e
       -0.0019552538 0.19568397 -0.13039319 0.18793567
000010 37 1e 6d 3e d6 ef d0 bd d3 91 f5 3c d4 92 ba 3d
       0.23156057 -0.10201995 0.029976761 0.091100365
000020 df 29 35 be 39 f0 55 be ee d5 84 be 7c 44 8a 3d
       -0.17691754 -0.20892419 -0.25944465 0.067513436
000030 3b 61 a3 3c a0 f2 dd 3d 55 79 05 be 0c 40 66 bd
       0.019943824 0.10837293 -0.13034566 -0.056213424
000040 c9 29 0e 3d 6a a9 9c 3d 75 a6 27 3c da c6 6d 3c
       0.03470782 0.07649501 0.010232558 0.014512742
000050 ac 5e ce 3d 0a 78 fb bc 31 4d 0f 3e 21 2b dd 3d
       0.10076651 -0.030696888 0.1399429 0.10799242
000060 7e fc 82 3d 91 02 17 3e fd 7a ad 3d 71 05 60 be
       0.06395815 0.14747073 0.08470724 -0.21877076
000070 8f dc e3 bd 2f e6 56 be dd a6 70 3e 8c a3 31 3e
       -0.111260526 -0.20986246 0.23501153 0.17347544
000080 59 e7 3f 3d dd 7f ea 3c a4 46 76 be c3 bd 1b be
       0.04685149 0.028625423 -0.24050385 -0.15209107
000090 42 63 85 be 74 92 b0 bd 45 63 f5 bc de 38 3b be
       -0.2605229 -0.08621684 -0.029954562 -0.18283412
0000a0 6a 75 5c 3e 52 a7 95 3d 05 b5 34 3b 45 d2 85 bd
       0.21529165 0.073073044 0.0027573716 -0.06534246
0000b0 6f 65 20 be 4d 31 c8 bd 9f 42 31 be 55 d1 01 3e
       -0.15663694 -0.097750284 -0.1731057 0.1267751
0000c0 e1 29 58 3e 6d ba d3 3d b7 f7 f4 3d 29 b0 b1 3d
       0.21109726 0.10338292 0.1196131 0.08676178
0000d0 db 56 3b 3e 63 84 00 be d7 8c 58 be 38 dd ac 3d
       0.18294851 -0.12550502 -0.21147476 0.08440632
0000e0 4e 26 28 be be 70 36 be b5 9f 18 be 12 f0 89 be
       -0.16420862 -0.17816445 -0.14904673 -0.26940972
0000f0 21 db f0 bd 06 b8 9e 3d e7 95 68 be 40 34 a4 b8
       -0.117605455 0.077499434 -0.22713433 -7.829862e-05
000100 ec 07 44 be 5c 99 81 3e 0f 7d ba bd f8 08 51 be
       -0.19143647 0.25312316 -0.09105884 -0.20413578
000110 b4 85 92 3d 62 1e 71 3e 12 b9 5b 3e 2b de 13 bc
       0.07154408 0.23546746 0.21457317 -0.009025137
000120 d7 61 31 3e 49 d7 52 be 82 7d 08 be b4 90 17 be
       0.17322479 -0.20589937 -0.13329127 -0.14801294
000130 c0 d5 86 3e 7c b6 02 be 69 9a 84 3b 74 b4 25 be
       0.26334953 -0.12764925 0.0040467274 -0.16182119
000140 e7 96 0e be 9e 2b 84 3e 0d 14 6a 3e 99 ba 53 3e
       -0.13924752 0.25814527 0.22859211 0.2067665
000150 8e b9 8f bd ce e4 36 3e 7f db 40 3e be 45 7c be
       -0.070178136 0.1786072 0.18833731 -0.2463598
000160 b6 60 91 bd 5b 0f 79 3e bb ed 9e 3d 47 ee 67 bd
       -0.07098524 0.24322264 0.07760187 -0.056623723
000170 ab 03 f1 3c fa 1e 4c be 83 dd 3b 3e 96 c2 3f bd
       0.029420694 -0.19933692 0.18346219 -0.04681643
000180 75 97 42 bd ca 23 0f 3e 41 18 50 be a6 53 c3 bd
       -0.047507722 0.13978496 -0.20321752 -0.09537439
000190 28 6e fc 3d 5f 8b 77 3e 86 23 c5 3d d2 1b e9 3d
       0.12325698 0.2417426 0.09625916 0.113822594
0001a0 d1 a3 d7 bd 04 3c a8 3c 28 4f 41 3e f7 9d e8 3c
       -0.105292924 0.02053643 0.18877852 0.028395636
0001b0 a7 76 83 3e e1 3f 12 3d 77 bb 1b be 80 fa 0e be
       0.25676462 0.03570545 -0.15208231 -0.13962746
0001c0 22 4f 84 3d cd 8f 7e be a8 92 5e 3e 6d e2 01 3e
       0.06460406 -0.24859543 0.21735632 0.12684031
0001d0 71 f7 74 be 37 ec 0f be d4 94 4d 3e 76 db bc bd
       -0.23922516 -0.14054953 0.20076305 -0.09221546
0001e0 f9 21 6f be 2d e0 64 be e3 17 6b be 70 b8 ae 3a
       -0.23352803 -0.22351141 -0.22958331 0.0013330113
0001f0 cb 52 1f be da 8a 01 3d 9a a2 6c be da 78 71 bd
       -0.15558927 0.03162656 -0.23108903 -0.058953144

cnn.0.module.weight f4 [128, 256]
000000 71 ef 9d bb 7d 84 83 bd 13 81 c1 3c 89 54 05 bd
       -0.0048198034 -0.064217545 0.023621118 -0.032551322
000010 a5 12 4c bd 37 56 f4 3c 48 79 da 3b 52 be 66 3b
       -0.04982247 0.029826267 0.00666729 0.0035208655
000020 0e 65 2e bb 9a 14 d0 bc 1c 34 f8 bb 1d 65 6d bd
       -0.0026610526 -0.025400449 -0.0075745713 -0.057957757
000030 23 0e f9 bc fd a1 99 bb db e0 4c 3d 89 87 94 39
       -0.030402249 -0.0046885 0.050019126 0.0002832974
000040 d0 93 6f 3c 12 9b 62 3b ef eb dc 3c 6e 61 5d bc
       0.014622644 0.0034577292 0.02696797 -0.013511999
000050 5f 35 9a 3b 47 0a 87 bd 29 2e 64 bd a8 75 3e 3c
       0.0047060694 -0.06593757 -0.055708084 0.011624731
000060 aa 45 61 bd 34 34 1b bc 07 a6 08 3c 06 fd 6c bc
       -0.054998077 -0.009472895 0.008340365 -0.014464622
000070 b2 45 39 bd 42 c1 87 bd db 37 3b 3d 54 82 57 bd
       -0.045232482 -0.06628658 0.045707565 -0.052614525
000080 9f 54 28 3c 46 8d aa 3c 52 b5 16 3d bb 82 3c 3c
       0.0102740815 0.020819318 0.036794014 0.011505778
000090 63 e4 58 bd 09 e2 77 bd a6 42 48 3d bc 29 53 3a
       -0.05295218 -0.0605183 0.048891686 0.000805523
0000a0 f0 b8 5f 3d 2f ed 7e 3d 5e 94 93 3c fa a6 c8 bb
       0.05461973 0.062237915 0.018015083 -0.006123421
0000b0 ee b6 a0 bc 92 ef b1 bc 21 68 00 3d f5 7c af 3c
       -0.019618478 -0.021720681 0.031349305 0.021421889
0000c0 14 6c 5b 3c 34 32 7b 3d df 68 29 bd e2 b5 bf bb
       0.013392467 0.061327174 -0.04135978 -0.0058505395
0000d0 11 ce f2 bc 6b e0 74 3d 90 d5 fa 3c fe 93 90 3d
       -0.029639276 0.059784334 0.030619413 0.07059477
0000e0 85 ae 2d 3d 08 73 3d 3d f7 bf 93 3a 24 34 99 3a
       0.042402763 0.04625228 0.001127242 0.0011688513
0000f0 97 c3 72 3c 52 c3 68 bd e2 21 c6 bc 80 fd 3c bd
       0.01481714 -0.056826897 -0.024186078 -0.046140194
000100 27 de e1 3c 16 27 92 3c 29 7b 2d 3d 6f d3 1c 3d
       0.02757175 0.017840903 0.042353783 0.038287576
000110 50 38 a8 bc ac 95 12 3d 0b c0 4c 3d f6 52 57 bd
       -0.020534664 0.03578727 0.049987834 -0.052569352
000120 ff 4d 6a 3d 01 d7 e8 3c 90 26 51 3d ce 52 34 3d
       0.05720329 0.028422834 0.051062167 0.04402428
000130 b5 44 41 3d fd a1 1e bd 31 81 ef 3c c9 23 04 3d
       0.047184665 -0.038728703 0.029236408 0.03226069
000140 73 2c 35 3d d5 16 2e bd d1 70 1b ba 0c 0d 4d 3d
       0.044231843 -0.042502243 -0.0005929592 0.05006127
000150 f5 a0 ad bc 1c c3 b9 bc ae 58 74 bd 29 62 33 bd
       -0.021194914 -0.022676043 -0.059654884 -0.043794785
000160 6b 3b 57 bd f4 e3 b2 3c d1 9d 6c 3d 7c f5 67 bd
       -0.0525469 0.021837212 0.057767693 -0.056630597
000170 43 c8 32 bd 5e d9 cd bc 17 fe 13 3d 96 7a 16 3d
       -0.043648016 -0.025128063 0.03613099 0.036738
000180 be 0d 40 3d 44 dc f1 bc 85 de 32 3d 5e 6b 34 3d
       0.046888106 -0.029523976 0.043669242 0.044047706
000190 cb 57 04 3d ab 1b 45 3d 1d 0f 84 3d 73 fc 55 3d
       0.03231029 0.04812209 0.06448195 0.052242707
0001a0 74 ca 7c bc f4 be 05 3d 73 61 51 3d 56 02 e6 bb
       -0.015429128 0.03265281 0.051118325 -0.0070193214
0001b0 31 14 12 bd cf c0 01 3d 4a 2a 64 bd 89 0c bd 3c
       -0.035663787 0.031678017 -0.055704392 0.023077266
0001c0 ed be 89 bd 94 ca 9d bb 50 36 af bc e5 cd 58 bd
       -0.06725869 -0.004815409 -0.021388203 -0.05293073
0001d0 6c 2e 02 bc 40 52 9e bc c1 50 47 3d 45 27 38 bd
       -0.007945638 -0.01932633 0.048660997 -0.044959325
0001e0 e6 21 07 bc 6f 7c 42 3d a6 ac 6d bd 25 11 2d bd
       -0.008247828 0.04748195 -0.05802598 -0.04225268
0001f0 da 32 ce 3c 2c 0f d0 bc 02 97 28 bc f7 32 a6 3c
       0.025170732 -0.02539786 -0.010289909 0.020287974
000200 b5 55 a6 3b 9c 8a 33 3d 77 6d db bb f6 d2 38 3c
       0.005076135 0.04383336 -0.006696399 0.011280766
000210 33 fb 50 bd 6c d3 0a bd c2 e0 1b bd 0a c7 01 3d
       -0.051020812 -0.033893034 -0.038056143 0.03168396
000220 b7 e5 3b bd a1 5b 45 bc 99 65 46 bc af 22 49 bd
       -0.04587337 -0.012045772 -0.012109184 -0.049105342
000230 9f 2c e1 3c 97 3e 8d 3d c8 cf 7c 3b 1b 64 ac bc
       0.027487097 0.06896704 0.0038575996 -0.021043828
000240 6a 1d 09 3d 1c 47 b0 3c 3d 71 c8 bc 04 61 22 3b
       0.033475317 0.021518283 -0.024468059 0.0024777064
000250 4c 30 3f bd 16 1e 9e bc 7c a1 2d 3d 1c a9 18 bd
       -0.04667692 -0.019301455 0.04239033 -0.03727065
000260 78 4b 12 3d 4e bc 5e 3d e8 b8 fa 3c e0 4e 06 bc
       0.035716504 0.0543788 0.030605748 -0.008197516
000270 b8 f5 0d bd f7 c3 fb 3a 3d 68 9e 3d e6 b5 dc 3c
       -0.034658164 0.0019208182 0.077347256 0.026942205
000280 4e 0a 0b 3d b7 38 d9 3b 5d 0b 8f bb 96 4e 93 bd
       0.033945374 0.0066290754 -0.0043653683 -0.071927235
000290 e6 c9 5b bd 79 20 d3 3b 67 d8 82 3d e5 6a 79 3c
       -0.053659342 0.00644308 0.06388932 0.01522324
0002a0 44 10 88 bd 91 2f 58 3c a1 7c 02 bd ef ce af 3c
       -0.066437274 0.013194934 -0.031857137 0.021460978
0002b0 dc 99 26 3b 87 5f 2c bd 9a 2c 29 bd 05 13 29 bd
       0.0025421297 -0.04208329 -0.0413023 -0.041277904
0002c0 54 6f 97 bd 4c 19 ff 3c 22 40 40 3c 3a 70 59 bd
       -0.07394281 0.031139992 0.01173404 -0.053085543
0002d0 95 ec 0c 3d ae d1 98 3d 72 e2 73 3c 58 6d 76 bc
       0.03440531 0.07461868 0.014885532 -0.015040718
0002e0 f0 05 9b 3b da 8d 40 3d 50 51 ef 3c 21 dc 08 3d
       0.0047309324 0.04701028 0.029213578 0.033413056
0002f0 e1 83 81 bc e3 0f 81 bc a0 47 a2 bd 2d a2 d2 3c
       -0.015809955 -0.015754646 -0.07923818 0.025712097
000300 38 66 65 3d 4e f7 78 bd ec b7 89 ba 9e b6 aa bc
       0.056005687 -0.060782723 -0.0010507083 -0.020839032
000310 cb e7 90 bd 55 29 2f 3d db 06 30 bd 6e 26 17 3b
       -0.07075461 0.042764027 -0.042975288 0.0023063677
000320 e6 aa c2 bc 9d ef 36 bd 83 df a2 3b 69 83 38 bd
       -0.023763131 -0.044662107 0.0049704923 -0.045047197
000330 45 62 72 3d 96 98 63 3c 40 50 18 bd b0 d1 ad 3c
       0.05917575 0.01389136 -0.037185907 0.02121815
000340 9c bb 33 3c 76 e1 46 bd 37 a9 8c 3c 93 b0 04 bd
       0.0109700225 -0.04855486 0.017170532 -0.032394957
000350 95 6d 29 bb e4 7c 16 bd a0 f9 77 3b 4f 63 96 3d
       -0.002585267 -0.0367402 0.0037837997 0.0734316
000360 21 37 f9 bb 07 8c 67 bd 0f 38 58 3d 7a 99 22 3d
       -0.007605449 -0.056530025 0.052787837 0.039697148
000370 77 5c 81 3d 10 32 05 3d 1e bf a5 bc 08 c1 81 bd
       0.063164644 0.032518446 -0.020232733 -0.06335646
000380 b8 5e 06 3d 16 80 f4 bc 2c 21 06 bd 3d ec 84 3c
       0.032805175 -0.029846232 -0.03274648 0.016225928
000390 49 6d 5b bd 1f b9 21 3d 81 ea 22 3c 78 70 10 3a
       -0.05357102 0.039483186 0.009943605 0.0005509923
0003a0 31 55 5d bd 8d e0 20 bd 00 d8 0c bd 3f f7 45 bc
       -0.054036323 -0.03927665 -0.03438568 -0.012082874
0003b0 26 63 4c 3c 2b 1f e2 bc f5 3d 3d 3c 49 8d 06 bd
       0.012474811 -0.027602753 0.011550416 -0.032849584
0003c0 2b e2 62 bc bc d0 64 bd 69 7f 8f 3d f3 5e 07 3d
       -0.013847868 -0.055863127 0.070067234 0.033049535
0003d0 fe 14 9c bd 51 af 0f 3d 48 8c 30 3d 58 61 2c 3d
       -0.076211914 0.035079304 0.043102533 0.04208502
0003e0 be 14 34 3d 8d 75 f1 bc b5 e0 e9 bc 47 93 06 bd
       0.043965094 -0.029474998 -0.028549531 -0.0328553
0003f0 3e 62 a2 3d 37 a0 01 bc 6c 67 0a 3d af cf 09 bd
       0.079288945 -0.007911733 0.033790037 -0.033645328

cnn.0.module.bias f4 [128]
000000 2d f0 fe bb 79 b3 64 bd 06 f6 76 3d 2e 1a 16 3d
       -0.007780096 -0.05583522 0.06029322 0.03664606
000010 52 b4 02 3d 4a 2a 97 3d 90 4b 2e bc aa f4 e2 bc
       0.031910248 0.07381113 -0.010638133 -0.027704556
000020 67 af c2 3d 6d 19 34 bd 65 26 2f bd d3 de 4d 3c
       0.095061116 -0.04396956 -0.042761225 0.012565332
000030 06 cd 3c bd 9e 9e 42 3d c0 1b 2b bc 0f 8f 55 3d
       -0.046093963 0.04751455 -0.010443628 0.052138384
000040 68 27 8c 3d 9c 50 1b 3c 49 40 17 3d 54 62 dc 3c
       0.06843454 0.009479668 0.03692654 0.026902355
000050 70 59 5f bb 16 95 9e 3c fe c7 a7 3c 36 94 8a 3d
       -0.0034080409 0.0193582 0.020481106 0.0676655
000060 ad 04 d0 3c d4 f3 bb bc 7e 67 77 3d c1 18 0e bd
       0.025392855 -0.022943415 0.060401432 -0.034691576
000070 32 ff 10 bb 49 59 cb 3c a5 f6 28 bc fe 09 05 3d
       -0.0022124765 0.024822848 -0.010312711 0.032480232
000080 ae 36 5a 3d 5c c6 29 bb 20 6d 17 bc 3f 66 90 bd
       0.053274803 -0.0025905585 -0.009242326 -0.07050752
000090 d0 44 36 bd 38 65 92 bd 0f 35 0a 3d f0 6c 31 3d
       -0.04449922 -0.07148212 0.033742007 0.04331678
0000a0 2c 14 f9 3c a7 32 81 3d be 65 a3 bb ec 53 47 bd
       0.030405127 0.06308489 -0.004986494 -0.04866402
0000b0 04 b2 c7 3c ee cb a2 b9 fd fa 81 3d 80 83 02 bd
       0.024376877 -0.00031050987 0.063467 -0.03186369
0000c0 cf ce f6 bc 6a 6b 83 bc 73 85 85 3d 91 2e 2d bb
       -0.03012791 -0.01604243 0.06519594 -0.002642546
0000d0 5e cf 89 bd 7e 8d 20 3d c3 2a 47 3d 03 76 69 3d
       -0.06729005 0.039197437 0.048624765 0.05699731
0000e0 5d 85 64 bc ad 30 03 3c 7a 8f 83 3d 9c 31 8c ba
       -0.013947812 0.008007211 0.0642385 -0.0010695937
0000f0 dc f1 ff bc fe 09 38 3c db bf 56 3d a1 4a b0 3c
       -0.031243257 0.011232851 0.05242906 0.02151996
000100 36 a5 81 3d d2 18 1e 3d 58 d7 b7 3b ee 79 a5 3c
       0.063303396 0.03859789 0.005610388 0.020199742
000110 fd 25 84 bd c7 b2 df 3c 46 4f ad 3a 3d ec 69 bd
       -0.06452558 0.027306927 0.0013222478 -0.05711006
000120 aa 5d a0 3c 1d a5 2d bd e3 44 9d 3d 91 64 4f 3d
       0.019575913 -0.042393792 0.07679155 0.050633017
000130 07 c4 1c bd 9e 40 04 bd 8e 7f 49 3d 2c b1 81 3d
       -0.038272884 -0.032288186 0.04919391 0.06332621
000140 e5 ca 6e 3d f5 a0 85 bc 5b ce 41 3d 90 b5 6d 3d
       0.058298964 -0.016312102 0.047315937 0.05803448
000150 19 70 0a 3d f5 ba 52 3d 3e e6 71 3d 7e a8 9c 3d
       0.03379831 0.051447827 0.059057467 0.07649325
000160 9f 4a 21 bd 5b dd 1a bd 97 d0 cb 3c b9 57 2e 3d
       -0.039377805 -0.037808757 0.024879737 0.042564128
000170 a5 f1 47 3d 85 a4 94 3d 6a af 9f 3d 80 e9 4b 3c
       0.048814435 0.07257942 0.077971295 0.012445807
000180 31 9b a2 3d 0a f9 4b 3d 45 ef 82 3d f9 2a 26 3d
       0.07939757 0.04979805 0.06393293 0.040568326
000190 46 07 0f bd 96 be 1d 3d 43 e2 5a 3d 2d e5 3a bd
       -0.034919046 0.038511835 0.053438436 -0.045628715
0001a0 d1 cf 7b bd 00 80 6c bc b5 3c da bb 41 4e 66 3d
       -0.061477486 -0.014434814 -0.006660069 0.056226972
0001b0 7a 9e 86 3d c2 e2 24 bc a9 3c 93 bd b4 7a f6 3c
       0.06573196 -0.010063829 -0.071893044 0.030087806
0001c0 6f 24 d8 3c e0 ff 7e bd 52 05 00 3d b1 d5 58 3d
       0.02638456 -0.06225574 0.031255074 0.052938167
0001d0 28 ed 2f 3d c4 2d be bc 1d cc 90 bc 33 0d 08 3d
       0.04295078 -0.023215182 -0.017675454 0.033215713
0001e0 31 c0 b3 3c 85 6f f7 bc 7d 36 51 3c 48 cb b8 3c
       0.02194223 -0.030204544 0.012769339 0.02255787
0001f0 a3 be 9d bd 41 90 f7 3c cf e2 ff 3b b9 56 39 bd
       -0.07702377 0.030220153 0.00780902 -0.04524872
