weights/2dreg/SO2.pth (torch_old, 878137 bytes, 88 tensors)

conv_theta.weightnet.net.0.linear.weight f4 [32, 3]
000000 d1 c7 d3 be 26 63 2c 3e 58 64 10 bf 1d 87 7d 3e
       -0.41363385 0.16834697 -0.5640311 0.24758573
000010 08 f6 06 3f c9 4f 71 3e 19 07 2e bd f9 df d7 be
       0.52719164 0.23565592 -0.042487238 -0.42163065
000020 1e 2d a4 3e 69 1d ee 3e aa c9 b8 3e 33 a6 47 3e
       0.32065672 0.46506813 0.36091357 0.19496994
000030 78 f9 e5 be 27 91 d3 be 4b d5 a1 3e 3a 0e bb 3e
       -0.44916892 -0.4132168 0.31608042 0.36534292
000040 80 f6 a8 3d 0c 0c ee be 15 fa 0b be de 8a 82 3e
       0.08250141 -0.46493566 -0.13669617 0.25496572
000050 3d e5 9f be 6d ed a9 3e f5 36 bd 3d ec 4c 11 be
       -0.31229582 0.33188954 0.09238998 -0.141895
000060 4c f9 e7 3e 13 5a 99 be 87 9a 49 3e 3a a6 e5 3e
       0.45307386 -0.29951534 0.19687854 0.44853383
000070 8f e3 8e 3e 99 6a 15 3f ff 2f 11 bf e2 60 12 be
       0.27907988 0.5836578 -0.5671386 -0.1429477
000080 2c aa fc 3e 64 32 d3 be 8a 08 f4 3e 4d 10 00 3f
       0.4934858 -0.41249382 0.47662765 0.50024873
000090 7a e2 b8 3e 58 6e a7 3e 73 f2 61 be 10 3e 25 bd
       0.36110288 0.32701373 -0.22065143 -0.04034239
0000a0 e0 ef 50 3d ea 95 b2 be d0 0f 63 3e 67 8f 8f 3e
       0.051010013 -0.3488 0.22174 0.28039095
0000b0 a4 53 4e be 70 2c f9 be d8 17 15 bf e0 64 d6 be
       -0.20149094 -0.48666716 -0.5823951 -0.41873837
0000c0 af 9c ab 3e e4 d6 e9 bd 22 5c e5 3d 61 99 1d 3b
       0.33517978 -0.1141794 0.111992136 0.002404772
0000d0 c5 fc 9a be 49 ec bf 3d c1 a8 66 3c 84 85 6a be
       -0.30270973 0.0937124 0.01407832 -0.22902495
0000e0 aa 88 dc 3e f3 00 9f be 4f ec e4 3e 8e a8 82 3e
       0.43073016 -0.31055412 0.4471154 0.25519222
0000f0 0c 49 87 3e a3 bc f4 be ee 76 44 bd 66 f3 48 be
       0.26422918 -0.47800168 -0.047964983 -0.19624099
000100 aa fe 84 3e cf c4 19 3e e9 50 06 bf 58 a7 ff bd
       0.25975543 0.15016483 -0.5246721 -0.1248309
000110 12 89 58 be d4 dc 71 3e ed 4a 3e 3e 66 85 ec 3d
       -0.21146038 0.23619395 0.1858327 0.11548881
000120 f4 a4 31 3e 93 0c 0c 3f be f8 aa be cc cc b9 3e
       0.17348081 0.54706687 -0.333929 0.3628906
000130 8a 0b 01 3f a3 cb 32 3e 13 da f4 3e 35 00 0c 3f
       0.5040823 0.17460494 0.47822627 0.54687816
000140 76 1d 05 bf 38 49 08 bf 23 b8 64 3d 0a 0d 0e 3f
       -0.5199808 -0.5323672 0.05583967 0.55488646
000150 a2 c1 e4 be 90 6f ba be 24 8f 9e 3e 7b 9e 46 be
       -0.4467898 -0.3641324 0.30968583 -0.19396393
000160 d8 c5 70 3e 3d ca 85 bb 7a db 8c 3e 99 2a c9 3d
       0.23512971 -0.0040829466 0.27511197 0.09822578
000170 fc 8f ff be ff 20 e0 3e 74 e8 2f 3b 98 be 6c 3e
       -0.4991454 0.43775174 0.0026841434 0.23119581

conv_theta.weightnet.net.0.linear.bias f4 [32]
000000 75 07 00 bf 84 d4 ad 3c 4f e2 a5 be c0 4e 08 bf
       -0.5001138 0.0212195 -0.32399222 -0.5324516
000010 cc b6 10 3f a4 71 90 3c 1b 4a 4b be 27 8b 0e 3f
       0.56528926 0.017632313 -0.19852488 0.5568108
000020 f0 a6 a9 be 86 e7 a6 be 37 8d 8b bc f9 e2 b4 bd
       -0.33135176 -0.32598513 -0.01703511 -0.08832354
000030 83 3f e4 be 1c a2 05 bf 9b f8 0b bc 53 6a 9f be
       -0.44579706 -0.52200484 -0.008543159 -0.31135806
000040 d8 8e b8 be 2c b6 66 be fd 1d 11 3f ef 29 42 3e
       -0.3604648 -0.2253043 0.56686383 0.18961309
000050 78 10 30 be 00 1b ed be dc 0d 13 3e aa 3f e4 3e
       -0.17193782 -0.46309662 0.14360756 0.44579822
000060 2d af 97 bd 77 2f 32 3e 07 a1 02 3f d9 56 7d 3b
       -0.07406459 0.17400919 0.5102696 0.0038656502
000070 14 a3 e2 3e ff d4 11 3d 78 9f f8 bd 5d 40 e4 be
       0.44265044 0.03560352 -0.12139791 -0.44580355

conv_theta.weightnet.net.0.bn.weight f4 [32]
000000 e3 7c 80 3f c6 e2 7c 3f 10 7e 83 3f c9 b2 7e 3f
       1.0038112 0.9878353 1.0272846 0.99491554
000010 a5 e4 83 3f 86 1d 80 3f d4 4d 80 3f be 7a 80 3f
       1.0304152 1.000901 1.0023751 1.0037458
000020 5d fd 7e 3f 34 0e 81 3f 69 5e 7f 3f 38 b9 7d 3f
       0.9960535 1.008246 0.99753433 0.99110746
000030 8a df 7c 3f c6 5d 7f 3f fb c0 80 3f 64 53 80 3f
       0.98778594 0.9975246 1.0058893 1.0025449
000040 4d 0c 7c 3f 42 cd 7d 3f 6b ab 80 3f 2e 8b 81 3f
       0.9845627 0.99141324 1.0052313 1.0120599
000050 d8 60 82 3f 50 33 7c 3f 47 7b 81 3f 5b a1 83 3f
       1.0185804 0.98515797 1.0115746 1.0283617
000060 74 f1 82 3f ca 35 81 3f 19 a0 82 3f b4 41 82 3f
       1.0229936 1.009454 1.0205108 1.0176301
000070 b2 43 76 3f 37 53 7f 3f 82 bd 80 3f ba 0f 77 3f
       0.96197045 0.9973635 1.0057833 0.9650837

conv_theta.weightnet.net.0.bn.bias f4 [32]
000000 8b 20 bc b8 a8 cf c8 bc f6 8f 6e 3a 81 61 53 bc
       -8.9706e-05 -0.02451308 0.00091004313 -0.012901665
000010 aa 0f 5c 3c f0 2e 0c b7 58 e5 9d 3c 09 97 dc 3a
       0.013431469 -8.355579e-06 0.019274399 0.001682968
000020 3a 9e 8f bc ae 5d 7d 3c a2 fb 88 bb 09 51 42 bb
       -0.017531503 0.0154642295 -0.0041803876 -0.0029650351
000030 04 a0 4d bc 29 97 8e bb f4 94 c7 3b 1f 63 6e 3b
       -0.012550358 -0.004351516 0.0060907546 0.0036374999
000040 48 f3 4c bc 2d e9 5b bc 65 5c 78 3b 16 4c f2 ba
       -0.012509175 -0.013422293 0.0037896868 -0.001848581
000050 54 27 25 3d 6e 0b ea 38 2a 6d 6f 3c 96 99 9f bc
       0.04032071 0.000111601184 0.014613429 -0.019482415
000060 82 2d 57 3b f3 ce a7 3b 6a 2b e4 3a b1 07 bc 3c
       0.0032833521 0.005121106 0.0017407958 0.022952886
000070 40 95 0d bd f7 41 32 bc 78 cb d5 3c a6 13 3e 3c
       -0.034566164 -0.010879985 0.026097998 0.011601364

conv_theta.weightnet.net.0.bn.running_mean f4 [32]
000000 d2 14 2c c1 10 5f 9d 41 cf 40 38 c0 9a a3 5c 41
       -10.755083 19.671417 -2.8789556 13.789942
000010 d9 1b f2 bf 68 17 1e c1 d0 f1 db bf 1a 8f 3c bf
       -1.8914748 -9.880714 -1.718317 -0.73655856
000020 28 91 3c c0 25 89 af 41 03 17 11 41 6a d3 c8 41
       -2.9463596 21.941965 9.068118 25.10323
000030 64 96 10 40 86 a4 03 c1 a7 1f ff 3f c4 eb d0 c1
       2.259179 -8.227667 1.9931535 -26.11512
000040 0b 5c ce be 40 d9 b2 c0 83 06 ba 40 94 49 92 41
       -0.40304598 -5.58902 5.813295 18.285927
000050 f4 44 5b c1 44 97 21 41 49 8c 08 c1 a4 5d 03 41
       -13.704334 10.09943 -8.534249 8.2103615
000060 6a 6c ab 40 b4 35 8d 41 dc 1c 90 3f b8 9b 7c 41
       5.356984 17.651222 1.1258807 15.788017
000070 ab e4 69 bf e1 3b bf 40 58 07 28 c1 48 41 b3 40
       -0.91364545 5.9760594 -10.501793 5.601719

conv_theta.weightnet.net.0.bn.running_var f4 [32]
000000 ea b5 4c 41 03 74 10 42 7a ba ba 40 2d 66 97 41
       12.794413 36.113293 5.8352633 18.92489
000010 19 dc b3 40 b7 af 26 41 0c fa 3a 40 ac 06 18 3f
       5.6206174 10.417899 2.9215117 0.5938518
000020 28 b7 43 40 0f c9 2e 42 5a ff 1e 41 f0 44 61 42
       3.058054 43.696346 9.937342 56.31732
000030 3d a3 66 40 c5 c1 c4 40 d8 b8 26 40 67 ca 70 42
       3.6037133 6.1486535 2.605032 60.19766
000040 f2 e6 ef 3e 52 ea 8a 40 c7 90 b6 40 a0 8c f0 41
       0.46855885 4.3411036 5.705173 30.068665
000050 21 d4 97 41 94 c1 23 41 a6 ce d4 40 ff 31 b0 40
       18.978579 10.23476 6.6502256 5.506103
000060 bc 82 26 41 4b 51 e9 41 dd 2a 25 41 76 c7 b7 41
       10.406918 29.164694 10.322965 22.972393
000070 95 a6 8c 40 fb ff 79 40 4d 66 3a 41 0f 11 5f 40
       4.3953347 3.9062488 11.649976 3.4854162

conv_theta.weightnet.net.1.linear.weight f4 [32, 32]
000000 94 44 11 3e ce 32 6d bd 44 be 79 bd 53 fb c7 3d
       0.14186317 -0.05790978 -0.060972467 0.09764733
000010 50 ad 83 3d 4a 6a b9 3d 83 34 e6 3d 31 15 fe bd
       0.06429541 0.09053476 0.112404846 -0.12406386
000020 b3 a4 98 bd bd c8 b5 bd 01 ca 08 bc 54 cc 60 3c
       -0.07453289 -0.088761784 -0.008348943 0.013720591
000030 99 14 b1 bc a1 19 47 3d f4 5f 03 be c3 cd 3e bc
       -0.021616267 0.048608426 -0.12829572 -0.011645737
000040 26 ae 10 be bd 7a 73 3c 7c fe 54 bd ae d0 05 be
       -0.14128932 0.014860806 -0.052000508 -0.13067886
000050 be 17 c5 bc 53 93 27 bc 8b a0 2e be 73 db 07 be
       -0.024059173 -0.010227996 -0.1705343 -0.13267307
000060 63 12 01 be 27 11 c9 3d 4f d8 2e be 8e cc 12 be
       -0.1260467 0.09817725 -0.17074703 -0.14335844
000070 e3 39 0a be f1 c6 82 3d 9a 63 cc bd a6 89 f7 3d
       -0.13498645 0.06385601 -0.09979935 0.12086801
000080 55 34 de 3d 16 44 e0 bd dc 6c 5f 3d 16 23 ea bc
       0.10849825 -0.10950486 0.054547176 -0.028581183
000090 54 f8 0a be 4f c3 ce 3c e5 53 cb bc 61 f8 c2 3d
       -0.13571292 0.025239615 -0.024820277 0.09520031
0000a0 28 3b 61 ba 3c 0f db bd 33 0f 09 be 76 9e 48 be
       -0.0008591884 -0.10696265 -0.13384704 -0.19591698
0000b0 4c 9e 93 3b 7d 5f cd bd 69 bd e1 3d d1 fc 0c 3e
       0.0045049544 -0.100279786 0.11022455 0.13768317
0000c0 c8 2b 22 3d 52 75 2e be fd 8f 1f 3d bc da 3b be
       0.039592534 -0.17036942 0.038955677 -0.1834516
0000d0 31 66 a2 bd a5 7b 54 bd d4 05 69 3d 68 b4 21 be
       -0.07929648 -0.05187573 0.056890324 -0.15791476
0000e0 b0 79 23 be 30 52 88 3d ca 63 09 bc 21 fd 00 be
       -0.15964389 0.06656301 -0.008385608 -0.12596561
0000f0 d1 ca 0c 3e 03 39 c6 bd 5f 2a 5a 3d e6 b7 06 3d
       0.13749243 -0.09678843 0.053263064 0.032890223
000100 b3 e6 72 3d 3f 6c e2 3d 20 14 0d 3e c4 b6 16 3e
       0.059302043 0.110558026 0.13777208 0.14718157
000110 ba 00 12 3e bf a7 0a 3e 4d dd a6 3c b2 e5 9f 3d
       0.1425809 0.13540553 0.020369196 0.07807483
000120 5b 99 20 be 9e 8e bd bd fa aa 06 3e fb 01 87 bd
       -0.156835 -0.09255718 0.1315116 -0.065921746
000130 dc b2 b1 3d 64 c4 7e 3c de 05 44 be be d9 a5 bd
       0.08676693 0.015549753 -0.19142863 -0.08098172
000140 85 4e 7f bd 78 45 9d 3c d1 4b 74 3d ef d6 2e be
       -0.06233074 0.019198164 0.059642617 -0.17074178
000150 23 47 11 3e 35 4b 15 be 4b 86 00 3e 9d 2a ee 3d
       0.14187293 -0.1457947 0.12551229 0.116292216
000160 ca 92 71 3d 47 09 47 bd 57 9f 93 3c 99 7d 3f be
       0.05897788 -0.048592832 0.018020315 -0.18700255
000170 63 1c ab bb 41 51 cd 3d 6d 89 e2 3d f7 e8 24 be
       -0.00522189 0.100252636 0.11061368 -0.16104494
000180 8e a2 b7 bd 9f a2 e0 3d c2 e4 8a ba 0e 9f 1d 3d
       -0.08966552 0.109685175 -0.001059674 0.038481764
000190 95 b2 ac bd 75 88 ef bb 18 79 e6 bd b3 18 fb 3d
       -0.08432499 -0.007309968 -0.112535655 0.122605704
0001a0 19 aa 0a bc 02 e5 f3 3d 82 18 d8 3c 77 65 75 bd
       -0.008463406 0.11908914 0.026378874 -0.059911218
0001b0 5c b0 9d 3d 03 35 f4 3c f8 84 a4 bd 98 ea 67 bd
       0.076996535 0.029810434 -0.08033174 -0.05662021
0001c0 41 3d c8 bc f1 78 28 3e 65 fa b6 3d 2d 52 ee bd
       -0.02444327 0.16452385 0.08934478 -0.116367675
0001d0 4a c5 92 3c 8b d8 30 3e 6b 1e a7 bd 70 55 08 be
       0.01791634 0.17270105 -0.08160099 -0.13313842
0001e0 81 71 24 be 12 b2 0c bd 83 3e b7 bd 03 5c ab 3d
       -0.16058923 -0.03434951 -0.0894747 0.08367159
0001f0 47 cb a3 bd 12 ed 57 3d 4d 38 63 bd 2c 16 f2 3d
       -0.079977565 0.052716322 -0.055473614 0.11820635
000200 7a f6 2a 3e 77 6f f8 bd fe 2b c1 3c f3 5a a7 bb
       0.16695586 -0.12130635 0.023580547 -0.0051072775
000210 8d 3f e9 3d f5 8b 33 3e d9 8a 73 bd 3a 6e 3d 3e
       0.113890745 0.17533858 -0.059458587 0.1849908
000220 45 c3 3c bd 1f 50 24 3e 62 2c 82 3b 5f b7 c9 3d
       -0.04608466 0.16046189 0.003972576 0.098494284
000230 95 b3 2c be 8f d8 a5 bd 8f 74 14 3e 68 ed 3d 3c
       -0.1686538 -0.08097946 0.14497589 0.011592247
000240 5b f8 19 3e 59 ef 0e be 1e cc 0a 3e 40 eb 7f 3d
       0.15036146 -0.13958491 0.13554427 0.06248021
000250 06 f4 83 3d ca 72 e8 bd d3 65 e3 bd df 2d d4 3d
       0.06443028 -0.11350019 -0.11103406 0.10360312
000260 13 ee 0d 3e 60 c7 c9 3d 72 30 ab bd 8f 92 8b bc
       0.1386035 0.09852481 -0.083588496 -0.017037658
000270 2a 55 c0 bd 80 58 26 3e 20 f7 44 bc c8 f8 b3 3d
       -0.09391244 0.16244698 -0.01202181 0.08787686
000280 be fc 24 3e a2 e2 2f be 1a 34 96 3d d9 c1 30 3d
       0.16112038 -0.17176297 0.07334156 0.043153618
000290 7b b7 1e be 68 66 8f 3d a7 6e 07 3e 25 5b 17 be
       -0.1549968 0.07001954 0.13225804 -0.14780863
0002a0 69 aa ca 3d 81 d8 82 3d 35 5e 86 bd 37 f1 de 3d
       0.098957844 0.06388951 -0.06560937 0.10885852
0002b0 6b cf 0a be 8b 6f 02 3d 21 65 83 bd d2 4b 29 be
       -0.13555686 0.031844657 -0.06415773 -0.1653283
0002c0 3c 49 d9 bd e3 9a 0a 3d 87 98 26 3e 9f 84 aa 3d
       -0.106096715 0.033839118 0.16269122 0.08326077
0002d0 d1 fb 0f be 14 68 8b 3d 57 2e 2c be 68 4e ab bc
       -0.14060904 0.06806961 -0.16814552 -0.02091141
0002e0 5b 86 9a 3d 43 c8 1e 3e 07 8a ba 3d 6d df 14 be
       0.075451575 0.15506081 0.09108358 -0.14538355
0002f0 be c6 ef bd bb 70 b8 3c 0a 27 27 3e 79 e2 a0 3d
       -0.11707829 0.022514692 0.16323486 0.07855696
000300 68 91 3a 3e 24 90 12 be 60 d3 a4 bc 01 51 23 3e
       0.1821953 -0.14312798 -0.020120323 0.1594887
000310 ab 01 8b 3c 27 08 f9 3d b4 7b 27 bd 5d 10 76 3d
       0.016968569 0.12159758 -0.040889457 0.0600742
000320 11 76 03 3e ab a3 cb bc 53 18 16 3e a5 c0 be bd
       0.12838008 -0.024858316 0.14657716 -0.09314088
000330 e6 40 fd bd 35 31 00 be 2b dd f2 bd c8 e2 e5 bd
       -0.12365894 -0.12518771 -0.11858591 -0.11224896
000340 4b 97 15 be 54 39 39 3e 12 eb 0a 3e 07 fc 34 be
       -0.14608495 0.18088275 0.13566235 -0.17674266
000350 2b f2 8c bd b6 0d 0e be bc 20 c6 bd ae 5d d6 bb
       -0.068821274 -0.13872418 -0.09674212 -0.006541929
000360 af 36 67 bd af 93 15 3d 21 9d 29 3e 53 80 cc bd
       -0.056448635 0.036517795 0.16563846 -0.099854134
000370 a5 05 ed 3b c1 1f 7f bc 9a ae bc 3d 70 97 a7 bd
       0.007233339 -0.015571536 0.0921299 -0.08183181
000380 26 4c bf bd 34 2e 0d 3e 47 40 0e be cf 43 bf bd
       -0.09340696 0.13787156 -0.13891707 -0.09339105
000390 0f e0 43 bc bb e6 c4 bd 9e 86 88 bd 17 ea e8 3d
       -0.011955275 -0.09614321 -0.06666301 0.11372774
0003a0 5c f6 0e 3e af de b8 bd ba 0e 58 bd 32 43 83 3d
       0.13961166 -0.090268485 -0.05274842 0.06409301
0003b0 63 18 23 be 6a 0f b5 bd 73 9c e8 3d 13 27 17 3e
       -0.15927272 -0.088408306 0.11357965 0.14761
0003c0 42 40 f8 bd dd 72 3d bd 38 20 85 bd de 53 ff bd
       -0.12121631 -0.04625212 -0.06500286 -0.12467168
0003d0 82 b5 d1 3c 86 78 32 bc 18 c3 8f bd 54 1c 35 3c
       0.025599245 -0.010892993 -0.07019633 0.011054117
0003e0 ba 9f fe 3d 64 8d e6 bd ac c1 10 bd 4d de 86 bd
       0.12432809 -0.11257437 -0.03534095 -0.06585369
0003f0 c9 9c 64 bd 24 77 ae 3d d5 8a 0d 3e bd 95 0d 3d
       -0.055813584 0.08518818 0.13822491 0.03456663

conv_theta.weightnet.net.1.linear.bias f4 [32]
000000 dc 4a c5 3d b7 00 c9 3d 6a be 1a 3d 1c 14 51 bd
       0.09633419 0.098145895 0.03777925 -0.05104457
000010 1d b7 3c 3d 46 c9 1b 3e fc 4f 3d be 48 5b ca bd
       0.046073068 0.15213498 -0.18487543 -0.09880692
000020 1e ba 27 3d 0c b1 2e 3d 14 94 e9 bb 9e 0f 16 3e
       0.04094898 0.042649314 -0.007128248 0.14654395
000030 7d 14 19 be 20 2c 7f 3d 08 e3 d3 3d 00 6a fd bd
       -0.14949222 0.06229794 0.10346037 -0.123737335
000040 06 05 2d be 3e cf f6 3d f7 e1 da 3d c8 b4 d8 bd
       -0.16896448 0.12051247 0.106876306 -0.10581356
000050 eb ae 20 3e 6f 62 db bd 56 4a f2 3d 3e 61 0a 3e
       0.15691726 -0.10712134 0.11830585 0.13513657
000060 8d 87 ce bd a3 37 cf bd ed 5f 14 be 92 65 32 3e
       -0.10084448 -0.10118034 -0.14489718 0.17421558
000070 65 51 0d 3c b0 c5 55 3d 90 37 15 3c 69 01 0b be
       0.008625363 0.052190483 0.009107485 -0.13574757

conv_theta.weightnet.net.1.bn.weight f4 [32]
000000 d8 e5 8a 3f ea e3 7c 3f 00 38 80 3f a9 7d 80 3f
       1.0851393 0.9878527 1.001709 1.0038348
000010 58 b3 82 3f 74 86 80 3f ae 5c 81 3f 08 d6 79 3f
       1.0210981 1.0041032 1.0106409 0.9759221
000020 a4 33 80 3f ca fd 79 3f 72 a7 7d 3f 8e 4a 7c 3f
       1.001576 0.97652876 0.99083626 0.9855126
000030 74 dc 7d 3f e0 a8 77 3f a5 93 81 3f 72 bb 7d 3f
       0.9916451 0.9674206 1.0123183 0.99114144
000040 29 4d 7f 3f 82 c3 7c 3f 37 30 7c 3f 1a f5 7d 3f
       0.9972711 0.9873582 0.9851107 0.9920212
000050 ff 6a 82 3f eb da 83 3f 71 1c 7a 3f 11 c0 7e 3f
       1.0188903 1.0301183 0.9769965 0.9951182
000060 3f f5 82 3f 67 29 81 3f 08 85 86 3f fb 7e 80 3f
       1.0231093 1.009076 1.0509348 1.0038751
000070 43 fd 79 3f 03 5f 7f 3f 47 93 7e 3f 2a c3 82 3f
       0.9765207 0.9975435 0.9944348 1.0215809

conv_theta.weightnet.net.1.bn.bias f4 [32]
000000 d8 13 e8 3c a7 cd 20 bc a4 c0 92 3b a4 0d 53 bc
       0.028329775 -0.009814656 0.004478531 -0.01288167
000010 e3 8b e4 3c 88 fd cc 3b 14 f5 6a b8 97 c8 a1 bb
       0.027898734 0.006255809 -5.6018194e-05 -0.0049372423
000020 0e a6 c8 bb e5 31 73 bc e5 69 04 bc 23 6f c4 bc
       -0.006123311 -0.014843439 -0.008081888 -0.023978775
000030 3a 2c cf bb b0 50 b0 bc 89 af e6 3c 4f 07 ad ba
       -0.006322411 -0.02152285 0.028159874 -0.0013201031
000040 ad c1 3a 3b a9 0f 3c bc 1e 7e 86 bc f8 05 d8 bb
       0.0028496787 -0.011478343 -0.01641756 -0.0065925084
000050 d1 d9 86 3c 21 1b ec 3c 62 03 3a bc 1f 3c 85 bc
       0.016461285 0.02882153 -0.011353346 -0.01626402
000060 39 27 43 3c 76 ff c4 3a d9 63 27 3d b0 fd 73 3c
       0.011911207 0.0015029747 0.040866707 0.014892027
000070 d4 4e ee bc e4 05 c5 bb 01 88 b1 bb 94 0e ab 3a
       -0.029090323 -0.006012665 -0.0054178243 0.0013050609

conv_theta.weightnet.net.1.bn.running_mean f4 [32]
000000 55 74 01 be c6 23 cd bd 58 a4 0c 3e da c6 8c bd
       -0.12642033 -0.10016589 0.13734567 -0.068738654
000010 e4 9e 8d 3e 27 98 37 3e ff 34 75 be de 5b 48 be
       0.27660286 0.17929135 -0.23945998 -0.19566295
000020 cb de ff ba c0 5c 24 be 9d 91 cc bc 89 6e 73 3d
       -0.0019521354 -0.16051006 -0.024971778 0.059431586
000030 cc 14 8f be 74 78 5f bd 13 4f e2 3c 9e a1 c9 bd
       -0.27945554 -0.054558232 0.027625596 -0.09845279
000040 f4 59 03 be 5a 75 ed 3d fa 9c b5 3b 87 57 90 be
       -0.12827283 0.11594649 0.0055423947 -0.28191778
000050 7c eb 9b 3e eb 0e a0 be fa 6c 77 3e d4 91 bc 3d
       0.30453098 -0.31261382 0.24162665 0.09207502
000060 6d 0d 90 be bf 4c 6d be fd 2f c3 be 92 4b 52 3e
       -0.28135243 -0.23173808 -0.3812255 0.2053664
000070 78 a3 84 3c 76 8e 13 3e ac 2d 23 bd 9f a8 a2 be
       0.01619123 0.14409813 -0.039838478 -0.31769273

conv_theta.weightnet.net.1.bn.running_var f4 [32]
000000 3d 81 44 3d d5 ac 9f 3e ca 9f 33 3e c2 b3 a0 3d
       0.047974814 0.31186548 0.17541423 0.07846786
000010 bc 4b a4 3d 79 0a 9e 3d 13 7c e9 3d 4b 42 2a 3d
       0.08022258 0.07716841 0.114006184 0.04156713
000020 bb f6 ec 3d 7f 62 7e 3e c6 45 89 3d 9a 42 1d 3e
       0.115704976 0.24842261 0.06702761 0.15357438
000030 71 cc 76 3c 94 45 b2 3e 46 57 1c 3d 45 08 77 3d
       0.015063391 0.3481871 0.038169168 0.06031062
000040 77 da 2d 3d a4 d5 86 3d 92 8f 65 3e 64 be 29 3e
       0.042444672 0.065837175 0.22418049 0.16576535
000050 c1 76 6c 3e 13 65 5f 3d c7 28 82 3d 51 e5 00 3d
       0.23092176 0.05453975 0.06355434 0.031468693
000060 e2 14 95 3d 44 04 5e 3d f2 a5 24 3d 34 aa 90 3d
       0.07279374 0.054203287 0.04019732 0.07063714
000070 d0 c0 04 3e 63 7d 36 3d b3 42 68 3e 3e 81 8d 3d
       0.12964177 0.04455317 0.22681694 0.069094166

conv_theta.weightnet.net.2.linear.weight f4 [16, 32]
000000 eb 7f a1 bd 17 5a 0b be fa de 00 3b 41 e1 04 3e
       -0.078857265 -0.13608585 0.0019664154 0.12976553
000010 e9 43 66 3d af 79 d8 bd 3f fe 6d 3d 36 0c 90 bc
       0.056217108 -0.10570084 0.058103796 -0.017583948
000020 39 5c 73 39 81 4d 03 be 83 6b d3 3d 1c 0d 32 be
       0.00023208642 -0.12822534 0.103232406 -0.17387813
000030 01 87 0e 3e e9 2f 69 3d 59 c2 68 bd ac a9 3b 3d
       0.13918687 0.056930456 -0.05682597 0.04581611
000040 07 9e c2 3c 19 31 a1 bd a6 30 9b 3d 77 cf 17 3e
       0.023756994 -0.07870693 0.07577638 0.14825235
000050 44 fe e3 bd 4b 48 a2 bd e7 9a 31 3b 3c d6 21 be
       -0.11132482 -0.07923945 0.0027100386 -0.1580438
000060 09 f3 27 3e 71 92 e0 bd b9 86 b5 3d 50 69 11 3e
       0.16401304 -0.109654315 0.08863587 0.1420033
000070 b5 1b 0c 3e ad c3 c2 3d a9 99 c6 bc 34 b6 a4 bc
       0.13682444 0.095099784 -0.024243193 -0.020106412
000080 69 e4 de bd c8 c0 16 3d d3 dd 86 3d 90 74 15 be
       -0.108834095 0.036804944 0.06585278 -0.14595246
000090 4f 74 f4 3d 23 d6 41 3d 60 9a 17 3e c3 84 c4 bd
       0.119362466 0.047323357 0.14804983 -0.09595635
0000a0 89 a8 00 3e e8 f0 db 3d 9a 35 0d be f5 59 29 3e
       0.12564291 0.107393086 -0.13789979 0.16538222
0000b0 77 9e 66 bc ab 63 97 3d 84 d5 c6 3d a0 a8 77 3d
       -0.014075867 0.07392057 0.097086936 0.060463548
0000c0 0e 5d 8e bd c4 97 ae 3d af 0b 2b 3e ce 28 e6 bd
       -0.069513425 0.08525041 0.16703676 -0.112382516
0000d0 fe d5 11 3e f5 a3 e3 3c aa 95 5e bb b2 89 65 bd
       0.14241788 0.027788142 -0.0033963718 -0.05603952
0000e0 52 a2 65 3d 2b ad 0f 3e 3b af 3f be 5a 82 1a bd
       0.056063004 0.14030902 -0.18719189 -0.03772197
0000f0 e3 c1 3a bd 73 4a 32 3e c6 33 14 3e 2e 35 c3 bd
       -0.04559506 0.17411213 0.14472875 -0.095316276
000100 5d 18 33 3e 06 da 88 3d 99 b7 24 3e 90 80 c5 bd
       0.17489763 0.0668221 0.16085662 -0.09643662
000110 a4 4f d2 bd da 58 22 be 8c dd 6e bd 30 c9 2c 3e
       -0.102690965 -0.15854207 -0.058316752 0.16873622
000120 3d 69 67 3d 54 c7 49 3d 82 86 02 3e d3 01 f3 bd
       0.056496847 0.04926236 0.12746623 -0.11865582
000130 4f 81 02 bd ac b2 d1 3a ab a2 ac 3d ab 8a a2 bd
       -0.0318616 0.0015998683 0.08429464 -0.07936605
000140 d0 64 a9 bd 25 55 b1 bd 74 77 de 3d 51 d7 18 be
       -0.082711816 -0.08658818 0.108626276 -0.14925887
000150 0b 32 d9 bd a5 fd bc bc b6 e6 95 3d ab 43 b2 3d
       -0.10605248 -0.023070166 0.07319395 0.08704313
000160 e4 f9 b1 3d 11 97 ec bd 2b 06 4b 3e 90 0d 22 bd
       0.08690241 -0.11552251 0.19826572 -0.039563715
000170 85 2f 2d bc 75 61 8f bc 0b a0 a4 bd d3 16 b4 3d
       -0.010570412 -0.017502526 -0.08038338 0.08793416
000180 29 9f 1c be ef 63 3b 3c 24 a5 f8 3c 93 b2 e8 3d
       -0.1529509 0.0114374 0.030352183 0.11362185
000190 fd c5 c4 bd 2d 2b 19 3e d4 b2 37 3b 5a c7 cf 3d
       -0.09608076 0.14957877 0.0028030174 0.10145445
0001a0 e1 cb 0f 3e 6d 1c 21 3e 9a 3a ee 3d bf 1f 0f be
       0.14042617 0.157335 0.11632271 -0.13976954
0001b0 6f 88 35 bd 32 08 44 3c c4 f7 15 3c 82 54 92 b8
       -0.044319566 0.011964845 0.00915331 -6.977563e-05
0001c0 02 be 30 bc 25 5f 02 3c d3 f5 74 3d 10 49 5d 3d
       -0.010787489 0.007957255 0.05980475 0.054024756
0001d0 21 e7 17 3e 4b 00 ec bd 08 db 18 bd 54 ab 27 be
       0.14834262 -0.115234934 -0.03731826 -0.1637395
0001e0 97 91 35 be ad ec f1 bc db a0 26 3e f8 d2 2a 3e
       -0.1773132 -0.029531801 0.16272299 0.1668204
0001f0 8a 1c b2 bd a5 b8 dc bd 2a 18 d0 3c 65 31 64 bd
       -0.0869685 -0.10777406 0.025402147 -0.05571117
000200 fe 54 4f 3e a5 fa 57 bd fd 57 92 bc 06 ba aa bd
       0.20247266 -0.052729268 -0.017864222 -0.083362624
000210 d7 90 1b be f8 44 c5 3d 6f 25 ec 3d cf b5 d0 bd
       -0.15191971 0.09632295 0.115305774 -0.10190927
000220 27 e7 dc bd 79 be 83 bd 8c 3a 23 3d b9 20 81 bd
       -0.10786276 -0.06432814 0.039850757 -0.063050695
000230 3e 48 d0 bd bf 28 70 3d 9c e6 55 bd 7a 6d 20 3e
       -0.10170029 0.05863261 -0.05222188 0.15666762
000240 45 d0 75 3d 46 6c e4 3d df 79 0d 3e 5f c0 23 be
       0.060013074 0.11153464 0.13816021 -0.15991352
000250 fc 8c c7 3d 31 81 ba 3d 11 e7 29 be c2 e7 ce bd
       0.097436875 0.091066726 -0.16592051 -0.10102798
000260 71 c3 fc 3d 1d f4 8c bd dd 1f 82 bd 47 07 a7 ba
       0.12341965 -0.068824984 -0.06353734 -0.0012743258
000270 5b cd f6 3d c5 4c 70 bd ab e2 51 3d 4d 8a 2e 3e
       0.12050887 -0.058666963 0.051241558 0.17044945
000280 6b 0e b2 3c c4 49 9b bb b1 bb e8 3d 53 0b 2f be
       0.02173539 -0.004739018 0.11363924 -0.17094164
000290 f6 82 9b bd 3a ec 27 be 45 b8 e8 bd 41 49 16 3e
       -0.07593338 -0.16398707 -0.113632716 0.14676382
0002a0 64 b6 b9 3d 83 50 78 bd 51 e3 58 3d 7c 71 88 bd
       0.090679914 -0.060623657 0.05295116 -0.066622704
0002b0 b8 75 1a be ac 89 29 3e 11 09 c5 3d 33 7a 5b 3d
       -0.15083969 0.16556424 0.0962087 0.053583335
0002c0 57 cd fa 3d 73 5c 09 be cf f6 81 bd b8 17 fc bc
       0.12246197 -0.13414173 -0.06345903 -0.030773029
0002d0 ec 22 45 3c a2 a1 51 3e ab 34 4d 3d 28 c0 97 bd
       0.012032252 0.20471814 0.050099056 -0.07409698
0002e0 37 0f 27 3e 78 8a 57 3d 31 17 86 3d d4 c4 da 3d
       0.16314398 0.05262229 0.06547392 0.10682073
0002f0 19 ab 09 3e 9d fc 07 3e 99 58 ce bd 3c 42 1e 3e
       0.13444175 0.13279958 -0.100754924 0.15454954
000300 fd c1 90 bd a5 6b 8c bd ba 9f e8 3d dd 39 80 bd
       -0.0706825 -0.06856469 0.113585904 -0.062610365
000310 96 ed 1d be 78 4e c9 bc 33 3c bc 3d 9c 69 a6 bd
       -0.15422663 -0.02457355 0.091911696 -0.08125612
000320 c2 30 be bd 12 d4 bf bd db c1 ce bd 88 02 b4 bd
       -0.092866436 -0.09366621 -0.10095569 -0.08789545
000330 08 6b 27 3e 7b f7 03 3e d7 da e1 3d f7 1c 9c bc
       0.16349423 0.12887375 0.110280685 -0.01905678
000340 d2 83 97 bd 3a d3 c1 bd 0f 4a 2a be 40 32 a2 3d
       -0.073981896 -0.094641164 -0.16629814 0.07919741
000350 63 e6 39 3d 9f 28 28 3e 2c e7 54 bc 65 51 c3 bd
       0.04538573 0.16421746 -0.012994569 -0.09537009
000360 fc 3f bd 3d 6e b0 0d be 0b cf e7 bb a0 5e 91 bd
       0.0924072 -0.13836834 -0.007074242 -0.070981264
000370 07 52 11 bd 78 67 8c bd 5e fc 1d 3d b0 2f 90 3d
       -0.035478618 -0.068556726 0.038570754 0.07040346
000380 20 f8 58 3e b0 7c c3 3c de a4 1f 3e aa b0 dc bd
       0.21188402 0.023863167 0.15590236 -0.107758835
000390 8d d1 0f be 32 01 09 be 5e de 91 3c 93 93 32 bd
       -0.14044781 -0.13379362 0.017806228 -0.04359777
0003a0 1f 2d 8e 3c 8b 97 19 bb 22 e1 03 be de 34 27 3e
       0.0173555 -0.0023436274 -0.1287885 0.16328761
0003b0 5d 68 d5 bd 77 ef b2 bc df de a0 3d 94 d0 35 3d
       -0.10420296 -0.021842701 0.07855009 0.04438837
0003c0 0e a8 67 3d e2 3c 55 3d 7c fd 20 3d f6 0b ba 3d
       0.056556754 0.052060015 0.03930424 0.090843126
0003d0 83 c0 05 be aa a8 58 3d 15 b9 9e 3d c1 0d 53 3d
       -0.13061719 0.052895226 0.07750145 0.05152679
0003e0 3d 31 06 be 06 e4 d9 3d cb f4 d7 bd 55 b5 05 3e
       -0.1310472 0.10639195 -0.105447374 0.13057454
0003f0 09 aa 9b 3d ad 20 a3 3d 32 50 7b bd 2b dc 04 3e
       0.07600791 0.07965217 -0.061355777 0.12974612

conv_theta.weightnet.net.2.linear.bias f4 [16]
000000 90 45 2d 3c 3f 1e b3 bd 90 cf 68 bd 73 6e ef bd
       0.010575667 -0.08746003 -0.056838572 -0.116909884
000010 fd d8 54 bd 1e d1 25 3c 78 b1 e7 3c 64 c8 1e 3e
       -0.05196475 0.010120658 0.028282866 0.1550613
000020 19 c5 e6 bd ef b4 b1 bd e0 5e 10 be a5 8e fd 3d
       -0.11268062 -0.086770885 -0.14098692 0.12380723
000030 a2 7a 27 3e 36 00 12 be c5 b8 5c bd 48 8e 9e bc
       0.16355374 -0.14257893 -0.053887147 -0.019354954

conv_theta.weightnet.net.2.bn.weight f4 [16]
000000 ba 4f 7c 3f b2 30 80 3f 98 9b 84 3f 6e 36 80 3f
       0.98559153 1.0014861 1.0359983 1.0016611
000010 da f8 80 3f 92 1c 88 3f 89 b3 82 3f 86 ea 86 3f
       1.0075943 1.0633719 1.021104 1.0540321
000020 cd bc 84 3f c4 43 84 3f dd b5 85 3f 73 4d 89 3f
       1.0370117 1.033318 1.0446125 1.0726761
000030 a6 a5 89 3f cb c2 7e 3f 32 be 84 3f 8e ab 80 3f
       1.0753677 0.9951598 1.0370543 1.0052354

conv_theta.weightnet.net.2.bn.bias f4 [16]
000000 f8 c7 39 bc 0e be 53 3b 79 55 8a 3c c1 d2 09 3b
       -0.01133918 0.0032309326 0.01688646 0.002103016
000010 ff b4 d1 3b ae ef 0a 3d 97 23 5b 3c db 79 e4 3c
       0.0063997502 0.033919983 0.0133751845 0.027890136
000020 67 97 b1 3c 84 6d a9 3c 11 74 ed 3c 6b 70 64 3d
       0.02167864 0.020682104 0.028986009 0.055771273
000030 3f 1b 68 3d c7 ec 0d bb 53 c5 d8 3c ff db 8d bc
       0.05666661 -0.0021656023 0.026461279 -0.017316816

conv_theta.weightnet.net.2.bn.running_mean f4 [16]
000000 c0 ee 40 3d 6a 22 ab 3d b3 9c 8e bc c2 10 72 bd
       0.04710269 0.08356173 -0.017408704 -0.059098013
000010 a4 f8 8f 3b 92 e4 2b 3e 38 8a 8f bd 1c 9c 86 3e
       0.004393654 0.16786411 -0.07008785 0.26290977
000020 3e 5c 83 be 49 8d 25 be 8a 42 0c be c6 66 18 3e
       -0.25656313 -0.16167177 -0.13697258 0.14882955
000030 c0 e1 9f 3e 1e 54 3d be 92 35 a3 bd 9e a5 67 bd
       0.3122692 -0.1848912 -0.07969202 -0.05655443

conv_theta.weightnet.net.2.bn.running_var f4 [16]
000000 58 78 4e 3e 59 d6 4a 3e ab 08 64 3d 14 ef 3b 3d
       0.20163095 0.1980833 0.05567233 0.0458823
000010 a3 79 5f 3e 3f d1 0a 3e e7 ba de 3d 6d 00 43 3e
       0.21823744 0.13556384 0.108754925 0.19043131
000020 5b e4 e6 3d 07 de cb 3d 38 bd 6b 3e aa cf 4e 3d
       0.11274024 0.09954458 0.230214 0.050491013
000030 b6 af 78 3e f6 18 92 3e 17 7c 2a 3d 1a 57 87 3d
       0.24285778 0.2853467 0.041622248 0.0660841

conv_theta.linear.weight f4 [128, 16]
000000 1b 69 64 3e 9a fe 00 3d e5 db 34 3d b9 19 24 3e
       0.2230572 0.031492807 0.04415502 0.16025437
000010 79 db 3c be bf e3 30 3e 31 8d f4 3d cc 8b 5f bd
       -0.18443097 0.17274378 0.119409926 -0.05457668
000020 97 06 9c 3d e6 03 d4 3c 26 85 dd 3d 5e 7e 2e be
       0.076184444 0.025880765 0.10816412 -0.17040393
000030 26 56 1c 3e ea b3 40 be dc 8e 2d be 9b ae 22 3e
       0.15267238 -0.18818632 -0.16949028 0.15886919
000040 8d 65 dc 3c db 2f f9 3d 6f c8 29 3e ad 54 21 be
       0.026903892 0.12167331 0.16580366 -0.15754957
000050 d4 43 9c bd 65 93 3f be da 31 77 3e a6 60 85 3d
       -0.07630125 -0.1870857 0.2414011 0.06512575
000060 08 f9 e9 bd 79 1f 74 3e 36 f6 c7 3c 55 56 29 be
       -0.11424452 0.23840131 0.024409395 -0.1653684
000070 a2 50 8b bd 56 11 64 3e 3d a9 9e 3c f4 bf 69 3c
       -0.06802489 0.22272238 0.019367808 0.014266957
000080 a7 af b8 bc cc a9 f4 3c d6 13 43 3c de ba 08 3d
       -0.022544695 0.029866122 0.011906585 0.033381335
000090 7e 10 51 3d d4 3a 0f 3e b7 2b 17 be f2 57 65 3e
       0.05104112 0.13987285 -0.1476277 0.2239683
0000a0 18 0f 73 be 6c 54 4d 3d 18 8d 7e 3e 41 83 c0 bc
       -0.23736227 0.05012934 0.2485851 -0.023500087
0000b0 c8 4b 8d 3e fe bd 0c 3d 01 6e 6e 3e 78 c1 0b 3e
       0.2759688 0.03436088 0.2328415 0.13648021
0000c0 07 9f 87 3d 37 06 63 bd 08 06 86 3d c2 de 3d be
       0.06622129 -0.05542585 0.06544119 -0.18542007
0000d0 99 0e 18 3e cf b1 2e 3e 73 7f d3 bd 6f b7 02 3e
       0.14849319 0.17060016 -0.103270434 0.12765287
0000e0 2f a0 51 3d 6f d5 6a 3e 9c 82 98 3e e1 48 10 3e
       0.051178154 0.22932981 0.29787147 0.14090301
0000f0 b5 98 e0 3d 19 04 1d 3e 72 71 8e 3e 8f aa 72 bd
       0.109666266 0.15333594 0.27820927 -0.05924469
000100 6a ef f7 3c 76 45 b9 3c eb cd c3 3d a1 e0 f7 bc
       0.030265529 0.02261613 0.0956076 -0.030258479
000110 c7 a9 7a 3d 12 31 23 bd 39 c7 c5 3d c0 be 45 3e
       0.06119707 -0.03984172 0.09657139 0.19311047
000120 f6 7b 72 3e 46 b1 85 3e 1f 2f 0b bd 45 40 b5 bd
       0.236801 0.2611181 -0.033980485 -0.08850149
000130 72 fd 0b 3e 72 48 2a be 78 29 78 3e 89 a3 3f 3e
       0.136709 -0.16629198 0.24234569 0.18714727
000140 07 3d 59 3c fc 90 ad 3d 7e 40 8b 3e e6 5e dd 3c
       0.013259179 0.08474919 0.2719764 0.02702279
000150 51 77 91 3d 9b cc 08 3e 84 27 a3 bd b1 25 86 bd
       0.07102836 0.13359301 -0.079665214 -0.06550158
000160 a7 4b 5a bd 43 b1 cc bd c5 71 ab bd b0 a3 5e be
       -0.053294804 -0.099947475 -0.08371309 -0.2174213
000170 87 0b c8 bc d3 3f 02 bd f7 f2 58 3e 0e 09 38 be
       -0.02441956 -0.03179915 0.21186434 -0.17972204
000180 6e 5c 33 be 0e e2 42 3e 8e aa 4c be bd 31 c3 bd
       -0.17515728 0.19031546 -0.19986936 -0.09530971
000190 74 a3 cd bd a6 a4 4c bd aa 08 70 be bf 44 02 be
       -0.10040942 -0.04996171 -0.23440805 -0.12721537
0001a0 f1 66 80 3d ae 88 b8 bd 5c f2 05 be 0e 06 e0 bd
       0.062696345 -0.090104446 -0.13080734 -0.10938655
0001b0 3a 69 54 3e d5 50 15 be 5c b9 d6 bd 60 2d 37 3e
       0.20743266 -0.14581616 -0.10484573 0.17888403
0001c0 a3 9e 06 be d3 da 86 bc bb 26 49 be 44 bb 3b be
       -0.13146453 -0.016461765 -0.19643681 -0.18333155
0001d0 7d fb 58 be fc e7 5f 3e e4 54 21 3d 1f 1c 84 be
       -0.21189685 0.21865839 0.0393876 -0.25802705
0001e0 60 a5 11 3d 37 6c 4e 3e c3 5a 00 be 6b 58 48 be
       0.035558105 0.20158468 -0.12534623 -0.19564979
0001f0 c0 19 5e be 5b 32 6f 3e e3 ac 5d be 88 a6 80 3d
       -0.2168951 0.23359053 -0.21647982 0.06281763
000200 b6 05 63 3e 60 20 da 3c 28 c2 6c 3d 87 78 40 3e
       0.22170147 0.026626766 0.05780235 0.18795978
000210 8b c8 5b 3e b5 cc 18 bd f7 e0 2e be 37 75 57 be
       0.2146322 -0.0373046 -0.17078005 -0.21040808
000220 52 1e 30 bd cf 54 4d 3e da 27 ef 3d 1e f4 08 bd
       -0.042997666 0.20051883 0.11677523 -0.033435933
000230 b8 12 f7 bc 50 25 73 3e 05 d3 1d 3e 2f f3 2f bc
       -0.030160293 0.23744702 0.15412529 -0.010739132
000240 a8 63 b6 bd fd b7 2e bd f1 63 63 bd dd b1 09 3e
       -0.08905727 -0.042655934 -0.055515233 0.13446756
000250 a1 99 e6 bd bd cb d1 3d 6b 88 4f 3e 9c 08 70 3d
       -0.11259771 0.10243938 0.20266883 0.05860196
000260 12 78 86 3d 62 89 47 bd 28 9b 82 be 1d 59 ce bd
       0.0656587 -0.048715003 -0.25509 -0.10075591
000270 64 d9 1a be d8 0d 48 3e e5 3f 13 3e ff 03 02 3d
       -0.1512199 0.19536531 0.14379843 0.031742092
000280 3b 27 8d bc 7f fb 50 bd 83 26 3e be 48 30 59 be
       -0.01723062 -0.051021095 -0.18569379 -0.21209824
000290 d2 51 30 3e b6 2b 69 3e 0f b1 8d bd ba 74 64 be
       0.17218712 0.2277058 -0.06918537 -0.22310153
0002a0 5b 42 0d 3e 47 32 8f 3e 71 7b 2b 3c 7a df 8e 3e
       0.13794844 0.27968046 0.010466442 0.27904874
0002b0 bf 8b 73 3e c4 84 04 be 2a 52 03 be 4b 53 c0 3d
       0.23783778 -0.12941271 -0.12824312 0.09390887
0002c0 d0 99 16 3e 51 ff c7 3d c7 6b 96 3c ab 28 f6 bd
       0.14707112 0.097654946 0.01836194 -0.120194755
0002d0 16 49 f4 bd 71 4e 44 be 7c 3b d6 3d 06 39 35 be
       -0.119280025 -0.19170548 0.104605645 -0.17697534
0002e0 04 a1 95 bc ee d3 a5 bb 8d b7 2c 3d 71 12 4c be
       -0.018265255 -0.0050606644 0.042167235 -0.1992891
0002f0 24 7e 08 3e 06 12 7c 3d 68 ea 75 3d 2d 7b 7f be
       0.13329369 0.061540626 0.060038 -0.24949332
000300 58 d9 4a be bd e3 01 be 9e 3e 24 3e ae be 79 3e
       -0.19809473 -0.12684532 0.16039512 0.24389145
000310 11 5f 4d 3e fc c3 41 bd 64 0e 33 be 8d dc 9c 3c
       0.20055796 -0.047306046 -0.17485958 0.019148136
000320 6e 43 54 be 7c c7 4d be a5 b7 64 be 7d 69 91 be
       -0.20728847 -0.20095628 -0.2233568 -0.28400794
000330 b0 c0 86 be 66 51 a8 3d 37 f5 f9 3d 56 17 4b 3e
       -0.26318884 0.082186505 0.12204974 0.1983312
000340 cb b4 99 3d d7 53 98 3d 21 f0 8b 3d e3 38 56 3e
       0.07505187 0.07437866 0.0683291 0.20920138
000350 76 f3 31 3e c7 6d ab 3d fb fa 9d 3e 9a ec 8a 3e
       0.17378029 0.08370548 0.30855545 0.27133638
000360 d4 77 a3 bd a5 7b 53 3e 06 8f 97 3e 80 13 92 3e
       -0.0798184 0.20652635 0.29601306 0.28530502
000370 cc c8 8a bc f4 89 50 3e 86 46 e7 3d b3 8e 03 be
       -0.01694145 0.20365125 0.11292748 -0.12847404
000380 07 7a 62 bc 3b d1 7a 3e 16 2d 5e 3d 30 bd 62 bb
       -0.013823039 0.24493878 0.054242216 -0.0034597628
000390 0c 88 31 3e 10 b6 3e 3e 63 9b de bd 3b bf 13 be
       0.17337054 0.18624139 -0.108694814 -0.14428417
0003a0 19 d0 15 be de ab 47 be a0 b9 12 be fb c6 c0 3c
       -0.14630164 -0.19499156 -0.14328623 0.023532381
0003b0 b2 6b f4 3d e7 3e 61 be c5 ad f3 bd a1 f4 22 3d
       0.11934604 -0.21996652 -0.11898378 0.039784078
0003c0 3a 0e 05 3e 15 67 90 bd 17 a0 7c 3c 45 fd 8f 3d
       0.12993708 -0.07050911 0.015419028 0.07030729
0003d0 42 1f 44 3c a6 ce aa 3d 47 43 d5 bd c6 13 24 3e
       0.011970343 0.08340196 -0.10413223 0.16023168
0003e0 9a 0e 16 3e 49 99 32 3e 90 37 6c 3c 82 d0 b6 bc
       0.14654008 0.17441286 0.014417544 -0.022316221
0003f0 41 e5 18 3e 1a c5 87 3c ce 9e 7a 3e 69 f3 3a bd
       0.14931203 0.016573478 0.24474642 -0.04564229

conv_theta.linear.bias f4 [128]
000000 8b 63 e4 bd 0d 64 11 bd a1 6d 00 3e 5d 6d 5b be
       -0.11151799 -0.035495806 0.1254182 -0.21428438
000010 61 01 5c be 8b 25 10 3e c4 19 ef 3d 07 79 9b bd
       -0.21484901 0.14076822 0.11674836 -0.075914435
000020 42 25 37 be db a0 0a 3e a3 f8 34 be 53 17 66 be
       -0.17885306 0.13537924 -0.17672972 -0.22469835
000030 8b 25 57 be 26 ba 90 bd 28 7d 84 bd 92 b5 03 bd
       -0.21010415 -0.07066755 -0.06469184 -0.03215558
000040 48 84 3b 3e 7e 0b 58 3e e7 d9 42 be 12 e8 64 3e
       0.1831218 0.21098134 -0.19028436 0.22354153
000050 09 42 a5 3d 4a f7 83 3c 2c b9 ff bd 84 64 45 be
       0.08069236 0.016109128 -0.124864906 -0.19276625
000060 44 15 ad bd 78 57 61 3e 89 de d0 bd 7c 8a 18 3d
       -0.08451322 0.22006023 -0.10198695 0.037241444
000070 80 1d 7f 3e 67 69 28 be cd c8 38 bd 66 d3 cf 3d
       0.24913597 -0.16446458 -0.045113374 0.10147743
000080 d8 cd 0b 3e 00 e7 1f 3e d0 ee 4f be da 46 79 bd
       0.13652742 0.15615463 -0.20305943 -0.060858585
000090 bd bc 0b 3c a7 bf e7 bd 98 ea 7d 3e ba 4d e3 3d
       0.008528885 -0.11315852 0.24796522 0.110988095
0000a0 f8 2d 4d be 84 0a 1d bc 01 09 c5 bd 57 0b 91 bd
       -0.20037067 -0.009585027 -0.09620858 -0.07082241
0000b0 3c 34 e8 3d d1 e3 55 3e 4a bd a0 3c 70 be 2a bd
       0.11338088 0.20887686 0.01962151 -0.04168552
0000c0 83 d4 85 be 9d 0f e9 3d 34 d0 7f 3e f2 6a 41 3e
       -0.26138696 0.11379931 0.24981767 0.18888453
0000d0 da 09 31 be a0 f7 da bd 48 9e 2b be fd 62 3e 3e
       -0.17288914 -0.10691762 -0.16759598 0.18592449
0000e0 fd e8 08 be 24 b5 70 be 86 91 00 bd fc c3 5d bd
       -0.13370128 -0.235066 -0.031388782 -0.054141983
0000f0 4d 4d 55 be 3d fd 84 3d 70 f3 5f be 7a d2 17 be
       -0.20830269 0.06493614 -0.21870208 -0.14826384
000100 75 50 a0 3d ed c9 54 be a8 68 c2 bd ce 03 59 be
       0.07827846 -0.20780154 -0.09492618 -0.21192858
000110 5e 1d 24 3e 34 99 27 bd f7 0a 63 be 01 b7 46 be
       0.16026828 -0.04091759 -0.22172152 -0.19405748
000120 91 0a 5d 3e 20 73 55 3e 46 4c 1b be 4a 8a d0 bd
       0.21586062 0.20844698 -0.15165815 -0.101826265
000130 aa 51 6f be 98 4b 47 be 9c 61 5b 3d 3d 18 6f be
       -0.23370996 -0.1946243 0.053559884 -0.2334909
000140 24 88 2e 3d 43 6d f3 3d 2c d3 db 3d 38 d7 fd 3d
       0.042610303 0.118860744 0.10733637 0.12394565
000150 0f 10 70 be b4 17 76 3d 47 09 21 3d 93 4b 05 3e
       -0.23443626 0.0600812 0.03931549 0.1301711
000160 e6 50 65 3e 9b 0b 8d be 61 7f 45 3e 99 39 fc 3c
       0.22394142 -0.27547917 0.19286872 0.030789183
000170 09 6d 03 3e 66 44 93 bd 85 b7 72 bd a5 37 4f be
       0.12834562 -0.0719078 -0.05925705 -0.2023607
000180 b2 f2 08 3e fb 05 7e 3c 81 3b d3 3d 68 db 46 be
       0.13373831 0.015504356 0.10314084 -0.19419634
000190 33 ca de 3d c4 ef 5d be 5a 3a 2f 3e 11 71 c5 bd
       0.1087841 -0.21673495 0.17112103 -0.09640706
0001a0 91 79 4f 3e 64 0b 33 3e 03 84 0d bd 92 66 ec 3d
       0.20261218 0.17484814 -0.034549724 0.11543001
0001b0 d1 5a 49 be 43 2f 42 3e 25 e8 70 3e 77 b7 3d be
       -0.1966355 0.18963341 0.23526056 -0.18527018
0001c0 8a c6 65 3d 0e 1e 2e be 8b be f1 3b 91 ab 83 3d
       0.056097545 -0.17003652 0.007377451 0.06429208
0001d0 14 0a 1b bb 03 32 b9 3d 05 82 0d be d7 39 1c be
       -0.002365713 0.09042742 -0.1381913 -0.15256439
0001e0 87 75 81 be a7 e8 49 3e 0f fe 20 3e 67 3a 96 bd
       -0.2528498 0.19717656 0.15721916 -0.07335358
0001f0 dd f2 43 3e 84 52 56 3d 1f 69 37 3d 1d e8 66 3d
       0.19135614 0.052324787 0.044777986 0.056373704

cnn.0.module.weight f4 [128, 256]
000000 da bd 45 bc a2 0b 36 bd 99 1c 78 bd 20 bf 3a bc
       -0.01206919 -0.044444688 -0.060574148 -0.011398107
000010 58 4b 3a 3d 75 37 2f bc fa 0c 35 bd 9f 37 af bc
       0.04548201 -0.010694374 -0.04420183 -0.021388827
000020 a0 6a 63 3d 8a 93 31 bc 39 a1 80 bc 9a fa a1 3c
       0.055521607 -0.010838399 -0.015701877 0.019772816
000030 f8 a5 de 3c d1 e2 14 bd c4 5a 02 3d 93 b3 69 3d
       0.02717875 -0.03634912 0.031824842 0.05705602
000040 65 07 94 3a 05 93 06 3d df 47 ac 3c b4 8d 38 3d
       0.0011293708 0.032855053 0.021030365 0.045057014
000050 4e 34 3d 3d 13 26 03 3b 17 07 5e 3d 63 2b 63 bd
       0.04619246 0.0020011708 0.05420598 -0.0554613
000060 f0 98 cc 3c ec c0 10 bd c5 98 bc bc 5f 12 8c 3d
       0.02497527 -0.035340235 -0.023022065 0.068394415
000070 e0 86 84 bd f7 49 41 3d 18 fe 1f bd 1a 65 0b 3c
       -0.06471038 0.04718968 -0.039060682 0.008507991
000080 8e 3d 5d 3d c1 72 3b bd 14 63 46 bc 22 27 36 bd
       0.05401378 -0.045763735 -0.012108583 -0.044470914
000090 26 06 e6 3b 6c 30 a7 3b 3e 77 8a 3d 44 60 32 3d
       0.007019776 0.005102208 0.06761025 0.043548837
0000a0 b6 40 40 bd 20 3d 34 3b df 52 05 bd 10 fd a5 bd
       -0.046936713 0.0027502254 -0.032549735 -0.081049085
0000b0 18 57 06 ba 5f 3d 30 3c 6d 5d b0 bc ba 0f 87 3c
       -0.00051246723 0.0107568195 -0.021528924 0.016486991
0000c0 e6 89 0d bd 73 32 5d 3c f0 6e 2f 3d 91 e3 40 bd
       -0.03455534 0.013500798 0.042830408 -0.047092024
0000d0 a4 fa 35 3d 07 ee f7 3b a2 f5 98 bb 0b 58 d6 bc
       0.044428483 0.007566217 -0.0046679536 -0.026165029
0000e0 fb bc 25 bd 88 35 c2 bc 61 56 17 bd 16 ee 61 bd
       -0.04046343 -0.023707166 -0.03694761 -0.055158697
0000f0 4d 93 8a bc 7c b6 91 3a 26 da 02 bd 3a 4a 51 bb
       -0.016915942 0.0011117007 -0.031946324 -0.0031935112
000100 98 93 8e bc 24 c2 31 bd 4b b3 6b bc d1 dd 38 bd
       -0.017404363 -0.043398038 -0.0143860085 -0.045133416
000110 41 1e 0f bd 6c a2 20 ba 4e 03 31 3d 6b d0 86 3d
       -0.03494096 -0.00061277184 0.043216042 0.06582721
000120 26 2e 11 bc c6 56 75 3c 14 49 5e bd 7d 83 3a bc
       -0.0088611 0.014974302 -0.05426891 -0.011383888
000130 f9 fc dd 3c 39 40 2d 3d 7b 0f 6f bd fe a9 a8 bc
       0.027098166 0.042297576 -0.058364373 -0.020588871
000140 41 3d 33 bd 51 b1 6a 3d 45 3a 20 3d f1 de 21 bd
       -0.04375959 0.05729801 0.03911807 -0.039519254
000150 2b 1e 74 3d ee 66 07 bd a7 d7 53 bd 61 08 27 3d
       0.059599083 -0.033057146 -0.051719334 0.040779475
000160 19 fd 89 3d 6e b5 11 bc 0a 5c 78 bc 83 80 ad 3c
       0.06737728 -0.008893354 -0.015158663 0.021179443
000170 ea c4 03 bd 48 48 82 bd 4a 93 a1 3b 2a af 94 bd
       -0.032170214 -0.06361443 0.0049308883 -0.072599724
000180 5a bb 21 3c a1 7e 1f 3d 44 21 68 3d f8 1d 53 bc
       0.009871328 0.038939122 0.05667235 -0.012885563
000190 16 e7 69 bc a3 12 50 bc c1 c8 4d bc e9 b5 20 ba
       -0.014276287 -0.012699756 -0.0125600705 -0.00061306224
0001a0 d2 78 f9 3c 60 8d 33 bd 31 fa 09 3c 31 71 42 bd
       0.03045312 -0.043835998 0.008421467 -0.04747123
0001b0 cd c3 37 3d 2b ef 65 3d 16 4b a7 bc 32 31 7b bd
       0.044864465 0.05613629 -0.020421546 -0.061326213
0001c0 ec 4f e8 bb f8 2c 31 bc 71 f7 60 bb f1 d2 8c 3c
       -0.0070896056 -0.010813944 -0.0034327174 0.017190428
0001d0 dc cc 29 bd c2 f9 01 3c ab 74 96 3c 6b e1 d7 3b
       -0.041455135 0.007933082 0.018366178 0.006588151
0001e0 df 53 74 bd 62 35 e6 3c 6b 61 bf 3c 03 63 11 bd
       -0.0596503 0.028101627 0.023361882 -0.035494816
0001f0 a8 7d 1e bd 55 ba 8a 3c 47 0b 55 3c ff 2c 5c bd
       -0.038694054 0.016934553 0.013003177 -0.05375385
000200 80 75 f3 bd 07 2c 60 bc 58 f8 e6 bc 8c 77 3c bd
       -0.11887646 -0.013682372 -0.028194591 -0.046012446
000210 4a 24 98 bd ed 21 2e bd ec 57 fe 3c 17 7d 74 3b
       -0.074287966 -0.042512823 0.031047784 0.0037306005
000220 d5 4b ee bd 69 a6 ea bc b0 3a 52 bd d0 fc 8f bd
       -0.116355576 -0.028643804 -0.0513255 -0.07030642
000230 9a 59 0d 3d 7a 99 d0 bd 50 96 f3 3c 23 c4 b7 bd
       0.03450928 -0.10185523 0.02973476 -0.08972957
000240 09 30 14 3d 66 6c 87 3b 76 59 78 bc 61 63 b3 3d
       0.036178622 0.004132795 -0.015158048 0.087591894
000250 6f 6e a6 bc ce 3f 31 3c e8 99 3e bd cb 4f bb bd
       -0.02031633 0.010818435 -0.046533495 -0.09146079
000260 d6 3d 9c bc 32 43 9d 3b 6c d8 a1 bd 1c 8d 17 bd
       -0.019072454 0.00479927 -0.07902607 -0.036999807
000270 06 4e e1 3d 58 66 ba bd f1 e7 2e 3d e8 64 2e bb
       0.1100121 -0.09101552 0.042701665 -0.0026610438
000280 2d bf 95 3b cb 01 ba 3c 8c bd 8e 3d bc a7 be bd
       0.004569909 0.022705933 0.06969747 -0.093093365
000290 2f b3 a8 3b 37 1b 63 3b 60 17 85 3d 1d 36 89 bc
       0.0051483135 0.0034653672 0.06498599 -0.016749436
0002a0 d4 f0 bf 3d 7c 68 c8 3d a4 f7 b1 bd 02 c3 f2 3c
       0.09372106 0.09785554 -0.08689812 0.029634003
0002b0 88 63 b4 3d a4 d2 1c 3d b6 8d 3e 3d bf fc 14 bd
       0.088080466 0.03828682 0.046521865 -0.03637385
0002c0 bc a1 9a 3d be 73 0a 3e 71 f8 a0 3d 77 1c 94 3d
       0.0755038 0.13520715 0.078598864 0.07231992
0002d0 4f 8d a1 bc a9 3d e2 b9 f8 d7 84 bb f6 43 68 bc
       -0.019720702 -0.0004315202 -0.004054066 -0.014176359
0002e0 83 2f 90 bd 95 ac 6d bd 82 70 1f 3c 56 9a 15 bd
       -0.07040312 -0.058025915 0.009731414 -0.03652414
0002f0 b5 50 20 bd c1 84 23 bd 5d 79 33 bd f6 f9 84 bd
       -0.03913947 -0.039921526 -0.043816913 -0.06492989
000300 f2 15 e6 3d 04 82 9a bd 1f 84 38 3d 46 98 36 bd
       0.112346545 -0.0754433 0.045047875 -0.044578813
000310 8a 45 d0 bb 05 2d a1 3c 42 b6 74 3d a0 de 08 be
       -0.006355946 0.019674787 0.059744127 -0.13366175
000320 c1 bc 9b 3b 58 79 10 3e 49 46 12 bd 1c 1d 6e bc
       0.004752726 0.14108789 -0.03571156 -0.014533307
000330 bf 00 d4 3c 3e 87 10 3d fe a7 37 3c 9f 9a 58 bd
       0.025879262 0.035285227 0.011209486 -0.052881833
000340 ab bb 98 bd 7c 98 a1 3c 39 77 27 bd d1 af 05 3c
       -0.0745767 0.01972603 -0.040885184 0.008159594
000350 15 d3 e1 bd 94 4b 24 bd 98 41 5e 3c ed 8f 7b 3d
       -0.11026589 -0.04011114 0.013565443 0.061416555
000360 60 39 8d bd cf d5 d6 bd ad 48 9d 3d 0e c4 e4 3d
       -0.06895709 -0.104899995 0.076798774 0.11170207
000370 9a 1c 05 3d a7 2b 80 3d 89 f4 77 bc 44 d3 06 bb
       0.03249798 0.06258326 -0.015133985 -0.0020572701
000380 de 06 a9 3d 5c 56 01 bd ab 50 76 bd 72 06 1e be
       0.08253263 -0.0315765 -0.060135525 -0.15432146
000390 a4 32 ad 3d 1c eb 04 3d eb e7 2b bd 06 af 50 3d
       0.084569246 0.03245078 -0.04196922 0.050948165
0003a0 b1 39 e2 3d b9 41 20 3d 0b 43 ec 3c c9 44 6a bb
       0.1104616 0.039125178 0.028840562 -0.0035746566
0003b0 7a 41 4d 3d 78 6f ae 3c 8a 1d 87 3c de 23 68 3d
       0.05011127 0.021293387 0.016493578 0.05667483
0003c0 9c 5d 5c bb 65 de 71 3d b6 80 42 3d 2d 9f 6a 3d
       -0.0033625131 0.059049983 0.04748603 0.057280708
0003d0 a5 f8 ba 3c d1 6b f4 3d 29 07 b8 bc 03 39 86 bd
       0.022823641 0.11934627 -0.022464352 -0.06553843
0003e0 ce 2b 7c 3b fe 65 9b 3c f1 19 e1 3d 4c 5e fd 3b
       0.0038478258 0.018969532 0.10991276 0.0077321883
0003f0 73 9f 19 3d 30 3f ac bd 21 95 c7 3c 69 57 64 3d
       0.03750558 -0.084104896 0.024363102 0.055747423

cnn.0.module.bias f4 [128]
000000 a3 96 0b 3d 7a 59 09 3c b4 b0 64 3d 1f bd 67 bc
       0.034079205 0.008383149 0.05583258 -0.014144211
000010 52 8b ab 3b 61 5d 1a 3d 16 8c 85 bd e2 79 4c bd
       0.005235114 0.03768671 -0.0652086 -0.049920924
000020 45 63 7b 3d bb ba 0e bd 0d b8 82 3d 2a bc cf b7
       0.061373968 -0.03484605 0.06382761 -2.4763944e-05
000030 f1 4b 43 3d 88 4e 97 3c cb cb 14 3d 6a cc 18 3d
       0.047679845 0.018470064 0.036327165 0.03730432
000040 5f e2 c4 3a 06 86 7f bc a6 d9 e9 bc 93 25 2c 3c
       0.0015021077 -0.0155959185 -0.028546166 0.010507005
000050 fb 2e 4f 3b 18 45 05 3d 0e 40 19 3d 24 22 18 bd
       0.0031613696 0.032536596 0.037414603 -0.037141934
000060 a1 5b 92 3a a8 a8 25 bd 8f 39 a9 3c b4 c5 17 3c
       0.0011166224 -0.040444046 0.020657329 0.009263445
000070 71 66 7e bd 86 ef b3 3c 44 9f 64 bd 6c 00 3b 3c
       -0.062109414 0.0219648 -0.05581595 0.011413675
000080 77 c9 bf 3c 8c 9c ac bb 71 a4 d1 3c 66 e6 f2 3b
       0.023411496 -0.0052676853 0.025591107 0.0074127195
000090 c4 03 61 3d 3d 55 c2 bc 08 33 2f 3d 7b bd 55 3d
       0.05493523 -0.023722285 0.042773277 0.052182656
0000a0 09 5f 32 bd 13 90 48 3c 41 93 51 bd 5f 7a 4e 3d
       -0.043547664 0.012241381 -0.051165823 0.05040967
0000b0 dc 26 f6 bb 5f f0 58 bd ec e3 72 3d f5 46 88 3c
       -0.0075119566 -0.05296361 0.059299394 0.016635397
0000c0 79 f0 08 bd 87 28 24 bb 49 a9 fa bb 7b 91 b3 bc
       -0.033432458 -0.002504857 -0.007649575 -0.021919956
0000d0 fc 78 01 bd ec 49 b2 bb 93 02 37 bd 93 3d a0 bb
       -0.03160952 -0.005440941 -0.04468019 -0.0048901527
0000e0 65 79 74 bd 76 93 98 bc e8 aa 9e bc 91 50 30 3d
       -0.059686083 -0.018625002 -0.019368604 0.043045584
0000f0 b3 f2 04 3c 27 81 5d 3d f2 0b e2 3b 22 19 58 bd
       0.008114505 0.054078247 0.0068983966 -0.052758344
000100 5a 1a 0d 3d 23 d0 da 3b d1 12 ea bc 69 f8 bd 3b
       0.03444896 0.006677644 -0.028573425 0.005797435
000110 6c d7 83 bc 3e da d2 bc 73 37 64 3b 6b bd 31 3d
       -0.016093932 -0.025738832 0.003482309 0.043393534
000120 da 0b 28 3d 66 52 f6 3b e6 47 6d 3d 7a 8c 80 bd
       0.041026928 0.007517147 0.057929896 -0.06276794
000130 3e bd ff 3c d4 04 03 bd 3b 75 34 bd 46 29 b2 bb
       0.031218167 -0.031987026 -0.044057112 -0.005437049
000140 e0 79 5c 3c 21 d0 51 bd 9f 6b 84 3d 62 3b 0f 3d
       0.013456792 -0.051223878 0.064658396 0.03496874
000150 af 64 1c bd 83 1e fc 3c 56 ed 99 bc 22 1a 1a bd
       -0.038181957 0.030776268 -0.018789928 -0.03762258
000160 12 30 43 3d b7 e4 99 3c 17 d7 75 bd 60 77 a7 bd
       0.047653265 0.018785818 -0.06001958 -0.08177066
000170 65 aa f4 3b 1a a8 24 3d df b1 0b bd 78 d6 93 3d
       0.0074666017 0.040199377 -0.034105178 0.07218641
000180 3d 94 12 3d 00 db a6 bc 87 cc 22 bd 01 7c 62 3d
       0.035785902 -0.0203681 -0.039745834 0.05529404
000190 af 71 05 b8 5e af da 3a 6c d8 81 3d ff 99 2b 3d
       -3.1815547e-05 0.0016684344 0.06340107 0.04189491
0001a0 30 14 42 bd a6 a6 3b 3d c1 2c 10 bc 46 67 24 3d
       -0.047382534 0.045813225 -0.008799733 0.04013755
0001b0 68 b3 4b 3d c7 26 95 bc 06 88 ba ba e3 2e 90 3c
       0.049731642 -0.018206967 -0.0014231212 0.017600482
0001c0 bc 6f 3a bd b5 d2 56 3c 51 78 b1 bc 57 83 07 3d
       -0.045516714 0.01311176 -0.021663817 0.03308424
0001d0 da 1c d7 3c ed ce 40 3b 68 be 38 bd c7 47 b3 3b
       0.026258875 0.0029420212 -0.04510346 0.005471203
0001e0 aa 8d 0c 3d d4 fd b0 bc 1c 5f fa 3b 5f 75 5e bd
       0.03431479 -0.02160541 0.0076407325 -0.054311153
0001f0 4f fc 46 3d 68 d5 09 bd 9d 89 15 3d 5f 84 f3 3c
       0.048580464 -0.033650786 0.03650819 0.029726205
