weights/2dreg/T2.pth (torch_old, 876981 bytes, 88 tensors)

conv_theta.weightnet.net.0.linear.weight f4 [32, 2]
0	0xbf10788b	-0.56433934
1	0x3ec0301d	0.37536708
2	0x3f22589b	0.6341645
3	0xbf34067d	-0.703224
4	0xbf1ad8f9	-0.60487324
5	0xbdbad37a	-0.09122367
6	0x3e077e47	0.13231765
7	0xbe875745	-0.2643377
8	0xbeb58e67	-0.35460207
9	0xbe9df935	-0.30854192
10	0xbf29bd60	-0.6630459
11	0x3c09bafb	0.008406396
12	0xbd5eaa50	-0.05436164
13	0x3eade95e	0.33967108
14	0x3f2b02b0	0.66800976
15	0x3e2fda20	0.17173052
16	0xbe8501dc	-0.2597798
17	0x3f000c0e	0.50018394
18	0xbe176e3d	-0.14788146
19	0x3cb6dbb7	0.022321565
20	0x3d2645de	0.040593974
21	0x3d8886d5	0.06666342
22	0xbee26a3a	-0.4422167
23	0xbf273678	-0.6531749
24	0xbea0697b	-0.31330475
25	0xbe6019ec	-0.21884888
26	0x3db3ecd4	0.08785406
27	0x3f2f6048	0.6850629
28	0x3e9a6ed8	0.30162692
29	0xbe5dc191	-0.21655871
30	0x3efd6adc	0.4949559
31	0xbd4f6396	-0.050632082
32	0x3ecd139f	0.40054032
33	0xbf208f7e	-0.6271895
34	0xbe475f70	-0.1947
35	0x3d84314b	0.064547144
36	0x3f250e2e	0.6447476
37	0x3bed12a8	0.00723489
38	0x3efafbca	0.49020225
39	0xbe3db73e	-0.18526933
40	0xbda7ec9b	-0.08199426
41	0x3b764690	0.003757868
42	0xbeafaeed	-0.34313145
43	0xbeb85e9c	-0.3600968
44	0xbf100e93	-0.5627224
45	0x3eccd3a7	0.40005228
46	0x3e6fa81f	0.23403977
47	0x3dc2cb00	0.095113754
48	0x3df1382f	0.11778294
49	0xbf26a03c	-0.6508825
50	0x3d187be3	0.037227523
51	0x3e610592	0.21974781
52	0xbf288d0a	-0.6584021
53	0xbeb6c8ec	-0.35700166
54	0x3e8f3a52	0.27974182
55	0xbd98198c	-0.07426748
56	0xbf0f3b15	-0.5594953
57	0xbd9b10ef	-0.07571589
58	0x3dbfe6de	0.09370206
59	0xbf23f546	-0.6404613
60	0x3e38a89f	0.18033074
61	0x3e91ec20	0.28500462
62	0xbef05bbb	-0.46944985
63	0xbf32cd23	-0.69844264

conv_theta.weightnet.net.0.linear.bias f4 [32]
0	0xbecb3bad	-0.39693967
1	0x3e92cda1	0.28672507
2	0xbf2f574b	-0.68492573
3	0x3dfa5ea9	0.12225086
4	0x3f165e47	0.58737606
5	0xbee74c65	-0.45175472
6	0xbde0df95	-0.10980145
7	0x3ece0809	0.40240505
8	0x3dd8fcf8	0.10595125
9	0xbdd55500	-0.10416603
10	0xbdce9f22	-0.10088946
11	0x3e5f3c4f	0.2180035
12	0xbdebc838	-0.11512798
13	0xbd68bad0	-0.056818783
14	0xbe8e8573	-0.2783619
15	0x3dffceda	0.12490626
16	0xbed972cc	-0.42470396
17	0x3e8f7853	0.28021488
18	0xbe5451f2	-0.20734385
19	0xbee92976	-0.45539445
20	0xbecb26ca	-0.3967803
21	0x3d6d9bc3	0.058009874
22	0xbf0baa25	-0.54556495
23	0x3ea4aafb	0.32161698
24	0x3ee82ab2	0.45345074
25	0x3da0fa1c	0.078602046
26	0xbd98cd50	-0.07461035
27	0xbf2862b3	-0.65775603
28	0xbf1f611d	-0.6225756
29	0xbe0e93ad	-0.13923521
30	0x3f2a74ea	0.66584647
31	0xbecc6e86	-0.39928073

conv_theta.weightnet.net.0.bn.weight f4 [32]
0	0x3f844289	1.0332805
1	0x3f7b5ddc	0.98190093
2	0x3f7a103e	0.97681034
3	0x3f83ab2d	1.0286614
4	0x3f80a3d3	1.0049995
5	0x3f7f20ec	0.9965961
6	0x3f81051d	1.0079685
7	0x3f7cfdb0	0.98824596
8	0x3f831fbd	1.0244061
9	0x3f84b1d4	1.0366769
10	0x3f856b17	1.0423306
11	0x3f829166	1.0200622
12	0x3f79fcc7	0.9765133
13	0x3f8374b9	1.0269996
14	0x3f8101cb	1.0078672
15	0x3f83d3d0	1.0299015
16	0x3f85620d	1.0420548
17	0x3f81f23f	1.0152053
18	0x3f828149	1.0195705
19	0x3f764a00	0.96206665
20	0x3f7d546c	0.9895694
21	0x3f7ef20e	0.99588096
22	0x3f7437f2	0.95397866
23	0x3f757dc3	0.9589502
24	0x3f7c0389	0.98442894
25	0x3f83ab2f	1.0286616
26	0x3f7c1b52	0.9847919
27	0x3f7ed2f6	0.9954065
28	0x3f850f8c	1.039537
29	0x3f7a7e38	0.97848845
30	0x3f8154c4	1.0103993
31	0x3f8190cf	1.0122317

conv_theta.weightnet.net.0.bn.bias f4 [32]
0	0x3b90df45	0.004421147
1	0x3cb8e79d	0.02257138
2	0xbc137bb6	-0.009001663
3	0x3c226854	0.009912569
4	0xbcbf5b2b	-0.023358902
5	0x3b738ed6	0.0037163994
6	0xbcb1952a	-0.021677572
7	0xbc8b95d3	-0.017039215
8	0xbc008273	-0.0078436015
9	0x3d0deba6	0.03464856
10	0x3c6ea2c0	0.01456517
11	0x3cbdbceb	0.023161372
12	0xbc21f252	-0.009884434
13	0x3c8f8785	0.017520675
14	0x3d35f2fd	0.044421185
15	0x3cc269f1	0.023732157
16	0x3d0dc03f	0.03460717
17	0x3cccde5d	0.025008375
18	0x3c94e366	0.018174838
19	0xbd369a59	-0.04458079
20	0xbcb65d31	-0.022261234
21	0xbb67658f	-0.0035308336
22	0xbc9b0aba	-0.018926013
23	0xbd162210	-0.03665358
24	0xbac4cd4b	-0.0015014795
25	0xbb4696f7	-0.0030302384
26	0xbccd82c0	-0.02508676
27	0xbc3f9e35	-0.011695434
28	0x3c9aeb12	0.018910918
29	0xbc5034a0	-0.012707859
30	0xbc601796	-0.013677498
31	0x3b2b7265	0.0026160714

conv_theta.weightnet.net.0.bn.running_mean f4 [32]
0	0xbecb28b3	-0.3967949
1	0x3e92a989	0.2864497
2	0xbf2f616c	-0.6850803
3	0x3dfa1717	0.12211435
4	0x3f164d06	0.5871128
5	0xbee75bd6	-0.45187253
6	0xbde07d4c	-0.109613985
7	0x3ece243c	0.4026202
8	0x3dd9852c	0.10621104
9	0xbdd55b31	-0.10417784
10	0xbdce76aa	-0.10081227
11	0x3e5ec2e9	0.2175404
12	0xbdec1fd1	-0.11529506
13	0xbd670189	-0.05639795
14	0xbe8e8d5b	-0.2784222
15	0x3dfff1d6	0.124972984
16	0xbed99997	-0.42499992
17	0x3e8f792b	0.2802213
18	0xbe5436c4	-0.20724016
19	0xbee92a5e	-0.45540136
20	0xbecb296a	-0.39680034
21	0x3d6c8011	0.05773932
22	0xbf0ba1b2	-0.545436
23	0x3ea4b670	0.3217044
24	0x3ee7fe33	0.45311126
25	0x3da1415e	0.07873796
26	0xbd997b29	-0.07494194
27	0xbf286205	-0.65774566
28	0xbf1f6995	-0.6227048
29	0xbe0ef1cd	-0.13959427
30	0x3f2a8092	0.6660243
31	0xbeccb01d	-0.39978114

conv_theta.weightnet.net.0.bn.running_var f4 [32]
0	0x418c559e	17.541805
1	0x4208f3cc	34.238083
2	0x4164a2da	14.289759
3	0x405583fb	3.3361804
4	0x4106f9f8	8.436028
5	0x418659d4	16.793861
6	0x409091fb	4.51782
7	0x419151ea	18.164997
8	0x41420c0f	12.127944
9	0x3f5aa085	0.85401183
10	0x3e6e16e6	0.23250923
11	0x41be0bd7	23.755781
12	0x40b278c0	5.57724
13	0x4191af1c	18.210503
14	0x40a87a74	5.264948
15	0x41173ef0	9.452866
16	0x41a9280e	21.144558
17	0x3fcd9fad	1.6064354
18	0x417e051c	15.876247
19	0x4127cef1	10.488023
20	0x3e83b7f5	0.25726286
21	0x41172579	9.446649
22	0x41919eff	18.202635
23	0x401bf714	2.4369555
24	0x4185a3a0	16.704895
25	0x3ff2a2fe	1.8955991
26	0x41ab5bcb	21.41982
27	0x404cbf8a	3.1991906
28	0x4142cd12	12.175066
29	0x417ff43a	15.997126
30	0x408af594	4.342478
31	0x41d84f69	27.038774

conv_theta.weightnet.net.1.linear.weight f4 [32, 32]
0	0x3c6a691e	0.014307288
1	0xbe2c1b7b	-0.16807358
2	0x3df71f22	0.12066485
3	0xbe1f6b64	-0.1556831
4	0x3b9b53de	0.0047402224
5	0x3df1d9c1	0.118091114
6	0xbd9cec93	-0.076623105
7	0x3db73edf	0.089475386
8	0xbc94c371	-0.0181596
9	0x3d02e3e6	0.031955622
10	0xbe017e5b	-0.12645857
11	0xbe1eafd7	-0.15496765
12	0x3b960593	0.004578301
13	0xbdc553ca	-0.09635122
14	0x3d85e014	0.0653688
15	0xbd86c7c9	-0.06581075
16	0xbdaf507f	-0.08560275
17	0x3dd3927a	0.103306726
18	0xbd6c9d80	-0.05776739
19	0xbcc9b10a	-0.024620552
20	0xbe277be1	-0.1635585
21	0xbcea02dc	-0.028565817
22	0xbd635df0	-0.055509508
23	0x3cfe752c	0.031061731
24	0xbd0920d8	-0.033478588
25	0x3e238913	0.15970258
26	0xbd85f4d6	-0.065408394
27	0xbc0e9441	-0.008702339
28	0xbd9c4653	-0.07630601
29	0x3d927c4e	0.071526155
30	0x3dc394a2	0.09549834
31	0xbca73edb	-0.020415714
32	0xbdc6153a	-0.096720174
33	0xbe22d36e	-0.15900967
34	0xbc9e34bf	-0.01931226
35	0x3e3c8086	0.18408403
36	0x3c7068b0	0.014673397
37	0x3c9a7509	0.018854635
38	0x3e0152a9	0.12629189
39	0x3b070587	0.002060266
40	0x3e0080ac	0.12549084
41	0xbe2b3e9c	-0.16723102
42	0xbe224cb8	-0.15849578
43	0xbdb5126e	-0.08841406
44	0x3dccda25	0.10002545
45	0x3e0211c7	0.12702094
46	0x3d3fe63b	0.046850424
47	0x3bac2279	0.005253133
48	0x3dc64cd0	0.096826196
49	0x3d844d18	0.06460017
50	0x3d65ee1d	0.056135286
51	0xbdceb0eb	-0.10092338
52	0xbda44226	-0.08020429
53	0xbb289fb8	-0.0025729965
54	0xbd0a4618	-0.033758253
55	0xbcd5ed48	-0.026114121
56	0x3d9fd3ec	0.07804093
57	0xbd9d360c	-0.07676324
58	0xbdb702bb	-0.08936068
59	0x3d80ffe9	0.06298811
60	0xbe5218c8	-0.20517266
61	0x3e137a6e	0.14402172
62	0xbdaffd02	-0.08593179
63	0xbe193c4c	-0.14964408
64	0x3d9597c1	0.073043354
65	0xbd65728c	-0.056017444
66	0xbd8c714f	-0.068575494
67	0x3d5dba38	0.05413267
68	0x3deec4d7	0.11658638
69	0xbd09147d	-0.033466805
70	0x3dc42834	0.09577981
71	0xbe10e90d	-0.14151402
72	0x3d8c2108	0.06842238
73	0xbd96d407	-0.0736466
74	0xbc71159e	-0.014714627
75	0x3dfa81c3	0.12231781
76	0x3db1ac2f	0.086754195
77	0x3d36db51	0.04464275
78	0xbd2d03b2	-0.042239852
79	0x3c540ead	0.012942952
80	0xbe111ba8	-0.14170706
81	0x3cd0f5b0	0.025507778
82	0x3db90f17	0.09036081
83	0x3df90fae	0.12161194
84	0x3d966647	0.073437266
85	0x3e1d3d6d	0.15355463
86	0xbe17c272	-0.14820269
87	0xbe26ddc5	-0.16295536
88	0xbd072d5d	-0.033002246
89	0x3d876a8f	0.06612121
90	0xbdfb29e8	-0.12263852
91	0xbd856475	-0.06513301
92	0xbd4158c8	-0.04720381
93	0xbd84e2e9	-0.06488592
94	0xbdb6616b	-0.089053
95	0x3dda442f	0.10657536
96	0x3e297277	0.16547571
97	0x3e2e6a89	0.17032827
98	0xbcd641ce	-0.026154425
99	0xbca644cf	-0.020296482
100	0x3db73d48	0.08947235
101	0x3dd05bc3	0.10173752
102	0xbe0e15eb	-0.13875549
103	0xbcacb944	-0.021084435
104	0x3da6b8d8	0.08140725
105	0x3dbf8f13	0.09353461
106	0xbdafb71f	-0.085798495
107	0xbdfb82dc	-0.12280819
108	0x3d50e947	0.05100372
109	0x3d6d8d75	0.057996232
110	0x3c7a1067	0.0152627
111	0xbcf8c8cc	-0.030369185
112	0xbde06293	-0.109563015
113	0x3ce0ef4e	0.02745786
114	0x3da0585f	0.078293554
115	0xbabaf05d	-0.0014262308
116	0x3dd6ca51	0.104878075
117	0x3de0567e	0.10953997
118	0x3de6f867	0.11277848
119	0x3cbda37e	0.023149248
120	0x3dee3040	0.11630297
121	0xbc87c171	-0.016571732
122	0xbdc417c4	-0.095748454
123	0xbdecf15e	-0.11569475
124	0x3cc1ca3d	0.023656005
125	0x3e18e143	0.1492968
126	0xbdc3cc71	-0.095604785
127	0xbdb26bd3	-0.08711972
128	0xbba59059	-0.005052608
129	0xbde6136a	-0.11234172
130	0xbd2a234d	-0.04153757
131	0x3d92fe10	0.07177365
132	0x3dc25081	0.09488011
133	0x3e352420	0.17689562
134	0xbd8fc934	-0.07020798
135	0x3ce20f93	0.027595317
136	0x3d8097de	0.06278966
137	0xbd988a4c	-0.07448253
138	0xbc694ead	-0.014239949
139	0xbd16f504	-0.03685476
140	0xbcab479b	-0.020908168
141	0xbd0b20ce	-0.033966832
142	0x3dc594ac	0.096474975
143	0x3e0da732	0.13833311
144	0x3e3172d6	0.17328963
145	0x3d78f81b	0.060783487
146	0xbbc354b4	-0.005961025
147	0x3d545fe5	0.051849265
148	0x3d157f39	0.036498282
149	0x3d85adc1	0.065272816
150	0xbe1ee06e	-0.155153
151	0x3d5530df	0.05204856
152	0x3c8bbc80	0.017057657
153	0xbc9eb693	-0.019374168
154	0x3deb3774	0.11485186
155	0x3d494944	0.049142137
156	0x3c7e9794	0.015539069
157	0x3d33ceb7	0.04389831
158	0xbd429330	-0.04750365
159	0x3d88363b	0.06650969
160	0x3ccd560b	0.025065443
161	0xbe073cf1	-0.13206841
162	0x3d381f52	0.044951744
163	0xbbbb886f	-0.0057230513
164	0xbdf1024a	-0.11768015
165	0xbd56a6f3	-0.05240531
166	0xbd915974	-0.0709714
167	0xbdd1ebbe	-0.102500424
168	0x3cae5b3c	0.021283738
169	0xbd8211b2	-0.06351031
170	0xbd37850d	-0.04480462
171	0xbe215690	-0.15755677
172	0xbde38710	-0.111097455
173	0xbd2e8e75	-0.042616326
174	0xbd1ea2b8	-0.0387294
175	0xbe38eea5	-0.18059786
176	0x3ad0efc2	0.0015940594
177	0xbdc7e69b	-0.097607814
178	0xbe5a046d	-0.21290751
179	0x3d56160e	0.052267127
180	0xbda8c7f3	-0.08241262
181	0xbd7bacd9	-0.061444137
182	0x3e0238ae	0.12716934
183	0x3d90c8f1	0.070695765
184	0xbd7c0e52	-0.061537094
185	0x3d624866	0.055244826
186	0xbb4e7e43	-0.0031508363
187	0xbd084ccd	-0.033276368
188	0xbe0c753b	-0.13716595
189	0xbcf5c9bd	-0.030003423
190	0xbdeced8f	-0.11568748
191	0xbda73201	-0.08163834
192	0xbce76043	-0.028244143
193	0xbc4fde4f	-0.01268728
194	0xbe00f29d	-0.1259255
195	0xbcd29221	-0.025704445
196	0xbd962247	-0.07330757
197	0xbde801f1	-0.11328495
198	0xbe0eb316	-0.13935503
199	0x3e0469c0	0.12930965
200	0xbe3e929a	-0.18610612
201	0x3ccf8398	0.025331303
202	0xbe30de8f	-0.172724
203	0x3dcd0660	0.100109816
204	0x3dccf2d1	0.10007251
205	0x3caf7ab4	0.021420814
206	0x3cc38559	0.023867296
207	0xbe11ac85	-0.14225967
208	0xbe414390	-0.1887343
209	0x3e161d1c	0.14659542
210	0xbdd3e864	-0.10347059
211	0xbe50b3e9	-0.2038113
212	0xbda292b4	-0.07938138
213	0x3d126f37	0.035750594
214	0x3d92de9b	0.07171365
215	0x3da5bf92	0.0809318
216	0xbe2dbcbe	-0.1696653
217	0x3d4cbd42	0.049985178
218	0x3ba62c21	0.0050711785
219	0x3e053991	0.13010241
220	0xbc9c51a1	-0.019081892
221	0x3dddfcc5	0.108392276
222	0xbda0066f	-0.07813727
223	0xbd346e28	-0.044050366
224	0xbd13e74c	-0.036109254
225	0x3df8faf7	0.12157243
226	0xbd8c1dcb	-0.0684162
227	0xbddcc463	-0.10779645
228	0x3d5e45b9	0.05426571
229	0xbbd22bb7	-0.0064139026
230	0x3d392f26	0.04521098
231	0xbde45be7	-0.111503415
232	0x3ab71031	0.0013966617
233	0xbdbb0bd9	-0.09133119
234	0xbe0643d9	-0.1311182
235	0xbdb98d7f	-0.09060191
236	0xbc02dc73	-0.0079871295
237	0xbcd1d582	-0.025614504
238	0xbda8f6c9	-0.082501955
239	0xbbeff79f	-0.00732322
240	0xbe166c01	-0.14689638
241	0xbcb11c2c	-0.021619879
242	0x3deb6995	0.114947475
243	0xbe12972c	-0.1431548
244	0x3e110c4f	0.14164852
245	0x3def64f6	0.11689179
246	0xbdd35676	-0.103192255
247	0x3d292e33	0.041303825
248	0xbc838ebb	-0.01605927
249	0xbe361cdc	-0.17784446
250	0xbd56fc1e	-0.05248653
251	0xbd4b9027	-0.04969802
252	0xbdf78eb0	-0.12087762
253	0x3dc0dcde	0.09417127
254	0x3dd7ae86	0.105313346
255	0xbdbe1f17	-0.09283274

conv_theta.weightnet.net.1.linear.bias f4 [32]
0	0xbe0a3144	-0.13495356
1	0x3c1750c8	0.009235568
2	0xbb715db3	-0.003682953
3	0x3d905663	0.07047727
4	0xbdaa09a6	-0.083026215
5	0x3d620e4f	0.055189427
6	0x3d28a346	0.041171335
7	0xbdbb4022	-0.09143092
8	0x3e155892	0.14584568
9	0x3da8e333	0.0824646
10	0xbe004ee4	-0.12530094
11	0x3de7d5f6	0.11320107
12	0x3d61562b	0.055013817
13	0x3e2528d1	0.16128851
14	0xbdf709c8	-0.120624125
15	0x3e26f6d8	0.16305101
16	0x3c965d1f	0.01835495
17	0xbe0fe080	-0.14050484
18	0xbdb2dc36	-0.08733408
19	0x3e2ba180	0.16760826
20	0x3d7eabf2	0.0621757
21	0x3dbe822a	0.093021706
22	0x3dafee0a	0.08590324
23	0xbe36bc97	-0.17845379
24	0x3d8e1ba8	0.06938869
25	0xbdb179f6	-0.0866584
26	0xbd9837ca	-0.07432516
27	0x3c0889ea	0.0083336625
28	0x3c0b9dd6	0.008521518
29	0xbc33374c	-0.010938477
30	0xbe1c0a69	-0.15238346
31	0xbdf31f3f	-0.11871194

conv_theta.weightnet.net.1.bn.weight f4 [32]
0	0x3f7eddad	0.99557
1	0x3f79b3b0	0.97539806
2	0x3f7ca59c	0.986902
3	0x3f80cfc3	1.0063404
4	0x3f7d2326	0.9888176
5	0x3f7db400	0.99102783
6	0x3f82a833	1.020758
7	0x3f830a44	1.0237508
8	0x3f82e6a9	1.0226642
9	0x3f7c31da	0.9851357
10	0x3f787848	0.97058535
11	0x3f773f15	0.9658063
12	0x3f823bb8	1.0174475
13	0x3f7c7b5f	0.9862575
14	0x3f7b42a2	0.9814855
15	0x3f76e8dd	0.9644907
16	0x3f81305a	1.0092881
17	0x3f81797e	1.0115201
18	0x3f7586c4	0.9590876
19	0x3f7c87eb	0.98644894
20	0x3f88c42d	1.0684868
21	0x3f83adbe	1.0287397
22	0x3f7bb33a	0.98320353
23	0x3f75f5eb	0.96078366
24	0x3f827f12	1.0195029
25	0x3f740881	0.95325476
26	0x3f820ddd	1.0160481
27	0x3f812e86	1.0092323
28	0x3f7ac751	0.9796038
29	0x3f86afd7	1.0522412
30	0x3f844a5b	1.0335191
31	0x3f83063d	1.0236279

conv_theta.weightnet.net.1.bn.bias f4 [32]
0	0xbc0ef7eb	-0.0087261
1	0xbd5ace70	-0.05341953
2	0x3bedebb8	0.007260766
3	0xbbbde1f5	-0.0057947584
4	0xbaf05651	-0.0018336271
5	0xba6bc6c4	-0.0008994157
6	0x3c05eb85	0.008173828
7	0xbcf9bf39	-0.03048669
8	0x3b81ed37	0.003965046
9	0xbcd2d08b	-0.025734207
10	0xbccb0f5e	-0.024787601
11	0x3c8badd8	0.017050669
12	0x3d0b6ece	0.03404122
13	0xbc46f27f	-0.0121427765
14	0x3c40ec41	0.011775077
15	0xbbdebfb0	-0.0067977533
16	0xbba8e27e	-0.005153953
17	0xbc73a621	-0.014871151
18	0xbce2e01c	-0.027694754
19	0xbc5304d4	-0.012879569
20	0x3c9aac35	0.018880943
21	0xbab425d3	-0.0013744183
22	0xbd393cd2	-0.04522402
23	0xbcb3bd6c	-0.02194091
24	0x3b9bc29d	0.0047534243
25	0x3cb2d6ad	0.021830881
26	0xbca9ac2d	-0.020711983
27	0xbca4fe13	-0.020140683
28	0xbbcd9c6e	-0.0062747514
29	0xbb7f1ce7	-0.003892714
30	0xbd0ab988	-0.033868343
31	0xbb3362d0	-0.002737213

conv_theta.weightnet.net.1.bn.running_mean f4 [32]
0	0xbe89b50b	-0.26895937
1	0xbd668269	-0.056276713
2	0x3b863788	0.0040959753
3	0x3e48de55	0.19616063
4	0x3dbc1181	0.09183026
5	0xbea3d8aa	-0.3200124
6	0xbe2020d9	-0.1563753
7	0xbe951f3f	-0.291254
8	0x3e504397	0.20338283
9	0x3d91d49e	0.07120632
10	0xbeb2bff3	-0.3491207
11	0x3e651f9a	0.22375336
12	0x3dfb01aa	0.12256177
13	0x3e305ebd	0.1722364
14	0xbd8afa56	-0.06786029
15	0x3ea3e653	0.3201166
16	0x3d9e15d4	0.07719007
17	0x3a9d0b72	0.001198156
18	0xbda15947	-0.078783564
19	0x3e812a38	0.25227523
20	0xbe6b9a67	-0.23008119
21	0x3e5d7026	0.21624812
22	0x3cdce162	0.02696294
23	0xbe902290	-0.2815137
24	0x3dfe72b5	0.124242224
25	0x3d0861d0	0.033296406
26	0xbe4a5252	-0.19757965
27	0xbe294804	-0.16531378
28	0x3e6178b2	0.22018698
29	0xbe65150e	-0.22371313
30	0xbeb9ee31	-0.36314538
31	0xbdf0ef43	-0.117643856

conv_theta.weightnet.net.1.bn.running_var f4 [32]
0	0x3d8485f1	0.0647086
1	0x3ded0005	0.11572269
2	0x3d8385c5	0.06421999
3	0x3df5552e	0.11979137
4	0x3df8a771	0.12141312
5	0x3dec638a	0.11542423
6	0x3cf71e3a	0.03016578
7	0x3c5b9661	0.013402552
8	0x3eb44799	0.35210875
9	0x3e54c2f2	0.2077749
10	0x3deeffdd	0.11669896
11	0x3df118b3	0.11772289
12	0x3dd5591c	0.10417387
13	0x3dd932d7	0.106054
14	0x3e00bc56	0.12571844
15	0x3d82d9d1	0.063892014
16	0x3d3ced8d	0.046124984
17	0x3e43fb77	0.19138895
18	0x3e80d204	0.2516023
19	0x3d8f5b42	0.06999828
20	0x3ce3eb2e	0.027822103
21	0x3ef1ba78	0.47212577
22	0x3dd55e72	0.10418405
23	0x3e8c8849	0.27447727
24	0x3e1a16f1	0.15047814
25	0x3dd5ada3	0.10433509
26	0x3bb59be6	0.005542266
27	0x3e779a5e	0.2417998
28	0x3d2f60dc	0.04281698
29	0x3c826a6f	0.015919892
30	0x3ce1f992	0.027584825
31	0x3d814316	0.06311624

conv_theta.weightnet.net.2.linear.weight f4 [16, 32]
0	0xbe0494c3	-0.12947373
1	0xbd9b9101	-0.07596017
2	0xbd551328	-0.052020222
3	0xbd9726e8	-0.07380468
4	0xbe1940cb	-0.14966123
5	0x3dbe9011	0.09304822
6	0x3d990b28	0.07472831
7	0xbc9890fd	-0.018623823
8	0xbde6ae75	-0.11263744
9	0xbdc9c506	-0.09852032
10	0xbd3eb039	-0.046554778
11	0xbdeaedf3	-0.114711665
12	0xbd3dd7fd	-0.04634856
13	0x3e1b7905	0.15182884
14	0xbd17528b	-0.036943953
15	0xbc05210f	-0.008125558
16	0xbcaf045e	-0.021364387
17	0x3d430d53	0.04762013
18	0xbd2f8556	-0.04285177
19	0xbe202fe6	-0.15643272
20	0x3e3744d7	0.17897354
21	0xbdff2055	-0.12457339
22	0xbd2c946c	-0.042133734
23	0x3e0f4ef5	0.13994963
24	0xbccd4290	-0.025056154
25	0xbc994819	-0.018711137
26	0xbcd99789	-0.026561515
27	0xbd1afc0c	-0.037838027
28	0x3ce24cb8	0.027624473
29	0xbdd23a3d	-0.10265014
30	0x3a10fbf1	0.0005530706
31	0xbe434313	-0.19068556
32	0x3ddda682	0.108227745
33	0x3e1272b8	0.14301574
34	0xbe3bcfb2	-0.18340948
35	0x3d904734	0.07044831
36	0x3cbafaac	0.022824608
37	0x3d8e9edd	0.069638945
38	0xbd7e3aea	-0.062067904
39	0x3d6500cb	0.05590896
40	0x3d97edd4	0.07418409
41	0xbde8ac28	-0.11360961
42	0xbd866fe4	-0.0656431
43	0xbc859f28	-0.016311243
44	0xbc8d9dc1	-0.017287137
45	0xbdf2d795	-0.11857525
46	0xbe4879f3	-0.1957777
47	0xbdc6b250	-0.09701979
48	0xbca93eaf	-0.020659773
49	0x3deb99a8	0.11503917
50	0x3df384b4	0.118905455
51	0xbdd60525	-0.104502
52	0x3e120ce8	0.14262736
53	0xbd02ffcc	-0.03198223
54	0xbdf01192	-0.11722101
55	0xbde4cedf	-0.1117227
56	0xbd915e2e	-0.070980415
57	0x3dd42f7a	0.10360618
58	0x3e5317aa	0.20614496
59	0xbdbad32f	-0.09122311
60	0xbca50b95	-0.020147124
61	0x3e50c8b7	0.20389067
62	0x3dccd540	0.10001612
63	0xbd1a7607	-0.037710216
64	0xbdd2109f	-0.102570765
65	0xbdb3acdd	-0.087732054
66	0x3d0e98cd	0.03481369
67	0xbd883841	-0.066513546
68	0xbdbdd42e	-0.09268986
69	0x3e073f8a	0.13207832
70	0xbd242d54	-0.04008229
71	0xbdb55bc0	-0.088553905
72	0x3d03287b	0.032021027
73	0x3cef1e9e	0.029189404
74	0xbdc1e815	-0.09468094
75	0x3d212b80	0.039348125
76	0xbe4898a3	-0.19589476
77	0xbe16cf72	-0.14727572
78	0x3e133095	0.14374001
79	0xbe2c5e56	-0.16832861
80	0x3dfa9baa	0.12236722
81	0xbe3d07bf	-0.18459986
82	0x3e0637b6	0.1310719
83	0xbe166e10	-0.14690423
84	0x3d5d5313	0.054034304
85	0xbacec759	-0.0015775963
86	0xbd2d4951	-0.042306248
87	0xbdfcd8b2	-0.12346019
88	0xbd3d4a9a	-0.046213724
89	0x39cbb354	0.00038852787
90	0x3d5b1cfc	0.05349444
91	0xbded5352	-0.11588158
92	0xbd1995b0	-0.03749627
93	0x3e4816a4	0.19539887
94	0xbb5b59da	-0.0033470304
95	0xbe1870f2	-0.14886835
96	0xbddc1f91	-0.10748208
97	0x3d9bb831	0.07603491
98	0xbdd5db75	-0.10442249
99	0x3dfcb4d4	0.12339178
100	0x3dc98177	0.098391466
101	0xbd117b46	-0.035517953
102	0xbddb1cbf	-0.10698842
103	0x3ce5c450	0.02804771
104	0xbde26f87	-0.110564284
105	0x3e2a8b42	0.16654685
106	0x3e396ada	0.18107167
107	0xbbd6a788	-0.006550733
108	0x3b2f58ac	0.0026755733
109	0xbcf7e353	-0.030259764
110	0xbe12ff82	-0.14355281
111	0x3dac25e0	0.084056616
112	0x3e25223a	0.16126338
113	0x3e28be17	0.16478764
114	0x3c9ee508	0.01939632
115	0xbe061f39	-0.13097848
116	0x3e336892	0.17520359
117	0xbd9c9e40	-0.07647371
118	0x3caf20e2	0.021377984
119	0x3be02c19	0.0068411944
120	0xbd875738	-0.066084325
121	0xbd9ade9b	-0.0756199
122	0x3e49376b	0.19650047
123	0x3d466c70	0.048443258
124	0x3dbfd2d5	0.09366385
125	0xbd8284ca	-0.06372984
126	0x3e2afbdb	0.16697638
127	0x3e04bd76	0.12962899
128	0xbdda8619	-0.10670108
129	0xbe0eef2a	-0.13958421
130	0xbdd60367	-0.10449868
131	0xbe1a95e7	-0.15096246
132	0xbc315606	-0.010823732
133	0xbe2c7b40	-0.16843891
134	0x3e3302a2	0.17481473
135	0x3df037c2	0.11729385
136	0x3e27815e	0.16357943
137	0x3dbcb8d9	0.092149444
138	0x3d230cf6	0.039807282
139	0x3d15d7ce	0.03658276
140	0xbd16b557	-0.036794033
141	0x3e1796ba	0.14803591
142	0x3e17e893	0.14834814
143	0x3e09e3ed	0.13465853
144	0xbde75e60	-0.112972975
145	0x3da00ce3	0.07814958
146	0xbdd40601	-0.10352708
147	0xbd9848f6	-0.07435791
148	0xbd30d834	-0.043174937
149	0x3d561f45	0.052275915
150	0x3d3e0d4b	0.046399396
151	0xbe39b64a	-0.18135944
152	0x3dc2ae3b	0.09505888
153	0xbe359117	-0.17731129
154	0x3da42ab7	0.0801596
155	0x3d2c82df	0.042116996
156	0x3d4f674f	0.050635632
157	0xbe0f589e	-0.13998649
158	0xbdb4d91c	-0.08830473
159	0xbdf3c705	-0.11903194
160	0x3a894539	0.00104729
161	0x3e1f9ba2	0.15586713
162	0xbcbd5483	-0.023111587
163	0xbd22b2d0	-0.03972131
164	0xbd682a3d	-0.056680907
165	0x3caf18e3	0.021374172
166	0x3da4aede	0.08041166
167	0xbc3e924b	-0.011631559
168	0x3de1332b	0.10996088
169	0xbcb582e9	-0.02215715
170	0xbb77d75d	-0.0037817576
171	0x3e10ccdf	0.14140652
172	0x3d4974a0	0.049183488
173	0x3d14eafc	0.03635691
174	0x3e04f07b	0.12982361
175	0x3d88fa1c	0.066883296
176	0x3e1ea7c8	0.15493691
177	0xbdba129e	-0.09085582
178	0xbc7843ab	-0.015152852
179	0x3c81a43d	0.015825385
180	0xbd947f18	-0.07250804
181	0x3d01d145	0.031693716
182	0x3e01f8b0	0.12692523
183	0x3b19b4cd	0.0023453713
184	0x3dff54de	0.12467359
185	0xbdf9e695	-0.12202183
186	0xbe1a7e88	-0.1508733
187	0x3d536a83	0.05161525
188	0x3d9ae512	0.07563223
189	0xbe0ed70e	-0.13949224
190	0x3c914d14	0.017736949
191	0x3e004083	0.1252461
192	0x3d7b53cb	0.061359208
193	0x3d212914	0.039345816
194	0x3db8273c	0.08991858
195	0x3e0bc511	0.13649394
196	0x3c1fbd9f	0.009749799
197	0x3e071ded	0.1319501
198	0x3d5f5ff8	0.054534882
199	0x3d5c4532	0.053776927
200	0xbce117f2	-0.027477238
201	0xbbe31a04	-0.0069305915
202	0xbc909bd1	-0.017652424
203	0xbd66d5b3	-0.056356143
204	0xbd856203	-0.06512835
205	0xbd8da987	-0.069171004
206	0x3bb78b26	0.0056013046
207	0xbd8b3bc1	-0.067985065
208	0x3cd70296	0.02624635
209	0xbdc87b51	-0.09789146
210	0xbbbfa37c	-0.0058483463
211	0x3df253a3	0.11832359
212	0x3e219819	0.15780677
213	0x3d8e23cf	0.06940424
214	0xbe201a7d	-0.15635104
215	0xbd253d5b	-0.040341716
216	0x3e00c89e	0.1257653
217	0xbdb9c426	-0.090706155
218	0xbc240865	-0.010011767
219	0xbcc16b66	-0.023610782
220	0xbd396b32	-0.045268245
221	0x3e119a0a	0.14218917
222	0x3e11afaf	0.14227174
223	0xbde7d4f1	-0.11319912
224	0x3d3a0b97	0.04542121
225	0xbe241186	-0.1602231
226	0x3c9e82df	0.019349514
227	0xbd0f91d0	-0.035051167
228	0xbdf6a2d5	-0.120427765
229	0xbd9d6aec	-0.07686409
230	0x3e4c3948	0.19943726
231	0xbc8818d2	-0.016613398
232	0xbad3fb33	-0.0016172886
233	0xbe1354c1	-0.143878
234	0xbdfd7f89	-0.12377841
235	0xbdd83591	-0.10557092
236	0xbe5d0b27	-0.21586286
237	0x3d8134ff	0.06308936
238	0xbca1de44	-0.019759305
239	0x3cd7d871	0.026348324
240	0xbdb25208	-0.087070525
241	0x3da41e79	0.08013625
242	0xbca6ef5f	-0.020377813
243	0x3da6ffd1	0.08154262
244	0x3d08c67b	0.03339241
245	0x3ddca8ee	0.10774408
246	0xbe24fb81	-0.16111566
247	0x3d9fe449	0.07807214
248	0xbe36a948	-0.17838013
249	0xbe10043b	-0.14064114
250	0x3cd0eac7	0.025502576
251	0xbda308f0	-0.07960689
252	0xbd863ad9	-0.06554193
253	0x3e1b5736	0.15169987
254	0xbd6ba924	-0.057534352
255	0xbc8d87af	-0.017276613

conv_theta.weightnet.net.2.linear.bias f4 [16]
0	0xbdd6519a	-0.10464783
1	0xbe29d0b9	-0.16583528
2	0x3d9f9848	0.07792717
3	0x3d8aede7	0.067836575
4	0x3d8208b2	0.06349315
5	0xbe0f6d64	-0.14006573
6	0x3de9c1f0	0.11413944
7	0xbd2928bb	-0.04129861
8	0x3d9c8f1d	0.07644484
9	0xbdb3598d	-0.08757315
10	0x3c8f49d6	0.017491262
11	0x3d1efda8	0.038816124
12	0x3d531d96	0.051541887
13	0xbdcd4ada	-0.100240424
14	0x3df6811c	0.120363444
15	0xbe0fc518	-0.14040029

conv_theta.weightnet.net.2.bn.weight f4 [16]
0	0x3f846a7f	1.0345
1	0x3f86776b	1.0505193
2	0x3f815346	1.0103538
3	0x3f85b93e	1.0447156
4	0x3f825ce2	1.0184596
5	0x3f7d66f3	0.98985213
6	0x3f85ace1	1.0443383
7	0x3f849f68	1.0361147
8	0x3f850b64	1.0394101
9	0x3f838931	1.0276242
10	0x3f7f80dd	0.99806005
11	0x3f8556d9	1.0417129
12	0x3f83020e	1.0235002
13	0x3f805e5c	1.0028796
14	0x3f827dd4	1.019465
15	0x3f85d6fe	1.0456235

conv_theta.weightnet.net.2.bn.bias f4 [16]
0	0x3d030af2	0.03199286
1	0x3d3f5b7c	0.046718106
2	0x3c3f17bc	0.011663374
3	0x3d356069	0.044281397
4	0x3c846c70	0.016164988
5	0xbc87af53	-0.016563093
6	0x3d109cef	0.035305914
7	0x3d0bcf29	0.03413311
8	0x3d117750	0.035514176
9	0x3cc96626	0.024584841
10	0x3abd22f3	0.0014429971
11	0x3d0b6145	0.03402831
12	0x3c7d6708	0.015466459
13	0x3b72a209	0.003702285
14	0x3c7a6b41	0.01528436
15	0x3d21a39e	0.039462678

conv_theta.weightnet.net.2.bn.running_mean f4 [16]
0	0xbea0ecdb	-0.31430706
1	0xbe110f00	-0.14165878
2	0xbde3c2a4	-0.11121109
3	0x3e76db12	0.24107006
4	0x3c99f20c	0.018792175
5	0x3c2f9668	0.010717012
6	0x3e6975f9	0.22798909
7	0xbe5dd122	-0.21661809
8	0x3c9cd8b7	0.019146306
9	0xbd341735	-0.043967444
10	0x3cf835a6	0.030299019
11	0x3e41880c	0.18899554
12	0x3db19a91	0.08672059
13	0xbe9dc284	-0.30812466
14	0x3e6c8be2	0.23100236
15	0xbde4db07	-0.11174589

conv_theta.weightnet.net.2.bn.running_var f4 [16]
0	0x3d8a73a6	0.067603394
1	0x3e3c14e6	0.18367347
2	0x3dd4b27a	0.10385604
3	0x3db3fbec	0.08788285
4	0x3e003ad5	0.12522443
5	0x3e186f77	0.1488627
6	0x3dc7572b	0.09733423
7	0x3db18897	0.086686306
8	0x3e1c75fa	0.1527938
9	0x3dbcf4a4	0.09226349
10	0x3d48b96c	0.049004957
11	0x3dfbec30	0.123009086
12	0x3e03a450	0.12855649
13	0x3de7182f	0.112839095
14	0x3d9da9db	0.07698413
15	0x3e1282e2	0.1430774

conv_theta.linear.weight f4 [128, 16]
0	0x3b35772f	0.0027689447
1	0x3d6488fc	0.0557947
2	0xbe09846b	-0.1342942
3	0x3d84f600	0.06492233
4	0x3c4e36ed	0.0125863375
5	0xbe7794e8	-0.24177897
6	0x39f7e328	0.00047280756
7	0x3e49d0d5	0.1970857
8	0xbc0785fd	-0.008271691
9	0x3dc25e4f	0.09490644
10	0x3e63db7a	0.22251692
11	0x3e2e0912	0.16995648
12	0xbc59b8cb	-0.013288687
13	0xbe16412d	-0.146733
14	0x3e0f06f1	0.13967492
15	0x3e7caf68	0.24676287
16	0xbdda2ee0	-0.10653472
17	0xbdee93ed	-0.11649308
18	0x3dd8f120	0.10592866
19	0xbe8fe28a	-0.28102523
20	0xbe68ba5e	-0.22727343
21	0x3e0ff6c1	0.14058973
22	0xbdb84d7e	-0.089991555
23	0xbe5e0e5f	-0.2168517
24	0x3e1ec33b	0.15504162
25	0x3d8c19a7	0.0684083
26	0xbe294739	-0.16531076
27	0xbe898cbc	-0.26865184
28	0xbe97556f	-0.29557368
29	0xbd84b746	-0.06480269
30	0x3e309f0d	0.17248173
31	0xbe8290d4	-0.2550112
32	0x3d8821c7	0.066470675
33	0x3cc0db95	0.023542205
34	0x3d9f22f6	0.0777034
35	0x3e6e2342	0.23255637
36	0x3d412314	0.047152594
37	0x3d8fa9a8	0.07014781
38	0xbdb58599	-0.08863372
39	0x3ca78f6e	0.020454135
40	0xbdec80fd	-0.1154804
41	0xbe203fc4	-0.15649325
42	0xbdfa93ce	-0.12235223
43	0x3e0cd502	0.13753131
44	0x3e8181ed	0.25294438
45	0xbd6aa225	-0.05728354
46	0xbdc60a55	-0.096699394
47	0xbd2546b2	-0.040350623
48	0x3c9fa7c5	0.019489178
49	0x3e54e771	0.20791413
50	0xbdcf2495	-0.10114399
51	0xbdf81467	-0.121132664
52	0xbdd8519a	-0.10562439
53	0xbe332fdb	-0.17498724
54	0xbe85fd6e	-0.26169914
55	0x3dc1e594	0.09467617
56	0x3d18f0b7	0.03733894
57	0x3dc87fd6	0.09790008
58	0xbe1722f4	-0.14759427
59	0xbd7d727d	-0.061876763
60	0x3d9b8794	0.07594219
61	0x3d4c7ee9	0.04992572
62	0xbe8acb1e	-0.2710809
63	0xbe86e9d1	-0.26350263
64	0x3e46289e	0.19351432
65	0xbdf41c2c	-0.11919436
66	0x3d50c113	0.05096538
67	0xbe833d65	-0.25632778
68	0xbe28412d	-0.16431113
69	0xbdaf96cb	-0.08573683
70	0x3c49b4d1	0.012311176
71	0xbe62e81f	-0.2215886
72	0xbda96b73	-0.082724474
73	0xbe890415	-0.26760927
74	0x3df49ac7	0.11943584
75	0xbe5c805f	-0.21533345
76	0xbd94adaf	-0.0725969
77	0xbdc7ffb0	-0.097655654
78	0x3e1928df	0.14956997
79	0xbdbe2c69	-0.09285814
80	0xbe3ee06e	-0.186403
81	0xbdb33e82	-0.08752157
82	0x3c31e51c	0.010857847
83	0x3e836915	0.2566611
84	0x3c40377a	0.011731977
85	0x3b77f6e6	0.0037836372
86	0x3e23f50c	0.16011447
87	0xbe4112c4	-0.18854815
88	0x3e8df79d	0.27727976
89	0x3df53d68	0.11974603
90	0x3d60d482	0.054890163
91	0x3d9ad4cf	0.07560121
92	0x3e5fc1ad	0.21851225
93	0xbe3ff97c	-0.18747514
94	0x3dba9876	0.09111111
95	0x3c48775a	0.012235487
96	0xbd1c108d	-0.03810172
97	0x3e4fee83	0.20305829
98	0xbe4cab22	-0.19987157
99	0xbe70ff22	-0.23534825
100	0xbd873eb5	-0.06603757
101	0x3c90dcb8	0.017683372
102	0xbe88d70a	-0.26726562
103	0x3e4d76a7	0.20064794
104	0xbded6309	-0.11591155
105	0xbe023157	-0.12714134
106	0xbd361871	-0.044456903
107	0x3da7b455	0.081886925
108	0x3e6028d8	0.2189058
109	0x3e711723	0.23543982
110	0xbe43b6ea	-0.19112745
111	0xbdeee431	-0.11664618
112	0x3d7549d0	0.059884846
113	0xbe0a1538	-0.13484657
114	0xbd60f796	-0.054923616
115	0xbe871654	-0.26384223
116	0x3d054cdf	0.032544013
117	0xbdc1ba03	-0.09459307
118	0xbdf8a321	-0.12140489
119	0xbe3214e3	-0.1739078
120	0x3dfaba5d	0.12242577
121	0x3e067962	0.13132241
122	0x3dcbdb65	0.099539556
123	0x3dd8bb0d	0.10582552
124	0xba38b985	-0.00070466875
125	0xbdf1e268	-0.11810762
126	0xbe52b88b	-0.2057821
127	0xbe638931	-0.22220303
128	0x3e3d3e09	0.18480696
129	0x3e0bf96e	0.13669369
130	0x3e00ab6e	0.12565395
131	0x3d78841e	0.06067287
132	0x3e07cbf5	0.13261397
133	0x3dd2e3e7	0.10297375
134	0x3df8cd3e	0.12148522
135	0xbe2e0d7f	-0.16997336
136	0x3df66f11	0.12032903
137	0x3e864411	0.26223806
138	0x3ccece8a	0.02524497
139	0x3dc0df85	0.09417633
140	0x3e2f9f05	0.17150505
141	0xbe5165ef	-0.20449041
142	0x3dd668bd	0.10469196
143	0xbe149589	-0.14510168
144	0xbccb7f5d	-0.024841005
145	0xbd125d45	-0.03573348
146	0x3d51ac8c	0.051189944
147	0xbd03428f	-0.032045897
148	0x3e26ff0a	0.16308227
149	0x3e48e89c	0.19619983
150	0xbcb352be	-0.02189004
151	0xbe58a325	-0.21155985
152	0x3d6cfe48	0.05785969
153	0xbda157c5	-0.07878069
154	0xbdb7b810	-0.08970654
155	0x3dc6c145	0.09704832
156	0xbe87281d	-0.26397792
157	0x3d21df6d	0.039519716
158	0x3dae47ed	0.085098125
159	0xbe179925	-0.14804514
160	0xbbec2027	-0.0072059813
161	0x3e840fcc	0.25793302
162	0x3e72b03f	0.23700045
163	0x3e9146e6	0.28374404
164	0xbd701d93	-0.058621954
165	0x3deb021b	0.11475011
166	0xbddf4bc3	-0.10903122
167	0xbd976eb3	-0.07394161
168	0xbd4781b5	-0.048707683
169	0xbdc43d4c	-0.09582004
170	0xbd9fe06e	-0.078064784
171	0x3e0d18e6	0.13779029
172	0xbe07ff10	-0.13280892
173	0xbe5d207e	-0.21594426
174	0x3e532581	0.20619775
175	0x3d96d2bf	0.073644154
176	0x3d8ffdec	0.07030854
177	0x3d9f3faa	0.07775815
178	0x3d799bc9	0.060939584
179	0x3d9d4d36	0.076807424
180	0x3d9fa94d	0.077959634
181	0x3e85e5eb	0.26151976
182	0xbe221981	-0.15830041
183	0x3d02a82e	0.03189867
184	0xbdacf6c9	-0.08445508
185	0xbdb9e549	-0.09076936
186	0xbd33aead	-0.043867756
187	0x3dbf1b58	0.09331387
188	0xbd2782b2	-0.040896125
189	0x3e375617	0.17903934
190	0xbe3f1b76	-0.1866282
191	0xbe896c52	-0.26840454
192	0xbd313692	-0.043264933
193	0xbe92ecf7	-0.28696415
194	0xbe326b6c	-0.1742379
195	0xbe51d248	-0.20490372
196	0xbe438020	-0.19091845
197	0xbe2e21f1	-0.17005135
198	0x3d7db3e6	0.061939143
199	0x3bcaed1d	0.006192817
200	0x3d8402e6	0.06445865
201	0x3e011f09	0.12609495
202	0xbd051731	-0.03249282
203	0x3e4fe592	0.20302418
204	0x3d31cac9	0.04340628
205	0xbdfe0f0b	-0.12405213
206	0xbdb327fe	-0.08747862
207	0xbe4fe7cf	-0.20303272
208	0x3dfba5de	0.12287496
209	0xbdcc6edb	-0.099820815
210	0xbce5ad7b	-0.028036823
211	0xbd085626	-0.033285283
212	0xbe1af5ce	-0.1513283
213	0xbd338376	-0.043826543
214	0x3e24df06	0.16100702
215	0xbe719d26	-0.23595104
216	0xbceef1b4	-0.029167987
217	0xbe764348	-0.24049103
218	0x3e748af6	0.23881134
219	0xbe7cc504	-0.2468453
220	0xbe0b4434	-0.13600236
221	0x3e6276b4	0.22115594
222	0x3e5d7999	0.21628417
223	0xbdeba38e	-0.11505805
224	0x3e051c83	0.12999158
225	0xbe7445bb	-0.23854725
226	0xba0b35ce	-0.0005310447
227	0xbe82e92b	-0.25568518
228	0x3e8c3e64	0.2739135
229	0x3e3fa968	0.18716967
230	0xbe306a10	-0.1722796
231	0xbc20729c	-0.00979295
232	0xbe11211e	-0.1417279
233	0xbe2cfbde	-0.16892955
234	0x3d09e0fd	0.03366183
235	0x3e5dba2f	0.21653055
236	0x3e1aad96	0.1510528
237	0x3cc0358c	0.023463033
238	0x3e57fdd3	0.2109292
239	0xbdffd83a	-0.12492414
240	0x3e80cda7	0.251569
241	0x3e5b4d96	0.21416315
242	0x3e6d8e9b	0.23198931
243	0xbb5a9c3b	-0.003335728
244	0x3de340ce	0.11096345
245	0xbc5a4ddd	-0.013324228
246	0x3db053c7	0.08609729
247	0x3e01a87f	0.12661932
248	0xbe2cbfd8	-0.16870058
249	0x3e787ffd	0.24267574
250	0xbd809807	-0.06278997
251	0x3e6076a6	0.21920261
252	0xbc126cbd	-0.008937058
253	0x3da743ea	0.081672505
254	0x3e3dcd1a	0.18535271
255	0xbde9a809	-0.11409003

conv_theta.linear.bias f4 [128]
0	0x3bd1f995	0.0064079263
1	0xbe77f6b8	-0.2421521
2	0x3d98fac1	0.074697025
3	0x3d3f9434	0.046772197
4	0xbd7bc805	-0.06147005
5	0x3d9193dc	0.0710828
6	0xbe17b5f5	-0.14815505
7	0x3e4749b5	0.19461711
8	0x3e616e5a	0.22014752
9	0xbc030f73	-0.007999289
10	0x3de5f94c	0.1122919
11	0x3dfb8540	0.12281275
12	0x3ca24938	0.019810304
13	0x3d9837de	0.07432531
14	0x3d422e3c	0.047407374
15	0xbc4b5ef9	-0.01241278
16	0x3e212f88	0.15740788
17	0xbe663dc1	-0.22484495
18	0x3e7336d1	0.2375138
19	0xbdda644c	-0.10663661
20	0xbe19d0a5	-0.15020998
21	0xbe7a8d79	-0.2446803
22	0xbdc0ec67	-0.0942009
23	0x3de82ffc	0.11337277
24	0x3e1c6c3b	0.15275662
25	0xbd77d9ff	-0.06051063
26	0xbce489f2	-0.027897809
27	0x3ba71955	0.0050994554
28	0x3e05cda7	0.13066731
29	0x3e4ebfcd	0.20190354
30	0xbe5f9d70	-0.21837401
31	0x3e403262	0.1876922
32	0xbd901331	-0.070349105
33	0xbde17e80	-0.11010456
34	0x3d0eb32a	0.034838833
35	0xbe807745	-0.25090995
36	0x39a82e7b	0.00032078088
37	0xbe023f98	-0.12719572
38	0x3dd0de00	0.10198593
39	0x3e391d20	0.18077517
40	0x3e10c386	0.14137086
41	0xbcfef5c1	-0.031123044
42	0xbe882eaf	-0.26598117
43	0x3e5c96f2	0.21541956
44	0x3e360937	0.17776953
45	0xbe4c5eb5	-0.19958003
46	0xbd9759ae	-0.07390152
47	0xbdd3f58b	-0.10349568
48	0xbe849712	-0.25896508
49	0x3c57f945	0.013181989
50	0xbe3f6b4a	-0.18693271
51	0xbd73fb16	-0.059565626
52	0x3bcba458	0.0062146597
53	0x3e19dc73	0.15025501
54	0xbd064809	-0.03278354
55	0xbbc9c386	-0.0061573414
56	0x3e68663c	0.2269525
57	0x3e27eec6	0.16399679
58	0xbc1773f7	-0.009243957
59	0x3d63649d	0.055515874
60	0xbe54065f	-0.20705555
61	0xbd4749c8	-0.048654348
62	0x3d5dcebc	0.054152235
63	0xbe138f65	-0.1441017
64	0xbdbc349a	-0.091897205
65	0xbcf7dddb	-0.030257156
66	0x3d902bae	0.07039581
67	0xbe04ba49	-0.12961687
68	0x3e2ee5b3	0.17079811
69	0xbd429c17	-0.04751214
70	0x3e0167c4	0.1263724
71	0x3e4a8008	0.19775403
72	0x3e5f414b	0.21802251
73	0xbe073278	-0.13202846
74	0xbe628a0f	-0.22122978
75	0x3c0e0206	0.008667475
76	0xbd06ce01	-0.032911304
77	0x3e193368	0.14961016
78	0x3e145fa8	0.14489615
79	0xbe6a7511	-0.2289622
80	0x3e280e57	0.1641172
81	0x3e5c920b	0.21540086
82	0xbe3b2c23	-0.18278556
83	0xbe50d527	-0.20393811
84	0xbe4ad049	-0.19806017
85	0x3dd93532	0.10605849
86	0x3d9a050d	0.075204946
87	0xbe0ea40d	-0.13929768
88	0x3df3bc69	0.11901171
89	0xbe4d1ca9	-0.20030464
90	0xbd29e86f	-0.04148143
91	0x3dd76cea	0.105188206
92	0x3e80148b	0.25015673
93	0xbe3ab77a	-0.18234053
94	0x3d5a0279	0.053225014
95	0xbe24164e	-0.16024134
96	0xbd99fbb1	-0.075187095
97	0xbd14294d	-0.0361722
98	0x3d8fe4a5	0.07026032
99	0x3e113a93	0.141825
100	0xbe5b3cea	-0.21409956
101	0x3e6912e0	0.22761106
102	0x3cd6a454	0.026201405
103	0xbe1e18a4	-0.15439087
104	0xbc6d45d2	-0.0144819785
105	0x3d0fa5ef	0.035070356
106	0xbe62be1a	-0.2214283
107	0x3e3e3bb3	0.18577461
108	0x3c53b8be	0.012922464
109	0x3e10cece	0.1414139
110	0xbe5c4d86	-0.21513948
111	0x3d1edf61	0.03878725
112	0x3e4b4771	0.19851471
113	0xbdb130de	-0.08651899
114	0xbd10e212	-0.035371847
115	0xbd855662	-0.06510617
116	0x3e06e4a4	0.13173157
117	0xbde9e066	-0.11419754
118	0xbe3f89d8	-0.18704927
119	0x3e500a18	0.2031635
120	0x3dd27dda	0.102779105
121	0xbdd7f1d0	-0.10544169
122	0x3e2a0a20	0.16605425
123	0xbe558e33	-0.20855026
124	0x3e18fb3e	0.14939591
125	0xbe16b009	-0.1471559
126	0x3b01e19f	0.0019818319
127	0x3e5b0590	0.2138884

cnn.0.module.weight f4 [128, 256]
0	0xbd811910	-0.063036084
1	0x3d13e191	0.03610379
2	0xbccc4e5a	-0.024939705
3	0x3bbe61ab	0.005809983
4	0xbd37f044	-0.04490687
5	0x3d1132d6	0.03544887
6	0x3d3514fd	0.04420947
7	0xbccbe4c9	-0.024889367
8	0xbd04ab93	-0.03239019
9	0xbd6c2b3d	-0.057658423
10	0xbc988bec	-0.018621407
11	0xbb1e9fe2	-0.0024204184
12	0xbbd9e128	-0.006649155
13	0x3c686a5c	0.014185514
14	0x3d1eaf3f	0.038741346
15	0x3d4f5f84	0.0506282
16	0xbc902e66	-0.01760025
17	0x3ce9a633	0.028521633
18	0x3b1656a7	0.0022939832
19	0xbd72d267	-0.059282687
20	0x3b111891	0.0022139887
21	0xbbcbcc80	-0.0062194467
22	0xbd006a1c	-0.031351194
23	0x3c8ad7cb	0.016948601
24	0x3c8e3f66	0.017364215
25	0xbcb3ba1a	-0.021939326
26	0x3d633a52	0.05547554
27	0xbd66f8b4	-0.056389526
28	0x3befd60f	0.007319219
29	0x3c76a214	0.015053291
30	0x3d357342	0.04429937
31	0xbd39c9a2	-0.045358308
32	0x3d57666c	0.05258791
33	0xbd5f81a0	-0.05456698
34	0xbc6ef92e	-0.014585776
35	0x3cce1438	0.025156125
36	0x3c92cf42	0.017921094
37	0x3caf9526	0.021433424
38	0x3c8d2da7	0.017233683
39	0x3d0e2422	0.034702428
40	0x3d578ef5	0.05262657
41	0x3d627ef4	0.055296853
42	0x3c83be0a	0.016081829
43	0xba5e65bd	-0.0008483788
44	0xbd8edbfd	-0.06975553
45	0x3c25842e	0.010102315
46	0xbd71908d	-0.058975745
47	0x3d29019e	0.041261308
48	0xbcc49215	-0.023995439
49	0xbd5ca924	-0.053872243
50	0x3cbbf017	0.022941632
51	0xbce1622c	-0.027512632
52	0x3d15f879	0.036613915
53	0x3d7b4d7c	0.06135319
54	0x3d3914da	0.0451859
55	0x392d142e	0.00016506083
56	0x3b835857	0.0040083337
57	0x3d6b8032	0.057495303
58	0xbcc37add	-0.023862297
59	0x3ced9725	0.029002735
60	0xbc8fb3ef	-0.017541854
61	0x3c9b3d62	0.018950168
62	0xbd5cc2ec	-0.05389683
63	0x3d128c52	0.03577835
64	0x3ca08ada	0.01959746
65	0xbc2362e2	-0.009972306
66	0x3d311ca7	0.043240216
67	0xbd1e88f4	-0.038704827
68	0x3c19ae1a	0.009379888
69	0x3acc5a68	0.0015590908
70	0xbb4bf32e	-0.0031120288
71	0x3cd80e24	0.02637393
72	0xbce30a35	-0.027714828
73	0x3caa803f	0.020813106
74	0xbd27f31a	-0.041003324
75	0x3d7559ab	0.059899967
76	0x3d401f9a	0.046905138
77	0xba6f9085	-0.00091386616
78	0x3d73bca7	0.059506085
79	0xbccc950b	-0.024973413
80	0x3cbf4d0d	0.02335217
81	0x3ce03a84	0.027371652
82	0xbcbe0168	-0.02319403
83	0xbd803927	-0.06260901
84	0xbd844c70	-0.06459892
85	0xbd4fe19b	-0.050752264
86	0x3d10a231	0.035310928
87	0xbd1d0995	-0.038339216
88	0xbbe0f279	-0.0068648425
89	0x3d40636d	0.04696982
90	0xbd29d59e	-0.041463487
91	0xbb69e4a1	-0.0035689252
92	0xbbbd1388	-0.0057701506
93	0xbca91f5c	-0.020644836
94	0xbd481462	-0.048847564
95	0x3b032d0f	0.002001587
96	0x3d59dcc6	0.05318906
97	0xbcdf3cf0	-0.027250737
98	0x3d3d616c	0.046235487
99	0x3d3c2e74	0.04594274
100	0x3d1ed852	0.038780518
101	0xbd00be53	-0.031431507
102	0xbd657305	-0.056017894
103	0x3d31e8e8	0.043435007
104	0x3c7e146b	0.015507798
105	0x3d22d39e	0.039752595
106	0xbd3229cb	-0.043496888
107	0x3c9d0f36	0.019172292
108	0xbd214978	-0.039376706
109	0xbcfcefa4	-0.030875988
110	0x3ce96935	0.02849255
111	0x3d176179	0.03695819
112	0xbd72c487	-0.059269454
113	0xbd79f0d4	-0.061020687
114	0x3c9992c5	0.018746743
115	0xbd6216d0	-0.055197537
116	0x3d2aeb43	0.04172827
117	0x3c4e6ac9	0.012598702
118	0x3d4be373	0.04977746
119	0x3d4f72f1	0.050646726
120	0x3d27e935	0.040993888
121	0x3ce9c8c3	0.028538113
122	0x3d62a3d0	0.055332005
123	0xbc07573b	-0.008260543
124	0xbca47d97	-0.020079417
125	0xbcae1a88	-0.021252885
126	0xbd092142	-0.033478983
127	0x3c04e73f	0.008111774
128	0xbd13ad08	-0.036053687
129	0x3cbc8d21	0.023016514
130	0x3d0c4819	0.034248445
131	0xbd069eb8	-0.03286621
132	0x3c925960	0.017864883
133	0x3d751614	0.05983551
134	0xbda5c91e	-0.08095001
135	0xbd3bc5a3	-0.045842778
136	0xbd1ad7c8	-0.03780344
137	0xbd3d0152	-0.046143837
138	0x3bb75fc4	0.005596133
139	0xbd43c3c7	-0.04779413
140	0xbc05d91b	-0.008169438
141	0xbcdfcd7b	-0.02731966
142	0x3c47b587	0.012189276
143	0x3d92c2be	0.071660504
144	0xbdb0bba7	-0.08629542
145	0x37fd8396	3.0221225e-05
146	0x3d9fbe79	0.07800002
147	0xbb2cb35a	-0.002635202
148	0x3d8c437f	0.06848811
149	0xbd187df0	-0.03722948
150	0x3c097210	0.008389011
151	0xbce1ef16	-0.027579825
152	0x3d15938c	0.036517665
153	0xbcf0f503	-0.029413706
154	0xbc22725d	-0.009914962
155	0x3d719384	0.058978572
156	0xbd2b95ba	-0.041890837
157	0xba0c378b	-0.0005348853
158	0x3cc889e9	0.024479823
159	0xbd21cc3e	-0.03950142
160	0x3bcd8884	0.0062723774
161	0x3d5e3954	0.05425389
162	0xbd0029e8	-0.031289965
163	0x3d9bfbea	0.07616408
164	0x3d95437b	0.072882615
165	0x3db8072f	0.08985745
166	0x3d8032c0	0.0625968
167	0xbdb1bccc	-0.08678588
168	0x3daef461	0.08542705
169	0xbc9273d1	-0.017877491
170	0xbd073f1b	-0.033019166
171	0xbd8662f7	-0.06561845
172	0x3c9ae9c4	0.018910296
173	0xbb00d80c	-0.0019660024
174	0x3d68f44e	0.056873612
175	0xbd83aa48	-0.06428963
176	0x3d74de45	0.059782285
177	0x3d08e49a	0.033421136
178	0x3dd17c08	0.10228735
179	0xbc490384	-0.012268905
180	0xbc82ddaf	-0.015974848
181	0x3cab1719	0.020885037
182	0x3db4a067	0.08819657
183	0xbc6e1eda	-0.014533723
184	0x3d0ac033	0.0338747
185	0x3d604557	0.054753628
186	0xba73c21a	-0.0009298638
187	0x3d5a457d	0.053288925
188	0x3cf4f71b	0.029902985
189	0x3daff67c	0.08591935
190	0xbc519798	-0.01279249
191	0xbd61ffd8	-0.055175632
192	0xbc9960e1	-0.018722953
193	0xbda8c949	-0.08241517
194	0xbd3b129b	-0.04567204
195	0x3a5b77db	0.0008372047
196	0x3d41c949	0.0473111
197	0x3d2c315b	0.042039257
198	0x3d1d5aad	0.038416553
199	0x3cb4d08d	0.022072101
200	0x3c287ebd	0.010284123
201	0x3d185870	0.037193716
202	0xba70650e	-0.0009170332
203	0xbc1109a5	-0.008852397
204	0x3d05ebfb	0.03269575
205	0x3d7c98c1	0.061669115
206	0xbd54ffd6	-0.052001797
207	0x3dbca8ba	0.092118695
208	0x3da0805e	0.07836984
209	0x3d6b2fe6	0.057418726
210	0xbd3859d8	-0.045007557
211	0xbd62176d	-0.05519812
212	0xbd45a275	-0.048250634
213	0xbcb300cc	-0.021850966
214	0xbc4b5c6e	-0.012412174
215	0x3bac155f	0.005251571
216	0xbd5c1a2a	-0.05373589
217	0x3d673453	0.056446385
218	0x3c39b6b0	0.01133506
219	0x3db5b188	0.08871752
220	0xbd6a6b79	-0.0572314
221	0x3d30bb35	0.043147285
222	0xbd6938b2	-0.056938834
223	0x3ab4893f	0.0013773813
224	0xbda788c2	-0.08180381
225	0xbd099aa1	-0.03359473
226	0x3b59b83e	0.003322139
227	0xbca22e31	-0.019797416
228	0x3c147726	0.00906161
229	0xbcf017aa	-0.029308159
230	0xbd81f8a8	-0.063462555
231	0xbd8e10e9	-0.06936819
232	0xbd0b01c0	-0.033937216
233	0xbaca7511	-0.0015446265
234	0xbc09a3ea	-0.008400897
235	0x3d0a8f3b	0.033828
236	0x3d11bd25	0.035580773
237	0x3bd05aa9	0.006358464
238	0x3c96dd8a	0.018416185
239	0xbc88ff65	-0.016723344
240	0xbd84d4df	-0.064859144
241	0x3c0f92a2	0.008762987
242	0x3cd36108	0.025803104
243	0xbcc12f9b	-0.02358227
244	0x3d102c14	0.035198286
245	0x3ca3e41d	0.020006234
246	0xbd9d541a	-0.07682057
247	0xbd094ad9	-0.033518646
248	0x3bb476c6	0.005507323
249	0x3ceb42f0	0.028718442
250	0x3bfd5a5c	0.007731719
251	0x3d9cad11	0.07650197
252	0xbd9bc00c	-0.076049894
253	0x3d886be5	0.06661204
254	0x3d4b5c08	0.049648315
255	0xbd850b2b	-0.06496271

cnn.0.module.bias f4 [128]
0	0xbd32d439	-0.043659423
1	0x3c17e398	0.009270571
2	0x3cd54d65	0.026037881
3	0xbc2cb0a4	-0.010540161
4	0x3c5569b5	0.013025691
5	0x3c8b1cef	0.01698157
6	0xbce8cf76	-0.028419238
7	0x3c932e7b	0.0179665
8	0x3d32b65b	0.04363094
9	0xbca9191f	-0.020641861
10	0x3d7a4a93	0.061106276
11	0x3bf6937b	0.0075249053
12	0x3d39b15c	0.04533516
13	0x3be0e652	0.006863394
14	0x3a909946	0.0011032007
15	0x3cb3e47b	0.021959534
16	0xbccbcebd	-0.024878854
17	0x3d6ead56	0.058270775
18	0x3d89dc5b	0.067314826
19	0x3c7083cc	0.01467986
20	0xbd263711	-0.04057986
21	0x3cda6b22	0.026662413
22	0x3d7bb8a9	0.061455403
23	0xbcf3ddba	-0.029768813
24	0xbd573af3	-0.052546453
25	0x3c3bbdd8	0.0114588365
26	0x3d109769	0.035300646
27	0x3ce58982	0.02801967
28	0x3d86dd0c	0.0658513
29	0xbcb844c6	-0.022493731
30	0x3c8fdc77	0.01756118
31	0x3c1ce9bf	0.009577214
32	0xbd1af4bc	-0.037831053
33	0xbd83a290	-0.06427491
34	0x3dad182a	0.084518746
35	0xbd034d94	-0.032056406
36	0xba5ed299	-0.00085000094
37	0xbcef01ed	-0.029175723
38	0xbbf63717	-0.0075138914
39	0x3cacce0b	0.021094343
40	0xbc765444	-0.015034739
41	0xbbb8f8aa	-0.0056448774
42	0xbd449928	-0.047997624
43	0x3d5314b9	0.051533435
44	0x3c658a17	0.014009974
45	0xbd17ff55	-0.037108738
46	0xbcadd133	-0.021217918
47	0xbc5762c3	-0.013146105
48	0x3c97db3e	0.01853716
49	0x3dbcd1b0	0.09219682
50	0xbc1f4eb5	-0.009723355
51	0xbba255e1	-0.004954085
52	0xba18c1f4	-0.0005827241
53	0x3c99acfd	0.018759245
54	0x3d07413d	0.0330212
55	0x3cf5a72b	0.029986938
56	0x3cc51f27	0.024062706
57	0xbccdfc47	-0.02514471
58	0xbcf3d79d	-0.029765898
59	0x3c01f2d7	0.007931433
60	0x3d72ec2f	0.059307273
61	0xbd6dcb90	-0.05805546
62	0xbd553167	-0.052049067
63	0x3d65f932	0.056145854
64	0xbccb4e22	-0.02481753
65	0x3d4d5d40	0.05013776
66	0x3c07e77e	0.008294938
67	0x3d9df371	0.077124484
68	0xbd1dd9a3	-0.038537633
69	0x3d4403ad	0.047855068
70	0x3c231b7c	0.009955283
71	0x3cc517e4	0.024059244
72	0x3d21f73e	0.03954243
73	0xbd024f03	-0.031813633
74	0xbd314697	-0.04328021
75	0x3d14e232	0.03634853
76	0x3d4bf093	0.049789976
77	0xbd80ff92	-0.06298746
78	0xbca0525e	-0.019570526
79	0x3d88e5e9	0.06684477
80	0x3d750ee7	0.059828665
81	0x3cfcbe39	0.030852424
82	0xbc563e8f	-0.013076439
83	0xbd18c6f4	-0.03729911
84	0x3d91ef83	0.07125761
85	0x3d0bfeb9	0.03417847
86	0xbbdae298	-0.006679844
87	0x3d9a209c	0.07525751
88	0x3d54f06d	0.0519871
89	0x3ab15a79	0.0013530991
90	0x3c95519d	0.018227393
91	0xbcaf1f8e	-0.021377351
92	0xbd0fa9a5	-0.035073895
93	0xbcefd970	-0.029278487
94	0x3d8e5112	0.06949057
95	0xbc01e628	-0.007928409
96	0x3d1ed6e8	0.03877917
97	0x3c8c703a	0.017143358
98	0x3d50060a	0.05078701
99	0xbd7eabc5	-0.06217553
100	0xbb9cb8e8	-0.0047827847
101	0x3cc5c06b	0.024139604
102	0x3d043724	0.03227915
103	0x3c7734f3	0.015088308
104	0xbd2692e1	-0.04066742
105	0xbc83706e	-0.016044822
106	0x3d9501b4	0.072757155
107	0x39bb15b1	0.0003568358
108	0xb8f84e74	-0.000118401746
109	0x3c6abc4d	0.014327121
110	0xbcf0141c	-0.029306464
111	0xbd7f21af	-0.062287983
112	0x3d81356b	0.06309017
113	0x3d32e4b7	0.04367515
114	0x3d51cabb	0.05121873
115	0x3d0883b2	0.03332872
116	0x3c860b51	0.016362818
117	0xbd891714	-0.06693855
118	0x3d90e671	0.07075203
119	0x3b86cb54	0.004113594
120	0x3d8c4475	0.06848995
121	0x3d7168a1	0.058937673
122	0xba0428d6	-0.00050414854
123	0x3cd3710c	0.02581074
124	0x3d1ab1c5	0.03776719
125	0x3ca33c56	0.019926231
126	0xbc3c0183	-0.01147497
127	0x3d271b08	0.040797263

cnn.1.conv.0.depthwise.weightnet.net.0.linear.weight f4 [32, 2]
0	0x3f13fa6b	0.5780398
1	0xbf1f20bc	-0.62159324
2	0xbf135314	-0.5754864
3	0x3f2c02aa	0.67191565
4	0xbf1a4b5d	-0.60271245
5	0x3ea65ab0	0.32491064
6	0x3ea9c131	0.33155206
7	0x3ecb4a3b	0.3970507
8	0xbd2c861e	-0.04212009
9	0xbea582bf	-0.32326314
10	0x3e79bf5e	0.24389407
11	0xbe7c5b93	-0.24644308
12	0xbe74aeee	-0.23894855
13	0xbe7fb400	-0.24971008
14	0xbeca8421	-0.3955393
15	0x3f0cabb7	0.54949516
16	0xbf24a9a0	-0.6432133
17	0xbd4ca452	-0.049961396
18	0xbe388917	-0.18021046
19	0xbebdbaa2	-0.37056452
20	0xbf01cfc9	-0.5070768
21	0x3e801728	0.25017667
22	0xbe8a2cac	-0.26987207
23	0xbdfadc09	-0.122489996
24	0x3dd3daa2	0.10344435
25	0x3ef7945b	0.48355374
26	0x3ec3ade8	0.38218617
27	0xbefcb2ae	-0.49355072
28	0x3efe03aa	0.4961217
29	0x3ecdcf3a	0.40197164
30	0x3d35b003	0.04435731
31	0x3da3ec69	0.08004076
32	0xbf208296	-0.6269926
33	0x3e0061b6	0.12537274
34	0xbec26779	-0.37969568
35	0xbf08656e	-0.5327977
36	0x3ef3d2c9	0.47621754
37	0x3ecdbb4a	0.40181953
38	0x3f18426c	0.5947635
39	0xbeaf8c63	-0.34286794
40	0x3e84c41d	0.25930873
41	0x3f0e6ef1	0.55638033
42	0xbef326bc	-0.4749049
43	0xbda07b15	-0.07835976
44	0xbe9f3485	-0.31094757
45	0x3ef06b3b	0.4695681
46	0xbf1aee87	-0.60520214
47	0x3ee07a8b	0.43843493
48	0xbe91ae05	-0.2845308
49	0x3f23197d	0.6371077
50	0xbe4507e0	-0.19241285
51	0xbefe4b06	-0.49666613
52	0x3f1a32e8	0.60233927
53	0xbd946af4	-0.07246962
54	0xbe52d9ce	-0.20590898
55	0x3f053f8a	0.5205008
56	0xbf227777	-0.6346354
57	0xbd6e27c3	-0.05814339
58	0xbe363dc7	-0.17797004
59	0xbe4b4101	-0.19849016
60	0xbf133724	-0.5750601
61	0xbe88f4cb	-0.26749262
62	0x3ecf94d3	0.4054323
63	0x3ef7f8a4	0.48431885

cnn.1.conv.0.depthwise.weightnet.net.0.linear.bias f4 [32]
0	0xbe721130	-0.23639369
1	0xbe359ada	-0.17734852
2	0x3de2947a	0.11063476
3	0x3e9b1e72	0.30296665
4	0x3ee30c2d	0.44345227
5	0xbf27a896	-0.65491617
6	0x3d412c21	0.047161225
7	0x3e8dbcbe	0.2768306
8	0x3d705343	0.058673155
9	0xbf2522cf	-0.6450624
10	0xbee6682f	-0.4500136
11	0xbf1697e0	-0.5882549
12	0xbe9c3be3	-0.3051444
13	0x3ee40027	0.44531366
14	0x3f1755b6	0.5911516
15	0xbe8ad86d	-0.27118245
16	0xbeac147b	-0.33609375
17	0x3db8eb09	0.090292044
18	0x3ee825d2	0.45341355
19	0x3e97992b	0.29609045
20	0x3f025c68	0.5092225
21	0x3f1505af	0.582118
22	0xbe86f684	-0.26359951
23	0x3f2b39b0	0.668849
24	0xbf2012ed	-0.6252888
25	0xbf15d18f	-0.58522886
26	0x3f1756dd	0.5911692
27	0x3f34d0a1	0.7063084
28	0xbf05a96f	-0.5221166
29	0xbdec2912	-0.11531271
30	0xbe113ff5	-0.14184554
31	0x3e7d17bb	0.24716084
