weights/1dreg/periodic/periodic_convcnp.pth (torch_old, 29333 bytes, 12 tensors)

pre_mlp.0.weight f4 [8, 3]
00000000: 73ad 693c 2ab6 19bf 900f d03e b7bc 913b
00000010: 5499 033e 3c68 da3e d5b6 3f3d 735d cabc
00000020: 6b00 54bf d0db 3bbb 8be8 c0bf 751e a0bd
00000030: 6a76 a93d a82f 7a3e 3e4a 0f3d dfff 333b
00000040: 082d e3bd 9a0a 3c3f ece2 eabc 99f1 a33e
00000050: c124 1b3f 054f 68bd 4440 40bd 947a 51bf
0.014262545 -0.60043585 0.40636873 0.0044475454 0.12851459 0.4265765 0.04680522 -0.024702763
-0.8281314 -0.0028664954 -1.5070966 -0.07818309 0.08274539 0.24432242 0.034982912 0.0027465743
-0.110925734 0.73453677 -0.028672658 0.32020262 0.60602957 -0.056715984 -0.04693629 -0.81827664

pre_mlp.0.bias f4 [8]
00000000: 09a9 5ebe 0f6d 47be 96d6 a2bd 232c 99be
00000010: 44d6 ccbe ecca 74bc 106e cebd 8b0d 73bd
-0.2174417 -0.19475196 -0.07951085 -0.29916486 -0.40007222 -0.0149409585 -0.100795865 -0.059339087

cnn.0.weight f4 [16, 8, 5]
00000000: c614 ffbd 4a49 c03d e106 52be 0eb5 313d
00000010: 699b 673d 220d 35be 12b1 443e fe3a 84be
00000020: 04ac cb3d 0113 13bb 9707 e1bd 35ce 6abe
00000030: f76e c23d 5116 87be d775 fcbc 6c29 1c3e
00000040: f5a0 013e 35c9 2a3e 8eaa 4bbd b278 133e
00000050: 2e6b 50be e6ad b8bd 2a79 34be db4c 0d3e
00000060: 7fed 48bd bfa1 7abc bf75 33be 0102 84be
00000070: c306 a0bc 2477 fe3d cb32 ccbd 6c6c fc3d
00000080: 568f 003c 695f f7bc e81c ecbc 1808 75be
00000090: 4992 02be 1d94 8ebc 48ed 35be 2735 fbbd
000000a0: 39e0 a7bc 61f8 9dbe 32df 52bd bdbb abbc
000000b0: 604d 83bb fea9 3bbd 8e64 26bd 1768 503c
000000c0: 3a49 163e 6c02 48be 9b15 1b3d 17c8 903e
000000d0: a5e2 9abd a9ef c13d bddd 143e ecf5 e3bd
000000e0: 352a 2a3e f897 4abe 0d18 313e 41af c0bd
000000f0: efeb a73b 700f a6bd dae2 3f3e d4f7 9cbd
00000100: cf18 c33d c647 40be 02c2 ccbe 48fe d0be
00000110: 83a1 6bbe ba04 0abe 22e1 29be b21c 65be
00000120: 2dcf a4bd dada c53d f6b9 82be ca2d 4c3d
00000130: 5a69 aebd b82e 933e 624d 893e fed0 5c3e
00000140: ab65 08bd 0fbf 8f3e e4e9 6abd d222 26bf
00000150: d1da b4be bee6 cd3d 9256 d03d 85fc 373d
00000160: d8ce 8ebe e588 87be a2dd 9cbe 2b61 60be
00000170: b59d b7bd e0b1 7bbe 1d4d d8be ca81 1a3e
00000180: a7dd 98bd 2f10 fcbd 565f d9be 3f5b 07bf
00000190: 8f50 b1bd 762f 0ebe 3b82 e3bd 6325 a2be
000001a0: 48d5 dfbd dcba a53e 3c54 b43e 8c97 a03e
000001b0: cfa0 8dbe 69a6 b4be 178a 16be 1fb0 e33d
000001c0: f076 9d3e 694a 23be 64d8 ebbd ab06 59be
000001d0: cc68 173d 11c4 acbd a46f 923e 5be0 a53e
000001e0: c403 d73d 2800 523c 273f 80bd 294e d6bd
000001f0: ecab ddbd 1451 893c fecb 2e3d e8a5 21be
00000200: 6b2f 7b3c 1430 3fbe 9173 47be 7c1b cfbd
00000210: ae72 91bd c59e 73be 81f3 f23c 7fe4 adbd
00000220: f58c 2abd b010 883a 4589 c93d ac30 993d
00000230: af06 143e 90db 5fbc 46c4 7bbe 221b 39be
00000240: b9fb 1dbe 06fd 09be ab23 c1ba 1353 8fbe
00000250: 8526 2c3e facc e2bd 5aa8 c4bc 31ac 083e
00000260: 5f85 20be 7bca ecbc f533 4cbe 8c88 c93d
00000270: dcac 65be 6698 43bc 091d bc3d b56f 3b3c
00000280: 8e97 9ebe 62e1 74be f99f 063e f2dd 95be
00000290: 43d0 b33b abd3 b73d 0338 57bd db5e 923e
000002a0: af0f ae3d 4df3 41bd f9e8 dc3d 536e 8bbd
000002b0: a39e b3bd 72a4 f5be ce77 acbd 1939 19be
000002c0: e205 713d 9263 9e3c 4521 a5bd ebaa 103e
000002d0: 1aab a73e a1e8 683e b857 883e f566 78be
000002e0: f8da 24be edca 103e dda7 923c acca 7b3e
000002f0: e259 8ebe e8bd 41be 5fce eb3d 3067 67bd
00000300: a080 2a3e b564 14be 334d a63d 1c8c dd3d
00000310: 8a75 183e caf0 85be 669e ddbd ea3a f53d
00000320: d329 f33d b354 ca3d 3fdb 95bd b5ca 20be
00000330: 5734 7e3e 1d33 023e a53f c13d 76a3 86be
00000340: 87a5 95be 3ba0 6bbe e179 4bbd 6c93 8ebe
00000350: 4b70 0abe 83d1 ae3e 0eb1 983d 5b1a 11be
00000360: cbb4 ba3d 8072 aabe 422e 70be e73d 10bd
00000370: b5c3 8bbd 7f9c 2a3e 5f1c e0bd 442d eb3d
00000380: a4fe edbd e06a 413e de54 b93e ebc0 adbb
00000390: 3622 17be 61b5 ae3c f45d 843d 7f84 463e
000003a0: 16f3 343e 419f 2abe aae7 dabd f2c4 27be
000003b0: cd41 25be 0a27 6e3e d600 633e e871 e33d
000003c0: 30f1 a63d 16a4 623d be1c a9bd ce19 393e
000003d0: 790a 8ebc b71c fd3d 46f5 7cbb 6337 6a3e
000003e0: c0d0 e6bc 1624 b83c f3e7 78be 30a4 ddbe
000003f0: 78ea 04bf 29c8 a2be 5b17 70be 458a 01be
-0.12455134 0.09388979 -0.20510437 0.043385558 0.056544695 -0.17680791 0.19208172 -0.25826257
0.09944919 -0.0022441747 -0.10987776 -0.22930224 0.09493821 -0.26384214 -0.03081791 0.15250176
0.12659056 0.16678317 -0.0497232 0.1440151 -0.20353386 -0.090175435 -0.17624345 0.1379885
-0.04905462 -0.015297352 -0.17525385 -0.2578278 -0.019534474 0.12425068 -0.099706255 0.12325367
0.007846674 -0.030196862 -0.028822377 -0.23928869 -0.12751116 -0.01740461 -0.17766297 -0.122659974
-0.02049266 -0.3085356 -0.051482387 -0.020963544 -0.0040070266 -0.045816414 -0.04062324 0.012720129
0.14676371 -0.19532174 0.0378624 0.28277656 -0.0756276 0.0946954 0.14537711 -0.1113089
0.16617663 -0.19784534 0.17294331 -0.09408427 0.005124561 -0.08108413 0.18738881 -0.07664457
0.09526216 -0.1877738 -0.39991766 -0.40819 -0.2301083 -0.13478366 -0.16589788 -0.22374228
-0.08047328 0.09660883 -0.25532502 0.049848355 -0.08516188 0.2874658 0.2681685 0.21564099
-0.033300083 0.28075454 -0.05735196 -0.6489688 -0.35323194 0.10053776 0.10172762 0.044918556
-0.27892184 -0.2647163 -0.30637842 -0.21912067 -0.08965627 -0.24579573 -0.42246333 0.15088573
-0.07464152 -0.12307774 -0.42455548 -0.52873605 -0.086579435 -0.13885292 -0.11108824 -0.3166915
-0.10929352 0.32369125 0.35220516 0.3136562 -0.2766175 -0.3528321 -0.14701115 0.11117577
0.30754805 -0.15946354 -0.115158826 -0.2119395 0.036965176 -0.08435834 0.286008 0.32397732
0.10498765 0.01281742 -0.06262045 -0.104641266 -0.10823807 0.016762294 0.04267501 -0.15785944
0.01533113 -0.18670684 -0.19477679 -0.10112664 -0.071019515 -0.23791035 0.029657127 -0.08490848
-0.041638333 0.001038095 0.09840635 0.074799865 0.14455675 -0.013663188 -0.24586591 -0.18076757
-0.15428056 -0.13475427 -0.0014735361 -0.27993068 0.16811569 -0.110742524 -0.024006058 0.13346936
-0.15675877 -0.028905144 -0.19941695 0.098404974 -0.22429222 -0.01193819 0.091852255 0.011440207
-0.30975002 -0.23914102 0.13146962 -0.29270893 0.005487473 0.08975919 -0.05254365 0.28587994
0.08499085 -0.04735117 0.107866235 -0.06808152 -0.08770492 -0.47977024 -0.084212884 -0.14963187
0.0588435 0.019334588 -0.08062986 0.141277 0.32747728 0.22744991 0.26629424 -0.24258025
-0.16099155 0.1413991 0.01790231 0.24589032 -0.2780295 -0.189201 0.115139715 -0.05649489
0.16650629 -0.14491542 0.08120193 0.10817739 0.14888588 -0.2616027 -0.10821228 0.119741276
0.11873212 0.09879436 -0.073172085 -0.15702327 0.24824654 0.1271481 0.09435967 -0.26296586
-0.2922785 -0.23010342 -0.04967678 -0.2784685 -0.13519399 0.3414422 0.074556455 -0.1417021
0.09116515 -0.33290482 -0.23455146 -0.035215285 -0.068244375 0.16661261 -0.10942911 0.11483243
-0.116208345 0.18888426 0.3619756 -0.0053025386 -0.14759144 0.021326723 0.06463233 0.19386481
0.17670855 -0.16662313 -0.10688718 -0.16383722 -0.16138382 0.2325708 0.22168288 0.1110571
0.081514716 0.055332266 -0.08257435 0.1807625 -0.017338978 0.123589925 -0.0038598343 0.22872691
-0.028175712 0.022478145 -0.24307232 -0.43289328 -0.5192027 -0.31793335 -0.2344641 -0.12650402

cnn.0.bias f4 [16]
00000000: f0b8 55bd 67f0 5bbc 3c57 2a3d e116 82bd
00000010: 0a45 f33c 0548 afbb 6980 8ebc 6c8d 5f3d
00000020: f9ee 163d d54f 243c b05a 103d 0183 443c
00000030: 3077 c73c 9f67 b83b 83d1 143d bd3b 01bc
-0.052178323 -0.013424016 0.0415871 -0.0635202 0.029696006 -0.0053491616 -0.017395215 0.05457823
0.036848996 0.010028799 0.035242736 0.011994124 0.024348825 0.005627587 0.03633262 -0.007887778

cnn.2.weight f4 [32, 16, 5]
00000000: 9159 0a3e 0287 613d 8e61 1dbd 5e60 ccbd
00000010: c4cd af3d bf15 bb3d 3ba8 7fbc 7b98 aa3d
00000020: 5835 f1bd a7d7 0dbe 0f1a 913c 0a07 f1bc
00000030: 56b9 ee3c 52e9 fa3d 12e2 8ebd a4c3 03be
00000040: 8883 75bd 1c90 a73d b8d3 fc3c 08c7 b53d
00000050: 0912 183e 678b e5bc 6560 4fbb 7eab fb3d
00000060: 02c7 233c 6dfe 183e d485 05be 6638 92bc
00000070: c01d bfbd d4d0 d0bd a5a0 303d 273b 2dbe
00000080: 9fd6 4e3d 69d5 1ebe eeeb 973d 2c75 ac3d
00000090: 0050 99bd d3a0 c7bd b779 423c 0840 e0bd
000000a0: bdee 4fbe 56ec 24be bacc 8f3d 63d2 0cbe
000000b0: 4397 36bb 03c1 55bc fe05 043e 3614 10be
000000c0: cd59 a33d 9090 30bd 4237 0bbe 5df4 0abe
000000d0: 7164 c93d 1a79 11be 2b3b b13d 3704 c63d
000000e0: 56f6 afbd cffd 5abc 1f91 3cbe 8995 59bd
000000f0: 9b27 133d 2937 93be 8144 34be 3fdf d2bd
00000100: ee50 acbd afa9 823d 8132 97bd c1d3 743c
00000110: 3c8e 11be 8890 223c 46b1 883d c276 f2bc
00000120: 03da 23bd 7e0b fe3c a85e b8bc 090a c5bd
00000130: ba84 18bd a08f 03be 9815 60bd 93f6 48be
00000140: 2efb d8bd 5bfc 09be 6673 943c 2ca3 843d
00000150: be55 16be 44df 82be 8b08 823c 0ed9 5f3b
00000160: 311d cdbe a749 183e f648 a8be bcb2 043f
00000170: 6bb0 78be 68d9 ec3e 2b7d dbbd 5bc8 1fbe
00000180: 848c 333d c790 1f3e ff66 5f3d a3b2 12bc
00000190: 8f1b 72bc 61e0 3c3e bed5 843d ac33 a33e
000001a0: 02ba eebe 1429 79bd 799d 7bbe c215 d1bc
000001b0: 2c98 f83d 14ef 9dbd 7b23 093f c505 473e
000001c0: 83ae f23d 0533 fc3e 6a70 bbbd 0905 a8be
000001d0: 431a d5be d73b 99be 0044 87bd b69e 4c3d
000001e0: 03d9 0c3f 5abf 713d 75b7 0cbe 660d 84be
000001f0: 6cb4 81be 4789 103c c1b6 913c 28ad 21be
00000200: f16c b83d d985 5cbe 6ba3 29bc 3c1d 29bd
00000210: ec35 4c3d 4b21 c5bc 1647 38be 91e3 b93e
00000220: f978 023f 5189 b3bc 1c4a 023e 7657 55be
00000230: 7f73 63be 4cc0 06be dcb1 70bd 7845 8bbd
00000240: f9ca f1bd e362 d2be bc55 7dbe 2b8e 403d
00000250: d2df ab3c f108 8cbe e828 0b3e fb61 8ebe
00000260: e856 c2be 41c6 f8bd 2456 f03d 900b 0fbe
00000270: a19d aa3d df8c b2bd 4e19 1c3d f39a 08be
00000280: 407d f3bc 9286 fa3d 6f2f 8ebd a49d 1dbd
00000290: 0f6e f03d 7054 c5be 6654 06bf 3b6f bcbf
000002a0: e675 9fbf 1e90 2fbf 1723 82bd 5d77 273a
000002b0: e187 36be 1384 213e 334e 77be 12f4 df3d
000002c0: b5c8 da3c 2dc6 eabd 766e 6dbb f233 8b3c
000002d0: b9d1 313d 5903 9cbd 6d56 6ebd b6b0 1ebe
000002e0: aa2d e3bc 1afe 47bd 188a e43a af65 f0bd
000002f0: 972d 913d 0757 ebbd 9ac0 9bbb 8b07 103d
00000300: 5d36 cebd 9f77 3a3b 9047 583c fd86 7e3e
00000310: b621 19be 61a8 f0be 0fe4 26be 04df 51be
00000320: 7f95 65bd 0654 56bd 4fe2 17bd a3da ac3c
00000330: dfbd 243e edf3 5b3d 1589 14be 1656 b0bd
00000340: cc6e 033e 69be a53d fc75 2b3e c386 683d
00000350: 374b 5c3e 69b2 6a3e 5752 6e3e e2a3 103d
00000360: f163 2d3e 4c8b b2bd 4018 8cbd 5201 2bbb
00000370: 50a0 8abe 751c 80be 6a35 00be 7215 06bf
00000380: 6125 9ebe a57b 533d bdc4 30be c3f6 0abf
00000390: 8ee1 aebe 1b0b b63c eaf9 e7bc 333d 35be
000003a0: ef49 253d 41c4 f93d 6bb9 b8bd 74e8 7bbe
000003b0: e76e 943c aa14 40be 2c31 c03d 700c 2d3d
000003c0: 5cce 703b 2b6f b73d 4ecf de3d 154f 243e
000003d0: d7da 00be 25e1 213e db87 f23d 6a27 d13d
000003e0: 04ca 893d ac55 e13d 7c3f ea3d 3c3e 4fbe
000003f0: e3bb 813d 6dfb 883f 8966 9a3e a1d2 cf3d
0.1351073 0.055060394 -0.038423114 -0.09979318 0.085841686 0.09135007 -0.015604074 0.083298646
-0.11777753 -0.13851796 0.017712621 -0.029422302 0.02914111 0.122515336 -0.06976713 -0.128676
-0.05993989 0.081817836 0.030862674 0.08875853 0.1485063 -0.028020574 -0.003164315 0.12288569
0.009996178 0.14940806 -0.13039333 -0.017849158 -0.09331846 -0.10196081 0.043121953 -0.16917096
0.050497647 -0.15511097 0.07418047 0.08420786 -0.07485962 -0.09747472 0.011869839 -0.10949713
-0.20305915 -0.1610578 0.0702147 -0.13752131 -0.0027861155 -0.013046506 0.12892911 -0.1407021
0.079761125 -0.043106616 -0.13595298 -0.1356978 0.09833611 -0.14206353 0.086538635 0.09668773
-0.08591907 -0.013366177 -0.18414734 -0.053121123 0.035926443 -0.2875302 -0.17604257 -0.10296487
-0.084138736 0.06380021 -0.0738268 0.014943064 -0.14214414 0.009922154 0.06674437 -0.029597644
-0.040002834 0.03101134 -0.022506073 -0.09621055 -0.037235953 -0.12847757 -0.054708093 -0.1962531
-0.10594784 -0.13475172 0.018121433 0.06476435 -0.14681146 -0.25560963 0.015873214 0.0034156474
-0.40061334 0.14871846 -0.32868165 0.51835227 -0.24286048 0.46259618 -0.10717233 -0.15603773
0.043835178 0.15582572 0.054541584 -0.008953723 -0.014777078 0.18444969 0.064860806 0.3187536
-0.46626288 -0.06083019 -0.2457179 -0.02552307 0.121383995 -0.07711616 0.53569764 0.19435795
0.11849692 0.49257675 -0.09152301 -0.32816342 -0.416216 -0.29928467 -0.06604767 0.049956046
0.55018634 0.059020378 -0.13741858 -0.25791472 -0.25332963 0.008821792 0.01778734 -0.1578871
0.09005154 -0.21535434 -0.010353903 -0.041287646 0.04985611 -0.024063727 -0.17995867 0.36306432
0.5096584 -0.021916064 0.12723583 -0.20834145 -0.22212027 -0.13159293 -0.05876337 -0.068003595
-0.11806292 -0.4109107 -0.24739736 0.047010582 0.02098075 -0.27350572 0.13589823 -0.27809128
-0.3795693 -0.12147189 0.1173518 -0.13969254 0.083308466 -0.08718275 0.03811007 -0.13340358
-0.02972281 0.122326985 -0.06942641 -0.038480416 0.11739742 -0.38540983 -0.5247253 -1.4721445
-1.2457855 -0.6857928 -0.06354349 0.0006388331 -0.17825271 0.15773039 -0.24150924 0.109352246
0.026707033 -0.1146358 -0.003622917 0.016992543 0.043412898 -0.07617826 -0.05818789 -0.15497097
-0.027731735 -0.048826315 0.0017436175 -0.117381446 0.07088774 -0.114912085 -0.0047531845 0.035163444
-0.10068963 0.0028452647 0.013200656 0.24856181 -0.14954266 -0.47003463 -0.16297935 -0.2049523
-0.056050774 -0.052326225 -0.03708106 0.021100348 0.16088055 0.053699423 -0.14505418 -0.086101696
0.12835234 0.080929585 0.16744226 0.056769144 0.21513067 0.2291962 0.23273598 0.03531254
0.16932656 -0.08717975 -0.06840563 -0.0026093316 -0.27075434 -0.2502171 -0.12520376 -0.5237647
-0.30887893 0.05163159 -0.1726255 -0.5428278 -0.3415646 0.022222092 -0.02831741 -0.17699127
0.04035371 0.121956356 -0.09019741 -0.24600393 0.018119289 -0.18757883 0.09384379 0.04224819
0.0036744094 0.089567505 0.10879384 0.16045792 -0.12583481 0.15808542 0.118423186 0.10212596
0.067279845 0.11002669 0.1143789 -0.20238584 0.06334665 1.0701729 0.30156353 0.10147596

cnn.2.bias f4 [32]
00000000: 60d6 63bd f512 84be b348 7d3d d8c3 f33c
00000010: 98ba 713d ef60 08be a4d8 ae3a 77a8 cabd
00000020: a59f 08bd 517c 1bbe 00e7 993c 6870 203e
00000030: 5051 21bd 2f62 37bd a41c 6cbd a82f ddbc
00000040: ee55 ddbd 255d 50bd 7169 edbc 6334 72bb
00000050: 6e6c 6dbe 6cfe cabd c53a 29be 6831 98bd
00000060: 62fd 393e 0802 89bd 2ed2 103e 67f1 33bc
00000070: aaa4 46bd 5d1c 02bd 20ff 593d f0b1 ee3d
-0.055624366 -0.25795713 0.06183691 0.029756472 0.05901584 -0.13318227 0.001333971 -0.09895413
-0.033355374 -0.15184142 0.018786907 0.1566788 -0.039384186 -0.04477137 -0.0576445 -0.027000263
-0.108074054 -0.05087008 -0.028980942 -0.0036957494 -0.23185894 -0.09911808 -0.16526325 -0.074312985
0.18163064 -0.066898406 0.14142677 -0.010982848 -0.04849688 -0.03176533 0.05322182 0.11655033

cnn.4.weight f4 [16, 32, 5]
00000000: 8c44 4cbe 0c9b 283c 03d2 c2bd 3c9e 28bd
00000010: 1880 5b3d 4d9e 3bbe 531a 9f3e 3e0f 333e
00000020: 9167 6cbd 8820 b8ba d542 e8bd d0e5 a73d
00000030: 42e0 2f3e a4ad 77be 4064 68be b4f1 693e
00000040: 7a9f 93bc d727 ac3d 91a0 173d 6651 433d
00000050: ea9e 1e3f ca63 ff3d bbf1 7abe 9e47 583d
00000060: 3611 373e f2cb 253e 89ae 8f3e f510 9f3e
00000070: 6659 03be d6b3 b5bd c2b0 01bf 1aa2 4cbf
00000080: 33db a7be e760 c8bc e272 903e 706a 003d
00000090: 7c05 6e3e f103 15be 476f b1be 9dc3 893e
000000a0: 3b86 e7bc 6973 dabd e77d e63c 40bf 4fbe
000000b0: 479f b8bd 2984 e13d 8a79 843e 764e 75be
000000c0: cb83 b1bd fcca ca3d 031d a1bd 3865 1bbd
000000d0: ac6a 203d 7c80 b4bd 8824 023d e4a3 c93d
000000e0: cbca 2b3d c746 4ebe 355a 943d 9f51 033f
000000f0: 172b bcbd 7189 7bbd e8a6 56bc 0eef 803c
00000100: cc6b c43c 479c 2b3e 416a cd3d fb35 0cbd
00000110: 1201 3bbd 46e9 ff3e 631e fbbd 84ad 9cbb
00000120: ed19 d33d b653 2b3d 1579 f7bd b902 0fbc
00000130: 542b 563f 6009 2c3f ddd2 5cbe d9f1 b9be
00000140: 2e04 82bd 04ee 3d3d 2de3 23be 2a72 553d
00000150: 733a 7339 d669 e8bd d556 2d3e 7c30 75bd
00000160: 6d04 473d fdff c93e f07a 4b3e 41bc 17be
00000170: a29e 0d3e 9739 b0bd 1ce2 7cbe 692c a8bd
00000180: 03bb 85be 1a13 da3d 01c2 b93c 638e 91be
00000190: 8f2f 293e ff63 14be 1a23 803e 5204 0dbd
000001a0: f5e8 12be ad12 153e cc00 d43d c8c8 4f3e
000001b0: de2f 07be 61fa 573e c07b 433e 6794 bd3c
000001c0: ed2c d2bd feca 10be 7b16 5d3e 6452 09be
000001d0: 967d 84bd 29a6 bbbd 788c 00be f118 8ebd
000001e0: da8f d1be fc73 49be 310b a43e 4718 ca3e
000001f0: fdf9 07bf 25ee b7bd adcb c63e 9899 7bbd
00000200: 9d0e d6be 59a1 b0be 7f92 763d b348 893d
00000210: e3d8 c53d 8b3a f63d dfb3 403d d53f 373d
00000220: 41ef b0bd c3a1 013e d3e3 043e 79bd d6bd
00000230: 98d7 1abc 75cf cebc cb48 ac3c c52e 33bd
00000240: 0499 27bd 6e1d bc3d 4e39 d5bd e418 2d3e
00000250: 593f b4bc a39f 123d 0e09 0bbe b01f 243d
00000260: ed18 b3bd 4b59 0cbf e153 e6be a373 c23d
00000270: 5ebe 1cbe da80 e9bd 676c b83d 248d 91bd
00000280: 380c 463d 6547 2a3d e7cc 1a3e 9042 aa3d
00000290: 8410 ed3d ffd8 853d ba81 9d3e 569c 343e
000002a0: d7d7 6abe 0713 943e 5c11 363d a48e f13d
000002b0: 970a 6b3d 56bd 893d ff48 58bd e217 c33d
000002c0: 3e08 8d3d c79f e23d 51f5 30be 072c 80be
000002d0: 4b00 debd 5199 adbd 63bd a23d dcb4 eebd
000002e0: b74a d33d 54f8 e3bd 8c81 833e 242b 923e
000002f0: a725 953e 3491 133d 6c33 c8bd 67d8 803d
00000300: f382 0f3f 33b0 713e 4558 3dbe 1b58 113e
00000310: 3d79 74bd 5fdf b23e a8cc 4a3e cef9 5b3d
00000320: 08b4 8e3c 210f 0dbe ca85 86be ddd2 73be
00000330: 0e8d 31be a0ab dabd 8956 3c3e a1b6 ed3d
00000340: 5930 c53e 5d5f 02be 8aad 30bd 23c8 88bd
00000350: 8a3f dabd 1f22 6dbd 153c 82bd e5ec 193e
00000360: 4b38 ae3c d4e3 cb3e 5db0 0d3f a0e4 04bd
00000370: 0024 123e 6976 a0bd 1a1e 60bc 5258 0c3d
00000380: 08b7 08be 25d0 c83d d6e2 313b 66c0 f1bb
00000390: 3f2d 03be 7b46 e5bc 6c27 1ebe c3a2 15be
000003a0: 146d 1abe 6344 143e c218 fbbd 4902 803d
000003b0: a885 9dbc f821 4f3e 8fc8 ce3c 2210 20bd
000003c0: ca15 f23d 3334 013e 2690 0e3e e27f 313e
000003d0: 9544 ee3d d3e8 aa3e 632d 183e a02e 913d
000003e0: 2d7b d33c 0685 2dbe 7e58 f1be f003 04be
000003f0: 9127 b13d 30b5 0e3f 1457 be3d a8c7 eabc
-0.19948024 0.010290872 -0.09512713 -0.04116653 0.053588957 -0.18322106 0.3107477 0.17486283
-0.057715956 -0.0014047781 -0.11340872 0.0819813 0.17175391 -0.24187332 -0.22694492 0.22846109
-0.01802038 0.08406036 0.037018362 0.04768505 0.61961234 0.12470205 -0.24506275 0.052802674
0.17877659 0.1619108 0.28062847 0.31067625 -0.12827072 -0.088721916 -0.50660336 -0.7993485
-0.32784423 -0.02446027 0.2821265 0.031351507 0.2324428 -0.14552285 -0.3465521 0.26907054
-0.028262248 -0.10666544 0.028136207 -0.202878 -0.09014755 0.11011536 0.25873977 -0.23955712
-0.08667716 0.099019974 -0.07866862 -0.037938327 0.03916423 -0.08813569 0.03177312 0.09845713
0.041941445 -0.20144187 0.07243768 0.5129642 -0.09187906 -0.06141037 -0.013101317 0.01573899
0.023977183 0.16758834 0.10030032 -0.034231167 -0.045655318 0.4998266 -0.12261655 -0.004781427
0.10307679 0.04182788 -0.120836414 -0.0087286765 0.83659863 0.67201805 -0.21564813 -0.36317328
-0.063484535 0.046369568 -0.1600463 0.05211083 0.0002319606 -0.113483116 0.16927655 -0.05986069
0.048588205 0.39453116 0.19871116 -0.14817907 0.13830045 -0.086047344 -0.24695629 -0.082115956
-0.2611924 0.106481746 0.022675516 -0.28428945 0.16522048 -0.1449127 0.2502678 -0.03442795
-0.14346679 0.14557905 0.103517145 0.20291436 -0.13201854 0.21091606 0.19090176 0.023142053
-0.10262475 -0.14139935 0.21590607 -0.13410336 -0.06469266 -0.09162552 -0.12553585 -0.06938351
-0.40930063 -0.19673151 0.32039788 0.39471647 -0.53115827 -0.08980969 0.38827267 -0.061425775
-0.41808024 -0.34498098 0.060198303 0.067033194 0.096605085 0.12022885 0.04704654 0.04473861
-0.08639384 0.12659363 0.12977533 -0.10485358 -0.009450816 -0.025245408 0.021030804 -0.043745775
-0.04091741 0.09185301 -0.104113206 0.16904026 -0.022002863 0.035796773 -0.13577673 0.040069282
-0.087449886 -0.5482375 -0.4498587 0.09494712 -0.15306994 -0.114015296 0.09005051 -0.071069986
0.048351496 0.041571993 0.15117227 0.08313477 0.11575416 0.06535529 0.30763036 0.17637762
-0.22933899 0.28920767 0.04445015 0.11794785 0.057383146 0.06725566 -0.05280399 0.0952604
0.06886338 0.11065631 -0.17281081 -0.2503359 -0.108399 -0.084765084 0.07946279 -0.1165559
0.10316985 -0.11131349 0.25684774 0.2854854 0.2913029 0.03602715 -0.09775433 0.062912755
0.5605919 0.23602371 -0.18490703 0.14193766 -0.059685934 0.34936044 0.19804633 0.05370503
0.01741983 -0.13775302 -0.26273948 -0.23810907 -0.17338964 -0.10677266 0.18392386 0.11607099
0.3851345 -0.1273169 -0.04313425 -0.06678798 -0.1065665 -0.05789387 -0.06359116 0.15031774
0.021267077 0.39822257 0.55347234 -0.032444596 0.14271545 -0.07835085 -0.013679052 0.034263916
-0.13351071 0.098053254 0.0027143261 -0.007377672 -0.12810229 -0.02798771 -0.15444726 -0.1461287
-0.15080673 0.14479212 -0.122605816 0.06250436 -0.019228771 0.20227802 0.025242118 -0.039077885
0.11820562 0.12617569 0.13922176 0.1733394 0.11634175 0.33380756 0.14861064 0.07088971
0.02581557 -0.16945276 -0.47137827 -0.12892127 0.08650125 0.5574522 0.092939526 -0.028659657

cnn.4.bias f4 [16]
00000000: b0f9 09bd a406 bdbd bd9d e03c c017 8bbd
00000010: 9b04 5fbd 40ae 573e e95d f3bd 7726 c0be
00000020: 9eb7 01be fb07 86bd b764 233e 26f4 063e
00000030: e693 bcbd b61b 50be d6b2 27be d273 89bd
-0.033685386 -0.09229782 0.027418965 -0.06791639 -0.05444775 0.21062565 -0.11883146 -0.37529346
-0.126677 -0.06544491 0.15956388 0.13179073 -0.09207897 -0.20323071 -0.16376814 -0.06711544

cnn.6.weight f4 [8, 16, 5]
00000000: 3c90 bcbd ffeb 8bbe 7a76 de3d 61f7 ad3e
00000010: 9413 6a3e 4d20 62be 4985 27be 2cfa 4d3e
00000020: b823 11bc 2d2f 323e 9709 8d3e 3b51 c13d
00000030: 3d4b 133e 8680 1a3e 7284 5fbe cf04 513e
00000040: cc63 c33d de74 8d3e a63c 583e a827 8a3e
00000050: 73f2 a63e 6a08 013f 8df9 ba3e 16db e23d
00000060: 541f 7dbe 78d2 1abe 62ab 94be 5147 c23d
00000070: b0e1 663d 57f8 ba3b 7d8b e83b d073 84bc
00000080: bdd9 0d3d 03aa 25be ee69 c63d 85b8 073f
00000090: 1064 22be 404d 52be 87a3 20be 465e 1dbf
000000a0: 1ac4 0dbe 8ae9 14be 44eb 02bc 63c2 0fbd
000000b0: 963c a7bd 7c6b 303e 3ab4 3e3e 1fef 323d
000000c0: 68c8 31bd 5345 9c3e 04eb a83d 920c 0cbe
000000d0: 0305 10be 524b 0e3e ded9 f43d c6af 713d
000000e0: 6bc0 0dbd 8742 7abd ee65 2abe a5a7 053e
000000f0: 18aa de3d 3281 dbbd 67d1 ae3e 2b77 143e
00000100: f89d 5e3e b022 d9bd 8359 bb3d 53c9 36be
00000110: 57ad 19be 6027 acbe c7aa a33d ca0c 2cbe
00000120: 74cd 61be 0cef d3be 79e1 8cbe 437d 96be
00000130: 1c7f ba3e 74e0 803b ca60 04bf f25f a3bc
00000140: 79b1 3fbe 90ff 783e 26c7 cbbd 2e2f 993d
00000150: 0bc8 323d 9f35 153e ff85 8f3d 14a4 903e
00000160: dc27 8dbd f159 c43d e2da 223d de4e d03b
00000170: 901d f5bd f86e 8bbd a3b2 c2bd fbfa 2dbe
00000180: b774 03bd a077 673e 8e37 ce3d 0acf 1d3e
00000190: 3105 543d 2c41 6fbe 6b23 fbbb 0600 123b
000001a0: 6f00 3cbe 705f 353e 6f05 853c 5f1b 1abb
000001b0: 925f 493e 7b7c cbbd cb49 dc3d e24a 9a3d
000001c0: 6108 d9bb b234 2bbd 0d25 b93d 6d06 a93e
000001d0: c897 9d3e e5a3 883d 1729 153e 59bf 033e
000001e0: a873 3fbb cb54 97bd 2e35 52bd e0ba a83d
000001f0: 9f4e e13d a0ae 8d3b f9b0 e6bd f6af 03bd
00000200: a83d c9be da45 22be d621 2f3c 6d6e 1e3d
00000210: fb50 183e abbc 4e3d 64d0 acbd afbb 71be
00000220: 2304 bc3c d99e 6dbe a0e7 1c3e 1aa3 453e
00000230: e7f4 023e 4733 783e 3d65 e93d e09a 333e
00000240: 5451 293e d6ae a9bc 1d73 8e3d b3b8 1fbe
00000250: ff31 253d c656 0f3e 4722 e43e 30b7 53bc
00000260: 3159 d73d 2496 9d3d b9cc 1cbc 6370 4bbd
00000270: 51ca bfbc 8e28 edbc 918d 363d 11d4 8a3e
00000280: 3ed5 ee3d f53e c13e b04e 1abe 179e 00be
00000290: d22e 95be 497b e33c 1b3f 4f3d 1d9e 1abd
000002a0: 448a 19be 7a5a ee3d 0241 0dbd b83e 653e
000002b0: 5fdd 3a3d 0eaf 86bd 0b20 1b3e dda9 a7be
000002c0: 89ea 1bbe cdd7 00be 90cb b93d 22b7 dd3d
000002d0: 0040 7cbe 5931 083e 6c6e 143f 0a80 8a3e
000002e0: 578e 9ebd 18b1 0e3e 6ef1 683e cfd3 a63e
000002f0: 24f3 4a3d a31c 0a3e 46d3 cb3c 357d 313d
00000300: 31ae 893d 0e8f e23d b652 ecbd 6612 5dbe
00000310: e1db 36be 0336 00bf 1b0b 22bf 6d5a a2be
00000320: b3f2 b6bd 90aa fabd df40 8abc 82f6 1d3e
00000330: c7ea b1bd b2c4 2ebe edfc 2dbe 83de a3be
00000340: e3ec e5be 80dd a4bd 5614 733e 3491 0b3e
00000350: 8a7d 7f3e 47d8 2ebe 9b12 533c 19df 073d
00000360: cf3c 883c f4bc 12be 863b 713b a7bf c53d
00000370: 95e8 aabe 9fe5 0ebe cb33 db3d 8aba 29be
00000380: aee6 a6be 4c20 123e 0341 23bd 8c70 163e
00000390: 88d2 e73d 7fef 7ebd 097e 90be 78db 1d3e
000003a0: d538 683c 69ba 533d a5b1 13bd f59a aebd
000003b0: 179f c2be 8df8 4fbe 0e70 c53c 8fb8 ea3c
000003c0: ac14 1d3e 274a 773e 9213 51be aae8 b33c
000003d0: d258 3cbd 09e3 9ebe 6f3b b53d ac25 ec3d
000003e0: e30c e83d 17a6 8ebd 4ad9 743e 319f 12bf
000003f0: 2475 003e d1dd 033e 0fc1 7dbf 75b5 b4bd
-0.09207198 -0.27328488 0.10862441 0.33977798 0.22859031 -0.22082634 -0.16359438 0.20114964
-0.008858614 0.17400809 0.2754638 0.094393216 0.1438417 0.1508809 -0.21827868 0.2041199
0.09540519 0.27628225 0.21116886 0.2698338 0.3260685 0.50403464 0.36518517 0.110769436
-0.24718982 -0.1511935 -0.29037005 0.09486259 0.056367576 0.005705874 0.0070967064 -0.016168505
0.03463148 -0.16178136 0.09688173 0.5301593 -0.15858483 -0.20537281 -0.1568738 -0.61471975
-0.13844338 -0.14542213 -0.007990662 -0.03509749 -0.08165853 0.17228502 0.18623438 0.043685075
-0.043404013 0.3052164 0.08247951 -0.1367667 -0.14064412 0.1389592 0.11955617 0.05900552
-0.034607332 -0.0610986 -0.16640446 0.13052233 0.108722866 -0.107180014 0.34144136 0.14498584
0.21739948 -0.10602319 0.091479324 -0.17850237 -0.1500753 -0.3362379 0.079915576 -0.16801754
-0.2205103 -0.41393316 -0.27515772 -0.29392442 0.36425102 0.003933007 -0.5171019 -0.019943211
-0.18720044 0.2431624 -0.09950094 0.07479702 0.043647807 0.14571236 0.070079796 0.28250182
-0.06892368 0.095874675 0.039759524 0.006357058 -0.11968529 -0.06808275 -0.095067285 -0.16990273
-0.03209373 0.22604227 0.1006919 0.1541101 0.051762763 -0.23364705 -0.0076641343 0.0022277846
-0.1835954 0.17712188 0.016237943 -0.002351485 0.19665363 -0.09935852 0.107562624 0.07533814
-0.0066233133 -0.0417983 0.0904027 0.33012715 0.30779862 0.066718854 0.14566456 0.12865962
-0.0029213224 -0.0738922 -0.051320247 0.082387686 0.11001324 0.0043237954 -0.112642236 -0.03215023
-0.39304852 -0.15846959 0.010689219 0.03867953 0.14874642 0.050472897 -0.08438185 -0.23606752
0.022951191 -0.23205127 0.15322733 0.193005 0.12788735 0.24238311 0.11396263 0.17539549
0.1653493 -0.020713251 0.0695555 -0.15597801 0.040330883 0.13997945 0.44557402 -0.012922093
0.10515059 0.07694653 -0.009570294 -0.049667727 -0.023411902 -0.028950002 0.044568602 0.2711492
0.116617665 0.37743345 -0.1506908 -0.12560306 -0.29137284 0.027768748 0.05059729 -0.037748445
-0.1499415 0.11638351 -0.034485824 0.22387207 0.045621272 -0.06576358 0.15148942 -0.32746783
-0.15226187 -0.12582321 0.090720296 0.108259454 -0.24633789 0.13300075 0.5798099 0.2705081
-0.07741993 0.13934743 0.22748348 0.32583472 0.049548283 0.13487487 0.024881016 0.043332297
0.067226775 0.11062442 -0.11539213 -0.2158905 -0.17857315 -0.50082415 -0.63298196 -0.31709614
-0.0893301 -0.122395635 -0.016876636 0.15426067 -0.08687358 -0.17067221 -0.16991015 -0.320057
-0.44907293 -0.0805006 0.23738226 0.1362961 0.24950233 -0.17074691 0.012882854 0.033171747
0.016630558 -0.14329892 0.003680916 0.096556954 -0.3338057 -0.13954781 0.10703238 -0.16575065
-0.3259787 0.14270133 -0.039856922 0.1469137 0.113194525 -0.06224012 -0.28221157 0.15415752
0.014173706 0.051691446 -0.036058087 -0.085256495 -0.38012 -0.20309658 0.024101283 0.028652458
0.15339917 0.2414938 -0.20417622 0.021961529 -0.045983143 -0.3103259 0.08849227 0.11530623
0.11330583 -0.06965273 0.23911014 -0.57274157 0.12544686 0.12877585 -0.9912271 -0.08823673

cnn.6.bias f4 [8]
00000000: a621 b9bb dca9 283d 91c6 8f3e fd09 b03b
00000010: 15e2 143e 4a15 7c3e ac2d e83e 538e 39bd
-0.005649763 0.041177616 0.28081182 0.0053722844 0.14539368 0.24617496 0.45347345 -0.045301747

mean_linear.weight f4 [1, 8]
00000000: 0d7b 1b3e d7d3 763e 82a6 193e 44ad 8b3e
00000010: d685 ab3b 8723 2dbe 2232 5dbc b231 69be
0.15183659 0.24104248 0.15004924 0.2728063 0.0052344603 -0.16908084 -0.013500722 -0.22772864

var_linear.0.weight f4 [1, 8]
00000000: 1e5e 5c3f 7bf7 d8bd 9dd9 47bf 4cfc 9fbf
00000010: 697c 9dbe 64f3 7ebf e1e8 4ebf 9ee9 583e
0.8608111 -0.10594078 -0.78066427 -1.249887 -0.3075898 -0.99590135 -0.80824095 0.21182868
