weights/1dreg/periodic/periodic_equivcnp_fill10.pth (torch_old, 135032 bytes, 84 tensors)

prelinear.0.module.weight f4 [8, 3]
000000 dc f3 ae 3d 83 07 19 3e b9 4d 16 bf db 74 f3 bb
       0.08542606 0.14944272 -0.58712345 -0.0074297017
000010 89 59 da 3d 8f e9 42 3f 39 54 a4 ba 4f 68 6f 40
       0.10661609 0.7613763 -0.0012537307 3.7407415
000020 14 a4 de 3e 63 2a df bd fa 95 7b bd be 40 0a bf
       0.43484557 -0.108967565 -0.061422326 -0.5400504
000030 3c 02 d8 3b ff b8 9c 3d ce be 54 bf 42 82 bf 3c
       0.0065920632 0.07652473 -0.83103645 0.023377541
000040 fd 0a a4 3f 73 25 38 bf 19 8a 22 3d 97 31 a6 be
       1.2815853 -0.7193214 0.03968248 -0.3245971
000050 b3 ed 0b bf 7a 14 10 3d 82 76 f8 bd 83 33 55 3f
       -0.54659575 0.035175778 -0.121319786 0.83281726

prelinear.0.module.bias f4 [8]
000000 5f 86 a0 bf a4 1a 28 bf 03 6d 9d bf e7 db 0b 3e
       -1.2541007 -0.6566565 -1.2298893 0.13658105
000010 cb 37 3e be f6 7b 9c be fe 8b ff 3d 26 8b 04 3f
       -0.18575971 -0.30563325 0.12477873 0.51774824

conv.0.weightnet.net.0.linear.weight f4 [32, 1]
000000 a9 da 9b 3f 35 1c 17 bf 15 15 36 3d 07 ff 36 bf
       1.2176105 -0.59027416 0.0444537 -0.7148289
000010 a6 65 13 3e a2 81 a0 be 42 0b e9 3e ef 97 28 bf
       0.14394245 -0.31348902 0.45516402 -0.6585683
000020 59 50 93 be 14 80 27 3e 3b e1 f3 be c5 d0 8f be
       -0.28772238 0.16357452 -0.47632775 -0.28088966
000030 0d f3 eb 3e 87 c6 89 3f 2c 5a 82 bf 8a 5f 30 bf
       0.4608387 1.0763711 -1.0183768 -0.6889578
000040 36 78 aa be 26 5c fe 3c f0 d5 62 3f 51 38 dd 3e
       -0.3329484 0.0310498 0.8860769 0.43207029
000050 41 a4 9b be 1c dd 54 be 73 a9 16 3f c2 f0 55 bf
       -0.30398753 -0.20787472 0.5885231 -0.8357049
000060 12 7f d5 3e 2e 28 99 3f d8 f8 9b 3e 3c 57 86 3e
       0.4169851 1.1965387 0.3046329 0.2623843
000070 4f e3 77 3e 29 aa 67 bf 27 1d 23 bf f8 5d e9 be
       0.24207805 -0.9049402 -0.6371636 -0.45579505

conv.0.weightnet.net.0.linear.bias f4 [32]
000000 1d bb de 3e f8 46 b7 be d6 e6 67 bf 1f 92 9d bd
       0.4350213 -0.35796332 -0.905866 -0.07693886
000010 b8 66 3a 3f 16 09 63 3e 62 05 bb 3e 9a ac 02 3f
       0.72812986 0.22171435 0.36527544 0.5104462
000020 68 4e 0b bf c9 76 5c 3f 5d 01 47 bf 80 76 f3 3d
       -0.54416513 0.8611875 -0.77736455 0.118878365
000030 c0 a5 25 3f cc 8e ef 3e c4 40 8d 3e ba 22 96 be
       0.6470604 0.46788633 0.27588475 -0.2932337
000040 b3 22 6e 3f e8 bf e0 3e a6 d5 1e 3f 25 54 29 bf
       0.93021697 0.43896413 0.6204475 -0.6614402
000050 40 09 59 3d 5c 2c 7d 3e 38 a4 95 bf d5 88 1f bf
       0.052987337 0.24723953 -1.169074 -0.62318164
000060 81 3e bc be 11 01 31 bf 56 e1 5c 3e 79 5a f8 be
       -0.36766437 -0.6914225 0.21570334 -0.48506525
000070 7b 75 42 3f 00 0f 38 3f 5c f3 cc 3d 6b da 3b 3f
       0.7596051 0.7189789 0.100073546 0.73380154

conv.0.weightnet.net.0.bn.weight f4 [32]
000000 3b 44 8c 3f 59 7c d6 3f 35 2a 83 3f a0 ac de 3f
       1.0958322 1.6756698 1.0247256 1.7396431
000010 e1 de 87 3f f8 26 87 3f d0 70 b2 3f a7 c8 96 3f
       1.0614892 1.0558767 1.3940678 1.1779984
000020 ed 46 ff 3f 30 06 7e 3f bf 93 85 3f 4c 9d e2 3f
       1.994352 0.9922819 1.0435714 1.7704253
000030 c6 33 7f 3f 2d 8b 8e 3f 1b 9a eb 3f d1 3c e6 3f
       0.99688375 1.1136223 1.8406404 1.798731
000040 92 3d b7 3f f4 46 6f 3f 59 2d 7e 3f d4 25 e1 3f
       1.4315665 0.9346764 0.99287945 1.7589669
000050 ab f7 b0 3f 0c 6a 91 3f 2b b8 84 3f dd f5 bd 3f
       1.3825582 1.1360488 1.0368704 1.4840657
000060 52 4b a3 3f cc 7d 92 3f f0 c7 2f 40 77 1f 8f 3f
       1.2757361 1.144464 2.7465782 1.1181477
000070 14 81 76 3f 71 6f b9 3f cb 17 00 40 e8 0b af 3f
       0.9629071 1.4487134 2.0014522 1.3675508

conv.0.weightnet.net.0.bn.bias f4 [32]
000000 7f 37 c7 3a 72 ed fd be 71 c4 e7 be 5e 2f ee be
       0.0015199034 -0.4959522 -0.4526706 -0.46520513
000010 55 96 85 3c 7c 4f 2c be 37 53 a9 3e e0 07 b5 be
       0.016307035 -0.16827196 0.330713 -0.3535757
000020 ef 75 1b bf 79 79 03 3d 44 9d 9c be b8 d9 06 bf
       -0.6072683 0.032098267 -0.30588734 -0.5267596
000030 8e 58 6e be 5a 6a 25 be fc 75 09 bf ff bd 1d bf
       -0.23275968 -0.16153851 -0.53695655 -0.61618036
000040 00 c2 f6 be 34 c0 9b 3d 48 51 bc bd 7a 30 b2 3e
       -0.48194885 0.07605019 -0.09195191 0.3480261
000050 54 39 07 bf d6 af 9c be 79 0e ef 3d 43 80 f7 be
       -0.5282185 -0.30602902 0.11672682 -0.48340043
000060 69 70 15 3e 30 9d 49 3e 79 9c 2a 3f 00 6a 19 3e
       0.14593662 0.19688869 0.6664501 0.14981842
000070 03 be b3 be 96 2c 04 bf cb 6a 09 bf 7f a3 04 bf
       -0.35105905 -0.5163053 -0.5367858 -0.51811975

conv.0.weightnet.net.0.bn.running_mean f4 [32]
000000 52 04 df 3e 11 b7 b7 be 09 d1 67 bf df 2f a2 bd
       0.43557984 -0.35881856 -0.9055334 -0.07919287
000010 cb f2 3a 3f 28 8e 62 3e 62 55 bb 3e 51 c2 03 3f
       0.7302672 0.22124541 0.3658858 0.5146838
000020 bf 28 0b bf be 40 5c 3f c0 01 46 bf 76 2b f2 3d
       -0.5435905 0.8603629 -0.7734642 0.11824696
000030 fb 94 25 3f 83 b8 f0 3e 28 b7 8b 3e 4c 6f 95 be
       0.6468045 0.4701577 0.27288175 -0.29186475
000040 10 a1 6d 3f b9 bd e1 3e e8 ce 1e 3f 7f 64 28 bf
       0.92823887 0.4409006 0.62034464 -0.65778345
000050 bf 6c 51 3d 16 02 7c 3e 4d 85 95 bf 5c 18 1f bf
       0.0511291 0.2461017 -1.1681305 -0.62146544
000060 32 2f bd be e8 cf 30 bf d9 3e 5e 3e ca 67 f8 be
       -0.3695007 -0.6906724 0.21703662 -0.48516685
000070 27 fd 42 3f b6 1d 38 3f d4 e7 c9 3d ee 83 3c 3f
       0.7616753 0.71920335 0.09858671 0.7363881

conv.0.weightnet.net.0.bn.running_var f4 [32]
000000 ea 23 68 3d 22 bb 59 3c 4f 4d 9e 38 9f 0f a0 3c
       0.056674875 0.013289245 7.548427e-05 0.019538699
000010 f8 81 4d 3a 0c da 73 3b 65 c3 01 3c c8 54 87 3c
       0.0007839496 0.0037208823 0.007920121 0.016519919
000020 01 d1 4e 3b b9 69 85 3a aa 84 0f 3c 26 88 46 3b
       0.0031557682 0.0010178603 0.008759657 0.0030293553
000030 11 97 03 3c 31 eb 34 3d 15 07 22 3d fe d1 95 3c
       0.0080316225 0.04416961 0.039557535 0.018288609
000040 9f 26 8d 3b d8 9a 1a 38 67 1a f5 3c db 87 ec 3b
       0.0043075825 3.686067e-05 0.029919816 0.0072183437
000050 d8 93 64 3b 1f e8 d6 3a d4 e0 59 3c 8f 03 dc 3c
       0.003487816 0.0016396082 0.013298232 0.026857166
000060 9c 11 db 3b b0 89 61 3d 6e 00 68 3b b9 4a 2d 3b
       0.006685449 0.05506295 0.0035400647 0.0026442243
000070 0b 21 13 3b e0 0a 00 3d 0b 76 7e 3c 73 2e 01 3c
       0.0022450115 0.03126037 0.015531073 0.0078846095

conv.0.weightnet.net.1.linear.weight f4 [32, 32]
000000 2a 98 e4 be 27 ca 3f be 60 42 03 bf 06 a9 8b bd
       -0.44647342 -0.18729459 -0.51273155 -0.06819348
000010 3f f8 cf be 3b 34 e4 bc 77 93 72 be e4 c3 72 be
       -0.40619084 -0.027856937 -0.23689066 -0.23707539
000020 07 84 f6 3c 17 16 c8 be fb 74 df bd 16 e5 98 bd
       0.030092252 -0.39079353 -0.10910984 -0.0746557
000030 8d 4a 14 bf 50 0a 0e bf bb 0d 73 3d a8 8d 82 bd
       -0.57926255 -0.55484486 0.059339266 -0.06374675
000040 ed 19 53 be ff 39 b3 be b5 b3 91 be 18 24 ce be
       -0.20615359 -0.35005185 -0.28457418 -0.40261912
000050 62 05 b2 3b e9 68 f7 bd bb 58 dc be 29 27 bc bd
       0.0054327706 -0.12080557 -0.43036446 -0.09187157
000060 df 2b a7 be 11 ad fb be 27 d5 ce be 8c 30 c6 be
       -0.32650658 -0.49155477 -0.40396997 -0.38708913
000070 84 ea 1c bf 4a 5b c7 3b a4 4e a2 3d fe dd dc bd
       -0.6129534 0.0060838806 0.07925156 -0.10784529
000080 80 c7 1c bf 79 ee 81 3d b6 78 ec be ec 4d ce 3d
       -0.6124191 0.06344313 -0.46185845 0.10073456
000090 d1 f4 10 bf d7 b9 9a 3c 10 1b 03 bf 1e 4e 64 be
       -0.5662356 0.018887443 -0.5121317 -0.22295424
0000a0 da 8a 31 bd 86 9d a6 be 18 69 c7 3c ec 85 6a be
       -0.04334531 -0.32542056 0.024342105 -0.2290265
0000b0 94 a2 e8 be 5d b0 2d bf cc f7 b8 3d c4 bf 1d bc
       -0.45436537 -0.67847234 0.090316385 -0.00962824
0000c0 ec 70 b0 bd e9 b4 c6 be ef c7 e1 be 83 45 1e bf
       -0.08615288 -0.38809898 -0.4409785 -0.61824816
0000d0 ef 8a 4c be df 21 b2 3d b3 63 d1 be 35 bf 7f bd
       -0.19974874 0.08697867 -0.40896377 -0.06243821
0000e0 29 74 d6 be aa 6f 00 bf aa 37 e6 be 90 14 1d bf
       -0.41885498 -0.50170386 -0.44964343 -0.613595
0000f0 54 d6 22 bf 60 75 4e bd 19 42 11 be 22 d9 21 3d
       -0.6360829 -0.050404906 -0.1418537 0.039513715
000100 7b 55 1d bf 4e d3 ce bd d3 ef 61 bf 47 80 e5 bd
       -0.6145856 -0.10098897 -0.8825657 -0.112061076
000110 5c 15 ab be 3a a3 17 3d d9 3e ec be 3a bd 6d be
       -0.33414733 0.0370209 -0.461417 -0.23216715
000120 9e 0e b0 3d 39 47 01 bf 2c 03 54 be 24 d6 c1 3d
       0.08596538 -0.504993 -0.20704335 0.09464672
000130 9a fc 00 bf 2b fd 40 bf 86 1f 74 bd 5f 37 6a bd
       -0.5038544 -0.75386304 -0.059600376 -0.057181712
000140 25 b2 af bd b1 ff 92 be 17 fb a6 be a1 21 23 bf
       -0.085789 -0.28710702 -0.3261344 -0.6372319
000150 00 a3 26 be 57 4c 13 3b cb 2d 16 bf 02 af d8 bc
       -0.16273117 0.0022475922 -0.58663625 -0.026450638
000160 30 07 f9 be 25 4d b0 be 09 06 fa be d4 f7 9d be
       -0.48638296 -0.34433857 -0.4883273 -0.3085314
000170 99 94 39 bf d0 ac d4 3d b8 65 b3 3d 38 5b d0 bd
       -0.7249237 0.10384524 0.08759636 -0.101736486
000180 4e 36 0f bf e9 dc 8a bd f2 68 16 bf b7 6e 6b bd
       -0.5594224 -0.067804165 -0.58753884 -0.057478633
000190 cd 1f b2 be 19 c7 24 be 3d 5e e3 be ad 04 3d 3d
       -0.34789887 -0.16091575 -0.44407836 0.046147037
0001a0 85 bc 02 3d 6c e7 fb be 33 98 44 be 0d c6 10 3d
       0.031918067 -0.49199998 -0.19198684 0.035345126
0001b0 e8 46 f7 be 4d 5b 3e bf d3 c1 1c be 2f 3c be 3c
       -0.48296285 -0.74358064 -0.15308313 0.023222057
0001c0 d0 ad f5 3d b4 56 f2 be d1 17 b2 be 12 49 79 bf
       0.11996043 -0.47331774 -0.34783795 -0.9737712
0001d0 30 d7 ab bb 8d 3f c1 3d 47 82 ca be 71 49 2f bc
       -0.005244158 0.094359495 -0.3955252 -0.010698662
0001e0 8b 6e fd be e0 c0 f5 be 18 78 30 bf 8d e4 0b bf
       -0.494984 -0.47998714 -0.6893325 -0.54645616
0001f0 42 6f 42 bf 8a e3 9a bd 4d 31 62 3c 34 91 42 bc
       -0.75951016 -0.07562931 0.0138057 -0.011875439
000200 5d 0e a9 3d aa f8 2d 3e bc 4c 58 3e 97 6c f2 3e
       0.08254693 0.16989389 0.21123022 0.47348472
000210 8d 46 99 3b 6d 81 aa 3e 65 a8 87 bc 45 3c db 3e
       0.0046775998 0.3330187 -0.016559789 0.4281942
000220 ed 61 d1 3e 11 13 08 3e 85 aa 55 3e 29 67 fc 3e
       0.40895024 0.13288523 0.2086583 0.49297455
000230 1b 3f 23 3e 8c d9 2d 3e b6 bd 55 3e 03 7a 63 3e
       0.15942042 0.16977519 0.2087315 0.22214513
000240 0a 55 51 3e 82 5b 02 3a 36 51 ed 3a 22 ee bd 3d
       0.20442596 0.0004972742 0.0018105868 0.09273936
000250 8e b1 a3 3e af 6e 88 3e 5f 70 9b 3d 15 d2 c9 3e
       0.319714 0.26646945 0.075897925 0.39418092
000260 e5 75 44 3d cd 91 6b 3e 16 45 5a 3c b1 58 5f 3e
       0.047963995 0.23004837 0.013322135 0.21811177
000270 f3 e6 b9 3d 12 10 8f 3e a3 67 a8 3e d1 7c ad 3e
       0.09077253 0.27941948 0.3289157 0.3388429
000280 8d 11 db 3d 77 01 4d 3e 20 6a 99 bd a2 20 b5 3e
       0.10696707 0.2002009 -0.07490945 0.3537646
000290 bf 19 85 bd 51 ee 28 3d 12 a4 9b 3b 5c fa 89 3e
       -0.06499051 0.0412429 0.0047497833 0.26948822
0002a0 99 b3 09 3f 93 9c fb bd e1 28 57 3d c3 3d e9 3e
       0.5378967 -0.122857235 0.05252922 0.45554933
0002b0 26 3e 13 3e 0d bd 2e 3e 54 cd 10 3f 26 87 f1 3e
       0.14379176 0.17064305 0.56563306 0.47173423
0002c0 50 76 dc 3e f1 95 27 3d d4 3b b4 bd 00 e1 b3 3d
       0.43059015 0.04091448 -0.08800474 0.0878315
0002d0 74 5c 01 3e 28 d5 88 3c 9d 9e 02 3d 16 78 59 3e
       0.12632924 0.016703203 0.031889547 0.21237215
0002e0 19 43 cb 3d 31 90 9b 3b 29 d7 5f 3e c0 49 94 3d
       0.09924907 0.0047474136 0.21859421 0.07240629
0002f0 82 0c 4b bd 83 e6 da 3e 3a 39 f4 3e f6 4c 72 3d
       -0.049572475 0.4275399 0.4769991 0.059155427
000300 c0 df d1 be 4c b1 82 be fb 35 da be 33 24 bd be
       -0.4099102 -0.25525892 -0.4261931 -0.3694168
000310 37 8e 4f be b1 8b ac be 47 7b ab be 7a e8 c8 bd
       -0.20269094 -0.33700326 -0.3349249 -0.098099664
000320 de cd 67 be 19 99 cb bd db 95 9e be 36 e5 86 bc
       -0.22637126 -0.099413104 -0.30973706 -0.016466718
000330 b8 eb 52 be 9d 9d 0e be 12 fd e7 bd 74 00 c3 bd
       -0.20597732 -0.13927312 -0.11327566 -0.09521571
000340 f7 5c c4 be c2 51 90 be c2 8f dc bd 57 97 69 bd
       -0.38352177 -0.28187376 -0.10769607 -0.057029095
000350 54 05 b1 bd 17 6d 92 be 83 bf b0 bd 04 bb 64 be
       -0.086435944 -0.28598854 -0.08630278 -0.22336966
000360 63 5d da be e7 13 f8 bd d0 56 5d be dd 30 ff bd
       -0.42649373 -0.12113171 -0.21615148 -0.12460492
000370 be fa b9 be 31 69 31 be 4c 52 50 be 59 66 8e bd
       -0.36324114 -0.17325284 -0.20343894 -0.06953115
000380 a9 ed bb be 60 ad b5 bc 7b 5e 76 3e 35 e9 03 be
       -0.36704758 -0.022177398 0.24059479 -0.1288193
000390 d4 4f fd bd 0a 76 51 bd b3 65 30 bf d5 9b e9 bd
       -0.12368742 -0.05113796 -0.6890518 -0.11406676
0003a0 67 3a 81 3d 1f f9 c6 be f8 29 d9 3d c5 c3 12 be
       0.063099675 -0.3886194 0.10603708 -0.14332493
0003b0 9d a9 0b be d3 bb 77 3d 2f 24 f7 bd ec d1 b0 3d
       -0.13638921 0.060481858 -0.12067448 0.086337894
0003c0 b7 f5 17 be 36 65 c7 be 3f bd c8 be ea 9f 06 bf
       -0.14839827 -0.38944405 -0.39206883 -0.5258776
0003d0 11 30 92 3d 0a d6 60 3e 8f 69 b3 be 37 48 e1 bd
       0.07138074 0.2195665 -0.35041472 -0.11000102
0003e0 a8 69 9f be 07 2e bd be 4c 7f ca bf d9 dc b3 be
       -0.31135297 -0.3694918 -1.5820098 -0.3512943
0003f0 0f ed 24 3e 57 21 ee bd e7 c5 0a 3e 5a f8 14 bd
       0.16106056 -0.11627453 0.13552056 -0.03636966

conv.0.weightnet.net.1.linear.bias f4 [32]
000000 12 78 b8 bd 87 c2 fd bc e5 f7 88 bd 3a 1e 89 be
       -0.090072766 -0.030976547 -0.06687907 -0.26780874
000010 37 fe 3a 3e 12 20 c4 3d ea 2c 28 be 0e 90 d3 be
       0.18261038 0.095764294 -0.16423383 -0.41320843
000020 1e 45 a2 3e 73 21 97 3e d4 15 8e be 79 de a8 bd
       0.31693357 0.29517707 -0.2775103 -0.08245558
000030 8f 86 d3 3d c0 bc f0 3d 75 68 da 3d 9e 35 2f 3e
       0.103283994 0.11754751 0.10664455 0.17110297
000040 8f 8b 32 be 63 8b 31 bf 0b 60 78 bc 6d 46 a9 3e
       -0.1743605 -0.6935331 -0.015159617 0.33061543
000050 85 4f 4c 3d a1 f7 3b bd 1a 51 aa be 1a 97 83 bd
       0.049880523 -0.045890454 -0.33265 -0.06425305
000060 2a f3 9a be 67 db c9 be 91 7e 1d be 55 24 2b be
       -0.30263644 -0.39425203 -0.15380313 -0.16713078
000070 5b f3 3f be 7a cf 15 3e 83 7c 5c 3e 6b 8a 7d be
       -0.18745176 0.14629927 0.21531872 -0.24759834

conv.0.weightnet.net.1.bn.weight f4 [32]
000000 ee d7 4b 3f e4 de 3b 3f e2 ff 2a 3f 4a d5 21 3f
       0.7962636 0.7338698 0.66796696 0.6321608
000010 71 4f 93 3f 0d 13 9f 3f 19 92 73 3f e8 f0 f8 3f
       1.1508619 1.2427689 0.951448 1.9448519
000020 b2 36 78 3f 37 0d 42 3f c1 3d b6 3f 02 b5 a9 3f
       0.9695846 0.75801414 1.4237596 1.3258364
000030 50 58 02 40 b0 45 ab 3f b5 0b c8 3f e9 f2 4c 3f
       2.0366402 1.3380642 1.5628573 0.8005815
000040 ea b0 62 3f d8 14 49 40 cf 4f 07 3f 97 3b 30 3f
       0.885512 3.1418972 0.52856153 0.68840927
000050 8b 38 02 3f 96 b2 82 3f de 42 e5 3f e4 0b 90 3f
       0.5086753 1.021075 1.7911031 1.1253629
000060 a4 65 da 3f e3 ca ed 3f 21 9b a2 3e 1d eb e1 3f
       1.7062268 1.8577541 0.3175898 1.7649876
000070 c1 fd e6 3f 5e c5 a4 3f 92 2e 93 3f 99 49 32 3f
       1.804619 1.2872732 1.1498587 0.6964355

conv.0.weightnet.net.1.bn.bias f4 [32]
000000 38 d5 03 be 35 61 1a be 57 13 6f be bc 4a c1 be
       -0.12874305 -0.15076144 -0.23347221 -0.3775233
000010 28 b4 9a bd be c8 43 be b1 1f 68 be 88 0d 75 bf
       -0.07553893 -0.19119546 -0.2266834 -0.9572377
000020 f1 35 09 bd a3 a2 45 be c2 02 4d be 3b 01 6a 3e
       -0.03349871 -0.19300322 -0.20020583 0.22852032
000030 48 b3 b7 bd 10 cd 2b bf f7 11 48 be 1c 45 49 be
       -0.08969742 -0.67109776 -0.19538103 -0.1965527
000040 db 9a 04 bf 51 71 d8 bf 82 3c a9 be cf df 5d be
       -0.5179879 -1.6909581 -0.33053976 -0.21667407
000050 2a 56 f7 be e2 84 82 be 29 d5 5b bf 8a 73 c3 bd
       -0.48307925 -0.25492007 -0.8587213 -0.09543522
000060 da 52 78 bf 29 58 34 bf 8c df e8 be 23 63 3d bf
       -0.9700142 -0.7044702 -0.45483053 -0.73979396
000070 c2 37 8a bd 90 b6 c9 be 8f 3f 8d 3d b8 df a2 be
       -0.06748916 -0.39397097 0.068968885 -0.3181131

conv.0.weightnet.net.1.bn.running_mean f4 [32]
000000 2e d9 1f c0 d9 d4 3f c0 74 50 3a c0 23 ff 6d c0
       -2.4976306 -2.9973662 -2.9111605 -3.7186973
000010 14 8d e8 3f 1b ec f4 3f 6d 06 05 c0 67 a6 89 c0
       1.8168054 1.9134554 -2.0785172 -4.301563
000020 f1 ee 4c c0 33 dc ec bf 28 94 b5 3f 9a a2 55 40
       -3.2020838 -1.85047 1.4185839 3.3380494
000030 d2 44 c5 bf 9e 2e ae bf bc 3b fe bf 24 67 29 c0
       -1.5411627 -1.3607976 -1.986198 -2.6469202
000040 ec 8b 97 c0 4a 84 69 c0 6a 8b 1f c0 cc b8 ca bf
       -4.7358303 -3.6486993 -2.4928842 -1.5837646
000050 00 69 18 c0 c9 b6 1f c0 af ad 05 c0 31 d2 f5 bf
       -2.3814087 -2.4955313 -2.0887258 -1.920477
000060 04 ed 91 bf 19 da 09 c0 47 5e 05 c0 61 56 00 c0
       -1.1400456 -2.1539366 -2.0838792 -2.0052722
000070 a5 81 0c c0 48 d6 e0 bf d7 8b 32 c0 ae 9c 2b c0
       -2.1954129 -1.7565393 -2.7897851 -2.681438

conv.0.weightnet.net.1.bn.running_var f4 [32]
000000 ee f3 8a 41 3a 5d e4 41 68 82 e4 41 d9 62 1d 42
       17.369106 28.54552 28.563675 39.34653
000010 fc 68 08 41 8e 03 17 41 22 c0 82 40 ba 98 02 42
       8.525631 9.438368 4.0859537 32.649147
000020 70 5a 2a 42 48 a1 4d 41 8f a8 0a 41 0e 96 d7 41
       42.588318 12.851875 8.666152 26.948269
000030 60 12 b4 40 08 f0 9d 3f 13 36 b4 41 f0 4b c1 41
       5.627243 1.2338877 22.526403 24.162079
000040 50 c1 7d 42 03 03 57 41 e0 02 8f 41 21 9c 69 41
       63.43878 13.438235 17.876404 14.600617
000050 1a 2b 87 41 22 de 81 41 6a 52 38 40 c4 3f 73 40
       16.896046 16.233463 2.8800302 3.800767
000060 6c 97 b0 3d c3 f5 55 40 63 70 17 42 e6 86 89 40
       0.086226314 3.343125 37.859753 4.297717
000070 e5 2f 99 41 61 1f 92 41 4c 26 58 42 a6 4a 96 41
       19.148386 18.265322 54.0374 18.78645

conv.0.weightnet.net.2.linear.weight f4 [16, 32]
000000 2c 76 cb 3d 01 ba da 3d 04 ab 07 3e ae b5 c4 bc
       0.09934649 0.10680009 0.13248831 -0.024012413
000010 4f a7 bd 3c 6d 54 33 be 69 92 96 3e 65 cb be be
       0.023151068 -0.17512675 0.29408577 -0.37264553
000020 82 6d d3 bd 1b 21 e3 bd f2 a7 81 be e1 90 b1 be
       -0.10323621 -0.11090299 -0.25323445 -0.34680846
000030 d6 ff be be a9 42 18 3b c4 90 05 be db 70 92 bc
       -0.37304562 0.0023233092 -0.13043505 -0.01787608
000040 ba 73 ec bc d9 e5 aa be 23 89 1e 3c b1 e7 d2 ba
       -0.028863776 -0.33378485 0.009676251 -0.0016090778
000050 30 ef c6 bc d5 98 f4 bd 42 4e a4 bd a2 62 99 3e
       -0.024283975 -0.11943213 -0.08022739 0.29958063
000060 1d a7 6f be bc 3d 77 bd 95 90 0c 3c a5 65 1e be
       -0.23403592 -0.06036161 0.008579393 -0.15468462
000070 06 cd de be 04 bd 0c be 46 a9 80 be 75 03 be 3d
       -0.43515795 -0.13743979 -0.25129145 0.09278003
000080 16 1f a8 bc dd 98 4e bc 0c 99 be bc 66 fa 63 be
       -0.020522635 -0.012609688 -0.023266338 -0.22263488
000090 ec 8d 1e 3e bd 81 3b be 72 50 8d 3d 68 ba 68 be
       0.15483826 -0.1831121 0.06900109 -0.22727358
0000a0 47 b1 06 3d 4c b4 57 be 1d 9f a5 3d d2 eb 62 be
       0.03288391 -0.21064872 0.08086989 -0.22160271
0000b0 bf ca b8 3e 67 eb 11 be e8 ef 29 3f 31 32 32 bd
       0.36092183 -0.14249955 0.6638169 -0.043504898
0000c0 71 56 08 be 45 b1 08 bf e4 52 d7 3c 2b 57 96 3e
       -0.13314225 -0.5339549 0.026284643 0.2936338
0000d0 2b e9 40 be 1a 8f 98 be 5a ac 7e 3d 54 e2 3d 3e
       -0.18838947 -0.29796678 0.062176086 0.18543369
0000e0 0f 6f 5e be a9 c5 dc 3d 0b de 82 bd 7a 47 7c 3e
       -0.21722053 0.10779888 -0.063900076 0.24636641
0000f0 0c 5a 0d 3f ce 8a 5d 3f 06 2a 89 3e 94 93 bd bd
       0.55215526 0.86539924 0.26789874 -0.09256664
000100 71 81 88 3d 87 e9 e3 3c 15 6f e8 3d 83 2c 0f 3d
       0.06665314 0.027821315 0.11349312 0.03495456
000110 a2 48 ee bd f9 8e 38 be 11 af 5a 3c a0 2b f2 3d
       -0.11634947 -0.1802329 0.013347403 0.11824727
000120 59 1a 90 3e 35 0f 31 3e 46 49 96 be 01 0e ba be
       0.28145102 0.17290957 -0.29352778 -0.3633881
000130 62 45 4f be 1b a0 a8 be 24 93 03 be 3b 78 8b 3c
       -0.20241311 -0.3293465 -0.12849098 0.017025104
000140 04 e3 00 3e 06 3a f3 bc 75 c8 ce 3d cf da 25 be
       0.125866 -0.029690754 0.10096828 -0.1619675
000150 fe c3 33 3d 44 19 53 3e 60 03 a4 be 30 43 b2 3c
       0.043888085 0.20615107 -0.32033825 0.021760553
000160 2e f7 81 bd 38 c2 71 be e8 70 2f be ac 88 5b 3d
       -0.06345974 -0.23609245 -0.17132914 0.053597137
000170 3c 9e a5 bd be a1 a6 be 60 c1 5c be da f0 16 3e
       -0.080868214 -0.32545274 -0.21558142 0.14740315
000180 55 d6 a8 3d e8 2c 20 bd 3d 8d 14 be 70 eb c2 bd
       0.082440056 -0.039105326 -0.14507003 -0.095175624
000190 b4 1c b8 be 15 a3 bb bd 97 25 7b be 79 75 d8 3d
       -0.359594 -0.09161965 -0.24526058 0.10569281
0001a0 77 75 ac bc c1 48 97 bd 24 c0 0c be 8e 18 c7 3d
       -0.021052105 -0.073869236 -0.13745171 0.0972148
0001b0 87 2a 09 bf 00 47 bb bd de 9a 35 bc 53 81 0d 3e
       -0.53580517 -0.091444016 -0.0110842865 0.13818865
0001c0 a9 c6 a4 bd 66 e0 b5 3e 4d 3c b2 3a 9e be 5b 3e
       -0.08045704 0.35522765 0.0013598293 0.21459433
0001d0 93 c9 20 3a 31 90 7b 3d 8c e1 d5 be 78 07 14 be
       0.00061335525 0.06141681 -0.4177364 -0.14455974
0001e0 2f 12 a0 be 24 52 1a bf 2a 8d 70 3e df bf 52 bf
       -0.31263873 -0.60281587 0.2349135 -0.8232402
0001f0 60 50 3d be 6b 2f 26 be 25 88 ac 3c 7d b7 73 3d
       -0.18487692 -0.16229026 0.021061013 0.05950116
000200 ef c3 b7 bd 02 e0 1b be 2a c2 9e be 96 71 e5 be
       -0.08972918 -0.15222171 -0.3100751 -0.44813222
000210 0e 8e 27 be 43 46 b8 bd b3 a7 ee bd 4b 47 2d 3d
       -0.16362783 -0.08997776 -0.1165308 0.04230432
000220 c0 1d 0b bf d9 a6 ab be b5 26 90 3c b2 10 60 3d
       -0.5434227 -0.33525732 0.017596582 0.054703422
000230 ad 68 9f bd 72 fd a3 be a5 5a 46 3e e3 db af be
       -0.07783637 -0.320293 0.19370516 -0.34347448
000240 a7 38 fa 3d fa d3 7e bc 5d 61 8c be e7 c2 c4 3d
       0.12217837 -0.015553469 -0.27418032 0.09607487
000250 8e c7 9e be 3c 65 03 bf b6 01 c4 bd d3 ea a1 be
       -0.31011623 -0.51326346 -0.09570639 -0.3162447
000260 ca 9e 55 be e7 88 8b be 2b 77 85 3e 9c ca 01 be
       -0.20861354 -0.27252886 0.2606748 -0.12674946
000270 c6 54 50 3e 4e 73 5b 3d 77 03 31 3e c8 82 e5 be
       0.20344839 0.05357676 0.17286478 -0.4482634
000280 99 37 82 3e 27 84 e7 bc 01 73 85 3d 9c 1c ee bd
       0.25433043 -0.028261257 0.06516076 -0.116265506
000290 62 70 03 be d8 ce 8d be bc bd 9f 3e c4 e2 1a bd
       -0.1283584 -0.27696872 0.31199443 -0.037813917
0002a0 78 d1 cd 3c 3a db 17 3e 41 cf 8f be 4c 3b 8c be
       0.025124297 0.14829722 -0.2808781 -0.2738899
0002b0 ea 16 e7 bd a0 52 f8 bc d2 72 0b be 03 4e 59 3e
       -0.112836674 -0.030312836 -0.13618019 0.21221165
0002c0 28 31 78 3c 47 26 ca bd a7 74 25 3e 75 13 e5 3b
       0.0151484385 -0.09870582 0.1615778 0.006990845
0002d0 47 21 c8 3c 99 8c 46 3e 04 fe 0e be e8 2c 36 3e
       0.02442993 0.19389571 -0.13964087 0.17790568
0002e0 2d db 0d bf 34 4d df be 41 9a 38 3b 43 5f 8d bd
       -0.5541256 -0.4361359 0.0028168114 -0.06902935
0002f0 10 84 94 be 89 0b ad bc 85 c2 dd bc 29 4d ee 3c
       -0.29007006 -0.021123664 -0.027070293 0.029089527
000300 68 db 18 be 6a f2 66 bd 06 cf 8a bc 87 a9 5d 3d
       -0.14927447 -0.056383528 -0.01694442 0.054116752
000310 8d f1 03 3f fa fd c4 3d 87 94 d5 3d cd fd f0 3d
       0.5154045 0.09618755 0.1042872 0.11767159
000320 43 0d af 3d 5f e6 4b bd 79 a8 57 3e e8 0b be 3e
       0.08547451 -0.049780246 0.21060361 0.3711846
000330 59 16 0b 3e 5c 7b 27 3e de 94 cb 3d 42 90 bd bb
       0.13582744 0.16355652 0.099405035 -0.005785019
000340 c7 09 77 3d da 81 33 3e 9e d5 b8 bd 8b fb 76 bd
       0.06031206 0.17530003 -0.09025119 -0.060298484
000350 0d 81 87 3a 2b 43 7d 3d f9 22 d8 3e 2b e0 49 3e
       0.0010338143 0.061831634 0.42214182 0.1971442
000360 8a 2d b4 3e 92 07 37 3e 4a d4 fd bd 9d 9b 26 3e
       0.35190994 0.17873982 -0.123940066 0.162703
000370 46 a3 78 3e 5b d5 0b 3e 55 eb 07 be 0e cf 8b 3a
       0.24281034 0.13655607 -0.13273366 0.0010666566
000380 97 ce ea 3d fe 27 14 3e fb 23 b3 3b a7 3e 1b 3c
       0.11465185 0.14468381 0.0054669357 0.009475387
000390 aa a7 9a be 19 8d c1 3d ec 7d 19 bf d1 ff 96 3e
       -0.30206043 0.0945074 -0.59957767 0.29492047
0003a0 32 0a 88 3e f6 73 3b 3d ae 3e 90 3d b4 01 7e 3d
       0.26570278 0.045764886 0.07043205 0.062013343
0003b0 57 e5 36 3e e2 6b 42 be d6 02 11 3e 64 dd 4f 3e
       0.17860924 -0.18986467 0.14161238 0.20299298
0003c0 8c 8a 74 3e 17 14 d5 bc 66 56 02 3e 45 bc b4 be
       0.23880976 -0.026010556 0.12728271 -0.35299888
0003d0 50 ee 4d bd c6 61 f1 bc 83 5d 8c 3d 2a d3 25 bf
       -0.0502761 -0.029465567 0.068537734 -0.64775336
0003e0 54 cb 8d 3d c7 a0 b1 3e 37 5e 94 bb fc a3 1a 3e
       0.069235474 0.34692976 -0.004527833 0.15101618
0003f0 20 4b 85 3e fa a5 1a be 1e 8b 85 be 0b 6f f8 3c
       0.26033878 -0.15102378 -0.260827 0.030326387

conv.0.weightnet.net.2.linear.bias f4 [16]
000000 99 50 1c 3e cc 90 04 3e bb e6 6b 3e 98 d2 b8 3e
       0.1526512 0.1294586 0.23037235 0.3609817
000010 8c 01 16 3d df dd e4 bd 13 0e 85 3d 50 a6 08 bf
       0.03662257 -0.11175131 0.06496825 -0.5337877
000020 51 aa 1d be c4 81 3d be bc d2 92 be b0 7d c7 be
       -0.15397002 -0.18506533 -0.28676403 -0.3896308
000030 20 a0 ce 3c 7e 8f b5 3d df 6e 60 3e 62 db 83 3d
       0.025222838 0.088652596 0.21917294 0.06438328

conv.0.weightnet.net.2.bn.weight f4 [16]
000000 eb 5a ae 3f 4e 1d 9e 3f a2 f3 96 3f f6 2f 5a 3f
       1.3621496 1.2352693 1.1793101 0.8522943
000010 9b 69 7c 3f 23 55 ae 3f de 3e 9d 3f b2 f5 81 3f
       0.9859864 1.3619732 1.228481 1.0153105
000020 da 1b 8a 3f 77 64 98 3f ec 48 86 3f 27 86 8d 3f
       1.078975 1.190566 1.0491004 1.1056565
000030 8a 81 84 3f 56 21 4d 3f e8 91 89 3f eb 6f 89 3f
       1.0352032 0.8012899 1.0747652 1.073728

conv.0.weightnet.net.2.bn.bias f4 [16]
000000 2c 83 25 bf b1 28 3b bc 74 bf 8b be 03 24 b0 be
       -0.6465328 -0.011423276 -0.27294505 -0.34402475
000010 ab f7 04 bd 1c 2b 31 bf da 81 98 be 3e a8 81 be
       -0.032462757 -0.69206405 -0.2978657 -0.2532367
000020 ac a8 f4 be 8b fe c5 bd 4e cc 99 be 4d 99 01 bf
       -0.47784936 -0.09667691 -0.30038685 -0.50624543
000030 7d 10 33 be e0 c9 81 be b4 33 fc be c4 35 d4 bd
       -0.17486759 -0.2534933 -0.49258196 -0.103618175

conv.0.weightnet.net.2.bn.running_mean f4 [16]
000000 fd 65 4a bf 42 18 4c 3f c8 31 cd be bc 72 f5 be
       -0.7906187 0.79724514 -0.40077043 -0.47939098
000010 aa cc 35 be e8 e7 4c bf 5d 72 76 3f b5 8f ba be
       -0.17753854 -0.8004136 0.96268255 -0.36437765
000020 ae c7 67 bf ee 6b 09 3f c9 b2 84 bf c0 74 81 bf
       -0.9053906 0.5368031 -1.0367061 -1.0113754
000030 92 40 1a bf 9e 1c e0 be c2 27 08 bf 53 a5 47 bd
       -0.60254776 -0.43771833 -0.53185666 -0.04874165

conv.0.weightnet.net.2.bn.running_var f4 [16]
000000 dc 2c 19 3e ac cf 12 40 74 4e eb 3e c0 87 0c 40
       0.14958519 2.2939253 0.45958292 2.1957855
000010 1d 56 fd 3f 28 e9 96 3e 5e 27 c9 3e 1d 87 06 3d
       1.9791905 0.2947476 0.39287847 0.032843698
000020 6e e2 ae 3e d2 56 2a 3e ac ad 81 3f 91 fe d5 3e
       0.34157127 0.16634682 1.0131125 0.4179578
000030 bd bc 1e 40 d6 bd e6 3f ca 28 74 3f bb f8 a0 3e
       2.4802697 1.8026683 0.9537474 0.31439766

conv.0.linear.weight f4 [16, 128]
000000 7d bb a3 bd ab 0d e6 3d 9f ce e5 bd 24 bd 07 be
       -0.07994745 0.11233076 -0.112210505 -0.13255745
000010 08 44 73 3e e6 d6 ee bd 00 1b 8d 3e d1 2a 3f 3e
       0.2375642 -0.116620824 0.27559662 0.18668677
000020 ce 8c 1b be fa 8c 4f 3e a2 04 e1 bd 66 36 b2 bd
       -0.15190431 0.20268622 -0.10987212 -0.08701782
000030 ce 0c 95 3d 04 b3 1e be 93 74 50 3e ed 23 46 3e
       0.07277833 -0.15497977 0.2035697 0.19349642
000040 f7 e8 e6 3c c6 ef 09 bd fc 0d 88 bd 49 4f 1b 3e
       0.028187258 -0.03367593 -0.06643292 0.15166964
000050 6e 6d 85 be af a6 b7 3c 9b 90 56 be 90 d8 9c be
       -0.2606005 0.022418348 -0.209536 -0.30633974
000060 ea fb d4 bd 0a 51 d7 be bd eb 39 3d 4e 24 76 3d
       -0.10399611 -0.42054015 0.045390833 0.060093217
000070 ba 1e 98 bd 4b 7f 4c 3d c3 9f e1 3d 5d bd 56 be
       -0.074277356 0.049926084 0.110168 -0.20970674
000080 48 42 04 be 6c 3f 1a 3c c8 7c dd bc f4 75 42 be
       -0.1291591 0.009414535 -0.02703704 -0.18990308
000090 ac 81 ee 3d 4e cc 87 bd 48 e9 56 3e 42 3b f2 3d
       0.11645827 -0.06630765 0.20987427 0.11827709
0000a0 27 9f 6b bd 26 27 02 3f 20 b7 f3 bd ff 58 26 bc
       -0.057524826 0.50840986 -0.11900163 -0.010153054
0000b0 96 24 83 3d ca bd 19 3d 59 a8 33 be a2 5d fa 3d
       0.064034626 0.037534513 -0.17544688 0.1222489
0000c0 6b cb aa 3d cd 3a 0d bc 76 16 15 3d 5a 02 87 3e
       0.0833958 -0.008619976 0.036398374 0.26368982
0000d0 c5 b3 a8 bd eb 6e 34 3e 35 fb f2 3d 96 12 8d 3e
       -0.08237413 0.17620437 0.1186432 0.27553242
0000e0 1b a8 ec 3d ec 9b 04 bd 68 f8 20 3e de f0 ea 3d
       0.11555501 -0.03237526 0.1571976 0.11471723
0000f0 57 47 21 bd 7f 2c 5b 3c 97 aa de 3e 20 71 92 3c
       -0.039374676 0.013377308 0.43489525 0.017876208
000100 db c7 c1 3c 87 2a a8 3d b6 57 b3 bd 03 3a 29 3e
       0.023654869 0.082112364 -0.08756964 0.16526036
000110 ab 2f 86 3e ae 0b d9 3d 9d 0a c5 3e c8 b4 bb 3e
       0.26208243 0.10597931 0.3848466 0.36661363
000120 b8 ec 1a 3d d8 53 bb 3e 17 29 f7 bc 0b 97 00 bd
       0.03782341 0.36587405 -0.03017096 -0.031394046
000130 a0 37 8c 3d b3 53 fb ba 12 52 bd 3e f9 1b 60 3e
       0.06846547 -0.0019174725 0.36976677 0.2188567
000140 e8 5f 8c ba ec bf 60 3d 03 65 c1 3c 82 ca b3 3d
       -0.0010709735 0.05487053 0.023607736 0.0877886
000150 83 9f 08 3d ef dc 9f 3d 11 bf 03 3d ad a3 10 3e
       0.033355247 0.078058116 0.032164637 0.14124937
000160 94 39 c1 bd ae 5d 7d 3e 30 e0 e8 3c a5 57 bc bc
       -0.0943481 0.24742767 0.028427213 -0.02299101
000170 34 5b e6 3d 63 d2 70 3d 78 0c 0b 3e ab 80 84 3d
       0.11247864 0.05879439 0.13578975 0.06469854
000180 17 a9 73 bc cf 22 fb 3d 37 96 6a bd 99 72 b3 3d
       -0.014871857 0.122624986 -0.057272162 0.08762092
000190 36 c2 56 3d 5c 2f e1 3d 14 6f b6 3e a9 80 0d be
       0.052431308 0.10995361 0.3563162 -0.13818611
0001a0 41 5d 83 bd be fb c3 3b d4 e5 ea bd f9 d9 d8 bd
       -0.06414271 0.0059809377 -0.114696175 -0.1058845
0001b0 99 62 b2 3d 9f 13 52 be fe 17 88 3e e8 f9 91 3e
       0.08710212 -0.20515297 0.26580805 0.28510976
0001c0 70 8e 9a 3e 92 b6 aa be 63 37 0a 3e f4 fe 41 3e
       0.30186796 -0.33342415 0.13497691 0.18944913
0001d0 d8 e8 d3 be e8 79 38 3e 25 57 9d be db 6c 8a bd
       -0.41388583 0.18015254 -0.30730549 -0.06759044
0001e0 e8 50 41 3e fb 88 10 bf e3 5e 72 3e ee 41 25 3e
       0.1887852 -0.56459016 0.23669009 0.16138431
0001f0 4f 80 f2 bd 82 44 3c 3e 5f 12 b1 3e 34 ae 88 be
       -0.11840879 0.18385509 0.3458433 -0.26695406
000200 0e be 4a bd 32 71 c8 bd 30 c9 ac 3d 6a 8a bf bd
       -0.049497657 -0.09787215 0.08436811 -0.09352572
000210 b1 05 b4 bd 88 ac 3c bc 22 01 df 3d c0 e8 08 3e
       -0.08790148 -0.011515744 0.10888888 0.13370037
000220 00 9f 82 3d 8e 3c 48 bc b5 50 fd bb 66 cb 50 3d
       0.06377983 -0.012221469 -0.0077305683 0.050975226
000230 26 a2 a6 bd 83 4e bd bc fb cd 10 bd 42 2f 87 bd
       -0.08136396 -0.023108726 -0.03535269 -0.066008106
000240 ff a7 9f 3e c9 16 8e 3e 75 40 56 3e fd 16 b9 3e
       0.31182858 0.2775176 0.20923026 0.3615035
000250 92 d0 9b 3e 38 d3 a5 3e ba 80 24 3e 5d 75 ba bc
       0.30432564 0.3238771 0.1606473 -0.022761041
000260 57 30 37 3e 51 98 f0 bd b6 95 0d 3e f2 e4 71 3e
       0.17889534 -0.11747802 0.13826641 0.23622492
000270 3b fd cd 3e ac 1b ab 3d 99 61 ec 3e 58 c9 82 3e
       0.40232262 0.08354887 0.4616821 0.25544238
000280 cf da 62 3c 22 41 0a 3d 19 99 a7 3d 8f 23 19 3c
       0.013846113 0.03375352 0.08183498 0.009346857
000290 6f bd 1e 3e 1b 4e 5b 3e 94 f7 ef 3d 40 06 65 3d
       0.1550195 0.21416514 0.11717144 0.055914164
0002a0 18 cf 61 3a 99 2f 71 bd cd ef f5 3d 57 1c 74 3d
       0.0008613928 -0.058883283 0.12008629 0.05959734
0002b0 0c f6 31 3d 55 68 96 3d 08 c2 49 3e 38 7f 01 3e
       0.04344754 0.073441185 0.19702923 0.12646186
0002c0 d0 e5 b0 3d b7 3b 94 bd f8 46 9f 3c d7 a1 33 3d
       0.08637583 -0.07237952 0.01944302 0.043855514
0002d0 43 2d 6c bd c7 8c 14 3d c4 43 b8 3d 2c 44 88 3d
       -0.057660352 0.03626707 0.089973 0.06653628
0002e0 98 00 3b bd 57 c8 c9 3d 1c f3 e8 3d b5 dc e5 3b
       -0.045654863 0.09852665 0.113744944 0.0070148357
0002f0 6c 72 eb 3d f3 fd 8b 3d 9a 7f 93 3c 61 bf 95 bd
       0.114964336 0.06835546 0.018005181 -0.07311893
000300 47 54 df bc 8b ef a8 be ab d1 11 3c 5e 82 da bd
       -0.027261866 -0.32995257 0.008900086 -0.10669397
000310 8b 94 81 be 3d 7a e2 ba 5a d3 d7 bd ac 42 78 bc
       -0.25308642 -0.0017278861 -0.10538359 -0.015152615
000320 fc 5e 07 be 41 23 cd bc f1 e7 f2 bd 98 6c 8b 3c
       -0.13219827 -0.025041224 -0.118606456 0.017019555
000330 4d 73 c6 bd d7 fd 61 3d 97 01 5f bd bc 54 8b be
       -0.09689961 0.05517372 -0.054444876 -0.27213085
000340 47 cb 93 bc d7 5e ed bd 2b 2e e5 3d 1c cd a0 3d
       -0.018041266 -0.11590355 0.111904465 0.078516215
000350 3d a1 5f bd ac eb 1c 3d fa 7a 65 bb 0d 02 03 bd
       -0.05459713 0.03831069 -0.0035015927 -0.031984378
000360 59 7f 0c 3e 33 24 8b 3d f0 60 80 3d 4a 2e d7 3d
       0.13720454 0.06794014 0.06268489 0.10506876
000370 ca 7c 8c 3c 64 70 73 3d 20 1f d1 3d 1d 9e ff 3b
       0.017149348 0.059433356 0.10211015 0.007800831
000380 b1 e2 7b 3d 36 4d a3 bd 45 41 7f bd 88 63 26 3d
       0.061495487 -0.07973711 -0.062318105 0.040622264
000390 68 05 e9 bc b6 9f a3 bd 82 eb 63 bd da 9d 28 3e
       -0.02844496 -0.07989447 -0.05564452 0.16466466
0003a0 ec 88 3f 3d c9 a3 9d bc e6 54 eb bc 4b 56 13 3c
       0.04676144 -0.019243138 -0.028727006 0.008992742
0003b0 bf d5 01 be ad 7a 92 3d 79 56 44 bd 2d 25 10 be
       -0.12679194 0.07152305 -0.04793403 -0.14076681
0003c0 c4 80 96 3e 88 1f ad 3e b0 1e ad 3e 1d db a2 3e
       0.29395115 0.3381312 0.33812475 0.31807795
0003d0 50 55 67 3e d3 df d0 3e d1 33 a0 3e 63 51 5e 3d
       0.22591138 0.40795764 0.31289533 0.054276835
0003e0 b7 7d 5b 3e 2f c3 c8 bc 5f d4 ac 3e b8 87 45 3e
       0.21434675 -0.024507133 0.33755776 0.19290054
0003f0 0d ef 8c 3e ec c7 03 3e 56 03 c3 3e b7 f6 a9 3e
       0.2752613 0.12869233 0.38088483 0.3319604

conv.0.linear.bias f4 [16]
000000 d6 7e 4d be 4d 65 24 3e 46 d1 ad 3e 4c 13 7f be
       -0.20067915 0.16054268 0.33948725 -0.24909705
000010 77 cc 38 bf 66 a4 3d 3d d4 e6 84 3e ae 39 39 bf
       -0.7218699 0.04629936 0.25957358 -0.7235364
000020 3f 8e 3b 3e 29 a1 06 3d 31 f0 6f 3e 40 19 25 be
       0.18315981 0.032868538 0.2343147 -0.16122913
000030 f7 29 a0 bd 8c 3c 32 bd 96 d4 ab be 39 62 08 be
       -0.07820504 -0.043514773 -0.33560628 -0.13318719

conv.2.weightnet.net.0.linear.weight f4 [32, 1]
000000 85 1f 6d 3f 12 ca 70 3f ff 5f 08 be 2c 86 59 bf
       0.9262622 0.94058335 -0.1331787 -0.84970355
000010 72 b8 51 3e eb 1e 10 bf d5 d5 f8 bd 6e e7 5a 3e
       0.20480517 -0.5629718 -0.1215016 0.21377346
000020 28 ba 36 be 3d be bf 3e f9 fd f5 be 0f 39 05 3f
       -0.1784445 0.37449828 -0.48045328 0.5204019
000030 8c 1f 2e be ec 74 71 3f f3 6a ac be 36 fc 76 3f
       -0.17004222 0.94319034 -0.33675346 0.96478593
000040 a0 c6 61 bf 4b a6 55 3f 3c b8 37 bf 29 0f 26 bf
       -0.881937 0.8345687 -0.71765494 -0.6486688
000050 5b 1e 28 bf fa f5 53 3f ad 82 9f 3e 77 14 2b bf
       -0.6567132 0.82797205 0.31154385 -0.668281
000060 13 45 4e 3f cf c6 12 3e 92 5a 5c 3e 4b d2 35 bf
       0.8057415 0.14333652 0.21518925 -0.71024007
000070 b1 43 ed 3e c3 84 b5 3e 4e b8 19 3f 8d 6b 88 bf
       0.46340707 0.35452852 0.6004685 -1.0657822

conv.2.weightnet.net.0.linear.bias f4 [32]
000000 34 d6 b6 be c5 a6 01 3f b7 05 19 3f bb e3 73 3f
       -0.357103 0.50645095 0.59774345 0.95269364
000010 b1 2c be be 17 ec ad be c9 3c 67 3f fe 93 10 3e
       -0.37143472 -0.33969185 0.90327126 0.14118955
000020 1b d9 4a be 0b 82 47 bf 30 3f 17 bc 12 76 19 3f
       -0.19809382 -0.77932805 -0.009231374 0.59945786
000030 3e 82 19 bf 86 8e 42 bf 25 0c 38 bf 66 17 88 3f
       -0.5996436 -0.75998724 -0.7189353 1.0632141
000040 8e 3a ac be 64 a8 13 3f 98 a6 00 3f e4 bf 80 bf
       -0.33638424 0.5767882 0.502542 -1.005856
000050 01 e0 48 3f 3b 53 1f bf 88 b1 21 3f a8 a9 34 3f
       0.784668 -0.62236375 0.63161516 0.70571375
000060 f9 9c 1a 3f b3 a3 57 3e ac b4 4d 3d c9 b7 0c 3f
       0.6039577 0.2105854 0.05022113 0.54967934
000070 20 13 74 be 85 44 75 3e 08 22 83 3e 08 e1 d7 3e
       -0.2383542 0.2395192 0.256119 0.42163873

conv.2.weightnet.net.0.bn.weight f4 [32]
000000 30 3b ac 3f 93 f8 97 3f 2b 7a ae 3f 94 cf a0 3f
       1.3455563 1.1872734 1.3631033 1.2563348
000010 df 79 b3 3f 35 9f 91 3f 0d 85 bc 3f 69 38 b1 3f
       1.4021567 1.1376711 1.4728104 1.384534
000020 6c a0 70 3f a0 bb b5 3f 1c 57 b4 3f 29 d9 5e 3f
       0.93994784 1.4197884 1.4089084 0.8705011
000030 17 99 8b 3f b7 36 a9 3f e1 b5 6c 3f 23 de ba 3f
       1.0906094 1.3219823 0.92465025 1.4599041
000040 7f 88 4b 3f f1 de b2 3f 3b 84 87 3f 90 e3 4e 3f
       0.7950515 1.3974286 1.0587229 0.8081598
000050 48 62 97 3f 49 1a 9e 3f 7b ce a6 3f 46 ed 6e 3f
       1.1826868 1.2351772 1.3031763 0.933308
000060 1d 0a 9d 3f c7 be b9 3f fe 0a 99 3f 70 a2 80 3f
       1.2268711 1.4511346 1.195648 1.0049572
000070 6a ca a4 3f a0 a9 97 3f 95 23 b2 3f 5c 09 38 3f
       1.2874272 1.184864 1.3917109 0.7188928

conv.2.weightnet.net.0.bn.bias f4 [32]
000000 91 50 08 bf f7 f8 22 bf e6 3b 06 3f 65 2d 00 3f
       -0.53247935 -0.6366114 0.5243515 0.50069267
000010 62 ca 34 bf 4f 14 d5 3e 70 91 10 3f bf f3 11 bf
       -0.7062131 0.41617057 0.5647192 -0.5701255
000020 5c 17 4c 3e ee d8 2b bf 30 a3 09 3f 73 9e f2 be
       0.19930786 -0.67127883 0.5376463 -0.47386512
000030 d6 75 8e 3e aa a8 1a bf 2d a1 5c 3e 55 05 2e bf
       0.27824277 -0.6041361 0.21545859 -0.67976886
000040 30 3a 9a 3d 66 ce 2d bf 59 2f af 3e 0c c3 2d 3e
       0.0753063 -0.67893064 0.3421581 0.16968936
000050 71 a4 c2 3e 0e e9 16 bf 2a c1 1a bf e0 f1 07 3e
       0.38016084 -0.58949363 -0.60450995 0.13275862
000060 11 24 17 bf 45 dc 24 bf fe cd 25 bf 3d 15 9e 3e
       -0.5903941 -0.64398605 -0.64767444 0.3087558
000070 fa dd 18 bf e0 e6 e5 be 66 30 2e bf ce 6a cc 3c
       -0.5971371 -0.44902706 -0.680426 0.024953272

conv.2.weightnet.net.0.bn.running_mean f4 [32]
000000 ff 57 b6 be c8 a6 01 3f e9 8a 19 3f fc 51 73 3f
       -0.3561401 0.50645113 0.59977585 0.95046973
000010 8a 7e be be 67 8c ae be 26 d5 66 3f 60 d5 0e 3e
       -0.37205917 -0.34091493 0.9016899 0.13948584
000020 bb 7e 49 be b2 0b 48 bf 34 87 fe bb 72 35 1a 3f
       -0.1967725 -0.78142846 -0.0077675823 0.602378
000030 0e 0a 1a bf 8c 7a 42 bf c2 66 38 bf 52 24 88 3f
       -0.6017159 -0.7596824 -0.72031796 1.0636084
000040 15 88 ab be 29 5f 13 3f 29 d2 00 3f 90 dd 80 bf
       -0.3350226 0.5756708 0.5032068 -1.0067616
000050 02 d0 48 3f 5d 30 1f bf 36 df 21 3f b2 13 35 3f
       0.78442395 -0.6218317 0.6323122 0.7073318
000060 3b e8 1a 3f 5f d8 57 3e 62 87 4d 3d 92 10 0d 3f
       0.60510606 0.21078633 0.05017794 0.5510341
000070 5b df 73 be 26 91 72 3e 78 56 82 3e 71 60 d7 3e
       -0.23815672 0.23688182 0.25456595 0.42065766

conv.2.weightnet.net.0.bn.running_var f4 [32]
000000 30 74 06 3d cb fb 09 3d 22 b2 2c 3a b2 71 e2 3c
       0.03282565 0.033687394 0.0006587823 0.027642105
000010 23 ba d1 3a 30 53 46 3c b5 4f 15 3a dc 80 e6 3a
       0.0016000908 0.012104794 0.0005695776 0.001758601
000020 18 22 9f 3a d9 30 af 3b a9 d7 10 3c 4e 26 28 3c
       0.0012140898 0.0053463993 0.00884048 0.010263039
000030 7e b2 8e 3a 47 f0 0a 3d 08 d0 8b 3b f9 c3 11 3d
       0.0010886935 0.033920553 0.0042667426 0.035587285
000040 97 62 f4 3c 72 1f da 3c ce 31 a1 3c 50 b4 83 3c
       0.029832168 0.026626322 0.019677069 0.01607719
000050 ff 87 86 3c 42 9d d7 3c 41 cb 72 3b 62 01 8d 3c
       0.01642227 0.026320104 0.0037047418 0.017212573
000060 8a df ca 3c d2 e0 4e 3a ce 30 e6 3a 60 d8 9c 3c
       0.024764795 0.0007891777 0.0017562152 0.019146144
000070 4c 0b 07 3c f9 41 9f 3b 0f 1c 61 3c 34 b9 32 3d
       0.0082424395 0.0048601595 0.0137396 0.043633655

conv.2.weightnet.net.1.linear.weight f4 [32, 32]
000000 51 ce d8 3e df 6f b3 3e 83 a5 d1 bc 6a 8f 35 3d
       0.42344907 0.35046288 -0.025591617 0.044326223
000010 5a dd e2 3e 8c 77 3a 3e 5d 90 08 3e e5 7d f0 3e
       0.44309503 0.18209666 0.1333632 0.4697105
000020 b4 8b d3 3c e6 7d ce 3e 85 fd 51 3e 31 77 a9 3e
       0.025823452 0.40330428 0.20506866 0.33098748
000030 02 0d 9f 3c cc 6f 84 3e 80 c0 b9 3d d8 55 e6 3e
       0.019415382 0.25866544 0.090699196 0.4498737
000040 3f 08 e2 bd 9f 78 c0 3e a1 53 f0 bd 49 b1 de 3c
       -0.11036729 0.37592027 -0.11734701 0.027184146
000050 c5 61 c8 bb 47 24 85 3e a9 fb b0 3e 7f 44 f6 3d
       -0.0061151707 0.2600424 0.34567 0.12024783
000060 b1 4e 26 3e 43 59 c1 3e 1f 4c c4 3e ae be b6 3d
       0.16240956 0.37763414 0.38339326 0.08923088
000070 99 df af 3e e4 3a c2 3e bf 55 04 3f 13 9f de bd
       0.3435028 0.37935555 0.5169334 -0.10870185
000080 25 97 0e bf ac c6 c8 be 0d 59 c1 3d 54 30 06 3d
       -0.5569938 -0.39214075 0.09440813 0.032760933
000090 62 7f 0b bf 64 63 52 be 4d 46 24 be 1c 77 fd be
       -0.54491246 -0.20545727 -0.16042443 -0.49504936
0000a0 08 e7 0e 3d 1a 14 cc be 43 04 8d bd 80 46 d5 be
       0.034888297 -0.39859086 -0.068855785 -0.4165535
0000b0 16 a7 86 bd 57 bb 0b bf 6f 56 91 3d 6a 0d 69 be
       -0.06574838 -0.5458273 0.07096564 -0.22759023
0000c0 88 09 06 be 99 7c fd be ff ec cf bd 47 9a 3f be
       -0.13089573 -0.49509123 -0.10152625 -0.18711196
0000d0 98 7c 11 3c b0 ee 0a bf 53 e7 9c be cf ff 75 3d
       0.008879803 -0.5427046 -0.30645236 0.06005841
0000e0 4d 42 da be 0a b0 c7 be 5f 4c c4 be f3 bf d4 bc
       -0.42628708 -0.39001495 -0.38339517 -0.025970435
0000f0 f7 58 cd be e3 88 04 bf ca f5 98 be d6 05 46 bd
       -0.40106937 -0.5177137 -0.29875022 -0.04834541
000100 1d b1 4f 3e 46 b2 d0 3e f9 d8 6a 3e 7e c8 29 3e
       0.20282407 0.40761012 0.22934331 0.16580388
000110 34 e3 f7 3e 47 e1 02 3b 39 cc c7 3d 9f 0f 89 3e
       0.4841553 0.0019970702 0.09755749 0.2676973
000120 14 97 7c 3c 99 60 67 3e 2a 08 5c 3e 00 9f ae 3e
       0.015416879 0.22595443 0.2148749 0.34105682
000130 0d da a4 bd f0 a8 9a 3e 21 73 bc 3d 81 1a cd 3e
       -0.080494024 0.30207014 0.092016466 0.40059283
000140 28 3f 6b 3d e8 3a d1 3e 5f ba ca bc f0 88 b2 3c
       0.057433277 0.40865254 -0.024747072 0.021793813
000150 cc c2 5a 3e 0c fa 59 3e 93 d8 bc 3e 73 ab 93 3d
       0.21363372 0.21286792 0.36883983 0.07210436
000160 11 54 0f 3e 1a 62 bd 3e 8b 79 9c 3e 67 ec 01 3e
       0.13996913 0.36988908 0.3056148 0.12687837
000170 c8 63 41 3e b1 9d 07 3e 48 fe c0 3e 04 92 8e 3d
       0.1888572 0.13243748 0.37694 0.06961444
000180 97 6f 4f be 9f 35 78 be d3 81 c8 be c2 e1 a7 be
       -0.20257412 -0.24239205 -0.39161548 -0.32789427
000190 94 39 83 be fc a0 ce bd 62 d2 b9 be 4a f3 8f bd
       -0.25629866 -0.10089299 -0.36293322 -0.070288256
0001a0 35 35 9e be cb 0d 96 be d9 8c 8c be ce 25 91 3c
       -0.3089997 -0.29307398 -0.27451208 0.017718222
0001b0 95 2d 39 be c5 1d 90 be 07 fe 21 be 60 da 09 be
       -0.18083794 -0.28147712 -0.1581956 -0.1346221
0001c0 0a 1e 37 bd 53 2a 9e be 58 54 4c be eb 98 7d be
       -0.04470638 -0.30891666 -0.1995405 -0.24765365
0001d0 fd f3 91 be dc 79 33 be 4b 2f 8e be f5 92 92 be
       -0.2850646 -0.17526954 -0.27770457 -0.28627744
0001e0 7f 04 d0 bd f4 fd 4b 3b 7f ae 48 be 98 38 e7 bc
       -0.101571076 0.003112671 -0.19597815 -0.028225228
0001f0 58 b0 e6 bc ca ea 2d be 85 b3 5b be 6e eb bb bd
       -0.02816026 -0.16984096 -0.214552 -0.09175764
000200 a4 a1 0d bd ea 25 b7 bc 30 e1 1b be 97 59 96 bd
       -0.03457798 -0.022356946 -0.15222621 -0.07341307
000210 34 1f 8d be 4b 8d 48 be 93 9b ac be 8b 6b 80 bd
       -0.2756287 -0.19585149 -0.33712444 -0.06270512
000220 67 c7 ca bd 25 c8 9a be 75 94 a7 be 12 67 99 bd
       -0.09901314 -0.30230823 -0.3273045 -0.07490362
000230 30 63 a0 be f8 79 be bd ab c2 18 bd d5 c0 a1 be
       -0.31325674 -0.093006074 -0.037295025 -0.31592432
000240 08 a4 40 be a7 54 9b be 1a 73 b4 be 05 96 10 be
       -0.18812573 -0.30338022 -0.35244066 -0.14119728
000250 cc 72 24 be 51 4f 20 bd 5e 2c 5b be 11 03 da bd
       -0.16059417 -0.039138142 -0.21403643 -0.10645116
000260 a5 64 c5 bd 9b 63 b2 be 88 88 e6 bd 42 a2 76 be
       -0.09638337 -0.34841618 -0.1125651 -0.24085334
000270 13 c3 8a bd 2b 0e 36 bd 76 a5 bc bd 52 99 d9 bc
       -0.06775489 -0.044447105 -0.09211247 -0.026562367
000280 42 79 ba bd 7c 2e 1a be c0 ac 2f bf bc 74 73 bf
       -0.09105159 -0.15056795 -0.6862297 -0.951
000290 76 33 0b be af ef 90 bf e2 97 31 bf 1e 25 d4 3d
       -0.1359385 -1.1323146 -0.6937238 0.10358642
0002a0 24 7a b2 bf 08 31 c6 bc 2e c3 28 bf 8f eb 0f be
       -1.3943524 -0.024193302 -0.6592282 -0.14054702
0002b0 6b b7 3d bf 8d 46 fd 3a 1b b5 be bf 21 73 25 3e
       -0.74108 0.0019323394 -1.4899019 0.161572
0002c0 ad 3f a3 bf 49 4f ed bd 17 d3 fe bf a6 1b 94 bf
       -1.2753807 -0.11587388 -1.990817 -1.1570938
0002d0 45 db 8d bf 36 0b f8 3d 2c 25 33 3d 68 5f 46 bf
       -1.1082541 0.12111513 0.04373662 -0.7748933
0002e0 65 37 4a bd 8a 2d 08 3d f9 bc fe 3d 81 f1 ba bf
       -0.049369235 0.033246554 0.124383874 -1.4604951
0002f0 68 49 f3 3d 9b c4 18 be 02 b5 4a bd 65 c0 6b bf
       0.118792355 -0.14918749 -0.04948903 -0.92090446
000300 3d 06 d3 3e f6 6a e7 3e 47 86 a9 3c 5c 49 3e 3d
       0.41215697 0.45198792 0.020693911 0.04645668
000310 c8 ea ed 3e 36 86 65 3c 2b e1 25 3e 0c 2a fa 3e
       0.46468186 0.014009049 0.16199176 0.48860204
000320 6a 4e 2e 3e c0 41 d2 3e 53 49 6e 3d 06 e3 ec 3d
       0.170221 0.41065788 0.058175396 0.11566739
000330 fe 4c 59 bd 27 8e e8 3e 97 6e 0d 3d 45 b1 97 3e
       -0.05305194 0.45420954 0.034529295 0.29627433
000340 bd 39 87 3d a2 f4 5c 3e c0 3c f6 3d c2 76 d8 bd
       0.066028096 0.21577695 0.12023306 -0.10569526
000350 7f 1c 2a 3e 89 5c e2 3e 20 b6 8d 3e 63 06 4e 3e
       0.16612433 0.44211224 0.27678013 0.20119624
000360 6f 32 14 3e 9f 87 c9 3e df d8 63 3e dc 91 c2 bc
       0.14472364 0.39361283 0.22250699 -0.023751192
000370 12 ff 96 3e 8f bb 9a 3e 45 d5 de 3e 5c f9 52 3e
       0.29491478 0.3022122 0.43522087 0.20602936
000380 22 0d 84 3e fc 64 4c 3e 75 56 cf 3d f0 e6 0a 3e
       0.2579127 0.19960397 0.10123912 0.13564658
000390 29 80 87 3e be 4b 9f bd 43 5e 07 3d 71 63 f6 3e
       0.26464966 -0.077781186 0.03304888 0.48122743
0003a0 10 83 8b 3d ec d5 bf 3e 7d dc 41 3e 08 90 c8 3d
       0.068121076 0.37467897 0.18931766 0.09793097
0003b0 11 74 f0 bd 25 6e 81 3e 72 7f 81 3d f7 cb c0 3e
       -0.11740888 0.25279346 0.063231364 0.37655613
0003c0 12 3d 8c 3c d1 b4 b1 3e 54 d6 66 3e b4 4b 84 ba
       0.017118964 0.34708264 0.22542697 -0.0010093362
0003d0 b9 2c 2c 3d 75 22 5a 3e 82 7b dc 3e 31 75 80 3d
       0.04203484 0.21302207 0.4306298 0.062723525
0003e0 83 83 e9 3e 33 3e f0 3e 51 e0 12 3e d1 ba 2f 3e
       0.45608148 0.46922454 0.14343382 0.17161109
0003f0 2e fb a0 3e 1e 42 84 3e c4 83 0a 3f fc ac 2a 3e
       0.31441635 0.25831693 0.5410731 0.16667551

conv.2.weightnet.net.1.linear.bias f4 [32]
000000 b3 44 a7 3e c2 e0 cc bd 04 5d 9f bb a0 2c c2 bd
       0.326696 -0.10003807 -0.0048633832 -0.09481168
000010 2a d1 eb bc 43 18 05 3d 19 76 a8 be 0d 75 84 3c
       -0.02878626 0.03249384 -0.329026 0.016169095
000020 c3 9f 7b 3d 51 cc 88 3e 3d 02 20 be ed dc 2f 3e
       0.061431658 0.2671838 -0.15625854 0.1717412
000030 29 fd 91 3e 10 60 4a 3e 10 18 d1 bd 6f b2 02 3f
       0.28513458 0.19763207 -0.10209668 0.5105352
000040 20 86 d4 3d 22 fb 64 be a3 27 06 3e c8 f2 6c be
       0.10377145 -0.22361425 0.13101058 -0.23139489
000050 5e 9d a7 3b 36 59 e8 3e a3 3d 0a 3c 87 38 3c 3e
       0.005115195 0.45380563 0.008437547 0.18380938
000060 9d 99 0f be 8d d9 f8 3d 94 6d e1 3c 3a eb 94 be
       -0.14023443 0.121508695 0.027518071 -0.29085714
000070 75 59 6c bc 6d 12 d5 be 8c b4 d2 3d 9f 45 5a 3e
       -0.014425625 -0.4161562 0.10288343 0.21315621

conv.2.weightnet.net.1.bn.weight f4 [32]
000000 1c 55 9d 3f 96 bf 4f 3f 24 e4 5d 3f 94 4d fe 3f
       1.2291598 0.8115171 0.8667624 1.9867425
000010 3c bd f5 3f 34 5a 95 3f a1 b1 8f 3f b4 d0 7f 3f
       1.9198375 1.1668153 1.1226083 0.9992783
000020 2d ca 8e 3f 27 92 62 3f b6 1b 53 3f ff 1d 71 3f
       1.1155449 0.8850426 0.8246416 0.94186395
000030 27 25 97 3f cb 51 94 3f ec c8 9b 3f 55 53 90 3f
       1.1808213 1.1587461 1.2170691 1.1275431
000040 cb 0c 11 3f 6d 72 a7 3f 0c 72 91 3f bf 3a ad 3f
       0.56660146 1.3081795 1.1362929 1.3533553
000050 00 1a 56 3f 1f 64 93 3f a9 1b cc 3f b7 78 98 3f
       0.8363342 1.151493 1.5945941 1.1911839
000060 65 6a 06 40 f6 2b a6 3f 69 a5 91 3f 0e ed 95 3f
       2.1002438 1.2982166 1.1378604 1.1712968
000070 6c 23 23 3f 70 c8 a4 3f ca be e9 3f 9e 5d a8 3e
       0.63725924 1.2873669 1.8261349 0.32883924

conv.2.weightnet.net.1.bn.bias f4 [32]
000000 00 79 00 bf 78 cf f5 3d f8 58 7f bf 47 88 6e bf
       -0.5018463 0.12002462 -0.9974513 -0.9317669
000010 0d 4b 62 bf 5b 85 24 3c 73 34 d7 be 87 0a 59 bf
       -0.8839577 0.01004156 -0.42032203 -0.8478169
000020 e7 b8 d2 bd 76 3c bc be 70 eb 96 be e6 ff 25 bf
       -0.102891736 -0.36764878 -0.294765 -0.64843595
000030 46 c3 cc be 1c ff d5 bc 4b 3e 34 bd 05 6b 6a be
       -0.39992732 -0.026122622 -0.04400472 -0.22892387
000040 b8 88 12 bf de 45 af 3d 73 f7 13 be 7e 26 0c be
       -0.57239866 0.08558248 -0.14449863 -0.13686559
000050 98 d8 04 bf cb 53 7e be 58 b9 59 bf 8d 43 6c bf
       -0.51892996 -0.24836652 -0.8504844 -0.92290574
000060 ea c5 97 bf b5 32 ee be 16 e2 c2 be b9 47 9b bf
       -1.1857274 -0.4652306 -0.38063115 -1.2131263
000070 2d 04 cb be 3b a4 a2 be b4 7a 83 bf fa 90 6a bf
       -0.39651623 -0.31765923 -1.0271821 -0.91627467

conv.2.weightnet.net.1.bn.running_mean f4 [32]
000000 cf 45 a3 3f ec ba 85 bf 01 7f 8e 3f a2 d7 f8 bf
       1.2755679 -1.0447669 1.1132509 -1.9440806
000010 85 71 cc bf b5 5f d1 c0 bb 72 2b 3f ff b3 85 3f
       -1.5972143 -6.542933 0.6697194 1.0445555
000020 86 7c 3e 40 06 fc 71 bf 3b 1e 19 40 ae 23 95 3f
       2.9763503 -0.9452518 2.3924701 1.1651514
000030 0e 0e ab 3f b7 51 8f c0 04 90 bc c0 fd 61 81 c0
       1.3363664 -4.478725 -5.89258 -4.0432115
000040 d4 ee 8a c0 5a c5 85 c0 a8 69 a1 3f 50 b0 b8 bf
       -4.341654 -4.180341 1.2610369 -1.4428806
000050 aa 4e 8f 3f c4 fa b0 3f bc 97 ea bf b4 b3 a0 3f
       1.1195881 1.3826528 -1.8327556 1.2554841
000060 e1 22 fa bf ac d7 8a c0 23 0d 8b 3f cc d7 4c 3f
       -1.9541894 -4.338827 1.0863384 0.8001678
000070 93 d4 37 c0 20 ed 82 3f a8 13 55 c0 b1 ba 22 c0
       -2.8723495 1.0228615 -3.3293247 -2.5426447

conv.2.weightnet.net.1.bn.running_var f4 [32]
000000 1e 70 e5 40 c2 d3 1f 41 a6 9a 72 40 27 c8 70 40
       7.169936 9.989199 3.790689 3.7622163
000010 f6 5f 28 40 47 14 ee 42 92 b9 b8 40 a6 0b a1 40
       2.630857 119.039604 5.7726526 5.032672
000020 f0 9d ae 41 2f fa 61 40 ca 1b 38 41 bd 29 90 40
       21.827118 3.530895 11.506784 4.505095
000030 33 df c9 40 09 04 79 42 de 61 9b 42 92 8d 77 42
       6.308496 62.25394 77.69115 61.888252
000040 92 37 0a 42 a2 97 4c 42 b4 de 32 41 81 ea 19 40
       34.554268 51.14808 11.179371 2.404938
000050 2d bf c2 40 2b 4a 66 41 29 80 7b 40 a7 31 4d 40
       6.085837 14.393107 3.9296973 3.2061555
000060 75 13 6f 40 b0 07 32 42 00 ce 8d 40 56 39 65 40
       3.7355626 44.507507 4.4313965 3.5816245
000070 f3 1e 83 41 36 92 43 40 19 3a cd 41 09 f6 89 41
       16.390112 3.055799 25.653368 17.245134
