weights/1dreg/periodic/periodic_cnp.pth (torch_old, 335618 bytes, 14 tensors)

encoder.0.weight f4 [128, 2]
000000 8e b5 3a 3e 5b 25 78 3e 57 17 2f be ec 90 0d bf
       0.1823332 0.24233 -0.17098747 -0.5529926
000010 1f f2 8b be 8d 94 30 3f 32 e0 60 be 0d c6 b4 3e
       -0.2733316 0.6897667 -0.21960524 0.3530735
000020 a8 b1 a3 3e eb 6b 50 bf 6f 5b 20 be 54 82 03 bf
       0.31971478 -0.8141467 -0.15659879 -0.5137074
000030 25 28 56 be 6e 53 e3 3e 28 43 2c 3e 34 02 77 3e
       -0.20913751 0.4439959 0.16822493 0.24121934
000040 1d a5 5e bc 10 6f 06 bf d9 d7 53 bc 0d e9 41 3a
       -0.013589171 -0.5251322 -0.01292988 0.0007397093
000050 51 5f 36 bc 3c 9f 0b 3f 52 5d 07 3e 0c 0a 87 be
       -0.011131124 0.5453985 0.13219193 -0.26374853
000060 c1 b1 fb 3c 81 43 12 3f ff 89 b5 be 87 73 73 be
       0.030724408 0.5713425 -0.35456845 -0.23774539
000070 93 19 a3 3e fe ff 2f 3e 72 78 98 3e f9 12 bc bd
       0.3185545 0.17187497 0.29779392 -0.09183306
000080 b1 81 03 bd a8 62 61 3e 66 c7 d9 3d 35 22 84 bc
       -0.032106105 0.2201029 0.10633735 -0.016129592
000090 f5 bb 96 bd 96 38 9a 3c db cf 52 3d 96 7b 31 be
       -0.07360069 0.01882581 0.051467758 -0.173323
0000a0 a3 c7 6b 3d 0e 6c 7a be 60 5b db 3e 03 b8 ee 3b
       0.057563435 -0.24455282 0.4284315 0.0072851195
0000b0 4d 42 2c 3e 61 c8 f9 bd 39 8f a0 3d d5 06 b3 3e
       0.16822167 -0.12196422 0.078398176 0.3496615
0000c0 d5 15 37 be 84 93 bb bc a2 47 6b 3e ee 25 6f 3d
       -0.17879422 -0.02289749 0.22976544 0.058385782
0000d0 3f 90 19 bc 4e 02 3f bd 2a f5 86 3c 19 c6 02 bf
       -0.00937277 -0.046633057 0.016474325 -0.51083523
0000e0 a7 65 c2 3d 0c 33 3d bb 71 a2 f8 bc f1 1b 2a bf
       0.09492045 -0.0028869538 -0.030350896 -0.66448885
0000f0 91 a1 46 3e c8 cb 34 3f 13 c0 ee bd 18 d1 a4 be
       0.1939757 0.70623446 -0.11657729 -0.32190776
000100 69 21 db 3d 86 26 b7 3e 66 56 bc be e5 f7 87 3e
       0.10699732 0.3577158 -0.36784667 0.26556316
000110 2b 09 32 be 49 27 cf 3d 8f 7a 26 3c 99 72 22 bf
       -0.1738631 0.10114915 0.010161056 -0.6345611
000120 2d 4a 55 be 62 41 ea be b8 61 f3 bc 98 4f 05 3f
       -0.20829077 -0.45753008 -0.029709682 0.52074575
000130 07 16 4e bd 56 d3 46 3e ab bc 9d 3d 41 5f 17 be
       -0.050313976 0.19416556 0.07702001 -0.1478243
000140 b2 94 b2 bd b1 da 12 3f 2c e5 0e bd 00 ba 22 bf
       -0.08719768 0.57364947 -0.034886524 -0.63565063
000150 96 ae 9b 3d f9 20 ab be b6 d8 5b 3e 0a 1f 80 3d
       0.07601659 -0.33423594 0.21469387 0.0625592
000160 0a f5 57 3e e9 11 0e 3f 12 21 91 3a 43 17 27 3f
       0.21089569 0.5549608 0.0011072478 0.6526987
000170 73 b8 54 be 2a c2 79 be c0 09 3b bc 70 a4 5a bd
       -0.20773487 -0.24390474 -0.011415899 -0.053379476
000180 7e b8 41 be 42 04 90 3b 59 12 9f 3d 50 d9 af be
       -0.18918034 0.004395039 0.077671714 -0.34345484
000190 07 15 40 3e a3 a1 2a bf 15 23 d3 3d 66 da 02 3d
       0.18758021 -0.6665289 0.10309426 0.031946562
0001a0 41 a0 84 3d 60 54 6d be 07 2c 13 3e 97 fc 6a 3e
       0.064758785 -0.23176718 0.14372264 0.22947918
0001b0 c9 bd a2 bd 41 1a 08 bf b4 f1 1d 3d fe 50 d0 be
       -0.07946355 -0.5316506 0.038560584 -0.40686792
0001c0 67 ea 9e 3b a6 f8 c7 bd a2 f0 89 3d 70 2e 13 3f
       0.0048497203 -0.09764223 0.0673535 0.57492733
0001d0 8d b8 36 3a cb b4 8b ba 3b 8c 30 3d 68 2a a1 3e
       0.0006970249 -0.0010658739 0.043102484 0.31477666
0001e0 b7 76 ea bc 5f eb 19 3e 53 fd 07 3d c6 bf 41 be
       -0.02862106 0.15031193 0.033200573 -0.18920812
0001f0 57 84 7d 3e e9 db cf be 5c 60 98 3d 5b a0 1d be
       0.24757515 -0.40597466 0.07440254 -0.15393202
000200 79 7b 14 3e 87 26 e4 bb b3 37 1f be db 11 f3 be
       0.14500226 -0.0069626006 -0.15548591 -0.4747456
000210 d9 f8 b4 3c ca 56 ea bb 95 71 93 bd be 80 7c 3c
       0.022091316 -0.0071514593 -0.071993984 0.015411554
000220 66 e5 5b be cf ad ab 3e fd 28 95 bd a5 aa 06 be
       -0.21474227 0.33531043 -0.072832085 -0.13151033
000230 e9 20 ab be e7 50 d6 bd 05 17 5d 3d 27 0f 0b bf
       -0.33423546 -0.1046465 0.05397703 -0.54319996
000240 ed 7c 19 bd 22 59 94 3e b8 2c 6e 3e 6f 83 5e be
       -0.037472654 0.28974253 0.23259246 -0.21729825
000250 ea 82 47 3e 42 5d 38 bd 8f 02 a5 be 72 44 d1 3e
       0.19483534 -0.045010813 -0.32228515 0.40872532
000260 a3 2a ae bc 08 0a 8c bc b8 c3 0d 3e e0 63 59 3d
       -0.021260565 -0.017094627 0.13844192 0.053073764
000270 50 be 5e 3a aa c7 c6 bb 01 9e 03 3b 7e 51 12 3f
       0.00084969867 -0.0060662823 0.0020083191 0.571556
000280 8a 5d 9a 3e e4 d8 fe 3e bd 46 91 3d 1f 00 b2 be
       0.3014949 0.4977485 0.070935704 -0.34765717
000290 90 14 99 3d 25 60 a8 3e 72 d6 28 3e d7 51 cf be
       0.07474625 0.32885852 0.16488054 -0.40492126
0002a0 58 db a4 bd 78 b8 36 bf 71 19 08 bc a8 bb 21 3f
       -0.08049649 -0.71375227 -0.008306847 0.63176966
0002b0 70 03 4f 3d 84 3e 84 3d 63 cd d5 3d 7d 53 ce be
       0.050540388 0.064572364 0.10439565 -0.40298072
0002c0 67 92 86 3e 52 83 31 3d 87 b4 8d 3e 90 38 2b 3f
       0.2628357 0.043338127 0.27676794 0.6688318
0002d0 67 6e fb 3c 69 19 20 3f 29 b9 57 be 76 55 98 be
       0.030692292 0.6253877 -0.21066727 -0.29752702
0002e0 04 cd 9e bd ec 7a 91 3e 03 38 a6 bd 48 bb 29 bf
       -0.077539474 0.28414094 -0.08116152 -0.66301394
0002f0 19 38 99 bc 34 19 0a bf 7d 2e b9 be ba 7b 90 3a
       -0.018703507 -0.53944707 -0.3616828 0.0011023202
000300 14 7a 03 3e a8 60 b1 3d ed af ee 3d b8 0a 2e bc
       0.12839538 0.08661014 0.11654649 -0.010622673
000310 b1 ba 57 bc 34 29 ed 3e 6f 9a 91 bc 7b 62 fb be
       -0.013167069 0.46320498 -0.017773835 -0.49098572
000320 02 30 fd 3c db ba e8 be e8 31 8c bd 2f 18 ef 3e
       0.030906681 -0.4545506 -0.06845456 0.46698138
000330 43 3e 78 bb 43 bc 88 3b c7 86 0f 3d 2f 3c d6 be
       -0.0037878908 0.004172833 0.035040643 -0.4184279
000340 ab 69 ab 3d 92 37 c6 3a 66 b0 34 be a8 cf 3d bd
       0.08369764 0.0015122762 -0.17645416 -0.046340615
000350 ad c8 e8 3d 74 d4 1a bf c6 73 4e be 28 a4 41 3e
       0.11366401 -0.6048043 -0.20161352 0.18910277
000360 f8 13 0f bd 10 37 f0 3c 9f 85 6d be 09 36 d8 be
       -0.034931153 0.02932313 -0.23195504 -0.42228726
000370 2b f2 b6 3e d3 15 01 bf d8 dc 41 3e f1 9d a4 3e
       0.35731634 -0.50423926 0.18931901 0.3215175
000380 c1 15 a9 3c 66 a1 0f 3f 09 54 47 3e 05 d4 5e ba
       0.020640256 0.5610565 0.1946565 -0.00085002213
000390 b7 6f 2d be 8f 91 3a bc cb 4a 3d 3e 5c d1 91 be
       -0.16937147 -0.011387243 0.18485563 -0.2848004
0003a0 95 26 09 be e5 59 10 3c 90 5f e3 3d 81 fd 05 bf
       -0.13393624 0.008810495 0.111022115 -0.5233994
0003b0 b2 97 91 bd d8 a3 af be 6d cb 71 bc 09 ca b3 be
       -0.07109012 -0.3430469 -0.014757973 -0.35115078
0003c0 4b 1b 27 be be 86 0a bf 44 32 b8 bd f3 96 96 3c
       -0.16319005 -0.5411185 -0.089939624 0.018382525
0003d0 e8 62 6d be e3 2c 17 3e 9d 4e 9c bd be bf 42 bf
       -0.23182261 0.14763217 -0.07632182 -0.76073825
0003e0 ae 82 2c 3e 91 b9 2f be 21 68 16 3b cf 5e 05 3f
       0.16846725 -0.17160632 0.002295025 0.5209779
0003f0 e8 0c 12 3b 53 75 02 bf 03 01 09 bc 91 66 83 3e
       0.0022285525 -0.5096027 -0.008362058 0.2566419

encoder.0.bias f4 [128]
000000 16 ff 71 bd 76 da ea 3e 36 44 18 3f eb 49 01 bf
       -0.05908116 0.45869797 0.5947908 -0.50503415
000010 90 21 38 bf 37 cd 80 3e a5 40 0c bf d2 de f9 be
       -0.7192621 0.25156567 -0.5478614 -0.4880281
000020 98 d8 f5 be 6a 72 1e bd 74 e0 ab 3e d6 5f 40 bf
       -0.4801681 -0.038683333 0.33569682 -0.75146234
000030 4b d6 76 bf 89 34 55 bf b9 a5 15 3e 78 3a 80 bf
       -0.96420735 -0.8328329 0.14614 -1.0017843
000040 8e d5 15 bf f5 9c 9e be d6 09 66 be ab 26 f3 be
       -0.58528984 -0.30979124 -0.2246469 -0.4749044
000050 06 63 e2 be a3 15 65 bf 01 98 70 be fe 99 43 bf
       -0.44216174 -0.8948614 -0.23495485 -0.7640685
000060 d4 71 eb be 48 e7 48 bf e9 e1 5c be e1 7f 93 3e
       -0.4598528 -0.7847791 -0.21570553 0.288085
000070 9c ef 60 be 93 67 e5 be f8 17 10 bf 23 3b ac 3e
       -0.21966404 -0.44805583 -0.56286573 0.33638868
000080 46 e8 3c bf ed f5 49 bf f2 12 33 bf 57 14 2a bf
       -0.7379192 -0.7889088 -0.69950783 -0.66437286
000090 a3 d5 ac bd bb 3b 1a bf fd 86 10 bf 01 6d 89 3e
       -0.084391855 -0.6024739 -0.56455976 0.26840976
0000a0 05 c8 0f bf c2 11 39 bf 15 87 13 bf 1d 1d 36 bf
       -0.5616458 -0.7229272 -0.57627994 -0.71138173
0000b0 78 49 21 3e 39 63 d3 3e d2 bf 03 bf 39 cb 14 bf
       0.15750682 0.41286638 -0.5146457 -0.58122593
0000c0 ed 29 18 bf 0f c7 1f bf ef fb 02 bf c1 79 09 bf
       -0.59438974 -0.62413114 -0.5116567 -0.53701407
0000d0 07 e9 df be d7 06 3a be 63 20 1f 3f 12 95 3c bf
       -0.43732473 -0.18166672 0.62158793 -0.73664963
0000e0 4c 97 a9 be de c3 15 3f 80 f2 3a bc 0e 4f da be
       -0.33123243 0.58501995 -0.011410356 -0.4263844
0000f0 47 f4 d3 be 83 1c 01 bf 06 46 c7 bd 5e 4c 08 bf
       -0.41397306 -0.5043413 -0.09730153 -0.5324153
000100 d3 ae b9 be 92 14 f1 be 00 60 93 bd 3c 00 58 be
       -0.36266193 -0.47086006 -0.07196045 -0.2109384
000110 20 14 31 be eb c1 9d be fd d7 81 bf bc 8a 26 3f
       -0.17292833 -0.3081201 -1.0144039 0.6505544
000120 16 17 a2 3e 92 1c af 3e b9 24 18 bf 8a f2 35 bf
       0.31658238 0.34201485 -0.59431034 -0.7107321
000130 99 28 f1 bd 94 85 21 bf 43 28 68 bd 84 25 0d 3e
       -0.117753215 -0.6309445 -0.05667902 0.13783842
000140 8a 86 4d be e2 6b 30 bf 78 15 31 bf 77 7c 60 bf
       -0.20070854 -0.68914616 -0.69173384 -0.8768992
000150 84 3c 1e bf 92 5e 34 bf 32 1d 58 be 6b 28 45 bf
       -0.6181109 -0.704568 -0.21104887 -0.770148
000160 70 e4 37 bf 13 08 27 bf 75 6c 46 3e 86 5e 45 3e
       -0.7183294 -0.65246695 0.1937731 0.19274339
000170 61 9c e9 be e0 3e c5 be 3d 2a 0c bf 2a ee 3a bf
       -0.4562712 -0.38524532 -0.5475195 -0.7301966
000180 7d 40 79 3e 77 22 92 be 7a 8d 08 bf 33 93 1b bf
       0.24341007 -0.2854192 -0.53340876 -0.60771483
000190 db d2 35 bf cb 60 25 bf e2 5c 03 bd bc d9 1a be
       -0.71024865 -0.6460082 -0.032071 -0.15122122
0001a0 c1 fe 37 be 87 c7 2a bf 1b a8 17 bd 2c 4d e0 3e
       -0.17968275 -0.66710705 -0.037025552 0.43808877
0001b0 e4 19 d2 be ee e1 14 bf 4a 52 20 bf 6e ec 59 bf
       -0.41035378 -0.5815724 -0.62625563 -0.8512639
0001c0 a9 ee 4b 3e dd 39 e4 be ba 76 ca be 90 80 d2 3e
       0.1991526 -0.44575396 -0.39543706 0.4111371
0001d0 50 d5 a9 be f4 35 e8 3e ea 67 cc 3c 05 c6 c7 be
       -0.33170557 0.45353663 0.024951894 -0.39018264
0001e0 c5 74 24 3d ec 6e 89 be c1 f6 19 be c9 59 19 bf
       0.040150423 -0.2684244 -0.15035535 -0.59902626
0001f0 56 72 b0 3e a6 4b 1d bf ae 44 b2 3e 9d 54 0f 3e
       0.3446223 -0.61443555 0.34818023 0.13997121

encoder.2.weight f4 [128, 128]
000000 19 17 e3 bd 00 c4 5e bd bb 79 5a 3c e4 b4 0e be
       -0.1108839 -0.05438614 0.013334687 -0.13936192
000010 4f 76 c2 bb e0 c3 dc bd 6e 1e 14 be 84 6b e6 bd
       -0.0059345136 -0.10779548 -0.14464733 -0.11250976
000020 52 0d d6 bd f9 22 16 ba c2 a1 11 3d 0d 61 12 bc
       -0.104517594 -0.0005727257 0.035554655 -0.0089342715
000030 89 ff 0f be e2 9a a7 3d e1 3a 2d 3d 2b 13 b2 bc
       -0.14062323 0.081838384 0.04229248 -0.021737656
000040 30 06 12 3d 23 50 3f 3d 41 ad c6 bd 78 2c b0 bc
       0.035650432 0.046707284 -0.09701014 -0.02150558
000050 e7 4a 2a 3d fa 46 c9 3c 78 21 10 3c 19 36 0a be
       0.04157534 0.024569977 0.008797042 -0.13497199
000060 70 4c 75 3d 82 6d 23 bd 6f 14 76 3b 40 eb 46 bc
       0.05988735 -0.039899357 0.00375488 -0.012141049
000070 f9 7a 1a bd 21 f2 79 3b 99 27 a8 bd 9e 29 60 bd
       -0.037714932 0.0038138705 -0.08210678 -0.05472719
000080 94 49 03 be 12 61 21 be d1 d5 18 be 22 54 1b be
       -0.12821037 -0.15759686 -0.14925314 -0.15168813
000090 b0 6b e3 3c b7 15 77 be e5 52 a8 bd 77 bc b0 bd
       0.02776131 -0.24129377 -0.08218936 -0.08629697
0000a0 0a bd 01 be e6 01 b5 bd 37 29 a2 3d fa 6b 39 be
       -0.12669769 -0.08838253 0.07918017 -0.18107596
0000b0 bf c5 67 3c 3a 8d e0 bd 99 42 1f bd 3e ea 2b 3d
       0.014146267 -0.10964437 -0.03888187 0.041971438
0000c0 ce 19 01 bd a9 e8 d4 bc f0 c1 c0 bd 78 a1 94 bd
       -0.03151875 -0.025989847 -0.09411991 -0.0725736
0000d0 a1 b5 23 be 0b 0e 66 bd 58 26 e9 bc 4e 90 b3 3d
       -0.15987255 -0.056165736 -0.028460667 0.08767758
0000e0 75 ab 19 be 23 6a cb bd 57 5b b9 3c 27 0b 4f 3c
       -0.15006812 -0.09932353 0.022626562 0.012636936
0000f0 44 c8 01 be c6 d1 2a bd d2 42 1b bd 7a c9 4f bd
       -0.12674052 -0.04170396 -0.03790552 -0.050729252
000100 ed 1c f9 bd 45 bc 69 bd 4b 14 bc bc 87 09 01 be
       -0.1216372 -0.057064313 -0.022958895 -0.1260129
000110 31 35 67 bb a0 9a 00 3d 7a fe b6 bd 98 2a 86 3a
       -0.0035279507 0.031397462 -0.08935256 0.0010236083
000120 c2 17 40 3c 21 d1 3b 3c 2b 78 c2 bc 49 48 31 be
       0.011724414 0.011463434 -0.023738941 -0.17312731
000130 a4 74 08 bd d0 c9 80 bd 3c e6 2f 3d 07 4e 38 bd
       -0.033314362 -0.06288493 0.042944178 -0.044996288
000140 1e 9c fc bd 0a b7 c2 bc 63 4d ac bc ff 49 0d be
       -0.123344645 -0.02376892 -0.021032995 -0.13797759
000150 e5 f1 0a bd 9b aa 57 be 46 1b b7 bd ad 85 3d bc
       -0.033922095 -0.21061175 -0.08940749 -0.011567515
000160 b5 06 12 be cb bb 7f bd b1 d1 af bd 22 76 97 bb
       -0.14260371 -0.062434953 -0.08584917 -0.004622237
000170 cb ff 30 be 0f d7 14 be 2a 01 9f bd 2a 71 be 3c
       -0.17285077 -0.14535163 -0.07763894 0.02324732
000180 72 fa 46 bd 9b 6a c2 bd c8 13 cf bc 94 3c fb 3c
       -0.048578687 -0.0949299 -0.025277987 0.030668534
000190 bf ef 79 be c0 4f cf 3b d4 5e 9e bd 1c 92 86 bd
       -0.24407862 0.0063266456 -0.07732931 -0.06570837
0001a0 81 bb 29 3d a7 55 52 3d b4 35 2b 3c e2 e5 92 bd
       0.041438583 0.051351216 0.010449816 -0.07172753
0001b0 b8 fe 55 3d 85 03 48 bd e8 10 ab bd 06 5c 6a bd
       0.05224487 -0.04883148 -0.08352834 -0.057216667
0001c0 8d 2b cf bd ba ed f3 3c 0f dc 9c bd 0a 26 45 bd
       -0.101157285 0.029776443 -0.0765916 -0.04813198
0001d0 7d 0e d0 bd ca 12 84 bd 91 6f 3f 3d a2 3d 50 be
       -0.101590134 -0.06448896 0.046737257 -0.20336011
0001e0 f8 6e 38 bd e5 d3 df bd 26 52 90 bc dc 90 75 bb
       -0.045027703 -0.109290875 -0.017617296 -0.0037470376
0001f0 91 7d 80 bd 35 74 c0 bd 85 1b 98 bd f4 1a df bd
       -0.0627395 -0.09397165 -0.07427124 -0.10893813
000200 bb 0b 47 be f9 88 bc 3d 6e 38 1e be 72 4c 09 3e
       -0.19438069 0.09205813 -0.15451214 0.13408068
000210 b5 36 c8 bd 52 45 32 3c 7f c0 7e bd 09 b7 51 be
       -0.097760595 0.010880785 -0.062195297 -0.20479979
000220 47 1b 80 be c5 2b 81 bd f9 81 80 be 29 c3 83 bd
       -0.2502081 -0.063071765 -0.2509916 -0.06433708
000230 97 66 f3 bd 2c 0f 43 be ef 73 88 be 16 50 fe bd
       -0.11884802 -0.19048756 -0.2665095 -0.12417619
000240 cc 66 88 bc 8f 2f 72 bd eb fd 80 bc 9f 1e 5d be
       -0.01665058 -0.059127387 -0.015746078 -0.21593712
000250 d8 51 f9 be ba 67 99 3d cd 56 e9 bd e4 09 e8 bd
       -0.48695254 0.074904874 -0.11393509 -0.113300115
000260 80 0f 61 bc 59 ca 23 bc 93 23 98 3a 73 5d 83 3d
       -0.013736606 -0.009996974 0.0011607282 0.064143084
000270 f8 82 88 3c 62 2c 4f be f9 fd b7 bd b7 2c cc 3d
       0.016664013 -0.20231774 -0.08983988 0.09969466
000280 36 f7 02 3d 5d 1c b9 3d 06 07 4a bd da 0a ed be
       0.03197404 0.09038613 -0.049323104 -0.46297342
000290 53 08 d2 3c cd b1 85 bc 08 ac 9c bd be e7 05 3c
       0.025638735 -0.016320134 -0.0765 0.008172927
0002a0 89 05 2f bd 66 cd d1 be 4b b0 f9 be b4 7f 09 be
       -0.042729888 -0.4097702 -0.48767313 -0.13427621
0002b0 fb d9 e9 bd d3 fb b3 be d7 aa 5a bc 1a 6e 7f 3d
       -0.114185296 -0.35153064 -0.013346395 0.06236086
0002c0 29 3d ef 3c 23 aa 21 be c2 92 48 be 73 07 82 ba
       0.029203968 -0.15787558 -0.19587234 -0.0009920433
0002d0 72 c5 d9 be 99 dc b4 be f3 8e c3 3d 89 a1 a8 be
       -0.4253345 -0.35324553 0.0954875 -0.32935742
0002e0 f3 09 df bd 37 7c a0 be 27 c0 a8 3d c3 c6 d1 bd
       -0.108905695 -0.31344768 0.08239775 -0.10242989
0002f0 f9 35 53 be 93 7e 0b be cd ff 2a be f9 1b 27 bb
       -0.20626058 -0.13622503 -0.16699143 -0.002549885
000300 e0 23 ca 3c 66 71 6d bc 99 d3 aa bd 48 1f 8a bd
       0.02467531 -0.014492368 -0.0834114 -0.06744248
000310 4c f7 b0 bd 2f 93 58 3d 79 64 ce bd 92 c2 ed 3c
       -0.08640918 0.05287474 -0.100777574 0.029023442
000320 19 79 35 be e7 ff 7e bd 53 c3 9f 3d 46 f9 cc bc
       -0.17721976 -0.062255766 0.07800927 -0.025021207
000330 00 dd 38 bd 7d 30 40 bd 74 0d fe bc ab 12 16 bf
       -0.045132637 -0.046921242 -0.031012274 -0.58622235
000340 4b 4e e6 be ff d7 e6 bd 2b 8d cd bd f4 30 97 bd
       -0.44981608 -0.11271667 -0.10036691 -0.07382384
000350 fd 8a c9 bd 86 67 7a 3c 45 39 6c be f6 d9 0e be
       -0.09840963 0.015283471 -0.23068722 -0.13950333
000360 c0 da 72 bd 24 55 db be a1 7c f4 be a8 b1 a7 3d
       -0.059290648 -0.42838395 -0.47751334 0.08188182
000370 33 49 33 bd 24 c6 85 bd 51 6f 04 bf 43 b3 84 3d
       -0.04377098 -0.06531933 -0.51732355 0.06479504
000380 ff ac e0 bd 22 bb 6d 3d 29 ff 92 bd 02 8c d9 be
       -0.109704964 0.058039792 -0.07177574 -0.4248963
000390 12 80 3d bf 2b 96 e6 bc 25 91 90 bc ac cb 9c 3b
       -0.74023545 -0.028147778 -0.017647335 0.0047850218
0003a0 6b 2f 86 3d 96 b1 a1 bb 49 56 7e bd 96 a9 b0 bd
       0.06552013 -0.0049345 -0.062094007 -0.08626096
0003b0 8b 37 10 3d ef fe 9e 3d 0a f6 c3 bd d5 c8 e5 bd
       0.03520922 0.077634685 -0.095684126 -0.11219946
0003c0 ab fc de be e3 20 c4 bd 7f 67 3d 3c 4f d1 43 3c
       -0.43552145 -0.09576585 0.01156032 0.0119517585
0003d0 b8 93 8c 3d 08 01 e1 3c 67 49 ed 3c de 12 9f be
       0.068641126 0.027466312 0.028965665 -0.31069082
0003e0 72 bc fb 3c 3e 2b d0 bc fa 17 4c bd 56 8c c2 bd
       0.030729506 -0.025411244 -0.049827553 -0.09499423
0003f0 6f d1 d3 bc 0b ba 28 be 03 97 0a 3d f1 4e ad bc
       -0.025856702 -0.1647722 0.033835422 -0.021155806

encoder.2.bias f4 [128]
000000 a6 dc 5b 3d d8 a2 31 bc 10 6d 84 bd 4f 4d 68 3d
       0.053677224 -0.010842048 -0.064661145 0.056714352
000010 28 fb 00 bf 1c 66 e1 3c e7 97 7a bd 20 56 49 bd
       -0.50383234 0.02751451 -0.06118002 -0.0491544
000020 25 59 97 ba 9f e9 d7 bc 8f f8 c6 bd ee bc e4 be
       -0.0011546953 -0.026356516 -0.097153775 -0.44675392
000030 95 a1 cf bd 8d dc c7 bd d8 47 05 3e 17 4b 19 3d
       -0.10138241 -0.097588636 0.13015687 0.037425127
000040 3f 88 7d bc eb 48 b1 bd 71 b1 30 3b a8 40 05 be
       -0.015474378 -0.08656486 0.0026961232 -0.13012946
000050 5f c3 78 3c 31 e2 08 be 03 1f 43 bd ba a3 c7 be
       0.015183299 -0.13367535 -0.047636997 -0.389921
000060 c8 e1 f4 bd b2 d5 c5 bd 72 08 8f bd 9c 78 2f 3d
       -0.11957127 -0.096599 -0.06984033 0.04283963
000070 0c 63 43 bd 9a f2 95 3d 3c 2b f3 bd 98 32 e2 be
       -0.04770188 0.07321663 -0.11873481 -0.44179225
000080 53 c6 46 be a4 69 ed bd 91 e6 a4 bc 15 fd 90 be
       -0.19411592 -0.11592415 -0.020129474 -0.28318086
000090 80 87 f3 be b7 cf 35 be ac da 90 3b 11 6d a8 be
       -0.47564316 -0.17755018 0.004420599 -0.3289571
0000a0 73 b1 00 bd 11 4f 21 be dc 31 92 bd 42 9e 30 3d
       -0.03141923 -0.15752818 -0.07138416 0.043119676
0000b0 92 8a 19 bd 21 4e 06 be 8b 6c a3 bd 57 c2 a7 bd
       -0.037485667 -0.13115741 -0.07979687 -0.08191364
0000c0 c2 fa 0d bf 1c 64 83 3c 41 c7 ca bd 4f a5 84 bd
       -0.5546075 0.016038947 -0.09901286 -0.064768426
0000d0 fb 60 86 be 00 d5 2e 3a d9 6f bf bd b1 f9 a6 bd
       -0.26245865 0.0006669313 -0.09347505 -0.081530936
0000e0 31 20 c1 bd b8 6a ef bd 55 37 0a bd 19 b3 80 3c
       -0.09429968 -0.11690277 -0.033744175 0.0157104
0000f0 84 a7 8a bd 46 79 8d bc 52 e3 19 bd eb 75 48 3d
       -0.06770232 -0.017269742 -0.037570305 0.04894058
000100 91 04 8f 3c de f1 85 bd ee 8b 05 be ab a1 5b bd
       0.017458232 -0.06540273 -0.1304166 -0.053620975
000110 8b 5c 1e 3d e3 aa d0 bd 8c 13 6b 3b 37 eb d6 bd
       0.038662475 -0.10188844 0.0035869805 -0.104940824
000120 3f fe 7f bd 60 f2 2d 3d cd 7b 17 be 5c 32 a4 bd
       -0.062498327 0.042467475 -0.1479332 -0.08017418
000130 d2 0b be bd 50 0c 70 be 0b 9f df be c1 92 5e bc
       -0.09279598 -0.23442197 -0.43676028 -0.013584794
000140 8d 09 0f be a5 44 ee bc e4 5a f2 3b 1b 4d 2d bc
       -0.13968487 -0.029085467 0.007396089 -0.010577465
000150 53 93 25 3d b5 8e 0e bf 47 c8 10 3d c7 0d b7 bc
       0.040423702 -0.55686504 0.03534725 -0.022345437
000160 06 0c 9e bd ef 77 61 bd bd 13 dd bd 2c 53 09 be
       -0.07717137 -0.05504602 -0.107947804 -0.13410634
000170 88 c2 12 bd 74 d6 ae bd fe 68 b3 be 1e 53 b3 bd
       -0.03583005 -0.085369974 -0.3504104 -0.08756088
000180 3e 0d c5 bd f7 b2 44 bc 9a f2 e3 bc 2a ea 1a bd
       -0.09621666 -0.012005559 -0.027825642 -0.037820973
000190 30 8b 2b 3c 72 23 8c bd c4 75 c8 bd 36 91 b6 bd
       0.010470197 -0.06842698 -0.09788087 -0.089144155
0001a0 7c 91 75 bc 24 96 68 3d 92 3b 6e be 1a 9a f9 bd
       -0.014988299 0.05678381 -0.23264912 -0.12187596
0001b0 a7 95 80 3c e5 50 05 be 27 46 80 bd d3 6c fd be
       0.01569636 -0.1301914 -0.062633805 -0.4949709
0001c0 6e 55 a6 bd 06 ed 0a 3d b6 c7 07 be 9e b8 74 be
       -0.08121763 0.03391745 -0.13259777 -0.23898551
0001d0 2d da 12 3d c0 a2 48 be 14 50 3c 3d 3c 2d 81 be
       0.0358526 -0.19593334 0.045974806 -0.25229824
0001e0 b9 a1 6b bc 61 34 bc bd 0f 40 6a bc 8f fd 41 bd
       -0.014381819 -0.09189678 -0.014297499 -0.047360953
0001f0 18 6d 82 3c a4 b5 11 3d 6e 1a 89 3b ec 94 21 3d
       0.01592116 0.035573617 0.004184059 0.039448664

encoder.4.weight f4 [128, 128]
000000 58 10 50 bc 75 f9 8b bc c0 63 f0 bc d8 61 cf bb
       -0.012699209 -0.017086724 -0.02934444 -0.0063288026
000010 44 4c b2 bd 37 f0 0a 3d f8 2a 54 3d e0 31 f2 bc
       -0.08705953 0.033920493 0.05179879 -0.029564798
000020 d1 e9 a2 bd 85 1b 56 3c ea 5f 75 3d 6d 73 60 bd
       -0.07954753 0.013068085 0.059905924 -0.05479758
000030 c8 35 cd bc 58 76 20 3c 1e 3f ec 3b 85 30 30 3d
       -0.025050059 0.00979384 0.0072096726 0.04301502
000040 2d 77 f2 3a 29 7e 90 bd 3a ee 06 bd c6 64 a7 bd
       0.0018498652 -0.07055313 -0.032942034 -0.08173518
000050 56 f1 47 bd 5e 0a d9 bd f5 64 ad 3d 04 ca a2 bd
       -0.04881414 -0.105976805 0.08466522 -0.07948688
000060 13 33 fb bc 61 c5 4e bc 38 74 b3 bd 75 1d e4 bd
       -0.030664003 -0.012620301 -0.08762401 -0.11138431
000070 de 41 88 3d c2 a7 aa bd 47 25 7e bc 13 0a 97 bd
       0.06653188 -0.083327785 -0.015511817 -0.073749684
000080 4c fc 53 bd 2e e2 90 3b 35 90 3b 3d c4 f1 d5 bc
       -0.05175428 0.004421494 0.045791823 -0.02611626
000090 5f d9 94 bd 43 f8 ce bd bb a7 bf bd fd b5 bc 3c
       -0.07268023 -0.10105946 -0.09358164 0.023035998
0000a0 5e 04 a2 3c d5 5e 94 bd 18 45 5f bd 55 35 ae bc
       0.019777473 -0.0724465 -0.054509252 -0.021265665
0000b0 a6 cf 81 be 91 f4 87 3d f9 67 0c 3d eb 60 d8 3c
       -0.25353736 0.06638444 0.034278844 0.026413402
0000c0 c9 3e d5 3b 4f 65 6d 3b 2a 5b 90 bd 21 4e a8 bd
       0.0065077287 0.0036223715 -0.07048638 -0.08218027
0000d0 85 c2 7a 3c 83 0f 9c 3d 88 0e ca bd 97 6a e5 bd
       0.015305166 0.07620146 -0.09866053 -0.11201971
0000e0 04 53 c9 3c ac 44 85 bd ab 56 33 bd 30 d7 67 bd
       0.024575718 -0.06507239 -0.043783825 -0.056601703
0000f0 54 07 88 bc dc 5a bd bc 6e 70 f3 3b 2b f0 8c 3d
       -0.016605057 -0.023114614 0.007429174 0.06881746
000100 34 92 3b bb 08 65 cb bd 01 5f 4b 3d a9 22 57 bd
       -0.002862108 -0.099313796 0.04965115 -0.05252329
000110 b0 16 65 3d b1 a8 b2 3d 20 bf 0e bc 11 cf 4f 3c
       0.05592984 0.087235816 -0.00871256 0.012683646
000120 87 72 86 39 a8 32 38 bd 5b 02 16 bc 5a ac 6a bd
       0.000256438 -0.044970185 -0.009155835 -0.057293274
000130 da 6c 34 3c b7 fe 84 bc ff d5 b0 bd 9b b8 f7 bd
       0.01101228 -0.016234739 -0.086345665 -0.120957576
000140 35 be a0 bd 5c 81 d2 bd 77 2f 88 3d dd 08 2d bd
       -0.07848779 -0.102785796 0.06649678 -0.04224478
000150 ac 76 60 bd 4a 0f a2 bd 11 dc 15 3c a7 32 dc 3b
       -0.054800674 -0.079130724 0.009146706 0.0067199054
000160 23 65 5b bd 80 4c f0 3a 3f 3d 95 3d b4 f1 f6 bb
       -0.05356325 0.0018333346 0.072870724 -0.0075361375
000170 c3 2b 82 bd a6 ea 1e bc dc 47 31 bd 26 ce c9 bd
       -0.06356003 -0.009699499 -0.04328142 -0.09853773
000180 b9 7a 60 bd 1d 59 99 bd 66 87 b1 bc aa 0c 57 bc
       -0.054804537 -0.074877 -0.021671008 -0.013125578
000190 55 88 5e bd 6b aa 9a bd ba 62 2e bd 8b 75 cd bc
       -0.054329235 -0.07552036 -0.04257462 -0.025080463
0001a0 fb 2b 2c 3c d8 b7 72 bd cd 24 7a bd 57 8c 15 be
       0.010508533 -0.05925736 -0.061070252 -0.14604317
0001b0 34 16 9c bd ff 1a eb bd 5c b7 c1 3a 65 7f a6 bd
       -0.076214224 -0.114797585 0.0014779377 -0.08129767
0001c0 9f 71 a5 bc 74 0c 3b bd f8 d8 78 bd 3c c8 84 3d
       -0.02019578 -0.045666173 -0.060753793 0.06483504
0001d0 cb b4 93 3d 0e 22 e2 bc 05 77 8d bd a7 ca 38 bd
       0.07212218 -0.02760413 -0.06907467 -0.04511514
0001e0 c9 52 53 bd 3c dc f1 bc de 21 61 bd 83 1a 88 3c
       -0.051592622 -0.029523961 -0.05496394 0.016614204
0001f0 04 6f e7 bd 02 38 b8 bd 2e d5 d0 bd fd f1 8e bd
       -0.113004714 -0.08995058 -0.10196911 -0.06979749
000200 d3 02 e9 bd f7 7f c7 bd a0 b6 d3 bc 5e 66 e6 bc
       -0.11377492 -0.09741204 -0.025843918 -0.028124984
000210 1f 99 b5 bd 67 53 f4 bb c4 06 d7 bd 3a c0 c2 bd
       -0.08867096 -0.0074562314 -0.10499337 -0.095093206
000220 ed 21 7d 3d 7c 39 87 bd f2 ea ab bd 24 24 41 3d
       0.061799932 -0.06602761 -0.08394422 0.047153607
000230 3c 5d d0 3c 5c 63 bf bc d6 4e 16 be 8e 1e f6 bd
       0.025435083 -0.023362808 -0.14678511 -0.120175466
000240 1f 78 19 bd a8 88 0d be 20 24 83 bc 9c 46 91 bd
       -0.037468072 -0.13821661 -0.016008437 -0.07093546
000250 be 47 35 3d 18 ed 9a 3d 17 80 1a 3d 04 e4 89 3c
       0.04425787 0.07564753 0.037719812 0.01683236
000260 9e c2 60 3d 23 8b 1c 3c a0 69 d3 bb 5e ea 02 be
       0.0548731 0.009554657 -0.0064518005 -0.12784716
000270 3d 5d 9d 3d b4 34 6d be 71 31 86 3d c6 75 ab bd
       0.076837994 -0.23164636 0.06552399 -0.08372073
000280 62 36 49 bd 1d 7f 91 3c 9f bc c4 bc 27 35 82 3b
       -0.04912413 0.017760808 -0.024015723 0.0039736214
000290 ba 98 88 bd cf 52 f8 3c a7 0d 8b bd 63 a4 9d 3d
       -0.06669755 0.030312924 -0.06789713 0.0769737
0002a0 3d 80 d8 bd 25 f1 c4 3b 3a 3e c9 bc 3c 38 c7 bd
       -0.105713345 0.006010192 -0.024565805 -0.09727523
0002b0 3d c0 80 be 4c 7f 36 bd 1e a9 d5 bd fb 6f 3f bd
       -0.25146666 -0.044554994 -0.10432647 -0.046737652
0002c0 bf 4f 84 3d 5e 31 4d 3d 4a cd 96 bb 9d a6 8f bd
       0.06460523 0.05009591 -0.004602109 -0.07014201
0002d0 62 1e dd 3b c0 86 a8 3c 90 03 f3 3b af d0 a2 bd
       0.0067480067 0.020572066 0.007416196 -0.079499595
0002e0 6c c3 31 3c e2 90 ef 3c da b8 47 bd da 33 68 bc
       0.010849815 0.02924389 -0.048760273 -0.014172519
0002f0 15 75 55 3d 21 49 bd bd f1 25 8b bc 3a 8b a4 bc
       0.05211361 -0.09242464 -0.016985865 -0.02008592
000300 00 0c c7 3c 4f e0 3e 3c ca ed 8c 3b b1 09 2b 3d
       0.024297714 0.011650159 0.0043008076 0.04175729
000310 63 2a f5 3c fc 58 a0 bd 03 28 90 bd cb 25 0b 3d
       0.029927438 -0.078294724 -0.07038882 0.03397159
000320 4f 0a 21 3d 6a 3b 00 be d7 12 2e bd 66 f2 34 3d
       0.03931647 -0.12522665 -0.042498436 0.04417648
000330 46 be 06 bd e4 5d 54 3d eb 62 92 3d f2 d5 ed bc
       -0.032896303 0.051847354 0.07147773 -0.029032681
000340 01 ba 3c 3d 6e 50 b2 bd 9a 48 69 bd 5a 9f ca bd
       0.046075825 -0.08706747 -0.056954004 -0.09893675
000350 ed ec 11 bd 9e 22 8c 3d 88 6a 1d bc 6d 5d a7 bd
       -0.03562634 0.0684254 -0.009607919 -0.081721164
000360 02 e0 11 bd 6b 27 14 3d 03 33 39 bd ac 1b da bc
       -0.03561402 0.036170404 -0.045214664 -0.026624523
000370 78 9f 83 bd 8e 5c 34 3d 40 c7 a1 bd e1 2c 37 3c
       -0.064269006 0.04403358 -0.07899332 0.011180134
000380 38 1e 59 3c 15 03 0f 3d bc f2 06 3d 1c aa 30 3d
       0.013251834 0.03491505 0.032946333 0.04313098
000390 24 37 fa 3c 5d 13 0b be 67 dc 56 3d ea 28 87 bb
       0.030543871 -0.13581605 0.052456286 -0.0041247504
0003a0 07 5f 96 bd 66 16 cb bc 52 dc a3 bd e0 27 1e be
       -0.07342344 -0.024790954 -0.08001007 -0.15444899
0003b0 ce 7b 08 bd 06 c8 2f 3d dc 10 3a 3c 4d 2d d8 3c
       -0.033321194 0.042915367 0.011356559 0.026388789
0003c0 72 7f 9e 3d 2f 37 a8 bd 63 ef ed bc ea 6d 49 be
       0.07739152 -0.082136504 -0.029044813 -0.19670835
0003d0 4c 40 b7 bd 7d 18 a8 bc 2b 00 86 bd 36 14 c1 bb
       -0.089478105 -0.02051949 -0.06543001 -0.005892302
0003e0 73 e9 e7 bc 14 35 8b 3c 68 15 c1 3d 1b 90 f4 3c
       -0.02830956 0.016993083 0.09427911 0.029853871
0003f0 aa 06 a2 3c 41 de 80 bd 3b 00 b5 3c 01 3a 09 be
       0.019778568 -0.062923916 0.022094836 -0.13401033

encoder.4.bias f4 [128]
000000 b8 99 48 bd bd 4e cd be 79 e5 d3 bd cc 9d b4 bd
       -0.048974723 -0.40099135 -0.10346503 -0.0881916
000010 97 db 0b bd 41 9b 23 bb d7 89 0d be 78 5d f8 bc
       -0.034144964 -0.0024964365 -0.13822113 -0.030318007
000020 86 a3 e5 bc fd c6 fc 3d a5 f4 c4 bd c2 8c 58 bd
       -0.028032076 0.123426415 -0.09616975 -0.052868612
000030 53 ac 31 be 57 0b 20 be 37 23 d2 bd 65 9f 1b bd
       -0.17350893 -0.15629326 -0.10260623 -0.037993807
000040 84 d1 15 3e e5 ab c7 bd 37 ab 90 bd 0f 30 a4 bd
       0.14630705 -0.09749583 -0.07063907 -0.08016979
000050 bc 8b 84 bd dc 7a 04 be 4c 90 65 3e 9f 24 5e 3e
       -0.06471965 -0.12937492 0.22418326 0.21693657
000060 1a 14 bc bb 71 e7 73 3e fc f7 57 bc 92 c3 31 be
       -0.005739701 0.23818757 -0.013181683 -0.1735976
000070 50 89 30 be 05 25 14 bd 45 2c 19 bd 3b 6a b0 3d
       -0.1723988 -0.036168117 -0.037395734 0.08614012
000080 98 74 ac bb 3d 21 82 be 19 6e bd bd 0a 9d ed bd
       -0.0052629225 -0.25415984 -0.09249515 -0.116022184
000090 8c 5f 0d be 2c 0e de bd 2d b9 8f bb c7 15 5f bd
       -0.1380598 -0.10842547 -0.0043860883 -0.054464128
0000a0 46 86 8f be b8 82 d0 bd 6e 19 ce bd 2a 34 5e bb
       -0.2803213 -0.101811826 -0.10063444 -0.0033905604
0000b0 2c 82 fa 3d 6b 85 7d bd 44 97 01 bb e1 be 04 bf
       0.122318596 -0.061894815 -0.0019774 -0.5185376
0000c0 f1 dc a7 bd 84 6b be bc 16 67 f3 bd 46 42 12 be
       -0.08196438 -0.023244627 -0.118848965 -0.14283094
0000d0 25 d3 03 be 76 86 b1 3e 3a af 9a bd bd 8d d1 3d
       -0.12873514 0.34672898 -0.07552953 0.102321126
0000e0 6b 10 12 be f0 77 7f bd 57 26 5d be b7 15 20 be
       -0.14264075 -0.06237024 -0.21596657 -0.15633284
0000f0 62 77 16 bd c9 b7 83 bd 2e 0f 25 be 0f dc ad bd
       -0.036734946 -0.064315386 -0.16119072 -0.084892385
000100 a0 83 a2 be 1d 12 bd ba f7 ca a7 bd 45 1b d2 bc
       -0.31741047 -0.0014424954 -0.08193009 -0.025647769
000110 0f f4 4e bd 36 bb d1 bd c2 5f 04 bd 0c 5c c2 bd
       -0.05052572 -0.10240786 -0.032317884 -0.09490213
000120 5a a2 ff bd 8c 62 be be ea 36 fd bc 5e e6 05 be
       -0.12482138 -0.3718456 -0.030909974 -0.1307616
000130 90 0c c8 3c bb 3a 75 be 22 23 ad bd 6c ed 37 bd
       0.024420053 -0.23948185 -0.08453967 -0.044904158
000140 95 c2 3f be 79 75 42 bd 56 1f a6 bd 7d 9d e1 bc
       -0.18726571 -0.047475312 -0.081114456 -0.027540917
000150 fa f6 64 be 53 26 80 be 61 cf eb bc 82 d9 35 bd
       -0.22359839 -0.2502924 -0.02878541 -0.044396885
000160 78 95 bb be ca 73 a2 bd 26 43 80 3e af 03 10 bf
       -0.36637473 -0.07932241 0.2505123 -0.5625562
000170 25 f7 e2 bd f1 ba fe bd b4 e6 83 bc 48 b7 50 be
       -0.11082295 -0.12438 -0.016101219 -0.20382416
000180 e9 e4 85 3e 07 08 93 bc f3 e1 ca bd 03 33 17 be
       0.26151207 -0.017948164 -0.09906378 -0.14765553
000190 c6 2b 0d 3d c4 55 75 be 08 5e 34 bd ce 49 e1 bd
       0.034465574 -0.23958498 -0.044034988 -0.11000405
0001a0 f2 48 0c bd b9 5b f7 bd cf 6c 02 3e d4 ec 56 be
       -0.034249254 -0.120780416 0.1273682 -0.2098878
0001b0 66 9b 00 be 2e 77 d6 bd b4 d3 aa bd 9a 79 91 be
       -0.1255928 -0.104719505 -0.083411604 -0.28413087
0001c0 08 d1 ee bc e6 02 00 be c8 32 eb bd 6d c7 b6 bd
       -0.029152408 -0.12501106 -0.11484295 -0.08924756
0001d0 6d fd f8 bd 91 2b 94 bd 44 c5 f7 bd 03 9e 36 bd
       -0.12157712 -0.07234872 -0.12098172 -0.044584285
0001e0 45 9c b2 bd fe d2 68 ba 0e 80 e4 bb d3 6d ae bc
       -0.08721212 -0.0008881538 -0.006973273 -0.021292603
0001f0 59 53 31 bc 10 66 cc bd df 2d 0d ba 86 f1 ad bd
       -0.010823094 -0.099804044 -0.00053855585 -0.084933326

encoder.6.weight f4 [128, 128]
000000 d4 db d5 3c c5 51 4e 3d 3b 53 0e bc 32 ee a1 3d
       0.026105799 0.05037095 -0.008686836 0.0790676
000010 5d 37 14 3d 6a 17 9f 3d 64 94 15 bd 53 e8 3d 3d
       0.03618561 0.07768138 -0.03651847 0.04636414
000020 ca 25 03 bc 65 61 b8 bd 25 08 bf 3b e0 02 31 bd
       -0.008004615 -0.090029515 0.0058298283 -0.043215632
000030 4c 32 e6 bd b4 66 71 bd d4 bd 40 3d e3 ca a9 bd
       -0.11240062 -0.058935836 0.047056034 -0.08290651
000040 ed 46 ad bd 3e f0 04 be ab 4c 9e 3d dc b3 90 bd
       -0.08460794 -0.1298227 0.07729467 -0.070655555
000050 1f b2 4f bd 00 31 ad 3b d0 77 ce 3d 14 2a 3d 3d
       -0.05070698 0.0052853823 0.10081446 0.046182707
000060 e6 52 21 bc 60 9d 81 bb e5 0d 2b 3c 4b 9f a5 bd
       -0.009846425 -0.003955528 0.010440324 -0.08087023
000070 5f 55 4f 3d 24 cb 47 bb d6 5f ad 3c 51 97 a2 bd
       0.050618526 -0.0030486071 0.021163862 -0.079390176
000080 64 e3 90 bd 7d ef 74 3d a5 07 5f bb 1a 0e 13 3c
       -0.07074621 0.059798706 -0.0034031656 0.00897553
000090 f0 f6 cc bc 82 78 a5 bc 13 28 d5 bc 58 75 ba bc
       -0.025020093 -0.020199064 -0.026020085 -0.022761032
0000a0 3e 84 05 be b9 b3 11 3e b3 d7 71 3d 01 fd ff 3b
       -0.13038728 0.14228715 0.059043597 0.007812143
0000b0 2d 28 46 bd da 84 3e bd a2 ad c1 3d 0a d9 82 be
       -0.04837816 -0.046513416 0.09456946 -0.25556213
0000c0 38 a3 02 be a9 6c 51 3d bc 35 b2 bc e0 08 e2 be
       -0.12757576 0.051129017 -0.021754138 -0.44147396
0000d0 da c1 94 3d af 5f d4 3d 20 b0 ca 3c 63 d8 70 bd
       0.07263537 0.10369813 0.024742186 -0.058800112
0000e0 67 91 48 bc 05 2c 84 3d ec 2b 28 3d 99 3e ce 3d
       -0.012241698 0.064537086 0.041057512 0.10070533
0000f0 49 ce 2a bd e2 7a 02 bd 8b 42 ab bd df 64 00 bd
       -0.041700635 -0.03185547 -0.083623014 -0.0313462
000100 77 49 ce be 93 a4 95 bc 2b 5c f4 bd 1d a1 92 3d
       -0.40290424 -0.018266952 -0.11931642 0.07159636
000110 67 da f3 bc df 4a 77 3c 6d db 17 3c 6f 9a 1b 3d
       -0.029767228 0.015093534 0.009268624 0.037989076
000120 37 cd 21 be af aa 20 be 4b f1 eb bd 7a f0 47 bd
       -0.1580094 -0.1569011 -0.11520632 -0.04881332
000130 bc 0b cf 3c 76 46 0d bd 24 08 66 bd a6 1e 70 3d
       0.02527415 -0.034491025 -0.056160107 0.05862298
000140 57 f4 c7 bd 2f 3d 63 3b 5d 14 48 3d 23 02 4a bd
       -0.09763401 0.003467392 0.048847545 -0.049318444
000150 ac e3 eb bd 2a 38 45 bc 03 ab 79 3c 47 10 19 3d
       -0.11518034 -0.012037316 0.015238526 0.03736904
000160 17 83 ed 3b 4b 9f 12 3c e7 89 0d 3c 8f e0 53 3d
       0.007248293 0.008949111 0.0086388355 0.051727828
000170 94 ab 0d be 48 67 2c 3d 90 b6 ac bc 7b 72 4e 3d
       -0.13834983 0.042090684 -0.021083146 0.050402146
000180 a9 61 f0 bc 16 31 67 3d 1e 37 87 3d 1f ce a7 bd
       -0.029343443 0.056443296 0.0660231 -0.08193611
000190 65 3c 82 be 48 73 80 3d be 94 94 3d 95 ec 87 bc
       -0.25436702 0.06271988 0.07254933 -0.016592303
0001a0 ad 91 3e be 8b bb 6e bd 81 bc b5 3d 78 89 dd bd
       -0.18610258 -0.058284324 0.08873845 -0.10817236
0001b0 86 0a c9 bd e4 db a1 3c a7 ff 7e bd 2a e6 2a bd
       -0.0981646 0.019758172 -0.062255528 -0.041723408
0001c0 23 92 8e bd a6 31 1c be 08 42 76 3d 9f 7e 9f bd
       -0.06961467 -0.15253314 0.060121566 -0.07787823
0001d0 97 88 ed bd 2f 31 7e bc c7 a3 75 3d 3f 4b 7e bc
       -0.11598318 -0.015514656 0.059970643 -0.01552087
0001e0 f3 08 42 3d 67 9b ad 3d 00 79 89 bd 72 e2 a3 3c
       0.047371816 0.08476906 -0.06712532 0.020005438
0001f0 13 a9 13 3d 11 35 69 bd 76 54 ae 3d b7 73 3d 3c
       0.036049914 -0.056935374 0.085122034 0.011563233
000200 1c 57 50 bc 8c 00 e5 3d 1c 59 a3 bd 4a 48 81 bd
       -0.012716081 0.11181745 -0.07975981 -0.06312616
000210 23 9e 99 3d ba ab 4e bd 61 83 ac 3a 90 02 94 bd
       0.07500865 -0.05045674 0.0013161713 -0.07227051
000220 ba 45 3a bd 95 80 d3 bd 86 14 53 3d a2 d4 01 3d
       -0.045476653 -0.103272595 0.051533245 0.031696923
000230 5f 2e 90 bc be 45 5b bd 36 39 62 bd c5 1d 41 bd
       -0.017600236 -0.05353331 -0.05523034 -0.04714753
000240 47 22 2f bd 2c c9 17 3b 60 a9 11 bd 27 e1 03 3d
       -0.0427573 0.002316068 -0.03556192 0.032197144
000250 6e 2c 30 bd 5a bc 51 bd d3 11 e4 bd 9f 29 d0 3c
       -0.04301112 -0.051205017 -0.11136212 0.025410471
000260 13 98 96 bd 8f 98 cf bc 29 5a 30 3d 10 fd 50 3d
       -0.073532246 -0.0253413 0.043054733 0.05102259
000270 f5 e1 1c 3d a6 ba d0 3d 68 0b 2b bd 44 a3 2f be
       0.038301427 0.1019185 -0.041758925 -0.17152125
000280 63 ae c8 bd 6c fd aa bd b2 d2 81 bc 64 9c 73 3d
       -0.097988866 -0.08349118 -0.015847538 0.059475318
000290 3f 08 25 bd c9 01 92 3d f2 50 51 bd 09 95 85 bd
       -0.040291067 0.07129247 -0.051102586 -0.06522567
0002a0 21 24 03 3d 9c 54 c5 bc 31 8f 3d bb a9 7a 72 bd
       0.032016877 -0.024088196 -0.002892446 -0.05919901
0002b0 fc af ce bd 29 5a d1 bd cf de c0 bd 94 6d 10 3e
       -0.1009216 -0.10222275 -0.09417497 0.141043
0002c0 54 61 9b bb df a2 8f 3d 14 28 a9 3c 63 fb 2f ba
       -0.004741827 0.07013487 0.020648994 -0.000671318
0002d0 15 ae d4 3b 9c bd 09 bd 19 f5 8b bd 9c 95 0c bd
       0.0064904788 -0.03362809 -0.06833858 -0.034322366
0002e0 98 de d4 bc 6f 28 ad b9 4c f9 55 3d 03 9b 22 3c
       -0.025985047 -0.00033027257 0.0522397 0.009924653
0002f0 2c 3a c1 bc e1 ab 2f 3d c7 17 01 3d 9c fe b1 3d
       -0.023587309 0.042888526 0.031516816 0.08691141
000300 c4 06 de bc f7 4a d0 3c 58 e8 30 be 06 f5 8a bd
       -0.027102835 0.025426371 -0.17276132 -0.06785016
000310 5c bb 87 bd 7e cc 4f bc 1a 9c be 3d eb 5b 52 bd
       -0.06627533 -0.012683032 0.09307118 -0.05135719
000320 d9 59 92 bc b0 6a ef bd 0f 30 06 be 59 ab 84 3d
       -0.017865108 -0.11690271 -0.1310427 0.064779945
000330 c1 13 f8 bd c5 99 24 3c b2 a4 88 3d c3 60 01 3c
       -0.12113143 0.010046427 0.06672038 0.007896605
000340 f8 6d 3d bd ee de 19 be c4 51 7e 3d 29 bf 4a bd
       -0.046247452 -0.15026447 0.062089697 -0.04949871
000350 7a 1d 8e 3d 06 99 35 bd 99 43 8d 3d 8f 74 15 3a
       0.06939216 -0.044335388 0.06897659 0.00057012675
000360 58 69 7c bd 74 07 62 3d 19 dd b7 bd a2 11 91 bd
       -0.0616239 0.05518289 -0.08977718 -0.07083441
000370 02 21 11 3d 52 c7 3c 3d 1f fb a9 bd ab 5a e0 3c
       0.03543187 0.046088524 -0.08299851 0.027386984
000380 55 11 ca bc 40 7a 99 3d 39 1b f0 bd ce 4e 5d bc
       -0.024666468 0.074940205 -0.11723942 -0.013507558
000390 c8 ba 4a bd a0 be 9e bd 4b 6e 17 3d f6 13 e8 bc
       -0.049494535 -0.077512026 0.036970418 -0.02832983
0003a0 ea e2 96 bc c5 a0 5c 3d 0e 28 81 bc c2 f9 e0 bb
       -0.018418748 0.05386426 -0.01576617 -0.006865711
0003b0 bc 45 85 bc 37 53 17 ba 05 01 bb 3d 30 9c 29 be
       -0.016268604 -0.0005772593 0.09131054 -0.16563487
0003c0 a0 79 c4 bc 58 34 13 3c 66 fb 99 bc 52 d5 e1 bc
       -0.023983777 0.008984648 -0.018796634 -0.02756754
0003d0 4b 63 b2 3d b4 e3 c3 bd 71 7d be bd 83 77 8e bd
       0.08710345 -0.09564915 -0.0930127 -0.06956389
0003e0 91 50 a1 3d 05 90 69 be e0 f1 96 3d db 41 d8 bd
       0.07876695 -0.22808845 0.07370353 -0.10559436
0003f0 47 b0 e9 bd f1 18 4c 3d 02 bc cc 3b e9 bd a2 3b
       -0.11410575 0.049828473 0.006247998 0.0049664867

encoder.6.bias f4 [128]
000000 97 f4 61 3e 31 17 15 3e 17 b2 45 bd 3c fb 8b bd
       0.2206596 0.14559628 -0.048265543 -0.068350285
000010 66 6b ec 3b 56 0e d6 bd de b1 b1 bd 95 a2 23 3e
       0.0072149513 -0.10451953 -0.086765036 0.15979989
000020 cd bc b6 3d 46 21 93 bd 44 61 05 3e 63 06 70 be
       0.0892273 -0.07184081 0.13025385 -0.23439936
000030 d1 f6 4a 3d 2b ad 21 3e 68 f5 a4 bd f8 31 eb 3c
       0.04955179 0.15788715 -0.0805462 0.02871035
000040 bb c5 41 3d 68 c0 e1 bd ae 72 47 3e 4b 9e 6c be
       0.04730771 -0.11023027 0.1947734 -0.23107259
000050 4a e5 9b bd 08 24 b5 3a 3d 46 51 3e c6 74 8d bc
       -0.07612093 0.0013819942 0.2043695 -0.017267596
000060 e4 16 98 3d a9 a9 69 3c 92 31 33 be 2f 93 7c 3c
       0.07426241 0.014261642 -0.17499378 0.015415951
000070 b5 ad 38 be c7 a4 0a bb 16 9a 90 3b 94 c8 7b 3e
       -0.18035014 -0.0021155344 0.0044128997 0.24588233
000080 53 ee 12 be 35 11 46 be f2 f8 ab 3d 88 02 b5 bd
       -0.14348726 -0.19342501 0.08397092 -0.088383734
000090 10 70 78 3d cb 52 f9 3d 3f f2 6e be 48 6d 1a 3c
       0.060653746 0.12173995 -0.23334597 0.009425469
0000a0 34 6f 9f bd c5 70 27 3e f9 2f 42 3e 93 04 40 3d
       -0.07784882 0.16351612 0.18963613 0.046879362
0000b0 ee b9 5c 3c 8d e1 05 3e ce 88 f3 bd d7 0b 20 bd
       0.0134720635 0.13074322 -0.11891328 -0.03907379
0000c0 bc 6e d9 bd d5 79 c8 bd fd a9 f0 3d 6b 4f e8 bc
       -0.10616824 -0.097888626 0.11751173 -0.028358182
0000d0 4f dc 02 be ab 59 50 3e 8a 8f 46 3e 20 17 21 be
       -0.12779354 0.20346706 0.19390693 -0.15731478
0000e0 c1 b9 47 be 92 b1 da 3d 97 3e 64 3d 8b d8 10 3e
       -0.19504453 0.106784 0.055723753 0.14145105
0000f0 91 a6 52 bd b9 61 0c bc 66 9d 32 3e 36 84 2a bc
       -0.05142838 -0.008568221 0.17442855 -0.010407498
000100 a2 7c 26 3d 3d 42 6b bd d8 05 bd 3c a5 99 51 bd
       0.040646203 -0.057436217 0.023074076 -0.051171917
000110 94 07 51 bd c4 72 e4 3d 1e e8 33 3e ab a7 3c 3e
       -0.051032618 0.11154702 0.17569014 0.18423335
000120 9d 9f 12 3e aa 36 15 bd 29 ad 6d 3d 82 91 86 bd
       0.143187 -0.036429085 0.058026467 -0.06570722
000130 f8 ff 87 bd 62 b9 cc 3d ba 75 cc 3c cd 07 27 bd
       -0.06640619 0.099962965 0.02495848 -0.040778924
000140 9b e2 30 bd be 79 27 3d 1c 86 05 be cd 01 86 be
       -0.043184858 0.040887587 -0.1303944 -0.2617325
000150 c5 68 eb bc 61 e0 5f bd 71 2f e5 ba f1 b5 7b bd
       -0.028736481 -0.054657344 -0.0017485452 -0.06145281
000160 2c 20 b2 bd 4d 3b 39 be b6 28 f7 bc 27 ff 84 bd
       -0.086975425 -0.18089028 -0.03017078 -0.06493979
000170 fa 81 a1 bd 86 98 86 3d 72 23 d4 bd 1f 7a da bd
       -0.07886119 0.0657206 -0.10358323 -0.10667824
000180 64 f2 9d 3d 2b d6 13 3e 20 ff 5b 3e 66 65 1a 3e
       0.07712248 0.14437167 0.21484041 0.15077743
000190 1d 3e 3c 3d 91 65 59 3c 72 77 8d be 64 1c c2 3d
       0.045957673 0.013268844 -0.27630192 0.09478071
0001a0 de 80 d8 bd 84 26 52 3d 84 42 6b bd 55 60 e4 3d
       -0.105714545 0.051306263 -0.05743648 0.111511864
0001b0 7b b7 f1 bb c9 3a e3 bc c3 a9 ef bd 42 c2 b7 3b
       -0.007376609 -0.027737992 -0.11702301 0.005607874
0001c0 b2 8d cb bd 4d f6 1a be 58 df af 3d f9 ff b2 bc
       -0.099391356 -0.15133019 0.08587521 -0.021850573
0001d0 e2 03 91 bd 09 ff 52 3e cf 2a 28 3e bd 20 98 bc
       -0.07080819 0.206051 0.1642258 -0.018570298
0001e0 38 b6 f6 3c 0d f3 4c be 35 2e 2c be d5 61 e4 bd
       0.030116186 -0.20014592 -0.16814502 -0.111514725
0001f0 da e4 32 3e a8 1d 75 3c f4 13 60 bc 4c 48 1d be
       0.17470112 0.014960684 -0.013676632 -0.1535961

decoder.0.weight f4 [128, 129]
000000 3b 4f 77 3c 7e 6c 3c 3e ce 5d d0 3d 89 ee 14 3d
       0.015094574 0.18400761 0.10174142 0.036360297
000010 fd 37 b5 3d 02 f0 a0 bd 62 4e 3e be d1 43 c6 3c
       0.088485695 -0.07858278 -0.18584588 0.02420226
000020 17 3b 59 3e b8 da 68 bd df 6e 26 3d e8 a4 dc bb
       0.21213947 -0.05684921 0.04063308 -0.0067335255
000030 45 7d a1 3c bf e2 c5 bc c9 53 9a 3d f3 57 21 bd
       0.019713053 -0.024155973 0.07535512 -0.039390516
000040 ac d5 88 3d 49 b9 c7 3c fc 7d 74 bc a0 1c 95 3e
       0.0668138 0.024380343 -0.014922615 0.29123402
000050 91 de 25 be e1 5a 87 3c ee 9e fc 3d e3 98 72 3d
       -0.16198184 0.016522827 0.12335001 0.059227835
000060 86 16 9d 3d e2 84 67 3d 12 6e 2d bd f4 08 f6 3b
       0.07670312 0.05652321 -0.0423413 0.0075083915
000070 4c 18 6b 3d e9 51 7a 3d d8 4a c4 3c 6d 8e 24 3d
       0.05739622 0.06111327 0.02396147 0.04017489
000080 2f 18 0f 3e 11 1a a2 bd 32 7b 36 3d 3c ee bb 3c
       0.13974069 -0.07915128 0.044551082 0.022940747
000090 9f cd 11 bd e4 08 b0 3d e3 da 6a 3d e7 d8 79 be
       -0.035596486 0.08595446 0.057337653 -0.24399148
0000a0 07 36 45 3d b4 48 64 bd a1 15 71 3d 9c 45 15 3e
       0.048147228 -0.055733398 0.058858518 0.14577335
0000b0 de b0 b8 bd c5 ed 80 bd f7 9e 99 bd 9f ac 38 3b
       -0.0901811 -0.06295351 -0.07501023 0.0028179062
0000c0 47 06 b9 bc 0f 24 87 bd bc 98 19 bd 18 f1 26 3d
       -0.022586001 -0.065986745 -0.037499174 0.04075727
0000d0 8e 74 56 3d 70 9a ac bd 2d c6 ae 3c e8 c1 38 3e
       0.05235725 -0.08427894 0.021334732 0.1804272
0000e0 15 8a d9 bd cb a1 48 bd 79 5c 3a bd e7 40 fc 3b
       -0.1062204 -0.048982423 -0.045498345 0.0076981666
0000f0 13 2c 70 3d c7 04 58 3b 5c bd 35 3d f2 c8 e6 3d
       0.058635782 0.0032961832 0.04437004 0.11268796
000100 46 78 de bd 0a 16 53 bd 51 3a 1e 3d 68 55 26 3b
       -0.10862784 -0.05153469 0.038629834 0.0025380496
000110 22 d5 4d bd a6 dc 2c bd 63 13 d6 3d c9 c5 17 3e
       -0.050252087 -0.042202614 0.104529165 0.14821543
000120 ad 89 62 3d 95 32 f9 3d ce 89 87 3d b1 f4 91 3b
       0.05530708 0.12167851 0.06618081 0.0044542183
000130 8b 27 17 3d 73 e6 70 bd 6c 85 62 3d 2d 25 d3 3c
       0.036902945 -0.058813524 0.055303022 0.025774563
000140 ec 0d 0d 3c b9 88 34 ba 2a 29 a3 3d 75 9f 2a be
       0.008609276 -0.00068868283 0.07966836 -0.1666239
000150 46 d3 42 be 68 2f dd bd 87 c4 44 be 4e 72 90 3d
       -0.19025907 -0.10800058 -0.19215594 0.07053052
000160 a2 f2 2f bd 31 98 44 bd ed 20 a4 bd 6a 0d da ba
       -0.042956002 -0.047996704 -0.080140926 -0.0016636078
000170 c3 fd eb bd 99 89 a0 3d f5 dd 41 3c d0 e9 9f 3d
       -0.115230106 0.07838745 0.011832704 0.07808268
000180 a9 72 45 be 9d b1 4a 3d 76 41 be 3e d9 49 be 3d
       -0.1928202 0.04948579 0.37159318 0.09291429
000190 54 e3 17 3c e9 e4 3f 3d a3 a6 84 bc e2 e5 fb bd
       0.009270508 0.046849165 -0.01619274 -0.12299706
0001a0 3f 98 98 bc f1 a5 96 3d e7 a2 14 bd 06 5f a4 bd
       -0.018627284 0.073558696 -0.03628817 -0.08025937
0001b0 92 b1 e9 bd fd 49 b9 3d 66 05 13 bc bf ac 4d be
       -0.11410822 0.09047315 -0.008973455 -0.20085429
0001c0 7c 5d 82 3d a7 95 3f 3c c7 bf 02 be c3 9b 73 3c
       0.06365487 0.011693395 -0.1276847 0.014868679
0001d0 92 51 1c bc eb 99 7b bc 10 bf bb 3d d2 ab 2a 3d
       -0.009540932 -0.015356521 0.09167302 0.041667767
0001e0 58 a8 f4 3b 26 67 ea bc 87 93 d6 be 4e 57 05 be
       0.007466357 -0.028613638 -0.4190943 -0.13021585
0001f0 5d ad ea bd 30 3e 86 3c 8f 38 58 bd b0 09 ac 3d
       -0.11458848 0.016387075 -0.052788313 0.08400285
000200 17 8e ba bd 07 21 19 3d dd b9 10 3e 67 f9 9a 3b
       -0.09109133 0.037385013 0.14133401 0.004729438
000210 f7 03 5a 3d e1 ed 8f bd 27 a5 ce bc da 2c 0a be
       0.053226437 -0.07027794 -0.025225235 -0.13493672
000220 98 4b 95 bb ca 16 23 3e 80 cf 3f bd 0b 8d 3a bd
       -0.0045561306 0.15926662 -0.046828747 -0.045544665
000230 84 57 b8 bd f1 b9 96 3b 6f e8 c5 3b c8 a5 c2 3c
       -0.09001067 0.0045998027 0.006039671 0.023760691
000240 75 57 67 3c 90 cf 00 3d 83 92 b7 bd 38 a2 04 be
       0.0141199725 0.031447947 -0.08963492 -0.12952507
000250 c6 68 0e 3d 5d ff 6f 3c a6 94 b9 3b e6 02 5e bd
       0.03476789 0.014648286 0.005663472 -0.054201983
000260 45 21 89 3d e0 e0 db 3d 29 a5 c8 3c dd 3e 14 bd
       0.06695799 0.10736251 0.024492817 -0.036192764
000270 a6 d5 03 3e ba 38 d1 bc f2 45 e8 3b dc ed 65 3c
       0.12874469 -0.025539745 0.0070884163 0.014033761
000280 ba d4 a0 3c 71 2b ba bd 6c f8 62 3c 83 8d 9d bd
       0.019632686 -0.09090317 0.013853174 -0.07693007
000290 3d 52 5a 3c 7c f0 e7 3a 2c 1c 69 bc aa 73 6a bc
       0.013325271 0.0017695571 -0.014227908 -0.014309803
0002a0 cc b4 a7 bd b3 08 04 3c 92 5b de 3c aa 0b c5 bd
       -0.08188781 0.008058715 0.027143274 -0.09621365
0002b0 02 0b 89 3d 6d e7 d3 bc 1f 02 f2 bd d6 cb 8d bb
       0.06691553 -0.025867188 -0.11816811 -0.0043272777
0002c0 8b 8c 2b bc c4 a8 91 bd 08 a2 aa 3b 22 c6 03 3d
       -0.01047052 -0.071122676 0.005207304 0.032171376
0002d0 cc c5 0f 3d f4 ab 86 3d bb db 1f bd 66 6c 9a 3d
       0.035100743 0.06575766 -0.03902791 0.075402066
0002e0 39 98 c8 3d 1d 35 10 be 5b 54 dc bd cd 63 07 3d
       0.09794659 -0.14082761 -0.10758277 0.03305416
0002f0 e7 d1 a8 3d e1 8b 9a bc f3 2c 4a 3e 23 65 9e 3b
       0.08243161 -0.018865528 0.1974371 0.004833834
000300 25 54 20 3d 53 c6 37 3b 08 38 c7 bd 18 5f 83 3d
       0.039142746 0.0028041794 -0.09727484 0.06414622
000310 bc 3c 70 3d 39 3d 35 3b 1c eb e4 bd 59 22 b0 3d
       0.05865167 0.00276549 -0.11177656 0.08600301
000320 50 cc 94 3d e7 91 06 be 80 13 81 3d fe 94 f7 3c
       0.07265532 -0.13141595 0.063025475 0.030222412
000330 e0 97 5c 3c 92 6c b7 3d bc 96 06 3d a8 ec c0 3c
       0.013463944 0.08956255 0.032858595 0.023550346
000340 26 22 23 3d 9e 00 02 be 78 ed d4 3c 7e ff 84 3d
       0.03982749 -0.12695548 0.02599214 0.06494044
000350 c9 18 c5 bc cf b6 c9 3d 77 b7 2c 3d ca 43 52 3c
       -0.02405967 0.09849321 0.042167153 0.012833545
000360 f1 6d bd bc 5c e6 08 3c cb c2 f4 3d f6 c9 8a 3d
       -0.023123713 0.008355703 0.11951216 0.06776802
000370 81 a7 d2 3c 75 66 00 bd 48 f0 1f 3d f8 e3 c7 bd
       0.025714638 -0.03134771 0.03904751 -0.097602785
000380 b2 f9 e6 bc 41 72 d2 bd e2 9e 08 be 71 d2 07 3e
       -0.028195236 -0.102756985 -0.13341859 0.13263871
000390 0e 2e a0 39 a0 7a 9d bd de 60 b1 bc 83 50 47 3d
       0.00030551892 -0.076894045 -0.021652635 0.048660766
0003a0 4e 57 c0 bd 90 10 27 3d d5 70 cd 3d 88 6c dd bd
       -0.09391652 0.04078728 0.100312866 -0.10811716
0003b0 b1 15 96 bd 5b 18 d5 bd e8 b6 15 3e a3 d3 9a 3c
       -0.07328356 -0.10405036 0.14620554 0.018899744
0003c0 f9 53 8c bd e3 31 2c 3d ee ce fc 3d 80 58 98 bd
       -0.06851954 0.042039763 0.12344156 -0.07438755
0003d0 c7 92 e2 3d f0 03 89 bd 6d 76 c0 bd 07 3a 39 bd
       0.11063152 -0.06690204 -0.09397588 -0.045221355
0003e0 46 cd 16 bd 68 e1 17 3e 8c 92 2e bd eb e9 ab bd
       -0.036816858 0.1483208 -0.042620227 -0.08394226
0003f0 e4 32 79 bd b8 d4 7d bc 5d 26 1a be e4 2e 20 bd
       -0.06083955 -0.015492611 -0.15053697 -0.03910722
