weights/clock_weights/model_weight-SO2.pth (torch_old, 925175 bytes, 184 tensors)

conv_theta.weightnet.net.0.linear.weight f4 [32, 3]
000000 31 8a f8 bb d7 4e 91 be 5c 64 ba bd 8b 84 9f 3e
       -0.007584833 -0.28380463 -0.09101173 0.3115581
000010 d3 f0 de 3e 60 1a 16 be 75 4c 89 3e e4 bd 29 bc
       0.4354311 -0.14658499 0.26816145 -0.010360215
000020 09 f6 94 3e 4c bd 09 be fc 71 0f bf 3a 34 16 bd
       0.2909396 -0.13451117 -0.560333 -0.0366709
000030 3c 4c dc 3e d7 20 0e 3f 3d 51 b8 3d 1d ed f6 bd
       0.43026912 0.5551886 0.0899987 -0.120569445
000040 f1 b1 76 3d 9c 86 bb 3e 76 a4 a0 be 42 44 60 bc
       0.060228292 0.36626136 -0.31375474 -0.013688149
000050 37 8a 08 3f ab 99 3f 3e 56 1f 10 bf 18 d8 c3 3e
       0.533359 0.18710963 -0.56297815 0.38250804
000060 b7 85 bd 3c 37 22 0d bf 94 00 cd 3d a6 15 8f be
       0.02313505 -0.5513033 0.10009876 -0.27946204
000070 8d 75 34 be a0 f6 e7 3e 9a af ba 3e b5 85 49 3d
       -0.17622967 0.45305347 0.36462098 0.04919978
000080 89 55 0e 3d b5 26 b3 be 9b 92 d5 3e e3 bb ba bd
       0.03474954 -0.3499047 0.41713414 -0.09117868
000090 6f 8d fa 3e f0 fe 26 3e 89 35 8d be 7f 9e d2 3e
       0.4893603 0.16308188 -0.27579907 0.41136548
0000a0 68 f5 e4 bc 79 1a a8 3e 36 d4 ac be f1 d2 07 3f
       -0.02794905 0.32832697 -0.33755654 0.53056246
0000b0 cf 3a a8 3d 86 77 7b be db e1 5e 3e 44 04 02 be
       0.08214342 -0.24557313 0.21765845 -0.1269694
0000c0 5e 81 05 bf f0 88 50 3e 32 1e 89 3e c8 3d 89 3c
       -0.52150524 0.20364738 0.2678085 0.016753092
0000d0 58 b4 63 3e a0 15 b2 3e 5b 93 1c 3e c1 90 66 3e
       0.22236764 0.34782124 0.15290587 0.22516157
0000e0 76 2f 7a 3e 14 55 c9 bc b2 2e a8 3e c1 c9 2c 3d
       0.24432167 -0.024576701 0.32848126 0.042184595
0000f0 9e d0 11 bf 73 00 9a bd 5e ff 9d be 6d ce 40 3d
       -0.5695895 -0.07519617 -0.30858892 0.047071863
000100 6e 3c cd 3e c6 cd 38 3e 33 e2 1d be 94 02 12 3f
       0.40085167 0.18047246 -0.1541832 0.57035184
000110 b7 84 6f bd 79 f2 00 be 03 77 88 3e 4e 56 e9 3e
       -0.058476176 -0.12592496 0.266533 0.45573658
000120 d7 5e 9a be e7 3d 03 3d ef 74 22 be ff 0f aa be
       -0.30150482 0.032041457 -0.15864919 -0.3321533
000130 ee 87 f7 be 2b 05 13 3f 82 81 f3 be 3b df 5a 3c
       -0.48345894 0.5742976 -0.47559744 0.013358886
000140 70 32 e9 be 6d 4e d6 be be 8a 50 be dd b1 02 3f
       -0.45546293 -0.4185671 -0.20365426 0.5105265
000150 fd 87 6e be 03 32 3a 3c 90 1b ec be 9b 3e b3 be
       -0.23294063 0.011364463 -0.4611478 -0.35008702
000160 b5 5e 32 be b1 f4 95 bd c8 69 e1 be 0f 6b 0b 3e
       -0.1741894 -0.07322062 -0.44026017 0.13615058
000170 a8 12 a7 3e 9e ac 93 bd f7 cf 04 bf ea 55 be 3e
       0.3263142 -0.072106585 -0.5187983 0.37174922

conv_theta.weightnet.net.0.linear.bias f4 [32]
000000 47 7c 33 be b7 21 da 3e 86 a4 72 be 76 97 f1 be
       -0.17527877 0.42603847 -0.23695573 -0.47185868
000010 f0 60 4a be 9d 1b 53 be f6 98 9c 3e 6b f3 fd be
       -0.19763541 -0.20616002 0.3058545 -0.49599776
000020 14 2f 93 3e 86 b7 fb 3e 00 e8 6f 3d fc a5 2d 3e
       0.28746855 0.49163455 0.05857086 0.1695785
000030 f3 cc bb be 33 5f ab be 85 ef b2 3e c5 35 56 be
       -0.366798 -0.3347107 0.34948364 -0.20918949
000040 d4 33 63 be 56 90 13 3f 96 ac c7 3e fa 86 11 3f
       -0.2218774 0.57642114 0.3899886 0.5684658
000050 0e fb 9a be 4b 65 c0 3e 4f 1c db 3e 6e f7 ba be
       -0.30269665 0.3757728 0.42795035 -0.365169
000060 df 3d 95 3e 3a 9a 3a 3d 3e 1b 2a be d2 35 53 bd
       0.29148766 0.04555724 -0.16611955 -0.051565
000070 48 66 cb 3e 81 85 20 be f9 51 87 be 1f 90 11 bf
       0.39726472 -0.15675928 -0.26429728 -0.56860536

conv_theta.weightnet.net.0.bn.weight f4 [32]
000000 ce c4 7e 3f 6a 54 7f 3f 6e 55 80 3f be f8 81 3f
       0.9951905 0.9973818 1.0026071 1.0154035
000010 5c 9d 80 3f c3 25 7e 3f 82 9e 80 3f 04 4a 7d 3f
       1.0048022 0.9927637 1.0048373 0.98941064
000020 7b 15 80 3f 63 7a 7f 3f e2 72 7f 3f 93 b6 80 3f
       1.0006555 0.9979612 0.9978467 1.0055717
000030 cc 54 7f 3f 38 9a 80 3f a6 f6 7f 3f 42 67 81 3f
       0.99738765 1.0047064 0.9998573 1.0109637
000040 52 b7 7d 3f 1a ae 7f 3f ce 78 80 3f 6d a9 7d 3f
       0.9910785 0.9987503 1.0036867 0.9908665
000050 40 78 7d 3f 0c 91 80 3f 0f 23 7f 3f 8d f9 7e 3f
       0.9901161 1.0044265 0.9966287 0.99599534
000060 39 b4 80 3f da 42 81 3f af 26 80 3f a7 40 7f 3f
       1.0055 1.0098526 1.0011805 0.99708027
000070 47 8f 7d 3f ae 1a 80 3f 45 53 80 3f 2d a7 80 3f
       0.9904675 1.0008142 1.0025412 1.0051018

conv_theta.weightnet.net.0.bn.bias f4 [32]
000000 e8 99 ab ba 91 9d 14 3c d8 e0 4e ba d1 c9 8d 3c
       -0.0013092132 0.00907077 -0.00078917807 0.017308148
000010 8e b7 60 3c 5c 9f 20 3c 3b 4e 08 3b f1 b1 53 bc
       0.013715638 0.009803619 0.0020798582 -0.0129208425
000020 04 18 45 3c f9 87 5e bc cc c4 37 bc 8c 1b 43 3c
       0.012029652 -0.013582223 -0.011216354 0.011908423
000030 d2 81 9a bc ec 9b 8d 3b 8e e9 7b 3b 9d ba a4 3b
       -0.018860731 0.004321566 0.003843877 0.005027129
000040 63 85 06 b8 6e dc 8a ba a5 34 9a bb bc 10 49 bc
       -3.2072316e-05 -0.0010594258 -0.0047059827 -0.012272056
000050 12 a2 45 bb fd a2 e3 bb a5 33 5e bc 27 2b a4 39
       -0.0030156416 -0.00694692 -0.013562118 0.0003131267
000060 0c 0b 9e 3b 27 fd 33 3c 82 27 82 3a 33 ec 22 3b
       0.0048230942 0.010985649 0.0009929987 0.0024860024
000070 f6 cf 83 bb 27 35 69 bb 90 21 9d 3a 76 9b 01 bb
       -0.0040225936 -0.003558466 0.0011988152 -0.00197765

conv_theta.weightnet.net.0.bn.running_mean f4 [32]
000000 c2 3a 1d c1 05 a8 fa 40 65 a2 e0 40 2a 45 7d c1
       -9.826845 7.83301 7.0198236 -15.829386
000010 84 40 83 41 96 03 2d 41 f2 ec 5b 41 e5 a2 a2 c0
       16.406502 10.813375 13.745348 -5.0823846
000020 09 d2 34 c1 35 97 f5 40 c9 39 0e 40 3e 9f 08 41
       -11.301278 7.674708 2.222277 8.5388775
000030 34 7e 53 c0 23 f7 ed 40 44 f0 80 41 9e b6 06 40
       -3.3045778 7.436418 16.117317 2.104896
000040 6f 0a 3f 41 3e 9e 74 41 d1 f6 47 41 b6 b3 21 41
       11.940047 15.288633 12.497758 10.106375
000050 cc 73 23 c1 c5 9b 75 41 49 54 59 41 a2 2f 92 41
       -10.215771 15.35053 13.583077 18.273258
000060 47 29 3f c0 ac a6 1d 40 c3 98 39 c1 e4 35 fd 40
       -2.9868944 2.4632978 -11.599795 7.9128284
000070 62 c1 33 c1 7e f1 d0 c0 a4 cb 3a 41 97 82 89 c0
       -11.234713 -6.529479 11.674717 -4.297191

conv_theta.weightnet.net.0.bn.running_var f4 [32]
000000 1c 1f 0f 41 bc ed 0a 41 52 4a a3 40 b0 d9 c6 41
       8.945095 8.683041 5.1028223 24.856293
000010 b5 b7 de 41 17 56 30 41 d4 40 8b 41 57 0f 2a 41
       27.8397 11.021018 17.406654 10.628745
000020 b6 a3 88 41 5b f8 e9 40 ec 31 df 3e f2 ea 14 41
       17.079937 7.311567 0.43592775 9.30736
000030 5c a2 11 40 69 87 c0 40 5a 61 c9 41 dc a3 d7 3f
       2.2755346 6.0165296 25.172535 1.6846881
000040 5b 0f 51 41 7c 59 98 41 f5 dd 4f 41 c2 eb 14 41
       13.066249 19.043694 12.991689 9.307558
000050 c4 52 0d 41 ee a5 a7 41 d4 30 a3 41 e0 76 f4 41
       8.832706 20.95602 20.398842 30.558044
000060 5e 75 96 3f 4e d1 20 41 15 27 4a 41 ca df 12 41
       1.1754568 10.0511 12.6345415 9.179636
000070 14 81 50 41 13 f3 74 40 4a 96 49 41 7f 8c 0e 41
       13.031513 3.827336 12.599192 8.909301

conv_theta.weightnet.net.1.linear.weight f4 [32, 32]
000000 81 b8 03 be 31 85 ae 3c 1b 5a 05 3c a8 ff 0d bd
       -0.12863351 0.021303745 0.008139159 -0.03466764
000010 d5 2c 37 be cd 2f 29 be 3f 79 0b bd 8f bc c0 3d
       -0.17888196 -0.16522141 -0.034051176 0.09410965
000020 f1 5a a5 3c cb b0 00 3e 0c 19 68 bb 6d 41 e0 bd
       0.020184966 0.12567441 -0.003541532 -0.10949979
000030 b8 18 45 bd 85 5a 82 bd 2e 7d ec 3b 8f 20 1e be
       -0.048119277 -0.063649215 0.007217071 -0.15442108
000040 a3 b8 56 bc 5e 75 98 3d 9f a2 85 3c db 23 ed 3d
       -0.013105544 0.07444261 0.016312895 0.115791045
000050 fc c1 16 bc 3c b3 07 3e 2b 9f 81 3d ed 0d 98 bc
       -0.009201523 0.13251966 0.06329187 -0.018561328
000060 38 3e 1d 3e a1 57 49 3d 3c 54 fe 3d 4b e0 2c be
       0.15355766 0.049155835 0.1241841 -0.16882436
000070 5f 45 9c bd 22 e6 88 bc c8 64 75 bc fa 4c cc bd
       -0.07630419 -0.016711298 -0.014977641 -0.099756196
000080 33 31 ae bd 2a 14 61 3d 6e 72 27 3e f7 f0 8b 3d
       -0.08505478 0.05495087 0.16352245 0.0683307
000090 e6 b3 a2 3d 28 10 aa bc 77 a8 24 3e 39 31 1f be
       0.07944469 -0.020759657 0.16079889 -0.1554612
0000a0 33 12 2a 3e 3a eb 47 bc 28 72 07 3e 0c 35 0f be
       0.16608505 -0.0122020785 0.13227141 -0.1398508
0000b0 07 dd 09 3d 38 31 d5 bd 47 0e 10 bd 20 2a 6d bd
       0.033658054 -0.10409778 -0.035169866 -0.0579015
0000c0 a5 81 93 3d ef e2 18 3e 96 d8 bd 3d 1b bc 42 3c
       0.07202462 0.14930318 0.09269826 0.011885668
0000d0 1f c5 85 bb e1 d7 32 be 22 03 28 3e 3c 74 9c 3d
       -0.0040823366 -0.17465164 0.16407445 0.076393574
0000e0 f9 04 d2 3d e8 24 33 3b 5a c3 fc 3d ef ed 7d 3d
       0.10254855 0.002733523 0.12341948 0.06199449
0000f0 18 2b ba 3d 66 5b d5 3d 92 72 7c 3d a8 95 df 3d
       0.09090251 0.104178235 0.0616327 0.109172165
000100 d7 3d ac 3c 81 0a 1d 3e bd ae 14 be c9 6e 1c be
       0.021025581 0.15336038 -0.14519782 -0.15276636
000110 7a 59 68 bd 93 85 da bc 4b e1 2c be 0b 4a bd 3c
       -0.056725956 -0.026675021 -0.16882817 0.023106596
000120 b4 b0 a9 bd d7 5a 37 be 58 89 73 3d f9 28 a7 bc
       -0.082856566 -0.17905746 0.059457153 -0.02040528
000130 63 00 ee bc 29 c8 6b 3d 02 03 3a bb 3e 5c 26 be
       -0.029052919 0.057563934 -0.002838314 -0.16246125
000140 3f ea d7 bd c1 e9 28 3e b9 32 2e bd e4 ee 73 3d
       -0.10542726 0.1649542 -0.04252884 0.059553996
000150 2b 9c 4d bd 42 f8 df 3d 6c a0 81 bd 85 b0 c4 bd
       -0.05019776 0.10936023 -0.06329426 -0.09603981
000160 07 d4 a4 ba 3f 54 3f 3d 2e f7 01 bd 79 a0 2f be
       -0.0012575396 0.046711203 -0.03172987 -0.17151059
000170 56 0f 1e 3e bb 73 8e 3d ca 3c 09 3e e2 60 00 be
       0.15435538 0.069556676 0.13402095 -0.12536958
000180 33 d5 f6 bd 66 54 7a bd a7 d3 2d 3e 79 76 34 be
       -0.12052383 -0.061115645 0.1697527 -0.17623319
000190 2b ee 4d 3d f4 57 e2 bd 3a 69 d1 3d fe 08 c3 bd
       0.050275963 -0.11051932 0.102251485 -0.095231995
0001a0 54 a8 19 be 3b 65 e7 3c ca 9e d9 3d 60 c3 00 be
       -0.15005618 0.028246513 0.1062599 -0.1257453
0001b0 45 15 f8 3d 37 d9 be bd d6 7c 54 bd e9 f2 07 3e
       0.12113432 -0.09318774 -0.051876865 0.13276257
0001c0 39 86 20 be 1b 3e ed 3c 14 91 81 bd 2f 8d e9 bd
       -0.15676202 0.028960278 -0.063264996 -0.11403882
0001d0 40 43 0f bd 51 b0 18 3e 19 17 a3 bd 80 0a 14 be
       -0.034976244 0.1491101 -0.0796339 -0.1445713
0001e0 5a 81 81 bd a3 6b a9 3c ae c4 e7 3d 68 d1 26 3e
       -0.063235 0.020681208 0.113168105 0.1629082
0001f0 4c 9b cb 3a 61 e9 fa bc 7f 9a 56 bd 84 37 9c bd
       0.0015533953 -0.030628862 -0.052393433 -0.07627776
000200 de 35 fc 3c 99 79 bd bd 7f 4d 0c be 6a f2 36 be
       0.030787405 -0.092517085 -0.13701437 -0.17865911
000210 e2 ad 01 3e 11 bd 8c bd a2 e5 b1 3d 84 7e be bd
       0.12663987 -0.06871999 0.08686377 -0.09301475
000220 4d 4f ed bc 91 23 db bc e4 4c 0d be ad 8d 13 be
       -0.028968478 -0.026750358 -0.13798863 -0.14409514
000230 33 3b 06 be ae d2 8f 3d ea cf af bd 9d c3 08 3d
       -0.1310852 0.07022606 -0.08584578 0.033389676
000240 6f eb 00 3d 2b a2 54 bd 65 f7 85 3d 9b 73 42 bd
       0.031474527 -0.051912468 0.065413274 -0.04747353
000250 1c 1a fe bd 1c bc c6 3d 65 27 1d be fc 9c 7e bd
       -0.12407324 0.09703848 -0.15347059 -0.06216143
000260 cc f8 c4 3d 05 98 7b bc 57 1b 0e be 07 ac 2a 3e
       0.09617767 -0.0153560685 -0.13877617 0.16667186
000270 33 c3 aa bd f9 0b 9b bd ef 99 d8 bd ab a0 37 be
       -0.083380125 -0.07570643 -0.105762355 -0.17932384
000280 86 07 30 bc 91 3c 5b 3d 70 1d 0c be b1 1f 3d 3e
       -0.010743981 0.053524558 -0.13683105 0.1846912
000290 3f 3b 2d bd 95 78 40 3c 1a 6b d0 3d 6b e0 26 3e
       -0.04229283 0.011747499 0.10176678 0.16296546
0002a0 2f 41 02 be f8 8f 0a 3e 46 32 30 be 28 47 94 3d
       -0.12720178 0.13531482 -0.17206678 0.072401345
0002b0 56 6a be bd 16 e7 0e be 37 3c 94 bd cc 52 f0 bd
       -0.09297626 -0.1395534 -0.072380476 -0.11734542
0002c0 d0 cf 14 3e 72 9f 9c 3c 6b 19 ec 3c cb c5 da bd
       0.14532399 0.019118998 0.028820714 -0.10682257
0002d0 5e 6c 1a 3c 69 a3 de 3b 87 fb 14 3e ac 7b da bd
       0.009425251 0.0067943824 0.14549075 -0.1066812
0002e0 12 0c 1a 3e 2b 71 28 bd 03 f4 19 be 62 d4 fc 3d
       0.15043667 -0.04112355 -0.1503449 0.12345196
0002f0 c6 8f 0c bd d4 11 ce 3d db 17 03 be d1 23 31 bc
       -0.0343168 0.10061994 -0.12802069 -0.010811762
000300 42 1e ad bd 46 ad d5 3d d5 63 0b 3d f3 34 31 be
       -0.08453037 0.1043344 0.034030754 -0.17305355
000310 d3 30 c2 3d 6f bf 25 3e 21 70 ce bc 48 20 02 3e
       0.09481969 0.16186307 -0.025199952 0.12707627
000320 70 be c8 3c f5 b1 10 3d 61 3b a4 3d 1d 6f e5 3c
       0.02450487 0.035325963 0.08019138 0.028007085
000330 e6 ff d0 3d ea 32 48 bd be ba 13 3e a1 28 66 bc
       0.10205059 -0.04887668 0.14426705 -0.014047773
000340 8b 31 d5 3c 1b b3 32 bd eb 3d 8e 3d 99 d3 8c 3d
       0.0260246 -0.04362784 0.06945404 0.068762966
000350 2b 40 47 3d bd c3 06 be 40 c7 1e be b7 ce 4b bd
       0.04864518 -0.13160606 -0.15505695 -0.049757686
000360 fa 10 f0 3d 31 4a a4 bb 1e 02 69 bc b7 0c e2 3c
       0.11721988 -0.005013727 -0.014221696 0.027593954
000370 ae 4a 2f bd 1a 66 50 3b 86 a8 7a 3d 0b 7f 0e 3e
       -0.04279583 0.0031799139 0.061195873 0.1391565
000380 b3 34 63 3d 8f 6c 1f be 8b 7a b7 bd 4a 64 e2 bd
       0.05547018 -0.15568756 -0.0895892 -0.11054285
000390 74 e3 e7 bd ab 2e 09 3e 01 69 b1 3d 25 65 d3 3c
       -0.1132268 0.13396709 0.08662606 0.025805065
0003a0 cc d4 1a 3d 52 d1 d6 bd 9f 15 35 3e 5b c7 86 3c
       0.037800595 -0.104891434 0.17684029 0.016452482
0003b0 3c 38 d8 bd 11 46 02 be 30 87 83 3d 2b ce 71 3d
       -0.10557601 -0.1272204 0.06422269 0.059034508
0003c0 87 36 f2 3d f0 6c 81 3d b6 0d 51 bc 6c 6f 82 3c
       0.118268065 0.06319606 -0.012759617 0.01592227
0003d0 d4 f1 63 bc f0 ff dc bd 02 6e 1f be 8f 61 18 3e
       -0.013912637 -0.10791004 -0.15569308 0.14880966
0003e0 6f 76 eb bd d5 90 29 3e 45 8a 97 3c ca 81 a4 3d
       -0.11497199 0.16559155 0.01849855 0.08032568
0003f0 3a d7 99 bd 57 96 02 bd 17 4b b1 3d c2 27 ea 3a
       -0.07511754 -0.031881656 0.086569004 0.0017864632

conv_theta.weightnet.net.1.linear.bias f4 [32]
000000 5f 93 8e bd 83 7a 27 bc 9d 7b dc bd 39 57 ba 3d
       -0.069617026 -0.01022208 -0.10765765 0.09098668
000010 7e a3 d0 bb 80 01 87 3c 78 98 8d 3d 58 95 00 3e
       -0.006367146 0.016480207 0.06913847 0.1255697
000020 35 2c 2b 3e 04 6c 06 3d b8 be 02 3e 58 2c a1 3c
       0.16716082 0.032817855 0.12768066 0.019674465
000030 75 04 92 bd 45 f9 91 bd 92 e8 eb 3d 40 9e 02 be
       -0.07129756 -0.071276225 0.11518969 -0.1275568
000040 85 30 fa 3d 17 05 e6 3d cb 32 20 bd ff 74 a5 3d
       0.122162856 0.112314396 -0.03911094 0.08078956
000050 66 68 10 3e 65 33 70 3d 89 88 0b 3e db ef 08 3e
       0.14102325 0.058642764 0.13626303 0.13372748
000060 d0 fa 0c be 6f d0 da bd 85 4b 34 bd 78 02 a2 3c
       -0.13767552 -0.10684287 -0.044017334 0.019776568
000070 5b df f9 3c 53 ed a1 3c cf 1a 63 bd cc ab 0d be
       0.030502012 0.019766485 -0.05544549 -0.13835067

conv_theta.weightnet.net.1.bn.weight f4 [32]
000000 1f 77 80 3f de 2b 80 3f ad 69 7e 3f c3 5e 81 3f
       1.0036353 1.0013387 0.9938 1.0107044
000010 8f 6e 7e 3f 8a c3 80 3f 84 26 7d 3f 4a 4f 80 3f
       0.9938745 1.0059674 0.98886895 1.0024197
000020 8d 44 7e 3f 03 0b 7e 3f 91 53 80 3f 68 06 81 3f
       0.9932335 0.9923555 1.0025502 1.008008
000030 37 89 80 3f 21 ce 80 3f 96 66 81 3f 33 a3 80 3f
       1.0041875 1.0062906 1.0109432 1.0049804
000040 7a 4e 7f 3f 71 9d 81 3f 01 5c 7d 3f c6 2e 80 3f
       0.9972912 1.0126172 0.9896851 1.0014274
000050 0d 4e 82 3f 77 7d 80 3f 82 ed 7e 3f 8a 9f 82 3f
       1.0180069 1.0038289 0.9958116 1.0204937
000060 7b ea 80 3f a7 b6 7e 3f 16 d4 7f 3f ea 06 7e 3f
       1.0071558 0.99497455 0.9993299 0.992293
000070 1e 36 80 3f bd b2 80 3f 33 2a 80 3f 4e a0 80 3f
       1.0016515 1.0054547 1.0012878 1.0048921

conv_theta.weightnet.net.1.bn.bias f4 [32]
000000 1a ca 8c 3a 69 15 16 3c 09 63 b5 bb 9c b4 ed 3b
       0.0010741383 0.009160378 -0.0055354876 0.0072541963
000010 51 26 98 bb 9b e3 11 3c 5d a9 1c 3c 45 b3 8e 3b
       -0.0046432395 0.008904363 0.009561864 0.0043548667
000020 fa 88 14 3b 68 d1 d3 b8 f7 9c bd 3b 04 1d 05 3c
       0.0022664652 -0.00010100269 0.005786534 0.008124594
000030 d2 7f 79 3c 8e af 14 3b d1 2a 2e 3c 86 f3 70 3b
       0.015228229 0.0022687647 0.010630325 0.0036766245
000040 72 f2 ce 3b db d1 0d 3c 89 73 87 bc c3 c9 29 3a
       0.006315523 0.0086559905 -0.016534584 0.0006476903
000050 76 a2 ce 3b a7 e8 59 bb aa 34 25 bc f1 d2 21 3c
       0.006305988 -0.0033250244 -0.010083357 0.0098769525
000060 27 f4 d3 bb 18 7c be 3a 53 43 72 3b a3 d2 26 bc
       -0.006468314 0.0014532832 0.0036966398 -0.010182056
000070 dd bb 2c 3b 3d 5f e2 3b da 66 ea 3b 3a a3 29 3c
       0.0026357092 0.006908326 0.007153374 0.010353858

conv_theta.weightnet.net.1.bn.running_mean f4 [32]
000000 05 5b 15 be 77 8b 86 3e bd 65 80 be 04 6d 2a bd
       -0.14585502 0.26278278 -0.2507762 -0.04160787
000010 b8 50 94 be ff 53 14 3c 5e 91 5d 3e d5 54 07 3e
       -0.28967834 0.009053229 0.21637484 0.13215955
000020 f1 f0 17 be 47 0a 0b 3e 6b 91 0e 3e a9 ba 72 3d
       -0.14838006 0.13578139 0.1392266 0.059260044
000030 b8 23 e0 3d 1d f8 a1 bc 25 d9 ef 3d 17 8b 54 be
       0.10944313 -0.01977163 0.11711339 -0.20756184
000040 04 37 2e 3e 88 6b aa bd 21 19 7f bd d3 a9 6d bd
       0.17013174 -0.08321291 -0.062279824 -0.058023285
000050 21 59 10 be 1b 18 c5 3d 28 bf 88 3e 9c 65 c9 bd
       -0.140965 0.096237384 0.2670834 -0.098338336
000060 44 38 70 be 4e 8c 76 be c6 9e 32 bd c1 b6 82 bd
       -0.23458964 -0.2407696 -0.04360845 -0.06382514
000070 72 2a 88 bd 98 ec 02 be 3f 7b 08 be d5 a6 18 be
       -0.06648721 -0.12785566 -0.13328265 -0.14907391

conv_theta.weightnet.net.1.bn.running_var f4 [32]
000000 be 24 90 3c 9f 99 97 3d c7 2a 85 3d d3 9c 8e 3d
       0.017595645 0.07402348 0.065023 0.069635056
000010 c4 00 b8 3d 40 75 57 3d 89 ea 3d 3d 39 9a ee 3d
       0.08984521 0.052602053 0.04636625 0.116505094
000020 d2 15 93 3e 1d 3d e2 3d c9 10 40 3d c0 a7 63 3d
       0.28727585 0.11046813 0.046891008 0.0555799
000030 e2 14 e2 3d ca a9 0b 3c f1 a1 1e 3e f8 82 2e 3d
       0.11039139 0.008524368 0.15491463 0.04260537
000040 48 ed 7e 3d 6a e0 db 3d 1b 30 0f 3d 7a 46 7b 3d
       0.062238008 0.10736163 0.034957986 0.06134651
000050 4c 89 10 3e a8 b9 ec 3c 50 5e 0b 3e 18 a8 b9 3d
       0.14114875 0.028897122 0.13610196 0.090652645
000060 da f9 22 3e 6d 33 b2 3c 0e fe 75 3b e4 e7 8e 3d
       0.15915623 0.021753037 0.0037535462 0.069778234
000070 f7 0c 16 3e b8 38 89 3e a6 2a 15 3e a8 91 1b 3d
       0.14653383 0.26801085 0.1456705 0.037980705

conv_theta.weightnet.net.2.linear.weight f4 [16, 32]
000000 e2 17 3a be 1f fc 94 3c 89 8c 1a bc 1f 3e 23 3d
       -0.18173173 0.018186627 -0.00943292 0.039854165
000010 17 9c b8 3d c6 99 48 3d 93 27 ad 3c f1 e0 d4 3d
       0.09014147 0.048974775 0.021137035 0.10394467
000020 52 6a eb 3a 59 3a 2f be 01 d3 c4 3d 60 d9 2e be
       0.0017960763 -0.17112102 0.09610558 -0.1707511
000030 24 0d e7 3d 29 22 fb bd 6d 9b 2c 3e 87 20 37 bd
       0.11281803 -0.12262375 0.16856165 -0.044708755
000040 12 80 f7 bd bf db 24 3e ef d2 a0 3c d3 36 1b bd
       -0.12084974 0.16099451 0.019631831 -0.03789408
000050 2f b8 ff 3d cc 33 ef 3d 58 0d 8b 3c af 94 9d bd
       0.12486302 0.11679801 0.016974136 -0.07694375
000060 22 6e cf 3c 15 6a bb bc 70 da e8 3d b5 79 ff 3d
       0.02532107 -0.022877732 0.11369789 0.12474386
000070 d1 61 37 bc 11 cf fb 3d 71 e5 df 3d d6 9d 76 3d
       -0.011192755 0.12295354 0.10932434 0.060209118
000080 f3 84 b2 bd 8a 70 29 3e b9 58 9b bd 35 d1 0b be
       -0.08716764 0.16546836 -0.07585282 -0.13654025
000090 39 72 1b be f2 da f9 3d bc c1 e0 bd 2d 8a ce bd
       -0.15180291 0.12199964 -0.10974452 -0.10084949
0000a0 6f a2 5a 3d 17 8c 2d be b9 4b 24 3e 93 61 db 3d
       0.053377565 -0.16947971 0.16044511 0.1071197
0000b0 53 20 0b 3e 88 2c c8 b9 ec e4 c0 bc 89 58 f3 bd
       0.1358655 -0.0003818015 -0.023546658 -0.11882121
0000c0 9f f7 dc bd 27 91 1e 3e f8 e9 dd 3d 1b d5 a8 3c
       -0.107894175 0.15485059 0.108356416 0.02060943
0000d0 c8 94 20 be 81 54 30 be 42 85 1d be ce 51 60 3b
       -0.15681756 -0.17219736 -0.15382865 0.0034228447
0000e0 7d f2 1e 3e 19 a5 94 3d 3d e9 11 3e 8c c5 09 3e
       0.1552219 0.072580524 0.1424913 0.13454264
0000f0 84 0d c8 bd 98 30 e9 3d 14 58 98 3d d8 bd b1 bd
       -0.09768203 0.11386222 0.074386746 -0.08678788
000100 73 15 0c be b6 e5 72 bd 93 60 a1 bd eb 73 11 3e
       -0.13680057 -0.0593011 -0.07879748 0.14204375
000110 13 68 b0 3d fd 44 2b be c5 2a 58 3d 97 dc 13 3e
       0.086136006 -0.16725536 0.052775163 0.14439617
000120 0d 47 7d 3d 82 10 cf 3d 58 a3 38 bd 18 87 34 bc
       0.061835337 0.101105705 -0.04507765 -0.011018537
000130 45 7b 0a 3e 9a ad 09 be 5a b4 83 3d 3e 84 5a bd
       0.13523586 -0.1344513 0.06430884 -0.053348772
000140 86 6b d8 3d 30 c7 23 3e 6f ac 21 be ea f8 91 3d
       0.105673835 0.15993953 -0.15788434 0.07127555
000150 2d 68 80 3d b6 e3 27 be 10 8e a5 3d f5 96 b6 bd
       0.0626987 -0.16395459 0.08083737 -0.089155115
000160 fd af 0f be 13 45 8a 3d 8f b7 c0 bc 1b e4 2e 3d
       -0.14031978 0.06751456 -0.023525028 0.042698007
000170 ab 58 16 3e 54 ac de 3c 1e a9 16 bc 28 45 4b bd
       0.14682262 0.027181782 -0.009195594 -0.0496265
000180 f4 ee e2 3d f5 ce 48 bd 75 fd 08 be a6 2e 20 3e
       0.11080733 -0.049025495 -0.13377936 0.15642795
000190 7c 25 1d be af 47 0f 3d ad 0e bd 3d 22 f8 0e 3e
       -0.1534633 0.034980472 0.09231315 0.13961843
0001a0 3b 6f 24 be 50 6f 8f bd 59 12 22 3d 5d 15 03 3e
       -0.16058056 -0.07003653 0.03956828 0.12801118
0001b0 57 6f 62 3d 2a 07 95 bd 81 f0 26 be 99 75 f6 3d
       0.055281963 -0.07276757 -0.16302682 0.12034149
0001c0 cd c0 8a 3c f6 ef d7 3d 28 c7 6f bd d4 05 74 bd
       0.016937638 0.10543816 -0.05853954 -0.05957587
0001d0 c9 e4 19 3d 30 42 79 3d e0 f2 9e 3c a1 c7 13 be
       0.037571702 0.060854137 0.019402921 -0.14431621
0001e0 51 63 0b be f8 dd 12 be 51 77 19 be ad c8 2c be
       -0.13612105 -0.14342487 -0.14986922 -0.16873427
0001f0 50 b3 18 3e 15 b5 e2 bd bc d2 20 3e c3 46 28 3d
       0.14912152 -0.11069695 0.15705389 0.04108311
000200 d3 67 de 3d 9d 49 2d 3e 02 67 4d bd cf 91 f5 bc
       0.10859647 0.16922612 -0.050147064 -0.029976754
000210 d5 20 fb 3d 13 ad b8 bd d7 8d 34 3d d7 45 2c bd
       0.122621216 -0.09017386 0.04408058 -0.042058792
000220 b9 5c a7 3d 58 d1 15 3d 20 40 d6 bd 43 3d 0e 3e
       0.08171982 0.0365766 -0.104614496 0.13890557
000230 7e 1e 8c 3d 8d 26 ba bc de 3e 16 bd 77 bf 91 3c
       0.068417534 -0.02272346 -0.03668105 0.017791493
000240 cb 53 1b 3e 53 9e af bc 4d ad 21 bc 53 e5 db bd
       0.15168683 -0.0214378 -0.009867978 -0.107370995
000250 cb 47 86 bd 81 38 33 be 2a 9e 4a bb c5 68 b9 bc
       -0.06556662 -0.17502023 -0.0030917027 -0.022632966
000260 0b cd 87 bd d7 a9 02 3d 90 50 7b 3d 33 bb 70 bc
       -0.06630906 0.031900253 0.061356127 -0.014693069
000270 23 ca 18 bc 53 68 00 3e dc 63 d1 3d 43 d0 5e 3d
       -0.009325537 0.12539797 0.10224125 0.054397833
000280 d8 bd 34 bd a1 a5 1d 3d b0 68 b6 3d a7 da 58 bc
       -0.04412636 0.038488034 0.08906686 -0.0132357245
000290 d0 4b 6f bd 2b 89 2f 3e cc 8c 07 be 1a be 97 bd
       -0.05842191 0.17142169 -0.13237303 -0.07409306
0002a0 18 3c a5 3c cd 95 c2 bd 6b 92 75 3d bf e6 c8 3d
       0.020170256 -0.095012285 0.05995409 0.09809636
0002b0 a1 d1 f5 bd 25 5a d3 3d fd 26 15 3e 34 13 29 be
       -0.12002874 0.10319928 0.14565654 -0.16511232
0002c0 fb 1c 0f be 1c 23 02 3e c4 6a 0a 3e e7 ec 24 3e
       -0.13975899 0.12708706 0.1351729 0.16105996
0002d0 90 59 33 3e f3 07 ca bd f8 d4 08 3e ac ea 24 be
       0.17514634 -0.098647974 0.13362491 -0.16105145
0002e0 46 d9 34 be 5f c2 95 bd c8 ee 0b 3e 78 bd e2 bd
       -0.17661008 -0.07312464 0.13665307 -0.110712945
0002f0 19 c9 ef bc 26 1f ec bd 28 a6 96 bd b6 68 b7 bd
       -0.029270696 -0.115293786 -0.073559105 -0.08955519
000300 6b cf af bd 30 ee 09 be a0 14 c2 bd f0 54 9c 3d
       -0.08584484 -0.13469768 -0.0947659 0.07633388
000310 7d 2f b0 3c d8 79 a6 3d b3 67 10 be ad db 8d 3b
       0.02150702 0.081287086 -0.14102058 0.004329166
000320 60 23 57 3d 91 a9 7c bd 9d 32 ec 3d 69 d6 95 3d
       0.05252397 -0.06168515 0.11533091 0.07316286
000330 fe cf 84 bd 07 54 32 bd 28 9b fd bd 9b 35 1b 3e
       -0.06484984 -0.043537166 -0.12383109 0.15157168
000340 d1 0c 1c 3e 23 40 f4 bd 1b 64 7a 3d 2b 11 9e bc
       0.15239264 -0.119262956 0.061130624 -0.019295296
000350 b5 a6 e3 bb f0 71 0b be 56 03 9f bd e2 34 28 3e
       -0.0069473633 -0.13617682 -0.07764308 0.16426423
000360 a1 5c 6a 3d a5 36 0c 3e 50 c7 27 be 59 36 e1 bd
       0.057217244 0.1369272 -0.16384625 -0.10996694
000370 02 00 ce bd fa 06 41 bd 78 ef 70 3c 84 5e 98 3d
       -0.10058595 -0.047125794 0.014705531 0.074399024
000380 28 66 21 be 3e 97 b0 bc 4d 24 f8 bd cf ba 08 bd
       -0.15761626 -0.021556493 -0.12116299 -0.03338128
000390 29 9a 05 be ce 77 cd 3d 8c db 24 3d 47 b8 22 3d
       -0.13047089 0.100326166 0.04024844 0.03972652
0003a0 89 ff bf 3c 9e 06 55 3d e3 69 d0 3d 40 51 26 3e
       0.023437278 0.052008264 0.10176446 0.16241932
0003b0 e3 86 cb bd f0 ef 86 bb 2c 7f a8 3d 2c a9 94 bd
       -0.09937837 -0.0041179582 0.08227381 -0.072588295
0003c0 88 58 84 bd 49 af 3c 3d 37 9a a1 bd 41 2b b3 3d
       -0.064621985 0.046065602 -0.07890742 0.087484844
0003d0 52 83 dd 3d 55 0b 25 be 07 a9 e6 bd 0f ae f4 3d
       0.10816063 -0.16117604 -0.11262708 0.119472615
0003e0 e1 a9 69 3c 6b 13 19 3e e8 81 47 bd d8 0d e9 bd
       0.014261694 0.14948814 -0.048707873 -0.113795936
0003f0 c3 4c 23 3e 1c dd 97 bd dd 09 04 3e 93 27 6c 3d
       0.15947251 -0.0741522 0.12894388 0.05765493

conv_theta.weightnet.net.2.linear.bias f4 [16]
000000 e0 34 16 be 83 2c 38 3e ec a0 a5 3d 25 da 3a 3d
       -0.14668608 0.1798573 0.08087334 0.045618195
000010 81 9a 1a 3e b8 d4 b3 bc 1f 0f 98 3d 39 cd bf 3d
       0.15098001 -0.021952018 0.07424759 0.09365315
000020 60 ac a6 3d 4e d4 19 be a1 a4 ad bd f4 4d dd 3d
       0.08138347 -0.15022394 -0.08478666 0.10805884
000030 5f a3 f1 bd 45 0d cb 3d 29 8b 09 be c0 df 28 3e
       -0.11798739 0.0991464 -0.13431992 0.16491604

conv_theta.weightnet.net.2.bn.weight f4 [16]
000000 a9 ce 80 3f 95 21 81 3f 7b 2f 81 3f 6d 34 7d 3f
       1.0063068 1.0088373 1.0092615 0.9890812
000010 f4 12 7f 3f e4 f5 7e 3f 73 bf 81 3f f1 e7 7f 3f
       0.99638295 0.9959395 1.0136551 0.9996329
000020 5e 97 81 3f ee 78 80 3f 28 1f 81 3f ee a9 80 3f
       1.0124319 1.0036905 1.0087633 1.0051858
000030 35 52 80 3f 95 95 81 3f 57 99 81 3f 61 d4 81 3f
       1.0025088 1.0123774 1.0124921 1.0142938

conv_theta.weightnet.net.2.bn.bias f4 [16]
000000 5c eb 71 3b c2 a0 18 3c 08 c6 0a 3c 2e d3 33 bc
       0.0036913967 0.009315671 0.008470066 -0.010975642
000010 ba b5 f7 ba 87 3c 7d bb 21 64 26 3c 59 bc fd 3a
       -0.0018898763 -0.0038640813 0.0101557085 0.00193585
000020 f5 ee 46 3c 0b b9 aa b8 db 6a 08 3c c5 03 f9 3b
       0.012141933 -8.1406986e-05 0.008326258 0.0075993263
000030 51 4d fc 3b 29 39 49 3c 85 c5 4b 3c 01 6f 39 3c
       0.0076996465 0.012281694 0.012437229 0.011317969

conv_theta.weightnet.net.2.bn.running_mean f4 [16]
000000 02 c0 c0 3b 9e d9 30 3e 68 e2 00 3e 89 5d bf 3a
       0.005882264 0.17270514 0.12586367 0.0014600019
000010 f7 ba 72 3e 34 c4 86 bd 15 7c 86 3c 4a 73 11 3e
       0.23704134 -0.065803915 0.016416589 0.14204136
000020 98 e6 94 3d 4a 7a 01 be fb 64 83 be aa d3 4f 3e
       0.07270545 -0.12644306 -0.2566298 0.20295587
000030 af 31 17 be 3e fe 5d 3d 32 d7 83 be ac 28 19 3e
       -0.14765047 0.054197542 -0.25750118 0.14956921

conv_theta.weightnet.net.2.bn.running_var f4 [16]
000000 0d 9a 1d 3e 70 41 2a 3e 5b c9 e0 3d 31 d2 be 3d
       0.15390797 0.16626525 0.109759055 0.093174346
000010 93 9d 99 3d a4 cb 58 3d 3f 35 2c 3e af 8d e3 3d
       0.07500758 0.05292858 0.16817187 0.111110084
000020 dc 0b 9b 3e 78 2a 2e 3d a2 7f 1c 3e 76 0a 81 3e
       0.30282485 0.04252097 0.15283063 0.25203294
000030 52 01 44 3d d6 a5 92 3d cf c1 90 3d 54 8a 1c 3e
       0.04785282 0.07160537 0.07068216 0.15287143

conv_theta.linear.weight f4 [128, 16]
000000 27 35 20 3e b7 a1 62 3e 4a c2 7c 3d fb a8 85 bd
       0.15645276 0.22132002 0.061708726 -0.06526371
000010 62 b9 f2 bd 7a 03 16 3e 2e 10 21 3e 96 e1 4d 3e
       -0.11851765 0.14649764 0.15728828 0.20105585
000020 d0 8c fa 3d 43 05 74 3e eb 25 29 be 60 00 85 bd
       0.12233889 0.23830132 -0.16518371 -0.06494212
000030 32 be e9 bc 57 01 46 3c 19 c2 89 3d c1 77 db 3c
       -0.028533075 0.01208528 0.06726474 0.026790502
000040 3a ba 04 be 8e 7d d6 3d e6 7c 94 bd 13 84 d0 bd
       -0.12961665 0.104731664 -0.07250385 -0.10181441
000050 99 61 2e 3e 5b 83 2a bd fe 8e 7a 3e 2b 9f 03 3e
       0.17029418 -0.041629177 0.2446861 0.12853687
000060 32 c6 68 3d 99 b3 6e 3e 62 2a b7 3d dc ce 20 be
       0.05682964 0.23310699 0.08943631 -0.1570391
000070 fc 29 49 3e c2 b2 62 be 35 75 22 be 28 2e 79 3d
       0.19644922 -0.22138503 -0.15865023 0.060835034
000080 e8 79 f3 bd 2c 94 0b 3e 1d b4 6e 3c 7a 42 7a bd
       -0.11888486 0.13630742 0.01456931 -0.061098553
000090 9d 9d 77 3e 35 cd 46 3d e3 b2 2d 3e 2e 66 59 3e
       0.24181218 0.048535544 0.16962771 0.21230385
0000a0 67 5a fe bd f7 b9 4b 3e b0 04 a0 bd da 6a 6a 3e
       -0.12419587 0.19895159 -0.07813394 0.22892323
0000b0 a0 d9 4c 3e 44 f8 16 3e a9 cc 63 be 04 c9 ec 3d
       0.20004892 0.14743143 -0.2224604 0.11561778
0000c0 e1 20 10 be 7f 08 3c 3e fb 32 6a 3d 7a 56 72 3e
       -0.14075042 0.18362616 0.057177525 0.236658
0000d0 e1 b4 5d 3e a7 6b 8e bd 84 05 36 be 9e 29 a9 bd
       0.21651031 -0.06954127 -0.17775542 -0.08259891
0000e0 3a 16 22 3e ee 71 37 3e 1a 0f 72 3e da 83 b4 bd
       0.15828791 0.17914554 0.23638573 -0.08814211
0000f0 be d4 be 3d 40 be 27 3e f7 b6 d7 bd 89 5a 53 be
       0.09317921 0.16381168 -0.10532945 -0.20640005
000100 72 56 1c 3e c4 65 31 3e c2 a5 63 3e e3 b0 af 3d
       0.15267351 0.17323977 0.222312 0.0857866
000110 01 c7 1f 3e 20 b0 5e be 2f ad 4f 3e 7b eb 07 3e
       0.15603258 -0.21746874 0.20280908 0.13273422
000120 63 4b 63 3c b3 6c 7c bc 28 67 91 bd 72 5a 9e 3d
       0.013872954 -0.015406775 -0.070997536 0.07732095
000130 53 a5 2c 3e fd 2b 6f be 18 5c 15 3e ca 7c 46 be
       0.16859941 -0.23356624 0.14585912 -0.19383541
000140 0e 5c 74 bd 10 10 94 3d 9e d1 61 3e 77 18 c7 bd
       -0.059658103 0.07229626 0.22052619 -0.09721463
000150 ea 27 65 be 64 cd a7 3d ea c3 68 3e c2 15 a8 3d
       -0.22378507 0.08193472 0.22730985 0.08207275
000160 ef 56 d8 bd 43 9f 8f 3b 61 94 d2 3b 83 46 68 3e
       -0.10563456 0.004382999 0.0064263796 0.22683148
000170 03 61 2e be a1 c3 7f 3e 94 2f b9 3c 52 dd a2 3d
       -0.17029195 0.2497697 0.022605695 0.0795237
000180 d2 36 ee 3d 77 bf cf bd 22 30 64 be 7d cf 94 bd
       0.1163155 -0.10143941 -0.22283986 -0.07266138
000190 39 33 8f bd 13 f7 39 3e 06 f7 04 be ef 58 59 be
       -0.06992192 0.18160658 -0.12984857 -0.21225332
0001a0 b4 31 17 bd 8c 0c 21 3d bc 45 3f 3c 24 50 c4 bd
       -0.036912635 0.039318606 0.011674341 -0.09585598
0001b0 8d d9 61 be d7 48 09 3e 33 5a 81 be ea e1 2c be
       -0.22055645 0.13406692 -0.2526413 -0.16883054
0001c0 e3 a0 67 3d 4d 0d 23 be 6a a6 12 bd 0b d9 74 be
       0.056549918 -0.15923043 -0.035803236 -0.2391092
0001d0 6b e6 f6 3d bf 39 14 3e e6 b0 9c bd 3a d2 45 be
       0.120556675 0.14475153 -0.07650928 -0.19318476
0001e0 a1 54 eb bd f3 47 0a bd c5 93 22 be 58 30 f0 3d
       -0.11490751 -0.033760022 -0.15876682 0.11727971
0001f0 92 7d de b9 e2 9e f4 bd 52 61 6a 3e ed 70 11 3e
       -0.00042436697 -0.11944367 0.22888687 0.14203234
000200 1d 9c 9e bd c7 ff d1 3d 87 90 d4 bd 0c b6 dc bd
       -0.0774462 0.10253864 -0.10379129 -0.1077691
000210 70 87 06 3e eb 32 54 be 3a cf 3e be d6 91 85 bb
       0.13137603 -0.20722549 -0.18633738 -0.004076223
000220 02 37 ee 3d 39 bd 3b 3e 03 26 37 3d 98 14 53 3e
       0.11631586 0.18333901 0.044713985 0.20613325
000230 2b c7 a2 bc 10 4e 7d be b7 79 95 bd 4d 21 0a be
       -0.019870361 -0.2473681 -0.07298606 -0.13489266
000240 4b e5 33 bd 22 67 91 3d e9 fd 54 be 7b 3b e2 bc
       -0.043919843 0.07099749 -0.20799984 -0.027616253
000250 52 3b 2d 3d 8c b3 4b bd 8d e3 54 be d4 92 a6 3d
       0.0422929 -0.049731776 -0.20789929 0.08133474
000260 1e 8e 5b 3e 86 ff 5c 3e f2 88 3a 3d 23 5b 02 3e
       0.21440932 0.2158185 0.045540757 0.12730078
000270 0f 89 3e 3e a9 32 0f 3e 80 58 8e bd a5 eb b1 bd
       0.18606971 0.13984169 -0.06950474 -0.08687524
000280 41 4c 7a be 90 49 35 be ae 08 03 be 2c a9 84 3d
       -0.24443151 -0.17703843 -0.1279628 0.064775795
000290 1c 40 ea 3c 60 f3 df 3d c6 dd 7e 3e 1b d2 e0 bd
       0.028595023 0.10935092 0.24889287 -0.109775744
0002a0 60 90 7c be f0 5d 96 bd f9 6a c0 3d fa e5 73 3e
       -0.2466445 -0.07342136 0.093954034 0.23818198
0002b0 1a 98 36 3e c2 c0 6b 3a fa 60 35 be 60 a9 fc 3d
       0.1783146 0.0008993262 -0.17712775 0.12336993
0002c0 b0 5e 09 be 60 fd 19 3e 7d f9 cd bd 70 08 d1 3b
       -0.13415027 0.15038061 -0.10057352 0.0063791797
0002d0 ac b1 08 be 11 1b 13 be b4 0f 31 bd d7 2a d7 bd
       -0.13349026 -0.14365794 -0.043227866 -0.10506218
0002e0 3e e6 4a 3e 51 61 af bd 94 09 71 be 07 a8 44 3e
       0.19814393 -0.085634835 -0.2353881 0.19204722
0002f0 0b dc f5 bc e6 5c 97 bd ea 9a c7 3c f8 4d a0 bc
       -0.030012151 -0.07390766 0.024365861 -0.019568428
000300 1e 8e 40 3e eb 61 35 be 03 11 81 3e 77 5e 25 3d
       0.18804213 -0.17713134 0.2520829 0.04037329
000310 de 00 46 be bd ed a2 3c f7 1e 50 be 71 4a 82 3e
       -0.19336268 0.019888753 -0.20324312 0.2544742
000320 e3 92 1f be 56 03 30 3d 3c 21 78 bd c8 d9 04 bd
       -0.15583377 0.04297193 -0.06057857 -0.032434255
000330 0c 26 b4 3d 6d 8d 6b 3e a9 03 60 be f2 b6 6c 3e
       0.08796319 0.23003168 -0.21876396 0.23116663
000340 7e 4b 7b be 57 1a 31 3e 5c c1 f1 bd f0 eb e0 3d
       -0.24540517 0.17295204 -0.118044585 0.109825015
000350 88 c3 46 3e fe 9d 2a be 2f 98 45 be 1b 2a 83 3d
       0.19410527 -0.16661832 -0.19296335 0.06404515
000360 3b 47 ee bb d0 ba 1c 3e 99 a6 19 3e f6 1e d6 bd
       -0.007271675 0.15305638 0.15004958 -0.10455124
000370 c1 f9 6a 3e 98 90 8b 3d f5 55 2c 3e b5 ef d3 bc
       0.22946836 0.068146884 0.16829665 -0.025871137
000380 ad 77 f7 bd 35 fc 57 bc b0 74 15 3e e7 b6 18 3e
       -0.12083373 -0.013182689 0.14595294 0.14913522
000390 40 59 eb 3d c7 ad 7e be b8 59 5a 3e 69 a1 b3 3d
       0.114916325 -0.24870978 0.21323287 0.08771021
0003a0 6e 50 80 be 54 9e 05 bd 21 ba 53 be 2e b8 31 3d
       -0.25061363 -0.032621697 -0.20676471 0.043388538
0003b0 72 dc d2 bc 1b 78 c9 3d 20 e7 7b be 99 05 11 be
       -0.025739882 0.098373614 -0.24599886 -0.14162292
0003c0 64 99 68 bd d6 99 07 3d 50 25 56 3e 1f 14 2d be
       -0.05678691 0.033105694 0.20912671 -0.16902207
0003d0 f3 97 13 be 4d ab 6c be 2a 0b 34 3d 33 e8 45 3e
       -0.14413433 -0.23112221 0.04395596 0.19326858
0003e0 9e 79 42 bd 85 3b 6c be d5 be 34 3e ef ef 45 3e
       -0.047479264 -0.2306958 0.17650922 0.19329809
0003f0 94 9b 0c 3d 1f fe 47 be 5a a6 22 be 53 60 49 3d
       0.03432806 -0.19530533 -0.1588377 0.049164128

conv_theta.linear.bias f4 [128]
000000 50 f0 5d 3e 2d a9 78 be e4 4f 86 3d 10 82 47 bb
       0.21673703 -0.24283285 0.06558207 -0.0030442514
000010 9a 12 83 be da fd 63 3e e0 ee 0e be 3f 28 23 3e
       -0.2560013 0.22264805 -0.13958311 0.15933321
000020 0e f0 7e be fe ce 48 be c7 11 3a 3c 77 bc 39 be
       -0.24896261 -0.19610211 0.0113567775 -0.181383
000030 a2 25 5e 3e e4 4d cb 3d 92 fa 77 be be 24 be bc
       0.21694043 0.09926966 -0.24216679 -0.02321088
000040 7c 68 00 be b8 46 ba 3d a1 79 14 be 87 89 f2 3d
       -0.12539858 0.0909552 -0.14499523 0.118426375
000050 85 8a 16 be b4 2e 26 be 5c f8 ec bb 59 ce 54 be
       -0.14701279 -0.16228753 -0.007231755 -0.2078184
000060 0a a1 46 3d e4 b7 1b be a6 83 c3 3d df c8 bf bc
       0.048493423 -0.15206867 0.09546594 -0.023411212
000070 c0 92 e7 3d df 9c 14 bd 66 78 24 3d 50 bf c7 bd
       0.11307287 -0.036282416 0.040153883 -0.09753287
000080 1a 7a 25 3e c2 a4 67 3b e9 83 dc bd 79 93 ce bc
       0.1615986 0.0035346006 -0.10767347 -0.025216805
000090 e1 bc e8 3d dd cf 71 ba 4a 62 78 be f5 f0 2f 3e
       0.11364151 -0.00092243945 -0.24256244 0.17181762
0000a0 e1 8b 26 be 75 16 54 3e 3a ba 42 3d 10 1a 96 3d
       -0.16264297 0.20711692 0.04754088 0.0732919
0000b0 33 32 90 3d d6 09 ed 3d e5 b3 7a 3e 7f 94 36 bd
       0.07040825 0.11574142 0.24482687 -0.04457521
0000c0 5e 71 16 3e 58 a5 1e bc 88 19 5e 3d 80 37 56 3e
       0.14691684 -0.009682976 0.054223567 0.20919609
0000d0 fb db 38 3e 53 3c 67 be 79 49 ea 3d e6 80 41 be
       0.18052666 -0.22581606 0.11439795 -0.18896827
0000e0 83 bd 9b 3c 1c fe d7 bd f4 53 e2 bc 92 30 2b be
       0.019011265 -0.105465144 -0.027627923 -0.16717747
0000f0 07 35 7c 3e 2b 8f 5e bd d2 85 2d 3e 57 8c 4f be
       0.24629603 -0.054335754 0.1694558 -0.20268379
000100 75 99 68 3e fa e3 b3 3d 23 2c 40 3e a9 41 8e 3c
       0.22714789 0.087837175 0.18766837 0.017365294
000110 5c 36 12 3d 7f ea 52 3e ee 96 49 3e 6a b0 02 be
       0.035696372 0.20597266 0.19686481 -0.12762609
000120 d2 08 64 3e 31 14 0c 3e b7 17 88 bd 8e cf 57 3d
       0.2226899 0.13679577 -0.06645148 0.052688174
000130 ef 99 16 3e d1 3d 9f bd 54 db 17 be 7d 2b 4a 3e
       0.14707159 -0.077754624 -0.14829761 0.19743152
000140 1f 1c 3c be d7 da 9f 3d 32 79 1a bd d4 d1 28 bd
       -0.18370102 0.07805412 -0.037713237 -0.041215733
000150 de 42 98 bc 86 fe 7d 3d 51 88 ba 3d b0 c4 5d 3d
       -0.018586572 0.06201031 0.091080315 0.054142654
000160 75 f6 d6 bd 1e 38 6a 3d cd be 9d bd 89 22 3c be
       -0.10496227 0.057182424 -0.07702408 -0.18372549
000170 1b 05 27 be 55 f6 a7 bd b2 46 44 be 1d 00 66 be
       -0.16310541 -0.08201281 -0.19167593 -0.2246098
000180 8d 32 36 be 55 d0 0a 3e d1 3c 1e 3e f5 6e b5 bd
       -0.17792721 0.13556035 0.15452887 -0.08859054
000190 3f 9b 1b 3e e2 09 d7 bd 67 67 e9 3d b7 dc 7a be
       0.1519594 -0.10499932 0.113966756 -0.24498259
0001a0 77 77 96 3c 8a 39 ed ba 06 b5 74 3e 26 32 80 3e
       0.018367512 -0.0018098813 0.2389718 0.2503826
0001b0 22 76 20 be ad 08 5e be b0 eb 21 3e 09 64 08 be
       -0.15670064 -0.21682997 0.15812564 -0.1331941
0001c0 37 dd 45 be 6e 06 a5 3a 10 e5 35 3e 13 7b 25 3e
       -0.19322668 0.0012590417 0.17763162 0.1616023
0001d0 17 30 35 3e 9d 70 30 3e 69 d1 a6 3d 08 b6 67 be
       0.17694126 0.17230459 0.081454106 -0.22628033
0001e0 9c fb 7a 3e 24 50 13 be 33 f2 48 3c 19 12 9b bd
       0.24510044 -0.1438604 0.012264776 -0.07571811
0001f0 5b 9a a9 bc 06 89 4b bd 26 f5 fc 3c 8a 2f ba bc
       -0.020703485 -0.049691223 0.030878615 -0.022727747

cnn.0.module.weight f4 [128, 256]
000000 7c 74 10 3d 3d 7b 52 bc 7a 93 f8 bc ab c1 7e 3d
       0.03526734 -0.012846765 -0.03034376 0.062196415
000010 3c 6e e6 bc 94 9b 1d 3d 2e 4a 88 bd 00 69 e4 bc
       -0.028128736 0.03847845 -0.06654774 -0.0278821
000020 43 d1 89 bd 0d 15 7f bc 57 10 bd 3b a5 94 45 3c
       -0.06729367 -0.015568984 0.00576977 0.012059365
000030 08 5e 68 bd 9b 74 50 bc 8c 32 3f 3d 86 2a 17 3c
       -0.0567303 -0.012723113 0.046679065 0.009226447
000040 91 2a 44 3d 55 d9 4e bd b5 b8 83 bd 62 53 df bc
       0.047892157 -0.050500233 -0.064317144 -0.02726144
000050 e3 ff 3e 3d 65 23 24 3d 82 26 14 bc be 74 b4 3c
       0.04663075 0.040072817 -0.009042384 0.022028323
000060 8b 82 d0 bc 2c 26 cb 3c 3a 91 1c bd d1 a2 9e ba
       -0.025452873 0.024798475 -0.038224436 -0.0012102966
000070 71 0d 02 bd b7 7d 06 3c 36 d0 5c 3d 7f 99 c3 bc
       -0.0317511 0.008208684 0.053909503 -0.023876904
000080 4c 91 46 3d b3 51 10 bd a5 49 1a bc b8 9e af bc
       0.04847841 -0.035234164 -0.009416972 -0.021437988
000090 47 d4 45 bd 2c bc 5d 3d 24 d1 0f bd 44 5b 6a bc
       -0.048298147 0.054134533 -0.03511156 -0.014303986
0000a0 2b f2 60 bd 6a 63 3f 3d 80 5e c9 3c 8e f9 5c 3d
       -0.05491845 0.046725668 0.024581194 0.05394893
0000b0 b4 8b a8 bc a8 53 1b 3d 06 82 4a 3d 3a d2 c5 3a
       -0.020574428 0.037921578 0.049440406 0.001509256
0000c0 0c fc ab ba 59 1b be bc 12 91 6c 3d 44 36 3c 3d
       -0.001312138 -0.0232064 0.057755537 0.04595019
0000d0 1c 62 90 3c 42 07 5b bc a6 75 6b 3d 5c a8 e1 3c
       0.017624907 -0.01336843 0.057485245 0.0275461
0000e0 16 f0 2c bc c9 7b 17 bd 63 32 28 bd bf 4a a3 bc
       -0.010555288 -0.036983285 -0.041063678 -0.019933103
0000f0 da 10 8d bc df 75 7a 3c 3f 0d 15 3d e1 30 ec 3c
       -0.01721995 0.015286892 0.036389586 0.028831901
000100 43 29 6c bd 37 a9 f1 3c 4e 63 49 3d da 11 e6 3c
       -0.057656538 0.029499633 0.04916697 0.028084684
000110 e5 6a b9 3c d0 d1 4f 3d dd 4a 21 bc f3 9a 56 bd
       0.02263398 0.050737202 -0.009844509 -0.052393865
000120 c5 42 d3 bc 6f 2d ee bb b3 c0 3a bd f2 5f 02 ba
       -0.025788674 -0.0072685997 -0.04559393 -0.00049734034
000130 20 fe 00 3d 52 8b 89 bd 3f 96 73 3d 7b ec 1c bc
       0.031492352 -0.06716026 0.059469458 -0.009577866
000140 83 9d 08 bd 6f 17 3e 3d 3d e4 ad bb 31 3d 6b 3d
       -0.03335334 0.046409067 -0.005306749 0.057431404
000150 db 05 14 3a 70 e0 d7 3c 31 41 e2 bb ee 9c 7c 3d
       0.00056466245 0.026352137 -0.006904744 0.061673097
000160 cb e7 db 3b f4 02 c0 3c 16 54 b9 bc d1 0d 3c 3d
       0.0067109815 0.023438908 -0.022623103 0.045911614
000170 dd c8 a5 3c 67 30 11 bd 38 9c 21 3c 59 7c 60 bd
       0.02023738 -0.03544655 0.009863906 -0.054806087
000180 18 6d 1f 3d ef ff 31 bd 07 ec 3f bc 4b 11 33 bd
       0.0389224 -0.043456968 -0.011713988 -0.043717664
000190 de d2 c3 bc 0c 3f 19 bb 82 dc 38 bd 8a 5f 35 3d
       -0.02390426 -0.0023383526 -0.045132168 0.044280566
0001a0 80 0b 58 bd 90 97 7f bd 04 14 6b 3d 6c 15 64 3d
       -0.052745342 -0.0624004 0.057392135 0.055684492
0001b0 7d 49 59 bd 1e a7 84 3d 28 7c 5e bc f3 ba 57 bb
       -0.0530486 0.064771876 -0.013579406 -0.0032917827
0001c0 40 57 e9 3c 4e 1b 27 3d 89 77 1e bd 4a 5c 83 3d
       0.028483987 0.040797524 -0.038688216 0.06414087
0001d0 4d 3b f3 3b 76 8d 23 bd 82 d6 58 bd 98 65 e8 bc
       0.0074228407 -0.03992983 -0.052938946 -0.028368756
0001e0 24 17 cf bc 39 ed 87 3d cc 1b 51 3d cb 89 1d 3d
       -0.025279589 0.066370435 0.0510519 0.038461488
0001f0 2a 88 1c 3d 56 9d d2 3b d0 ec b5 3c aa 62 34 bd
       0.038215794 0.0064274473 0.022207648 -0.044039406
000200 1e 20 2b bd 10 48 84 bd 4c ef ad bb 94 81 46 3d
       -0.041778676 -0.06459057 -0.0053080674 0.04846342
000210 d2 ea 53 bd f5 3b 60 3c a9 f3 78 bd fc 91 36 3d
       -0.051737614 0.01368617 -0.060779247 0.044572815
000220 ba 4a 82 bd 53 4b 1e bc be f8 ec bc 2a 07 55 bd
       -0.06361909 -0.009661513 -0.028927203 -0.052008785
000230 a3 88 73 ba 0b a0 ab 3c 87 c7 20 3d 1e 25 1a 3d
       -0.0009290075 0.020950338 0.039252784 0.037633054
000240 72 d4 65 3d 39 ee 51 3d 3e 21 95 bc 22 73 5d bd
       0.056110807 0.051252577 -0.018204328 -0.054064877
000250 4e 7b f1 bb ec 85 b1 bc 7c 01 e1 bb b6 b9 8b 3c
       -0.0073694354 -0.021670304 -0.006866632 0.017056327
000260 fb c3 7e bc 66 c0 21 bc 5b 2a 26 bd f1 55 86 bd
       -0.015549655 -0.0098725315 -0.040567737 -0.06559361
000270 04 c4 14 3c c0 50 a2 bc 31 46 60 bb 8d f9 be 3a
       0.009079937 -0.019813895 -0.0034221525 0.0014570222
000280 f1 b7 7d bd 12 02 1d bd 46 e9 89 3d 1d 23 e5 3b
       -0.061943 -0.038332053 0.067339465 0.006992711
000290 aa e7 b3 bc b5 ee f5 3b 12 b7 a3 bc ee e6 35 3d
       -0.021961052 0.0075052627 -0.019984756 0.044409685
0002a0 5a 91 53 3c 6f 7a 57 bd b2 4c 86 bd a2 1e 25 bd
       0.0129130725 -0.052606996 -0.06557597 -0.040312417
0002b0 7e fe be 3b e8 b0 31 bc 85 b4 e2 bc 9d a2 9c bc
       0.0058286777 -0.0108454 -0.027673969 -0.019120509
0002c0 20 ba 4d bd 5a 62 62 bc 3a b1 3b 3d 4e 18 49 bb
       -0.05022633 -0.013817394 0.045823313 -0.0030684653
0002d0 d8 1f 84 3b c6 1b a7 3c f2 e4 2e bb d1 45 5f 3d
       0.0040321164 0.020398986 -0.0026686755 0.05450994
0002e0 7a 7e ca ba 63 ee 3a bd b9 76 11 3d be 5f 4d bc
       -0.001544907 -0.0456375 0.035513613 -0.012535034
0002f0 75 68 84 3d 41 da 1b 3d 90 ce 9e 3b 05 71 03 bd
       0.06465236 0.03804994 0.0048464015 -0.032090206
000300 97 f7 c4 bb af 79 9e 3c 6c 0c 03 3d be 52 62 3d
       -0.0060109603 0.019345133 0.03199427 0.05525469
000310 db cb e1 3c 1c bc 87 bc 83 72 a4 bc 7f 5a 07 ba
       0.027563026 -0.01656919 -0.020074135 -0.0005163326
000320 e9 47 03 bd 12 ed 2b bc f9 f3 e1 3c ff f3 95 bb
       -0.032051 -0.010493534 0.027582156 -0.0045762057
000330 4d 0c 42 bd 69 fa 82 bd bf a6 11 bd 7b 01 58 bd
       -0.047375012 -0.06395418 -0.035559412 -0.052735787
000340 b0 83 ca 3c 98 34 64 bd e4 cc 43 bd 8a d6 55 3d
       0.024720997 -0.05571422 -0.04780282 0.052206554
000350 a4 d0 1e bd 93 98 23 bd bf 1f 34 3d 3d 3f b3 bb
       -0.038773194 -0.039940428 0.043975588 -0.005470185
000360 03 d5 ce bc 6d 38 78 bc e0 32 78 3c 95 0a 42 bd
       -0.025248056 -0.015150172 0.015148848 -0.047373373
000370 30 ef 72 bc 3b 0a df 3c a8 d2 8a bc 50 15 84 bd
       -0.014827535 0.027226558 -0.016946152 -0.064493775
000380 86 d3 7e bc b6 aa 3a bd bc 41 69 3d 84 0b fe 3c
       -0.015553361 -0.04557296 0.056947455 0.03101135
000390 b4 78 02 3c f5 bf d4 38 67 b9 9f bc 59 bc 80 3d
       0.007963348 0.000101447025 -0.019497586 0.062859245
0003a0 18 dd df bc 9a c2 29 bd d2 db 1a 3c b5 77 99 bc
       -0.027327105 -0.041445352 0.009451823 -0.018733839
0003b0 1f eb b3 bc b9 21 e3 bc 83 88 14 bd ff 5b eb 3c
       -0.0219627 -0.027726041 -0.036263 0.02873039
0003c0 4a a0 43 3d 48 60 4b bd bd 24 40 3d 10 77 70 3a
       0.047760285 -0.049652368 0.046910036 0.0009173015
0003d0 1b 2b 30 3d 35 3f 30 bd 96 81 8e bc 8b 0a 8c bc
       0.04300986 -0.04302903 -0.017395776 -0.017094871
0003e0 33 a8 2a bc e0 15 0d bd 3d 0b 8c 3b 12 47 10 3d
       -0.010416078 -0.03444469 0.0042738006 0.035224028
0003f0 32 41 9f 39 20 4d df bc 68 1a 2b bd a9 7e 71 bd
       0.00030375418 -0.027258456 -0.04177323 -0.058958683

cnn.0.module.bias f4 [128]
000000 a9 71 4c bd 60 c4 8e bb 3f a8 2b 3d db a4 3d 3d
       -0.049913082 -0.004356906 0.0419085 0.046299797
000010 db dc a9 3c 6d 10 4a 3d 02 82 64 bd 94 ea 32 bd
       0.020735195 0.04933207 -0.055788048 -0.043680742
000020 ab 2d 5c bb 40 37 21 bc 0d ac 4c 3c eb b8 44 bd
       -0.0033596556 -0.009839833 0.012492192 -0.048027914
000030 bf 1f 52 3d 00 7e 64 bd 42 5c 4a 3d 69 89 09 bd
       0.051299807 -0.055784225 0.04940439 -0.03357831
000040 e0 32 f3 3b c2 73 1c bc ae 06 57 bd 8f e2 84 3d
       0.0074218363 -0.009549083 -0.052496605 0.06488525
000050 7b 12 09 bb 73 79 8c 3d 3d 80 63 3d 74 fd cc 3a
       -0.0020915556 0.06859102 0.05554222 0.00156395
000060 fa 6a 6e bc fc f6 84 bc e8 82 01 3c 38 38 60 bc
       -0.014551872 -0.016231053 0.007904746 -0.013685279
000070 a6 a2 4d bd 49 94 21 bb 6f b6 78 3d e8 0f 13 3d
       -0.05020394 -0.0024655035 0.060720857 0.03590384
000080 e6 7d 33 3d 92 9e de 3c 0c 35 98 3d 3d 0f 80 bd
       0.043821238 0.027175222 0.07431993 -0.062529065
000090 b7 4c 8f 3c 56 cf 24 bd f9 79 02 bb a3 09 8f 3d
       0.017492635 -0.040236793 -0.0019909127 0.0698426
0000a0 4e fa 43 3d f0 61 00 3c e3 c9 31 3c 3c 8b 59 bd
       0.04784613 0.00783585 0.010851356 -0.0531113
0000b0 f7 48 73 bc 3b 42 76 3d 0f 83 0e 3c 64 58 30 bd
       -0.014848939 0.060121756 0.008698239 -0.043053046
0000c0 e6 a6 ee bc 6b a9 ed 3b 6a 2d 7e 3d 38 87 24 bd
       -0.029132318 0.007252862 0.06205503 -0.040168017
0000d0 6c f6 a9 3d ea 4e bb bc e4 58 87 3d bd f7 98 bc
       0.08298954 -0.022864778 0.066087514 -0.018672818
0000e0 f9 97 fe 3c 2f 2b 9e 3b 6d 75 5b 3d 40 b7 14 3d
       0.031078326 0.004826925 0.053578783 0.036307573
0000f0 09 41 19 3d d1 2c 3b 3c bd d1 24 bc b7 ac 3c bd
       0.037415538 0.011424259 -0.010059771 -0.04606315
000100 e2 db af 3c c8 04 e9 3c 06 74 4c 3d 40 1f 1c 3d
       0.021467153 0.028444663 0.049915336 0.03811574
000110 b4 5f a7 bb e1 59 02 bd 0b 18 bc 3c 68 de 95 3b
       -0.0051078442 -0.031823996 0.022960683 0.004573632
000120 5c 96 d5 bb 39 39 a4 bd de 29 8c 3b b4 9f 17 3d
       -0.0065181684 -0.08018727 0.004277452 0.03701754
000130 f6 40 83 3d 1a 58 d8 3c 63 6c 82 3d 6f 43 8e bc
       0.06408875 0.026409198 0.063683294 -0.01736614
000140 c4 c2 1d bc 1a b2 93 3d fb e3 79 3d c3 17 e1 3c
       -0.009628955 0.072117046 0.061008435 0.02747715
000150 09 00 cb bb 36 fc 30 bd 77 a2 20 bd 9c 8d 0c bd
       -0.0061950726 -0.043209277 -0.03921744 -0.034314737
000160 61 60 80 3c 17 12 52 3d f6 d3 50 3d e8 33 37 bd
       0.015670957 0.051286783 0.05098339 -0.044727236
000170 94 b2 85 bd 79 e6 26 3d d0 2b fc bb d8 82 01 bd
       -0.06528202 0.04074714 -0.0076956525 -0.031618923
000180 83 17 5f bd 4b 2f 60 3d 4d 78 9e 3c a7 f3 e3 3b
       -0.054465782 0.054732602 0.019344473 0.006956536
000190 86 8c 22 3d 4b 89 6f 3c e4 20 aa bb 39 11 64 bc
       0.039684795 0.014620136 -0.005191909 -0.013920122
0001a0 22 53 4c 3d 77 38 06 bd dc 63 6f bd da c2 ae 3c
       0.04988397 -0.032768693 -0.058444843 0.021333147
0001b0 27 77 5e bc 5a 19 25 bd 1d fb 1b bd 01 df 78 bd
       -0.013578213 -0.04030738 -0.038081277 -0.060759548
0001c0 98 b5 7b 3d 27 7d 46 3d 19 44 77 3d c0 88 17 3d
       0.06145248 0.0484592 0.060367677 0.03699565
0001d0 8f 52 04 3d 87 59 7e bc fe db 8d 3d e0 07 b9 3d
       0.032305297 -0.015524275 0.06926726 0.09034705
0001e0 48 53 4e 3d f8 60 84 3d 02 4e bf 3c 22 86 2f 3d
       0.050372392 0.06463808 0.023352627 0.04285253
0001f0 c4 88 24 bd 05 bf 21 3d c8 4e 07 bd 4b 13 10 3d
       -0.040169492 0.03948881 -0.033034116 0.03517465
