weights/clock_weights/model_weight-SE2.pth (torch_old, 925177 bytes, 184 tensors)

conv_theta.weightnet.net.0.linear.weight f4 [32, 3]
00000000: 4801 88bd a6fb f93e 954d 05bf 885a ef3e
00000010: aa1b 46be 72d7 84bd ce4a 01be 7c60 a0be
00000020: b4f9 48be a02e e3bc 8a71 c93d 3ddf cc3e
00000030: 5cbd 043f 003f a9bd 9040 98be e016 8b3d
00000040: 85b2 5cbd 1449 bf3e 3445 debe 36f8 353e
00000050: acec 63be f6d3 8c3e 00b0 c0bd 14a0 0d3f
00000060: 1ceb 603e 5bed be3e de46 29be 76db ce3e
00000070: 91de aebe 1d1e a23e 683f d8bd a31c b6be
00000080: 17ab f33e fcd1 e6be b17e e03e 0e7d 573e
00000090: 646c b1bd 843b 30be 850f 41be cee5 fdbe
000000a0: 09ee acbe 8911 6dbe f4e6 0b3e 6bcc 66be
000000b0: a55e a43e 985f 4d3e 9aff 07be ced4 8a3e
000000c0: d25f 7dbe 4fc8 213e 26cf b13d 92ce 95be
000000d0: f4f3 a43e ebde 38bd e4da 03bf 2039 b33e
000000e0: 0b83 173e fcfa 373e 2460 55be 0d3f 97be
000000f0: 383c fabd 5f37 083f 1144 0a3e 3c83 d83e
00000100: eab9 66be e184 12bf decf 6abe 5a47 c63e
00000110: 8111 9f3e 0015 5d3d 2e15 b5be 9e85 0cbd
00000120: e8c4 6d3e d411 b73e ac41 f83c c997 e9be
00000130: a30e f83e 6d86 fe3e e847 f83e 9ffc 82be
00000140: 14eb 633d 8031 463c 611a 0d3c 1ca3 8e3e
00000150: 49b7 02bf e777 0e3f f51c 063f a40d 673e
00000160: 63b1 03bf 9c18 b03c 6003 023e 1c4d 2fbe
00000170: 469b 8dbe 60ad 29bd 5814 f93d 0d48 fb3d
-0.066408694 0.48824805 -0.52071506 0.46748757 -0.1934649 -0.064864054 -0.12626192 -0.31323612
-0.19626504 -0.027732193 0.09836109 0.40014067 0.5185144 -0.082639694 -0.29736757 0.067914724
-0.053881187 0.37360442 -0.43412173 0.17770466 -0.22258252 0.27505463 -0.09408569 0.55322385
0.21964687 0.37290463 -0.1653094 0.4040181 -0.3415418 0.316636 -0.10558969 -0.35568723
0.4759147 -0.4508208 0.43846658 0.21043798 -0.08663252 -0.17210203 -0.18853576 -0.4958939
-0.33775356 -0.2315122 0.1366232 -0.22538917 0.32103458 0.20055997 -0.13281098 0.27115482
-0.24743584 0.15799068 0.086820886 -0.29259163 0.3221737 -0.045134466 -0.51505876 0.3500452
0.14796083 0.17966837 -0.20837456 -0.2954029 -0.12218517 0.5320949 0.13502528 0.42287624
-0.22531858 -0.5723401 -0.22930858 0.38726312 0.31068042 0.053975105 -0.3536772 -0.034307115
0.23219645 0.3575579 0.030304752 -0.45623615 0.48448667 0.49711934 0.4849236 -0.2558336
0.05564411 0.012096763 0.008612246 0.27858818 -0.5106092 0.55651706 0.52387935 0.22563797
-0.51442546 0.02149611 0.126966 -0.17119259 -0.27657527 -0.04142511 0.121620834 0.12269602

conv_theta.weightnet.net.0.linear.bias f4 [32]
00000000: 89ea f8be 7405 e4be 16de 1abe 63c5 483c
00000010: 92d0 e4be 444a 71be 044e 0b3f fefd 96be
00000020: 65c9 6a3e 3ce6 4c3e 87cc 5d3e 63ce c4bd
00000030: 4b5c d4be a080 033f dc20 8abe 885c 0b3f
00000040: a673 a3be 48ad 743e a628 6cbe 6567 493e
00000050: ed66 dbbd dac4 563c d9db 94be 821b 593b
00000060: 199d ed3e 4852 ce3e 0585 963d 4d45 fc3d
00000070: b54d b6be 2faf c83e 4198 d9be aea1 c63e
-0.48616436 -0.4453541 -0.15123782 0.012254092 -0.44690377 -0.23563486 0.5441592 -0.29490656
0.22928388 0.20009702 0.21660052 -0.09609678 -0.41476664 0.5136814 -0.26978195 0.54438066
-0.3192417 0.23894227 -0.23062381 0.19668348 -0.10712991 0.0131084565 -0.2907398 0.0033127968
0.46408918 0.4029715 0.0734959 0.123179056 -0.3560616 0.39196154 -0.42498973 0.38795227

conv_theta.weightnet.net.0.bn.weight f4 [32]
00000000: b1af 833f d370 843f 9cb4 7c3f 38c6 773f
00000010: 9504 823f 110f 793f d195 7c3f 9a7c 853f
00000020: 192a 843f 24ad 7b3f 5bfe 7e3f 9b2e 793f
00000030: 9509 7b3f a197 813f 5cbf 843f 6f21 833f
00000040: d9c7 7a3f 0998 7a3f ceec 813f 935b 833f
00000050: 1c47 823f 09db 803f dbe2 7b3f 8867 813f
00000060: 08de 7d3f 82e8 823f 7ce9 7d3f a43e 823f
00000070: 10bc 7b3f b761 833f 167e 813f d633 743f
1.0287992 1.0346931 0.9871309 0.9678683 1.0157648 0.97288615 0.986661 1.042865
1.0325347 0.98311067 0.99606866 0.9733674 0.98061496 1.0124398 1.0370898 1.0244578
0.97961193 0.9788824 1.0150392 1.0262321 1.0177951 1.0066844 0.9839303 1.010972
0.9916692 1.0227206 0.99184394 1.0175366 0.98333836 1.0264195 1.0116603 0.95391595

conv_theta.weightnet.net.0.bn.bias f4 [32]
00000000: 4b0f 963b d469 a13c 344b 5dbb 43b9 a9bc
00000010: f07a 40b9 d522 fcbc 1df1 7fbc 3373 77bc
00000020: bbf8 0a3c bad3 363c 462c 8ebc 0490 abbc
00000030: d15a fbbc 0a62 883c f437 c13c 9811 36bc
00000040: 3537 89bc a666 23bc e14d 1b3b 98da be3c
00000050: fc29 963b cce3 823c ada4 0dbc 9d1c 543c
00000060: 62bf c0bb 2fbe 5b3a bd1c b5bc f51e a939
00000070: 31a7 763c db93 8aba aad8 293c 6970 00bd
0.00457946 0.019703783 -0.0033766748 -0.020718222 -0.00018356345 -0.030778328 -0.015621451 -0.015103149
0.0084821535 0.011158878 -0.017355096 -0.020942695 -0.030682953 0.016648311 0.02358625 -0.011112593
-0.016749958 -0.009973204 0.0023697542 0.023297593 0.0045826416 0.015977763 -0.008645219 0.012946275
-0.0058821896 0.00083825266 -0.02210843 0.00032257257 0.01505451 -0.0010572629 0.010366598 -0.031357203

conv_theta.weightnet.net.0.bn.running_mean f4 [32]
00000000: 161e f9be 20f2 e3be 73ae 1abe 23a6 483c
00000010: fcd1 e4be e236 71be 2944 0b3f 5deb 96be
00000020: bf86 6a3e c42f 4d3e 721e 5e3e 7e64 c5bd
00000030: 4c4e d4be 428c 033f c305 8abe 4664 0b3f
00000040: 5884 a3be 1d67 743e c761 6cbe f784 493e
00000050: ab12 dcbd 8071 583c 9df5 94be e0d2 673b
00000060: b37d ed3e 4a2d ce3e 78e0 963d 594e fc3d
00000070: f672 b6be 52dc c83e 828c d9be c796 c63e
-0.48655766 -0.44520664 -0.1510561 0.012246641 -0.44691455 -0.23556092 0.5440088 -0.29476443
0.22902964 0.20037752 0.21691301 -0.09638308 -0.41465986 0.5138589 -0.2695752 0.5444988
-0.31936908 0.2386746 -0.23084174 0.19679628 -0.10745748 0.013210654 -0.29093638 0.0035373494
0.46384963 0.40268928 0.07367033 0.12319631 -0.35634583 0.3923059 -0.4249001 0.3878691

conv_theta.weightnet.net.0.bn.running_var f4 [32]
00000000: 26e2 9b41 b2c5 cb3f e523 a740 b0ba cf40
00000010: 2708 6940 ca50 ae40 3e8a 4640 c4a8 4041
00000020: 1ea3 cb40 a8b8 0441 2bfe 5741 42ae 1041
00000030: 656c 1f40 9f1c cd40 4749 bc40 bc1e 5f40
00000040: 1f00 9f3f 7380 8140 58ab b040 acda 9f40
00000050: 6251 3841 a164 6741 d3c3 1641 5d79 9a40
00000060: 6487 9d40 3b5b 9341 00bf 2740 500c 3e40
00000070: 9ea4 b241 812e 2241 506a 8140 0509 923f
19.485424 1.5919707 5.2231317 6.491539 3.6411226 5.447362 3.1021876 12.041203
6.363662 8.295082 13.499553 9.042543 2.4909909 6.409744 5.883945 3.4862509
1.2421912 4.04693 5.520916 4.9954433 11.519869 14.462068 9.422809 4.827315
4.922777 18.419546 2.6210327 2.9695015 22.33038 10.1363535 4.0442276 1.1409003

conv_theta.weightnet.net.1.linear.weight f4 [32, 32]
00000000: 9d79 15be e81d 2abd bb23 033e 654d abbc
00000010: fde2 32be 18d1 8e3d f3f2 b5bc 00cb c6bd
00000020: 86b0 113e 0e0d 4fbd bd3d 9cbc 334a 833d
00000030: 5f8f 29be 032c e13d 365b 28be ecef 063e
00000040: a382 1ebd 8e01 12bc 61ee fbbd 3c8b d5bd
00000050: af51 e33d 2a3c ab3d 5dad 8a3d 0faf 9dbc
00000060: e7e7 2bbe d6ff fbbd 577d de3c 57cf 05bc
00000070: 4256 06be fff5 18be d61b 993d b5fd 023e
00000080: b85a 5e3d 93eb b53d 1605 17be 0a12 223e
00000090: 6421 0f3e 71d8 763d e9c5 fabd dedc 1dbe
000000a0: 8705 d0bd aae8 043e 2344 d1bd 823d de3d
000000b0: 1dfb 73bc 6be7 1abe 212d 7dbd d384 2ebe
000000c0: bc97 0d3e 5118 363d 3bf0 103d 4283 f3bd
000000d0: 67ce 36bd bcb4 25bd 3529 9d3c e9ab 023e
000000e0: 11c9 32be 004b 0ebe 4919 f93d 0dea 6dbd
000000f0: 63df a6bd fabb 19be be20 c73d 877f b1bc
00000100: 3c12 443d 2ba4 85bd 299a 9b3d 8e01 1dbe
00000110: 941d 933c 9867 f0bb 1840 10be f1e1 1dbd
00000120: be6e 823d 6edf a1bc dc5b 74bc 69d7 233e
00000130: 7a46 0abe b186 a13d 431e 0a3e 5ede 28be
00000140: e1f2 c63d 5ac1 e23d 9c53 f1bd 8111 273d
00000150: e8cd 183e 00a5 023e fedd c3bd ba43 d23d
00000160: 8a18 f0bb 26b2 a9bd 8cdd d4bd e236 31bd
00000170: 2628 113e 23fc e9bd d2c8 27bd 2581 babb
00000180: 1101 cc3c aeda d3bd ba77 b13c 04e1 8b3d
00000190: a44c 54bd 478a 38bd ca45 89bd d6f9 2dbe
000001a0: 5e55 0abe 1c2b f73d 8347 67bd c029 d43d
000001b0: 4593 923d d80b 64bd f57b 29be 0150 943d
000001c0: d308 043e d3c1 f4ba cf2c 53bd 8866 1dbd
000001d0: 425c 28be 06dd 13bd e73c b73d c6ed a33d
000001e0: 0169 013d d689 52bc e325 dabd ea5d 2ebe
000001f0: 3983 eebd 0bcc a33d b9c0 0ebe 3ba9 b03b
00000200: 22f8 a53d 1648 10be df9e 9ebc e5b7 15be
00000210: a873 0a3e 585b 3a3c 95a3 18bc 909f cc3c
00000220: 0012 873d e4bc a4bd 432e 1abd 71b5 45bb
00000230: b0a2 8c3c 32e4 24be 78ac 903d 44cb 39bd
00000240: 163f 393e 7069 ee3d 9222 b63d d566 b33d
00000250: d247 413e 1d2a 84bc dccb 97bc 9a02 ac3d
00000260: 295b cbba 003d c4bd 6f41 ee3c 2f6e 1e3e
00000270: d394 bb3d fdba 6e3d 7e13 22be bd2d 113e
00000280: 2019 94bd bda7 933d e0b0 12be 3a2b 623c
00000290: 6ce1 16be fed9 89bd 277b 45bd b9aa a0bd
000002a0: 02cc f13d 2261 e93c 0c44 f6bd 139b 1ebd
000002b0: 4348 883d 272c f1bd 7849 123d 569f 1fba
000002c0: 3211 08be 5d93 913d e1e6 abbd 6be1 0dbe
000002d0: 92ad eabd 8c05 b3bc dd3b 8f3d 2893 ccbd
000002e0: 8b10 2dbe 71bf cc3d 68ae 9ebd 0975 0abd
000002f0: 8bf0 ec3d 882d dd3c ec06 853d 02a7 e5bd
00000300: d474 a1bd 4185 17be d284 04be 9413 0f3c
00000310: 390e 39be a929 ffbd 8f77 823d 07b6 b43d
00000320: e60f 4ebd e017 d9bd 689f 323d 5bd9 6c3d
00000330: 00e3 98bd 54e3 60bd c32e c53d 6c9e 9e3d
00000340: 84a9 09bd 585f 40bd 7e5d b83d dc5e 9ebc
00000350: d724 803d 1976 1e3d 44d2 ff3c ef74 6b3c
00000360: a00d 2f3e 5d87 26be 7467 c3bb 051c 83bd
00000370: d1a1 013d c094 15be 653c df3d d910 b33c
00000380: ece2 febd 5ae7 28be 554c 00bd 237f d63d
00000390: 8883 0a3e 6046 3abe e4fc e5bd 065b 18be
000003a0: b9f2 403c 9403 1ebe 0812 a03d db72 67bd
000003b0: ee71 233d d4de 8dbd 74b0 413d 849d 1e3e
000003c0: ce62 95bd 8665 e9bd 6b79 803c 40c8 ffbd
000003d0: 4058 cebd f15a 063d aafd 723d 4e69 2a3c
000003e0: b10f 2f3d 9098 1f3d 529b 37bb ee11 dabc
000003f0: 6a4b 1abe 0d16 0fbe b153 a5bc e1cf b1bd
-0.14597173 -0.041532427 0.12806599 -0.020910928 -0.17469402 0.06973475 -0.022210574 -0.09706688
0.14227495 -0.05054956 -0.019072408 0.06410637 -0.16558598 0.10994723 -0.16441044 0.1317746
-0.038698804 -0.0089115035 -0.123013265 -0.104269475 0.11099564 0.08361085 0.06771348 -0.019248514
-0.16787682 -0.12304656 0.027159376 -0.008167109 -0.13118842 -0.1493759 0.074760124 0.12792094
0.054285735 0.08882823 -0.14748034 0.15827194 0.13977581 0.06026501 -0.122447796 -0.15416285
-0.10157304 0.1297938 -0.10218074 0.108515754 -0.014891413 -0.15127341 -0.061810616 -0.17042856
0.13827413 0.044456784 0.03538535 -0.1189027 -0.044630434 -0.040455565 0.019184688 0.12760891
-0.17459513 -0.13895798 0.12163026 -0.058084536 -0.081480764 -0.15013114 0.09723042 -0.021667255
0.047868952 -0.06525453 0.07597763 -0.15332624 0.01795844 -0.007336568 -0.1408695 -0.038545553
0.06368779 -0.01975986 -0.014914479 0.16000141 -0.13503447 0.078870185 0.13488106 -0.16491076
0.09714294 0.11072035 -0.11783525 0.040788177 0.14922297 0.12758255 -0.09563826 0.10266824
-0.007327144 -0.08285932 -0.10393819 -0.04326523 0.14175472 -0.114250444 -0.040963 -0.0056916648
0.024902852 -0.10344444 0.021663535 0.06830028 -0.051830903 -0.045053747 -0.06702764 -0.16989836
-0.13509127 0.12068769 -0.056464683 0.10359526 0.07156996 -0.055675358 -0.16551192 0.07241822
0.12893991 -0.0018673487 -0.051556405 -0.03842786 -0.16441444 -0.036099456 0.08947163 0.08004336
0.03159428 -0.012850245 -0.106517576 -0.17028013 -0.116461225 0.079979025 -0.13940705 0.0053912676
0.08103968 -0.14089999 -0.019362865 -0.14620931 0.13520682 0.011374317 -0.009316345 0.02497843
0.0659523 -0.080438405 -0.037641775 -0.0030167962 0.01716742 -0.16102675 0.07064146 -0.045359865
0.18090472 0.11641204 0.088933125 0.08759848 0.18875054 -0.016133362 -0.018529825 0.08398934
-0.0015514839 -0.09581947 0.029083936 0.15471719 0.09159245 0.058283795 -0.15827748 0.14177604
-0.07231355 0.07209728 -0.14325285 0.013804251 -0.14734429 -0.06731032 -0.04821315 -0.07845063
0.118064895 0.0284887 -0.12024698 -0.03872211 0.06654408 -0.117759995 0.035714597 -0.00060891116
-0.1328781 0.071081854 -0.08393646 -0.13855521 -0.11458887 -0.02185323 0.0699384 -0.09989005
-0.16900842 0.09997452 -0.07748109 -0.03380302 0.115693174 0.02699925 0.06495461 -0.11213495
-0.07883611 -0.14796926 -0.12941292 0.008732695 -0.18071832 -0.12459118 0.0637046 0.088237815
-0.05030813 -0.10600257 0.043609053 0.057824474 -0.07465172 -0.054904297 0.0962806 0.0774506
-0.03360893 -0.046965927 0.09002207 -0.019332342 0.06257027 0.038686845 0.031228192 0.014371141
0.17095041 -0.16262574 -0.0059632603 -0.06401829 0.03164846 -0.14607525 0.10900191 0.02185862
-0.12445626 -0.16494504 -0.031322796 0.10473468 0.13526738 -0.18190908 -0.11229876 -0.14878473
0.01177662 -0.15431052 0.07815939 -0.05650602 0.039903574 -0.06927267 0.04728742 0.15489775
-0.07294236 -0.11396317 0.015682897 -0.124893665 -0.10075426 0.032801572 0.059323944 0.010401083
0.042739574 0.038963854 -0.0028016162 -0.026619878 -0.1506783 -0.13973255 -0.020181509 -0.08682228

conv_theta.weightnet.net.1.linear.bias f4 [32]
00000000: 0b89 8ebd 150f bcbd 1e5d acbd 800d 82bd
00000010: 4edd 273e ca7a 2ebe bbe9 d0bc 5955 80bc
00000020: 6bec b23d a594 1ebe c426 153e 1365 1e3e
00000030: 4888 b63d 0c57 9dbd 7f01 1dbe 90f6 b0bd
00000040: 41b7 553d 5287 053e 343d 183c 5145 d0bd
00000050: 082c d8bd 92e7 afbd 624d f43d 20b4 213e
00000060: e9cd 2b3e 2b13 cfbd dcb9 3d3d bc37 223e
00000070: d557 16be e97f 363e 0aa9 3f3e 2823 2d3e
-0.069597326 -0.09182564 -0.08416198 -0.06350231 0.16393015 -0.17039028 -0.025502076 -0.015665697
0.087364994 -0.15486391 0.14565569 0.15468244 0.08912712 -0.076826185 -0.15332602 -0.08640778
0.052176718 0.13039902 0.009291936 -0.10169471 -0.10555273 -0.085890904 0.11928822 0.15791368
0.16777767 -0.10111078 0.046319827 0.15841573 -0.14681943 0.17822231 0.18716827 0.16907942

conv_theta.weightnet.net.1.bn.weight f4 [32]
00000000: 4ebf 833f 889c 7e3f dc37 753f e6e4 783f
00000010: 95de 783f 3fe7 823f 8234 803f bb68 833f
00000020: dc40 833f 3a7f 843f ed3c 7a3f 9307 803f
00000030: 6e5d 7d3f bed7 7c3f efe9 823f e071 843f
00000040: e845 813f d277 7f3f 5d6e 823f b8c6 803f
00000050: 27ee 763f a413 7c3f 9b92 853f 38cc 7e3f
00000060: 8279 813f 91f3 7a3f 263e 803f 6a15 7b3f
00000070: 017d 7f3f f680 833f 8ae3 833f c0ad 793f
1.0292757 0.994576 0.9578836 0.9722427 0.97214633 1.0226821 1.0016024 1.0266336
1.0254169 1.0351326 0.97749215 1.0002311 0.9897069 0.98766696 1.0227641 1.0347252
1.0099459 0.99792206 1.018993 1.0060644 0.9645714 0.9846747 1.0435365 0.99530363
1.0115206 0.980279 1.0018966 0.9807955 0.99800116 1.0273731 1.0303814 0.97530746

conv_theta.weightnet.net.1.bn.bias f4 [32]
00000000: 945e 663c 8fbd 90bc d26e 0bbd 3bd6 0dbd
00000010: 2aca dcbc bc6c 093c bb51 48bc 1549 eabc
00000020: dbb7 683c efd5 5cbc 82c0 9cbc 6642 1ebc
00000030: 30ae acbc 2753 a4bb 08be 0c3c 387d 913c
00000040: 3306 753c 3b5f f8bb deb7 903b be34 f8bb
00000050: 8889 0dbc ced3 45bc 7ec3 3f3a 62fb 72bc
00000060: dcd5 8a3c ae72 3dbc 757f e53b 20ac 7fbc
00000070: 67bb b8bb 4539 a83c 7905 2b3c ca8b 25bc
0.014060635 -0.017668514 -0.034041233 -0.034628134 -0.026951868 0.008387741 -0.012226517 -0.028599301
0.014203991 -0.01347874 -0.019134764 -0.009659385 -0.021079153 -0.0050147953 0.008590229 0.017759904
0.014955091 -0.0075797117 0.00441645 -0.0075746467 -0.008638747 -0.012074424 0.00073152024 -0.014830442
0.01694768 -0.011562986 0.0070037195 -0.015605003 -0.0056375745 0.02053512 0.0104383165 -0.010104129

conv_theta.weightnet.net.1.bn.running_mean f4 [32]
00000000: 706c 5fbe f938 62be a505 99bd eacd 81be
00000010: cb85 9f3e 867d c6be a02b f2bd de8c 83be
00000020: 46e7 0c3e 83ec c0be 3145 df3e f848 a63e
00000030: 30e6 b13e ca60 db3d e99c 46bd d658 74be
00000040: 24df 1ebe d8dd c2bd c1c4 60be e25d b3bd
00000050: f00d aebd 7fbb 0dbe 32a1 35be 96f9 f8bc
00000060: bd93 273e e604 a3be 57f6 6d3e ca97 86bd
00000070: 8a32 0ebe b367 983e cd78 933e a03f 2c3d
-0.2181871 -0.22092046 -0.0747178 -0.25352412 0.31156763 -0.38767642 -0.11824727 -0.2569341
0.13760099 -0.37680444 0.43607476 0.32477546 0.34745932 0.107118204 -0.048489485 -0.23862013
-0.15514809 -0.095149696 -0.21950056 -0.08758141 -0.08498752 -0.13841055 -0.17737272 -0.03039245
0.16364951 -0.31839675 0.23238502 -0.0657192 -0.13886467 0.29766616 0.288031 0.042052865

conv_theta.weightnet.net.1.bn.running_var f4 [32]
00000000: dfd0 f13b 9d1a 163c 454b 973d 91a0 863c
00000010: e3d5 523e 4bc2 c63c 2db3 003e 30e6 df3c
00000020: c853 313d 6fe2 8a3c 3240 a43e 1e41 133e
00000030: 2747 633d 0d43 233e a8fc 9e3d 16b4 0c3c
00000040: f009 173d 2ffd 813e 0eb1 a23c b2c2 5b3d
00000050: 32c2 8b3e 05cb 603e a303 d93c 2e3a 0b3e
00000060: 8107 7d3e 2900 6c3d 71dd 5e3d 3e66 113e
00000070: 1d8b 073e 39c0 d83d d793 143e 9cac 313e
0.0073796357 0.009161619 0.073874034 0.016433986 0.20589404 0.024262568 0.1256835 0.027331442
0.04329279 0.016953675 0.32080227 0.14380309 0.055487778 0.15943547 0.07763034 0.008587858
0.03687471 0.25388476 0.019859817 0.053652473 0.27296597 0.21952446 0.026490992 0.13596413
0.24709894 0.05761734 0.0544104 0.14199159 0.13236661 0.105835386 0.14509521 0.17351002

conv_theta.weightnet.net.2.linear.weight f4 [16, 32]
00000000: 832c 13be 1690 2dbd 480d 0ebe 79d0 8e3d
00000010: 2459 103e 0804 413d 894e 013e e383 503d
00000020: afe0 223e ec37 f43d 468d 24be bf3e 4d3d
00000030: f096 25be 3204 02be e555 c33d d523 0f3d
00000040: 7f35 373e 53c9 293e b005 133e 264b b0bd
00000050: 7a49 1e3e 15b6 83bd 2dac 0bbe a902 533e
00000060: a346 ddbc 66ad 57bd bf82 4ebd b941 e83d
00000070: a355 03be f718 b8bb c64d 31be 1fe9 24bc
00000080: 822d 403e 090f 93bd 4666 943d 7aa6 73bd
00000090: e645 30bd 7687 04bc e388 263e cea3 eb3d
000000a0: 6884 23be 13e5 973c a825 223b 1f37 1ebb
000000b0: a86f ec3d 0806 543d 5cfb 75bd dda8 e33a
000000c0: d2c1 023d 51d5 50ba 1e40 dc3d 4b24 cfbd
000000d0: 4cca 873c 9857 96bd 786f 313e b30f 8f3d
000000e0: 6cbb b93b 6830 293e 9558 d83c 5c2a dc3d
000000f0: 485b 38bd c207 f63c 1d2a 163d 1d9a 113d
00000100: d0d6 4e3e 8d51 083e e3cc c0bc 01cd 17be
00000110: 5530 e33d 8735 3a3d a807 cebd 5df8 123e
00000120: 28a3 35bd 0db6 d1bc 2e38 81bd b841 0b3d
00000130: 9e36 eb3d f030 7e3c a406 acbd 4f22 0b3e
00000140: c12e 0b3e e71d d5bd 71ff 323e 7146 19be
00000150: c758 a73c a272 41be 4c8e d23d 7eb2 9a3c
00000160: 0c63 033e c6f3 8dbd 6475 213d c3ef a33c
00000170: 279a 96bd d7fc 22bd 60e8 803d 82ab f83d
00000180: 790f 243e 20e3 97bc c153 66bd 412e 653d
00000190: 9b07 2d3c 8743 d4bd b018 c5bd 72d7 233d
000001a0: 7b8f 48be 52a8 cd3c a0f0 e93d eada 953d
000001b0: e080 39bd b00a 21be c26f 32be e4fb 383e
000001c0: 0e07 243e 7e62 6ebd 28db ec3d dc3e 5b3d
000001d0: 5096 ab3d a403 93bd fc59 19be ec4e 14be
000001e0: d484 0f3d ac8b 5a3d 5ba9 043e 2029 ec3d
000001f0: d431 f33d 7b08 fbbd b7a3 a3bd 9375 c23d
00000200: b0a8 f0bd c3ff 38bc 8a64 8abc 908a 1a3c
00000210: 0d98 f03c fbd2 bd3c 845b 46be 6bf7 a63d
00000220: 18a9 9bbd 38ae 273e 3775 d83d 5c12 163e
00000230: 8dfd 0e3e f63e 2bbe 5ae4 c13d f6ae febc
00000240: a6c4 783d 18dc 93bb a80c 2bbe 6c1c b63d
00000250: 6a2b 34be 252e 26be 77eb acbc 2edb febd
00000260: 281c 253e 55f8 debd a3bd 0abe 175f bdbd
00000270: a5b4 a7bd ce20 81bd 23fa 2d3e da6f 52bc
00000280: 6f40 14bd 4286 3f3e 4ada c1bd 7cb2 b23d
00000290: 3149 a3bd 4d81 6e3d cc64 80bd 467b 4a3d
000002a0: 8e5c 2ebe d558 0a3e 14e0 163e 74d2 f03d
000002b0: 7d7a fabc 83dc 6d3d 1dd9 ad3c b25a 7fbd
000002c0: 5499 9a3d 1843 973d 43a8 1b3e 8ef9 1abe
000002d0: 3a73 bebd 624d 8dbc 41fb 683d a8f4 253e
000002e0: 920f cabd 88bb 70bd 379f 0d3e 80b8 85bd
000002f0: cb49 0abe 140a d3bd f2ca 58bc cd97 47bc
00000300: 77d2 163e 3c58 c2bd 99c0 85bd 0f42 323c
00000310: f3e3 f43d de69 093e 13bf be3d 101d abbd
00000320: 04a4 47be 7b4b 5bbd b1ac 003e 068e 94bb
00000330: bd1c 003c 7e10 b6bd 8064 09be 35a1 083e
00000340: e0c6 89bd e2f3 91bc ec71 003c 068a d0bd
00000350: 5d0d e63d e30f 28be 31b5 a63d 589b 14be
00000360: d013 163d 8450 e13d 6d10 bbbd 1225 e2bd
00000370: 6f5e 6f3d b05c 10be acc7 eabd b90c 3fbe
00000380: de14 f1bd 749b 333e 2c82 113e e6dd 0b3e
00000390: a009 0abe 2740 fcbc 2e44 2a3e c66c 053e
000003a0: 2bbe a63b 95c9 1f3e 24aa 46bd f4ec 73bd
000003b0: 3649 6f3d 699c 00be bbe6 53be 85a5 9fbd
000003c0: ea3e 0bbe 8989 c73d 3752 ec3d a7cf 22be
000003d0: 4cce c23d f1b4 c03d 7545 d53d ef68 a5bd
000003e0: 972d 6d3d 7917 c2bd d9a7 96bd 0655 b63d
000003f0: 310c eb3d eb60 f43d 0ad6 b5bd 60cb 003c
-0.14372449 -0.04237374 -0.13872254 0.06973357 0.14096504 0.047122985 0.12627615 0.050907027
0.15906022 0.11924729 -0.16069517 0.050108667 -0.1617086 -0.12696913 0.095378675 0.03494628
0.17891501 0.16580705 0.14357638 -0.086080834 0.15457717 -0.06431214 -0.13639899 0.20606484
-0.027011221 -0.0526556 -0.050417658 0.113406606 -0.12825637 -0.0056182104 -0.17314824 -0.010065346
0.1876736 -0.07180602 0.072460696 -0.059484936 -0.04303541 -0.008088937 0.16263156 0.11505853
-0.15968478 0.018541848 0.0024741683 -0.0024141741 0.11544734 0.051763564 -0.060054168 0.0017369051
0.031923123 -0.0007966357 0.10754417 -0.10114344 0.016575955 -0.07340926 0.17327678 0.06985416
0.0056680944 0.16522372 0.026409427 0.10750267 -0.045008928 0.030032996 0.036661256 0.035547365
0.20199132 0.13312359 -0.023535198 -0.14824297 0.11093203 0.045461204 -0.10060054 0.14352556
-0.04434505 -0.025599504 -0.063095436 0.03399822 0.11485027 0.015514597 -0.08399704 0.13587306
0.13592054 -0.10406094 0.17480256 -0.14968278 0.020428075 -0.18891385 0.10281047 0.01888394
0.12830752 -0.06931262 0.039418593 0.020011788 -0.07353621 -0.039791908 0.06294322 0.121420875
0.16021527 -0.018540919 -0.056232218 0.055952314 0.010560895 -0.10364442 -0.096238494 0.040000387
-0.19585983 0.025104675 0.11422849 0.07317145 -0.04528892 -0.15726733 -0.17425445 0.18064839
0.16018316 -0.0581994 0.11565238 0.053526744 0.08378279 -0.07178429 -0.14975733 -0.14483231
0.035038784 0.053355858 0.12955229 0.115312815 0.11874738 -0.12257477 -0.079902105 0.09495082
-0.117509246 -0.011291447 -0.016893644 0.00943245 0.029369378 0.023171892 -0.19370848 0.0815266
-0.076006114 0.16375053 0.10569232 0.14655441 0.1396391 -0.16723236 0.09467383 -0.031089287
0.060734414 -0.004512321 -0.16704047 0.0889214 -0.17594686 -0.1622854 -0.021108372 -0.12444149
0.16124022 -0.10887209 -0.13548903 -0.092466526 -0.08188752 -0.06305085 0.16989951 -0.01284405
-0.03619426 0.18703559 -0.094654635 0.087254494 -0.079729445 0.05822878 -0.062692255 0.04943397
-0.17027494 0.13510449 0.14733917 0.11758891 -0.030575985 0.058071624 0.021221692 -0.062342353
0.07548776 0.07385844 0.15200906 -0.1513426 -0.092993215 -0.017248813 0.05688024 0.1620661
-0.09866251 -0.058772594 0.13830267 -0.06529331 -0.13504712 -0.103046566 -0.01323198 -0.012182188
0.14728723 -0.094894856 -0.06530876 0.010880007 0.1195754 0.13419291 0.09313788 -0.083551526
-0.19496161 -0.05353878 0.12565877 -0.004533532 0.007819352 -0.088898644 -0.13417244 0.13342746
-0.067273855 -0.017816488 0.007839661 -0.10182576 0.112330176 -0.1641231 0.08140028 -0.14512384
0.03663999 0.11001685 -0.09133992 -0.11042227 0.05843967 -0.14097857 -0.11463866 -0.18657197
-0.11771558 0.1753977 0.14209813 0.13658866 -0.13480234 -0.030792309 0.16627571 0.13029775
0.0050885878 0.15604241 -0.048502102 -0.059552148 0.05841943 -0.12559666 -0.20693485 -0.07795242
-0.13598219 0.097430296 0.11539119 -0.15899526 0.09512004 0.09409512 0.104136385 -0.08076655
0.057904806 -0.09477133 -0.07356233 0.08902936 0.11476935 0.11932548 -0.08878715 0.007860988

conv_theta.weightnet.net.2.linear.bias f4 [16]
00000000: c784 103e a002 6bbd a4df d93d 2b0d 2f3e
00000010: b040 313e 87d4 f53d c68b ce3c 2bc2 34bd
00000020: ffdb c63d 0522 a8bd d80e 513d 60ae 8dbd
00000030: 02bb 7abd 77fb 9f3c dfde 2abe 4b8a 133e
0.1411315 -0.05737555 0.10638359 0.17094867 0.17309833 0.12003427 0.025213134 -0.044130486
0.0970993 -0.08209614 0.051039547 -0.06918025 -0.0612135 0.019529087 -0.16686581 0.14408223

conv_theta.weightnet.net.2.bn.weight f4 [16]
00000000: 11df 833f 0a4e 843f db39 843f 7feb 803f
00000010: be1a 823f 362a 843f 64be 833f 16b4 823f
00000020: 742c 843f 6593 833f 1ed2 833f b41b 843f
00000030: a15f 843f b34e 823f 6245 843f 5774 833f
1.030245 1.0336316 1.0330156 1.0071868 1.0164411 1.0325382 1.0292478 1.0211208
1.0326066 1.0279356 1.0298498 1.0320954 1.0341684 1.0180267 1.0333674 1.0269879

conv_theta.weightnet.net.2.bn.bias f4 [16]
00000000: efd5 003d dab9 003d 133f f13c a4c0 0e3c
00000010: bbde b03c cef7 f33c b6de f43c bc3e 973c
00000020: 0f56 e93c 99cf de3c 1119 eb3c 9faa f53c
00000030: cb7b 043d 0887 803c 77c6 f63c 93bb d93c
0.031454023 0.03142724 0.029449021 0.008712921 0.021590581 0.029781248 0.029891353 0.018462531
0.028483419 0.0271986 0.028698476 0.029988585 0.03234462 0.015689388 0.030123932 0.0265787

conv_theta.weightnet.net.2.bn.running_mean f4 [16]
00000000: c2b6 5c3e 7ca0 0b3e 8f39 843e 1abb 4c3e
00000010: 43e4 9d3d 401e 2a3e d48d e7bd ed0e 0f3d
00000020: 8610 983e 8c94 dfbb 7ef7 3b3e 46ee 0f3e
00000030: 0356 fdbc 17cb 353c f538 d5bd b22c 053e
0.21554092 0.13635439 0.25825164 0.19993249 0.07709553 0.16613102 -0.113063484 0.034926344
0.29700106 -0.006823128 0.1835613 0.14055738 -0.030924803 0.011095784 -0.10411254 0.13005331

conv_theta.weightnet.net.2.bn.running_var f4 [16]
00000000: d303 773e 4345 c33d 40f8 1f3e a691 2b3e
00000010: 40bf b83e 6484 da3d 9d45 183e 9006 c03d
00000020: f30c c43d 0ca5 c23d 927b dd3e 729f 193e
00000030: e6af af3d 2e92 243e 466f 0f3e 1f65 653e
0.24122553 0.09534695 0.15622044 0.16754779 0.36083412 0.10669783 0.14870305 0.09376252
0.09572782 0.095041364 0.4325834 0.1500223 0.08578472 0.16071388 0.14007291 0.22401856

conv_theta.linear.weight f4 [128, 16]
00000000: 1feb 35be ffb9 40be 846f 2b3e 62b7 5cbe
00000010: 6421 b1bc ec45 a53d 547f a83d a9ec 883d
00000020: bc0b 43be 456b c8bb 02ec 823d 87cc 84be
00000030: 5524 14be 8abf ba3d 410d 38be f7c1 553e
00000040: dab8 033e 7416 23be c387 273e d736 27be
00000050: fa2b 2dbd a363 fdbb 440d 6b3e 3eb9 1ebe
00000060: f85e 013d dd9f 4dbe 85a3 473e 2c09 c4ba
00000070: 163e 793e d209 a83d c7d9 67bd 3ec5 c43d
00000080: 3427 d5bd 9c4e d4bd aca2 14be 6e23 41be
00000090: 3e00 f43b 1c8d 8b3e a424 483e b66f 03be
000000a0: 856f 983d 014d 773d cad4 a7bc 4413 4f3e
000000b0: b785 433e b211 493d 47b1 8f3e ae10 d33d
000000c0: 927d 65be 21f2 a13d 148b cabd 9bb6 85be
000000d0: 4e90 01be 412b 0c3e 8b67 80be f520 b3bd
000000e0: f99f 613c 67ed 3d3e 9d38 12be 91c2 e3bd
000000f0: f25e 85be b230 5e3e 8cd3 053e eccd c13d
00000100: 4ff5 5c3e 0b9b 6d3e 9456 533d f6e5 f4bd
00000110: b198 98bd c9ef 5f3e 1986 963c 1025 ee3d
00000120: 63fb 22be ac75 5a3d e5bd f6bd dcdc 82be
00000130: 3fed 02be 75d5 61be cfe4 e9bd c808 a4bd
00000140: b53d 56be 5e6e acbd daa8 9a3d 23be f2bd
00000150: f1df 0c3e cb57 d5bd c22f 19be c414 8a3d
00000160: b4a1 78be b7b0 083c ef6b e4bd 0b60 f43d
00000170: 16cb d3bd 40f8 463e 1360 c23d e833 43be
00000180: 1e38 a1bd 30c2 2e3d d742 703c 5f1f 8dbd
00000190: 93c2 2e3e 5569 2bbe 662c 5a3d d9fd fc3d
000001a0: ca65 d93d 76c2 3a3e 2d5f b13c 2973 45be
000001b0: 4ae0 3cbd 4d36 1fbe c3f4 59be 0b58 a6bd
000001c0: 9dab 313e 0ae0 4cbe ec68 7ebd d5fe 18be
000001d0: 9925 50be 1ab8 44be 87c4 763d 0c20 0b3e
000001e0: bb32 153e e5e9 683e ba7a 303e 1a1b 23be
000001f0: 8fe5 65be dbff 9e3c 97f2 ea3d cacb 56be
00000200: beb5 2e3e 632e 473e f9b0 ffba e0be 4fbe
00000210: 6b1f 6e3e 9b94 1c3e d6db fd3d 8d9a acbb
00000220: 4a34 a9bd 0c4a 8a3e 150c c73d cf2d 35bd
00000230: d440 743c 600f 393d fc67 8a3d 4f9d 3e3e
00000240: 38dd 19be 9635 d9bd 3184 6abd da94 bfbd
00000250: 5be9 803e 52e8 a5bd 9ec3 3e3d 5969 343e
00000260: e728 fcbd 43b3 183e 0513 2bbe fb61 36be
00000270: b3cf 753e 6317 b53d 0cbc 3a3e b5f6 fe3d
00000280: f35f 12be 392c d7bd 74d1 50be 4597 8bbd
00000290: 2592 31bd c287 aebd 51b7 12bc df68 b63d
000002a0: 13b7 203e 0a0c 51be 3b3b 0fbe b0a6 fe3d
000002b0: 5ea8 543d 8e18 00be 4b99 d33d e4e8 643e
000002c0: 2931 f9bd 992f 643e de2f 453e 4322 3fbe
000002d0: 4d75 ca3a 58e5 fb3d 3e96 70bc 6d9a ad3d
000002e0: 4d99 e2bd d884 72be 739e 073e cda7 eeba
000002f0: 41e9 2a3d d286 193e b3ec 083e 2795 0d3e
00000300: cc3d 2d3e a28d cc3c dbbf f03d abc6 743e
00000310: 44ef 4cbd aa33 6cbd 8898 413e aa84 1cbe
00000320: 1b65 63bd d90f 663d f42d 713e 1358 503e
00000330: 7d71 423e 4009 003e 8d7f f23d f1ca 9d3b
00000340: c956 843d 5ac5 373d b4ba 98bd 5ee8 79be
00000350: 1f53 453e 1e3b 84be 96fc 433e b178 8dbd
00000360: 0beb 10be 769e 42be 173a b33d 134d 48be
00000370: 72e2 4b3d ff90 08bd a33a 87be fa52 593e
00000380: 265a 1ebe 3861 8f3e 01ef 74bd ef06 4fbe
00000390: 2b13 8dbd 2e06 313e caa8 173e 2917 723d
000003a0: 2c8b 803e 92de c63d 5f86 52be 3b87 bc3b
000003b0: b6f4 3d3d f444 f43c 1801 003e 1a21 553e
000003c0: bfad 5ebe dd55 14be 3f9b 363e 872c 2ebe
000003d0: bf92 523e 6355 2bbe 6bf3 d5bd 3ebe 043e
000003e0: 87ec 1abe 78e1 82bd a97c 103e e1d6 3bbe
000003f0: 2f88 d2bc 9ff7 83be 5ce0 d63d 3bab 553e
-0.17765473 -0.18820952 0.16741759 -0.2155433 -0.021622367 0.08069977 0.08227411 0.06685764
-0.19047445 -0.006116303 0.06392671 -0.25937292 -0.14466985 0.091185644 -0.17973806 0.20874773
0.12863484 -0.15926534 0.16360383 -0.16329513 -0.042278267 -0.007732825 0.22954279 -0.15500352
0.03158471 -0.20080514 0.19495972 -0.0014956347 0.2434009 0.08204998 -0.056604173 0.096079335
-0.10407868 -0.10366556 -0.1451518 -0.18861172 0.007446318 0.27256095 0.19545227 -0.12835583
0.07443146 0.06037617 -0.020487208 0.20222193 0.19093977 0.04908914 0.2806494 0.10305916
-0.22411183 0.079075105 -0.09889808 -0.2611588 -0.12652704 0.13688375 -0.25078997 -0.087465204
0.013771051 0.18547593 -0.14279409 -0.11121095 -0.26049 0.21698263 0.1306898 0.094631046
0.21577953 0.23203675 0.05159624 -0.11957924 -0.074509986 0.21868815 0.01837449 0.11628163
-0.15916209 0.053334877 -0.12047938 -0.25559127 -0.12785815 -0.22054084 -0.11420595 -0.080094874
-0.20921977 -0.08419488 0.07551737 -0.11852672 0.13757302 -0.10417136 -0.14959624 0.06742242
-0.24280435 0.008342913 -0.11153399 0.11932381 -0.1034147 0.19430637 0.09490981 -0.1906277
-0.07872032 0.04266566 0.014664373 -0.06890749 0.17066412 -0.167394 0.053264998 0.12353105
0.10615118 0.18238243 0.021651829 -0.19282211 -0.046112336 -0.15548058 -0.21284775 -0.081222616
0.17350622 -0.20007339 -0.06211178 -0.1494096 -0.20326842 -0.19210854 0.060246017 0.13586444
0.14570133 0.22745474 0.17234316 -0.15928307 -0.22450851 0.01940911 0.114720516 -0.20976177
0.17061517 0.19451289 -0.0019507698 -0.20287657 0.23254173 0.15291063 0.12395446 -0.0052674473
-0.082619265 0.27009618 0.09719101 -0.04423314 0.014908034 0.04518068 0.06758115 0.18614696
-0.15025795 -0.10605924 -0.057254974 -0.09354563 0.25178036 -0.08100952 0.046573274 0.17618312
-0.12312489 0.14912133 -0.16706474 -0.17810814 0.24005012 0.08842351 0.18235797 0.124493994
-0.14294414 -0.10506482 -0.203924 -0.06815962 -0.043352265 -0.085219875 -0.008954839 0.08906721
0.15694837 -0.20414749 -0.13987438 0.12434137 0.05191838 -0.12509367 0.10331973 0.22354466
-0.1216758 0.22283782 0.19256541 -0.18665414 0.0015446335 0.12299603 -0.014684258 0.0847672
-0.11064396 -0.23683488 0.13244037 -0.0018207968 0.041726355 0.14992836 0.13371544 0.13826428
0.16918105 0.02496988 0.117553435 0.23903911 -0.05003287 -0.05766646 0.18905842 -0.15284982
-0.055516344 0.056167457 0.23552686 0.20346098 0.18988605 0.12503529 0.11840735 0.0048154523
0.064618655 0.044865943 -0.07457486 -0.24405047 0.1926999 -0.25826353 0.19139323 -0.06907786
-0.14152162 -0.1900576 0.08751314 -0.19560651 0.049776502 -0.033341404 -0.26411924 0.2122306
-0.15464076 0.2800386 -0.059798244 -0.20217489 -0.068884216 0.17287514 0.14810482 0.05910412
0.2510618 0.09710421 -0.20559071 0.0057534254 0.046375953 0.029818036 0.12500417 0.20813408
-0.21745966 -0.14485879 0.17832659 -0.17009173 0.20563792 -0.16731791 -0.10446819 0.12963197
-0.1512929 -0.06390661 0.14110054 -0.18343689 -0.025699703 -0.25774857 0.10492012 0.208661

conv_theta.linear.bias f4 [128]
00000000: ce3a 1c3e 4a2d 6f3e 5bbd a03d d0a6 33be
00000010: 5830 ef3c 4e1f e8bd 5a50 27bd 7d3a 803e
00000020: 0849 e23d e758 55be c225 0b3e cdc7 18be
00000030: 9290 dcbd 57ff 6b3e fc87 f23d 4013 8d3b
00000040: f5ad 753e a719 33be 13ce 843e e7f4 68be
00000050: 1a33 4e3e c62d 83bc 10ba 543e 101b 8abb
00000060: 1e10 583e ff79 4a3e 8594 363e 6d58 80be
00000070: 2121 2dbb e173 87be 1320 923d a27d 493e
00000080: 0ae2 fcbd 56d2 823e b55d 7fbe e21b 4e3e
00000090: 5723 5a3e d277 563e 9410 0e3e a3ca 773e
000000a0: f77f 15be 55eb 15be 3723 0a3e d771 b13d
000000b0: 59e5 34be 8a29 623e caf9 5dbe 9f29 03bd
000000c0: b2b7 663e 0860 24be 064b 41be 4c1d 503e
000000d0: 205e 813d bcf7 34be 3cd9 9fbd f086 0cbd
000000e0: 2bde 833e 8322 6a3e 0c8f 243e 4268 c2bd
000000f0: 27c8 c43d 8e01 e93d 912d 12bd 3238 6abe
00000100: 4423 f3bd 2e7b c9bc d955 83bd 4930 183e
00000110: 6084 71bd 17c6 58be 6f8d 613e 76a1 b3bc
00000120: 75c7 5d3d 3d18 423e 28a8 663e 6dfb 723d
00000130: d17a 13be 40b6 65be 73e2 dc3d e8ef 393e
00000140: 5c5a 1bbc 4c0e 8ebc 564a adbd 0d66 7dbe
00000150: 8b7d 12be aab4 7abe 4f90 b83d 931c ac3d
00000160: a505 843e d40e 6b3e 22fa 6d3b 11df 5cbe
00000170: a2ad 5ebe 0822 16be dc88 e33d 510c 293e
00000180: 2af4 d93b f0ae 003e 4155 1c3e b521 06bd
00000190: b43f e6bd b088 3a3e 8c3f eb3d 06fc 533e
000001a0: 0aff ca3d 2c71 c0bd 6619 a2bd 71b0 59be
000001b0: a305 e53d aa42 d93d e62f 213d a8b9 5abd
000001c0: 58e4 efbd 91e7 7c3e 4579 48be 4819 203d
000001d0: e387 39be 9924 193e 6629 e23d 85aa f43c
000001e0: 8deb 733e 1fe9 b23d 8ea0 7abe b553 7f3e
000001f0: ab33 52be e0fe b83d 7d02 d5bd 18a2 3cbe
0.15256807 0.2335712 0.07848617 -0.17544103 0.029197857 -0.11334096 -0.040848114 0.25044623
0.11049086 -0.20834695 0.13588622 -0.14919968 -0.10769762 0.23046623 0.11842343 0.0043052733
0.2399214 -0.17490254 0.25938472 -0.22749673 0.20136681 -0.016013037 0.20774102 -0.004214652
0.21099898 0.197731 0.17830093 -0.25067464 -0.0026417451 -0.26455596 0.07135024 0.19676831
-0.12347801 0.255511 -0.2493809 0.20127824 0.21302544 0.20944145 0.13873512 0.24198394
-0.14599596 -0.14640553 0.13489996 0.08664291 -0.17665614 0.22086158 -0.21677318 -0.032022115
0.22531012 -0.16052258 -0.18876275 0.20323676 0.06316781 -0.17672628 -0.07805106 -0.034308374
0.25755438 0.22864728 0.16070193 -0.09492542 0.096084885 0.1137725 -0.035687987 -0.22873
-0.11871961 -0.02459487 -0.064128585 0.1486217 -0.058964133 -0.21169315 0.22026609 -0.021927577
0.054145295 0.18954559 0.22525084 0.05932181 -0.1440232 -0.22432804 0.10785379 0.18157923
-0.009481993 -0.017340802 -0.08461444 -0.2474596 -0.14305703 -0.2448298 0.090119 0.084038876
0.25785556 0.22954875 0.003631242 -0.21569468 -0.21745923 -0.1466142 0.11110088 0.16508605
0.006651421 0.12566733 0.15266897 -0.03274699 -0.11242619 0.18216205 0.1148673 0.20701608
0.09911926 -0.09396586 -0.079150006 -0.21258713 0.11182716 0.10608418 0.03935232 -0.05339971
-0.11713475 0.2469771 -0.1957751 0.03908661 -0.18118243 0.14955367 0.110430524 0.029866466
0.23820324 0.087358706 -0.24475309 0.24934275 -0.20527522 0.090329885 -0.10400865 -0.18421209

cnn.0.module.weight f4 [128, 256]
00000000: 34fa 7bbd f28e c13c 7d74 a9bc 1830 93bd
00000010: bbcb d23c 7fe7 8b3c 0b1f 8abd 71e1 7abd
00000020: e3ca 953d 0263 e93c 9033 3aba fd37 aa3c
00000030: e50f 483c 189e 82bc 497f 5d3d 3625 b43a
00000040: 5c89 f93c 8754 1e3d 7eeb 12bd e573 733d
00000050: fed7 443d 4afb 6a3d 238d 05bd 050a dbbb
00000060: cab1 9a3d 4bf7 623c 1714 a63d 0c32 17bd
00000070: f320 4cbd f0bf 54bc 6a4b 233d 6e34 72ba
00000080: 150a 623d c9af 8e3d 0883 813d b38a 493d
00000090: 3001 a73c a687 75bc 85d8 333c 955c aa3c
000000a0: 9525 7b3d cae0 5ebb e668 a3bc f9a0 2b3d
000000b0: b945 f73c d550 7bbc 9f1a 48bd 1b38 c9bc
000000c0: eca2 523d 977e 4d3c 1f8a 133d ee58 e73c
000000d0: ba46 673d 425e 0fbd b893 3fbc 3ef5 3ebc
000000e0: 4077 22bd c45d 21bd a691 febc 13d6 d33c
000000f0: eb72 34bd 9ff0 813d 101e 013c 30e4 b6bc
00000100: 1ab9 033d 6cf6 453c 68e5 83bb aac2 14bc
00000110: c7f1 6ebb f13f c2bc b70f b1bc 55d5 42bd
00000120: b284 d33c ae84 3dbc 4493 10ba da9b 8dbc
00000130: 848f 823c 1b05 f73a b4a8 9ebd a884 6bbc
00000140: a610 6dbc ffc4 fd3b b390 a33b c189 1e3d
00000150: 9a0c 58bd fe02 92bd ecde 88bd 0ef1 e0bc
00000160: 6d3e b9bb 661f 8e3c ab8b ed3c 37ce 613c
00000170: f83b f6bc 1498 d83c f0b6 c33c 2dee 33bd
00000180: 6980 053c b94a dabc 080b 2f3c 2eea c53c
00000190: 92e5 0d3d d959 5e3d 666a c03c 1406 3bbd
000001a0: e2ff 4abc bb10 21bd 8270 31bb 87a0 d9bc
000001b0: b4dc 1ebd 72a4 5a3d 0639 9dbd 747d ebbb
000001c0: 97eb 25bd fe0d 163d e02b 583c 6537 953c
000001d0: 830e 3bbd 8f1a 803d a00c 553d 435b bcbc
000001e0: e079 ab3d 2b27 d5bc d8b1 86bc eb93 6e3d
000001f0: 42a5 4f3d ff67 253d 5b1b 943d 9243 903d
00000200: c882 3d3c 4ad5 fcbc ef96 59bd 47a8 2a3c
00000210: 7111 43bb af68 6e3d d465 163d d5a0 b83d
00000220: 4e84 1abd cb08 cdbb f190 08bc d68f 54bd
00000230: fc97 27bd e466 313d 865d 96bc c8b2 d23c
00000240: 188f 2cbd b754 13bd 38f4 8cbd 616c 413b
00000250: 348a f2bb b339 6cbd 6b09 503c 3f5e 95bd
00000260: 0ee5 50bd cb59 ba3d 271f f8bb b8a0 c53c
00000270: 6851 113c 4d0a 9f3c 3c86 e8bc d179 843d
00000280: 8442 83bc 01d7 96bc e824 f3ba 45fc b3bb
00000290: ef05 97bc 46d2 69bc 745f eb3c 59a3 943d
000002a0: 6cfa c5bd 16c4 f03c 5e58 88bb 5949 d5bc
000002b0: e52f e6bc 71a3 1b3c 596f 82bc 0c17 47bd
000002c0: 50b2 20bd 35a3 fd3c 6b47 763d b8e2 57bd
000002d0: 3a7e 9a3c 6aed 94bd 9b43 8cbd 3865 193c
000002e0: c5c0 bd3d 66bf 8c3d 2572 24bd a1d1 ca3c
000002f0: c97a e43c 018d 85bd f235 b237 663b 253d
00000300: a53c 40bc 2289 c13d 43ab b0bd d54e 5ebd
00000310: cf35 44bc e3c6 193d 52af a73d d2aa 213d
00000320: d653 8cbd 44b1 90bd 9acc b03c 8db3 aabc
00000330: 0662 a73d 8b9c 883b 65ec 373d defa 33bd
00000340: 3e22 793c 33b8 41bc c2cc c13c ea66 423d
00000350: 244a 993d b9f0 d9bc 95fb cf3b 147b 97bb
00000360: c6f8 abba ad22 8a3d ac5c ee3c 925a b5bc
00000370: e965 babd 1923 73bc d20e c23c 28e7 dd3b
00000380: 8afc b13b e9d4 c93c 1b5d 293c 5d1e 933d
00000390: aca8 a5bd 332b 35bd 70df 06bd c47b b1bc
000003a0: d6b8 09bd 071d 44bd b034 673d 0669 ddbb
000003b0: 8a3a 93bd d823 a4bd e9e5 863d 47d0 cc3c
000003c0: 4393 a4bd bd34 703d c3d2 88bc dc0f 32bd
000003d0: 5f33 753d 8126 a03c e726 99bc 2f42 873c
000003e0: 725f 84bc 3b98 033d 8c0b ecbc f36f 4ebd
000003f0: 7d55 9cbd fcf7 4c3d 5245 bfbd 9eef 15bd
-0.06151791 0.023627732 -0.020685429 -0.071869075 0.025731912 0.01707816 -0.06744202 -0.061250154
0.07314088 0.028489593 -0.00071030203 0.02077865 0.012210821 -0.015944526 0.054076467 0.0013744
0.030461006 0.03865483 -0.035869114 0.059436698 0.04805755 0.057368554 -0.0326053 -0.006684544
0.07553442 0.013852905 0.081093006 -0.036912963 -0.04983611 -0.012985215 0.039866842 -0.000923938
0.055185396 0.06967122 0.0632382 0.04920454 0.020386308 -0.014985954 0.010976915 0.0207961
0.061315138 -0.0034008496 -0.01994748 0.041901562 0.030184614 -0.015339096 -0.048853513 -0.024562886
0.051424906 0.012542388 0.036020394 0.028240647 0.056463934 -0.035002 -0.011692934 -0.01165515
-0.039664507 -0.039396062 -0.03107531 0.025858914 -0.044054907 0.06344723 0.007880703 -0.022325605
0.03215895 0.012082677 -0.00402515 -0.009079615 -0.0036460028 -0.02371213 -0.021613939 -0.04756673
0.02582011 -0.011567278 -0.00055151084 -0.01728623 0.015937574 0.0018846126 -0.07747021 -0.014374889
-0.014469301 0.007744431 0.0049916147 0.03870559 -0.052746393 -0.07129477 -0.06683144 -0.027458694
-0.0056531937 0.017348956 0.028997263 0.013782076 -0.030057892 0.026439704 0.023890942 -0.043928314
0.008148291 -0.026646959 0.010683782 0.024159517 0.034642763 0.054284904 0.023488235 -0.045660093
-0.012390109 -0.039322596 -0.0027075117 -0.026565803 -0.038784698 0.053379484 -0.07676892 -0.007186586
-0.04050788 0.036634438 0.013194054 0.01821489 -0.045668136 0.06255066 0.052013993 -0.022992736
0.08372855 -0.026019653 -0.016442224 0.058246534 0.05069471 0.04038238 0.0723178 0.07044138
0.011566825 -0.030863423 -0.053122457 0.010416097 -0.0029765035 0.058205303 0.036718205 0.09015051
-0.03772383 -0.0062571517 -0.008335338 -0.051894985 -0.040916428 0.043311015 -0.018355142 0.025720015
-0.042128652 -0.035969462 -0.068825185 0.0029514062 -0.007401729 -0.057672214 0.012697558 -0.07293367
-0.050999694 0.09099158 -0.007572073 0.024124488 0.008869506 0.019414091 -0.02838432 0.06468547
-0.016022928 -0.018413069 -0.0018550428 -0.0054927194 -0.018435447 -0.0142713245 0.028732039 0.072577186
-0.09666905 0.029390376 -0.004160925 -0.026035951 -0.02809901 0.009499417 -0.015922235 -0.048605964
-0.039232552 0.030961612 0.060126703 -0.05270645 0.018859018 -0.07271846 -0.06848832 0.009362511
0.092652835 0.06872444 -0.04014792 0.024758162 0.02789058 -0.06521035 2.1244374e-05 0.04033985
-0.011733209 0.09449984 -0.086264156 -0.0542744 -0.01197572 0.03754319 0.081877366 0.039469548
-0.06851928 -0.07065061 0.021581937 -0.02083757 0.08172993 0.004169052 0.044903178 -0.043940417
0.015205918 -0.011823702 0.023657206 0.047461428 0.07484844 -0.026604043 0.0063471296 -0.0046228264
-0.0013120405 0.06744895 0.029096924 -0.022137914 -0.09101469 -0.014839911 0.023688708 0.0067719407
0.0054317163 0.024637656 0.0103371395 0.07183526 -0.08088812 -0.04423065 -0.03292793 -0.021665461
-0.03362354 -0.047879245 0.05644673 -0.0067569045 -0.071889 -0.08014649 0.06586821 0.025001658
-0.080359004 0.058644045 -0.016702062 -0.043472156 0.059863444 0.01954961 -0.018695308 0.016511051
-0.016158793 0.0321276 -0.0288141 -0.05039973 -0.07633493 0.050041184 -0.09339394 -0.03660547

cnn.0.module.bias f4 [128]
00000000: e42f cd3c 2c5a 633d 511f 563d 293b 833d
00000010: e188 8cbc 3c50 083d e759 bd3d 4365 893d
00000020: 898c 53bc 0aaa c53d b67a 7fbd a2f1 3f3d
00000030: 6a23 93bd 8042 7c3d 5b51 31bc e2d4 c4bc
00000040: c810 7bbd 75a3 163d 7d3b 103d 1c6c 1cbb
00000050: 7d8c bc3d 86a8 253d a943 923d 775b 1ebc
00000060: b90a 04bc 9495 9d3d f22a bbbc 3768 323d
00000070: 4ce4 853d 39bf bb3d 0376 8a3d c3f3 293d
00000080: ac46 9d3d fe55 9f3d d6f3 383d 779e 0c3d
00000090: 0a7c 103d 7188 4cbd 77fc 9b3d ca22 9a3c
000000a0: 12fd 1a3d 243b 6a3d bc11 d13c 0e10 923d
000000b0: b764 303d 9159 4d3c 544d f73c f9af 973d
000000c0: a201 29bb a18d 623d fb98 5ebd 9151 09bd
000000d0: 187b bebd 5185 52ba a445 a03d d897 923d
000000e0: 4b3f 68bd 6292 f13c 13f7 d9bd b1d8 87bd
000000f0: 265a 4e3d abe1 b83c 812b 803d 98d5 0a3d
00000100: f216 883d 0228 9f3d 7964 673d 881f 2ebd
00000110: b5ea 3cbd 403a 673d d973 adbc 2cde aabd
00000120: 6800 e5bb d944 0abd 09c6 f63c ae4e 123d
00000130: fafe 8f3d b718 8d3d a11a c4bd df0b 773d
00000140: 3640 dabc 9429 95bc 63f8 60ba 33ec dd3c
00000150: 8c75 1c3d 921e 133d 0d4f 7e3d 68f6 cb3c
00000160: 8491 26bd ff39 883d d79d 06bd 449f 91bd
00000170: d1b4 e53c 50b5 c63d 6390 83bd 8751 29bd
00000180: 6af3 223d 3b23 58bc aea7 32bd 4d79 c6bd
00000190: 9e11 b6bd ee3d 4c3d d2b5 d7bc ed6b b33d
000001a0: d5f3 683c c84c 99bd 31f8 ba3d e98d 9abc
000001b0: 2d92 2ebd 60d9 cd3c c2c9 7c3d c3f5 9fbd
000001c0: 451e 6a3d 2eba c3bc b986 4cbd 7d41 223c
000001d0: dc30 91bd bd8d 293d a241 283d 7e3e 9cbd
000001e0: 76e1 0c3d 6247 c2bd 5288 ae3c 8dbe 623c
000001f0: f045 143d a6fb e33c 2083 953d a44f 7d3d
0.02504725 0.055505916 0.05227596 0.06407768 -0.017155113 0.033279642 0.09245663 0.06708767
-0.012911924 0.09651573 -0.062372886 0.0468613 -0.07184489 0.061586857 -0.010822619 -0.024027292
-0.0612953 0.03677698 0.035212982 -0.002386815 0.092064835 0.04044392 0.071418114 -0.009665362
-0.008059197 0.076945454 -0.022847626 0.04355642 0.06537685 0.09167332 0.0676079 0.041492235
0.07679495 0.077800736 0.045154415 0.03433081 0.035274543 -0.04993481 0.07616513 0.018815417
0.037839003 0.057185307 0.025521152 0.071319684 0.0430648 0.012533561 0.03018824 0.07406611
-0.0025788327 0.05531085 -0.054345112 -0.033525053 -0.09300822 -0.000803073 0.07825783 0.07157868
-0.056700986 0.029488746 -0.10642829 -0.066331275 0.05037894 0.022568544 0.06258298 0.033895105
0.066450015 0.07771303 0.056492303 -0.04251054 -0.04612227 0.056452036 -0.021173405 -0.08343157
-0.006988574 -0.033757064 0.030123727 0.035719566 0.07031055 0.068894796 -0.095753916 0.060314056
-0.026641946 -0.018208303 -0.00085819344 0.027090168 0.03819804 0.035917826 0.062087107 0.02489777
-0.04066612 0.06651687 -0.03286537 -0.07110456 0.028040322 0.09702551 -0.06424024 -0.041337516
0.03978292 -0.013191993 -0.043616943 -0.09691105 -0.08890079 0.04986375 -0.026331816 0.087608196
0.01421829 -0.07485348 0.0912937 -0.018866496 -0.042619873 0.025128067 0.06171585 -0.07810547
0.057157774 -0.023892488 -0.04993317 0.009903309 -0.07089397 0.041394938 0.041078217 -0.07629107
0.034394704 -0.094862714 0.021305237 0.013839376 0.03619951 0.027829956 0.07300401 0.06184353

cnn.1.conv.0.depthwise.weightnet.net.0.linear.weight f4 [32, 3]
00000000: 408c ea3d 841a da3e c8a4 e8bd 1569 0fbf
00000010: b6e1 59be 4998 683e 303f 893e 7000 d1be
00000020: 3b8f d33e ec4c 5a3e 3c92 f73d 6f17 913e
00000030: 8a89 cdbe abc8 60bc 405d 05be e2f4 0e3f
00000040: 8ed0 2e3c 8535 2bbe 80cb 07bc 8ebb 10bf
00000050: 7e4c 8fbe d2c2 973e 17d5 83be 682c 8f3b
00000060: 30b4 fdbe f67a 183f 150c d83e 8a1a 083f
00000070: c71c bebe 54d0 87be 0adb d5be 167f 69be
00000080: 8f49 e93d 60b5 c3bd 40f1 aebe 3e13 093f
00000090: 58d6 873d 487f b83c f74f 183f 5899 cd3e
000000a0: d61d 4fbe 6281 41be d060 f03e b702 f5bd
000000b0: 755f 143f 1af6 d43e e6f0 be3e 2301 fd3e
000000c0: bd29 86be 9ed7 00bf 16a7 ab3d b071 1cbe
000000d0: 6d44 003f e51a aebe 5c93 543e 0e2f a63e
000000e0: 9441 523e e943 bdbe aeee aebe 6b76 0abf
000000f0: 0452 dc3e a7a2 1abe 5412 09bf da7d d23e
00000100: 0d91 f33e 3934 0c3f 8378 bbbe ca5b 3bbe
00000110: 99c7 e4be 4ae9 b7be 4fa3 64be 163e 0fbd
00000120: c078 4abc 4118 b53e f0d7 c6bd 8478 a33e
00000130: d85c 62be c14f a8be 7669 af3e 4575 c63d
00000140: b480 b43e 4e77 01bf c081 b5bc 2315 683e
00000150: 9e5b ca3e 631e 8b3e 30ae 0c3e 8a51 123f
00000160: a393 1f3e f1ca aebe 0a46 093f fcfa 0dbf
00000170: 7e37 50be de5c 1ebe 6c61 0bbe e800 0e3f
0.11452532 0.42598355 -0.113595545 -0.5601972 -0.21277508 0.22714342 0.2680602 -0.40820646
0.41320214 0.21318406 0.12088439 0.2833819 -0.40143996 -0.013719718 -0.13023853 0.5584241
0.0106698405 -0.16719635 -0.008288264 -0.56536186 -0.27988046 0.29640824 -0.25748512 0.0043693073
-0.49551535 0.59562624 0.42196718 0.53165495 -0.3713133 -0.2652613 -0.41768676 -0.22802386
0.11390983 -0.09556079 -0.34168434 0.53544986 0.0663268 0.02252163 0.59497017 0.40156054
-0.20226225 -0.18897012 0.46948862 -0.119634084 0.57958156 0.4159401 0.37293166 0.4941493
-0.2620372 -0.50329006 0.083814785 -0.15277743 0.5010441 -0.34004894 0.20759338 0.32457775
0.20532829 -0.36965874 -0.34166473 -0.5408694 0.43031323 -0.1510111 -0.5354359 0.41111642
0.47571602 0.54767185 -0.3661538 -0.18296733 -0.4468353 -0.35920173 -0.22327922 -0.03497132
-0.012357891 0.35370067 -0.097091556 0.31927884 -0.2210573 -0.32873347 0.34260148 0.09690336
0.35254443 -0.5057267 -0.022156596 0.22664313 0.39523023 0.2717162 0.13738322 0.5715567
0.15583663 -0.34139207 0.53622496 -0.55461097 -0.20333669 -0.15465114 -0.13611382 0.5547013

cnn.1.conv.0.depthwise.weightnet.net.0.linear.bias f4 [32]
00000000: 24bd 99bd 7bb2 d33e 6abf fcbd 37ba 0d3c
00000010: 69e0 923d ee70 02be dba9 4c3c b9d5 633e
00000020: c4a9 0c3f 5060 043f dffb 17bd ac5c 983e
00000030: f99c c13c 09d9 5f3d d711 ddbe 0636 f7be
00000040: 3c62 bd3e a489 aebd 638b c73e 10ed eabe
00000050: cad0 f63d e906 dfbd eb05 3ebe b201 e7bd
00000060: 9938 013d 667b 8f3e bad5 dbbe 4c05 b7be
00000070: fb59 53be 6c97 02bf 0641 1cbe c121 833d
-0.07506779 0.41347107 -0.12341197 0.008650354 0.07171709 -0.12738392 0.012491669 0.22249497
0.5494654 0.5170946 -0.037105437 0.29758203 0.02363442 0.05465034 -0.43177673 -0.48283404
0.3698901 -0.085223466 0.3897353 -0.4588399 0.12051542 -0.1088999 -0.18556945 -0.1127962
0.031548116 0.28023833 -0.42936498 -0.3574623 -0.20639794 -0.510123 -0.1525918 0.064029224

cnn.1.conv.0.depthwise.weightnet.net.0.bn.weight f4 [32]
00000000: 4d68 7a3f 5d80 7c3f 5581 7e3f f497 833f
00000010: a634 823f 7e6e 813f b095 803f 55fe 863f
00000020: 6549 783f 1f9f 803f ec2d 823f 6425 853f
00000030: a354 803f 8905 793f 8e39 703f 502c 7e3f
00000040: 35b3 803f 5cd1 723f ae38 813f 3fc7 813f
00000050: 3622 763f 5263 793f de7a 763f 75b8 823f
00000060: 2937 823f bf46 7b3f 0ec5 803f c3e9 7a3f
00000070: 4195 823f cf5d 813f 118c 823f ec2b 723f
0.978154 0.98633367 0.99416095 1.0280747 1.0172317 1.0111845 1.0045681 1.0546366
0.9698699 1.004856 1.0170264 1.0402036 1.0025829 0.9727407 0.9383782 0.99286366
1.005469 0.9485071 1.0095422 1.013893 0.9614595 0.97417176 0.9628123 1.0212542
1.0173084 0.98154825 1.0060136 0.9801294 1.0201799 1.0106753 1.0198995 0.9459827

cnn.1.conv.0.depthwise.weightnet.net.0.bn.bias f4 [32]
00000000: eefd 82bc eca0 333d 2e6c a93c 0461 cf3c
00000010: b3ca 9d3c 6a55 35bb cb8c 0c3c af79 263d
00000020: 3178 2fbd 9b2a 183d 318c c53b c22c f73c
00000030: 4e4a dc3b 2974 2bbd 0959 c0bc 6bb1 a03c
00000040: a0d7 2d3c 1a74 62bc 2a2d 813d 2af7 063d
00000050: 4cac 64bc 9640 91bc ecd3 f9bb 7788 2b3d
00000060: 0583 323d 59dd 7a3b 85c0 c5bb d673 8dba
00000070: 8f2c 013d ad25 723c a38f 8f3d d5b1 0abd
-0.015990224 0.04385464 0.020681467 0.025314815 0.019261694 -0.002766932 0.00857849 0.04064339
-0.042839233 0.037150007 0.006028675 0.03017271 0.006722725 -0.041858826 -0.023479955 0.01961585
0.010610491 -0.013821626 0.063074425 0.032950558 -0.013957094 -0.017730992 -0.00762414 0.04187819
0.04358198 0.0038278906 -0.006034913 -0.0010791968 0.031536635 0.01477949 0.070098184 -0.033861

cnn.1.conv.0.depthwise.weightnet.net.0.bn.running_mean f4 [32]
00000000: edff 96bd 5763 d33e 98ed fdbd 7fce 223c
00000010: 0f43 923d ca87 02be e04f 2a3c 1e31 633e
00000020: 6e60 0d3f 9ee7 033f ff4d 19bd d54e 983e
00000030: e4ee c93c ef62 5b3d 5df0 dcbe 0a00 f6be
00000040: 3d90 bc3e ba15 acbd cb4c c83e cd1f ecbe
00000050: facd f33d dcaf d9bd 6660 3fbe 359b e8bd
00000060: b014 053d 18f4 8e3e 3458 dbbe eeb8 b6be
00000070: 103e 52be ea97 02bf 1aa1 1ebe ce69 843d
-0.07373033 0.41286728 -0.12398833 0.009936928 0.07141697 -0.12747112 0.01039502 0.22186705
0.55225265 0.51525295 -0.0374279 0.29747644 0.024650045 0.053561147 -0.43152133 -0.48046905
0.36828795 -0.084025815 0.39121088 -0.46118012 0.11904521 -0.10629246 -0.18689117 -0.113577284
0.032490432 0.27920604 -0.4284073 -0.35687965 -0.20531487 -0.5101305 -0.15491143 0.06465493

cnn.1.conv.0.depthwise.weightnet.net.0.bn.running_var f4 [32]
00000000: 321b 9040 1a9f 0f40 f218 fa40 37b5 0c40
00000010: c33f cb3e 2af2 253f 1894 1341 624d c53f
00000020: 3f91 4541 c26d 9a40 c7d1 c03f 1e86 1541
00000030: 6962 0341 7e47 e33f 61e1 0141 dd13 0e41
00000040: 613f c140 c3f9 0741 62dd 5a40 37b4 1741
00000050: 805b e540 e81c 4341 9ee1 ac40 237f 973f
00000060: 4093 4740 d0a8 6840 b203 4640 cadf 993f
00000070: 1bb6 0940 7dad 5040 4c5a 0141 07df f140
4.5033197 2.2440858 7.815545 2.1985605 0.39697084 0.6482264 9.223656 1.541424
12.34796 4.825898 1.5064019 9.345243 8.211526 1.7756193 8.117524 8.879849
6.0389867 8.498477 3.4197621 9.481498 7.1674194 12.194557 5.402541 1.1835674
3.1183624 3.6353035 3.0939755 1.202142 2.1517398 3.260589 8.084545 7.558475
