weights/clock_weights/model_weight-T2.pth (torch_old, 924023 bytes, 184 tensors)

conv_theta.weightnet.net.0.linear.weight f4 [32, 2]
0	0xbeaeacc2	-0.3411618
1	0xbeddd2f7	-0.43325016
2	0xbe4d700a	-0.20062271
3	0x3edfa552	0.43680817
4	0x3efc1c09	0.4924014
5	0xbe5bf908	-0.21481717
6	0xbe42dca0	-0.19029474
7	0x3e9da4fe	0.30789942
8	0xbf046fb7	-0.51732963
9	0xbf03938c	-0.51397014
10	0xbed086c6	-0.40727824
11	0xbe00afbd	-0.12567039
12	0x3f307cbd	0.68940336
13	0xbf29d011	-0.6633311
14	0x3eb4d4a9	0.35318497
15	0xbe31989f	-0.17343377
16	0xbf02def6	-0.5112146
17	0x3e08a673	0.13344745
18	0xbe33ddf6	-0.1756514
19	0xbf360328	-0.71098566
20	0xbf1d7a60	-0.61514854
21	0xbe6584e8	-0.22413981
22	0x3f0af0a2	0.54273427
23	0xbf19a3e6	-0.60015714
24	0xbe95c2de	-0.29250234
25	0xbe90a1e9	-0.28248528
26	0x3d441688	0.04787305
27	0xbef1d6ad	-0.47234097
28	0x3ebe11f8	0.37123084
29	0x3e1125bc	0.14174551
30	0x3f24ea55	0.6442006
31	0x3d57963d	0.052633513
32	0xbe60ae21	-0.21941425
33	0xbb7dd96e	-0.0038734335
34	0xbdcd4b6c	-0.10024151
35	0x3edafae0	0.42769527
36	0xbe99f7f3	-0.30071983
37	0xbec81ae1	-0.39083007
38	0x3f2b1ca6	0.6684059
39	0xbd431eee	-0.04763692
40	0x3e147777	0.14498697
41	0xbeec3d19	-0.46140364
42	0x3f2f7aa8	0.68546534
43	0xbe61044f	-0.219743
44	0x3ea89c4d	0.32931748
45	0x3f00b6bb	0.50278825
46	0x3ebfd049	0.37463596
47	0x3c83697a	0.016041506
48	0xbea7ef2b	-0.32799658
49	0xbe1742a3	-0.14771514
50	0x3e67e51d	0.22645994
51	0xbf1d5759	-0.61461407
52	0x3ecc952b	0.39957556
53	0xbea5efc0	-0.32409477
54	0x3e7e03c3	0.24806122
55	0x3d0ccc08	0.034374267
56	0xbe709839	-0.23495568
57	0x3f144c55	0.57928973
58	0xbf0d6fae	-0.55248535
59	0xbde0ba8c	-0.10973081
60	0xbf15ab18	-0.58464193
61	0x3df2d3c7	0.118567996
62	0x3f088b42	0.5333749
63	0x3e99df3f	0.30053136

conv_theta.weightnet.net.0.linear.bias f4 [32]
0	0xbf026ea4	-0.50950074
1	0xbed095ef	-0.4073939
2	0xbea184de	-0.31546682
3	0x3ee1815f	0.44044015
4	0x3d604ceb	0.054760855
5	0x3f003364	0.50078416
6	0xbf301f54	-0.687978
7	0xbe2888ad	-0.16458388
8	0xbeabb114	-0.33533537
9	0xbf1e9728	-0.61949396
10	0xbe40c14f	-0.18823741
11	0x3e4165a3	0.18886428
12	0xbeadbfd2	-0.3393541
13	0xbea02a0c	-0.3128208
14	0x3d271e59	0.040800426
15	0xbf135e53	-0.575658
16	0x3e172e1e	0.14763686
17	0x3f235c47	0.6381268
18	0xbed78d3b	-0.42099938
19	0xbdbb1855	-0.091355
20	0x3e6ca0aa	0.23108163
21	0x3ea7177b	0.32635102
22	0x3eeee6c3	0.46660432
23	0xbe48043b	-0.19532864
24	0x3e0167e4	0.12637287
25	0x3d964e6e	0.07339178
26	0x3efd2854	0.4944483
27	0x3ecfa6a0	0.40556812
28	0xbd2d791e	-0.042351834
29	0x3ed55eda	0.41673928
30	0xbedee6ed	-0.43535557
31	0x3f2a408c	0.6650474

conv_theta.weightnet.net.0.bn.weight f4 [32]
0	0x3f748516	0.95515573
1	0x3f7d66ac	0.9898479
2	0x3f82b4a1	1.0211374
3	0x3f80bf7d	1.0058438
4	0x3f85d0a7	1.0454301
5	0x3f75f68e	0.9607934
6	0x3f782429	0.96930176
7	0x3f7b3b4f	0.9813737
8	0x3f82ab0b	1.0208448
9	0x3f83cfd1	1.0297796
10	0x3f720f27	0.9455437
11	0x3f7f20ad	0.99659234
12	0x3f842c74	1.0326066
13	0x3f840c31	1.031622
14	0x3f7ec492	0.9951869
15	0x3f805c8b	1.0028242
16	0x3f813b1c	1.0096164
17	0x3f7c9f6d	0.98680764
18	0x3f802a05	1.0012823
19	0x3f7dcb5e	0.9913844
20	0x3f76b328	0.9636712
21	0x3f792716	0.97325265
22	0x3f849360	1.0357475
23	0x3f8038a1	1.0017282
24	0x3f83ea93	1.0305961
25	0x3f830fb3	1.0239166
26	0x3f818e07	1.0121468
27	0x3f820a71	1.0159436
28	0x3f8218f2	1.0163863
29	0x3f7ca6f6	0.9869226
30	0x3f8450de	1.0337179
31	0x3f825a7a	1.0183861

conv_theta.weightnet.net.0.bn.bias f4 [32]
0	0xbc97de3d	-0.018538589
1	0xbc15d47c	-0.0091448985
2	0x3a2c98a4	0.00065840245
3	0xbb58a894	-0.0033059465
4	0x3d10d0da	0.035355426
5	0x3b460bc5	0.0030219418
6	0xbd367a7a	-0.044550397
7	0xbc6996e5	-0.0142571675
8	0x3b9ea279	0.0048411456
9	0x3ca23c23	0.019804066
10	0xbd306de0	-0.043073535
11	0x3ca279a7	0.019833399
12	0x3cdb2e05	0.026755342
13	0x3ae83db5	0.0017718585
14	0xbbe5aaff	-0.0070089097
15	0x3c1071ed	0.0088162245
16	0xbb5489d9	-0.0032430796
17	0x39b376a1	0.00034229926
18	0xba87254d	-0.0010310799
19	0x3bb20a76	0.005433376
20	0xbc358514	-0.011079092
21	0x3bdc5079	0.0067234603
22	0xbb17ab40	-0.0023142844
23	0xbb438d20	-0.0029838756
24	0x3d1be93f	0.038064238
25	0x3cd8b7b7	0.02645479
26	0xbc8db284	-0.017297037
27	0x3a9dd438	0.0012041396
28	0xbc822dbc	-0.015890948
29	0xba151376	-0.0005686799
30	0x3ca5a796	0.020221513
31	0x3aef9135	0.0018277528

conv_theta.weightnet.net.0.bn.running_mean f4 [32]
0	0xbf01e2e9	-0.5073686
1	0xbed07635	-0.40715185
2	0xbea26f67	-0.31725618
3	0x3ee1ad15	0.44077364
4	0x3d6c6356	0.05771192
5	0x3f00aff9	0.5026851
6	0xbf30a064	-0.68994737
7	0xbe29cff0	-0.16583228
8	0xbeaab21a	-0.33339006
9	0xbf1e1ec5	-0.617657
10	0xbe3dacd2	-0.18522957
11	0x3e3ff65d	0.18746324
12	0xbeace298	-0.33766627
13	0xbe9fe7f8	-0.31231666
14	0x3d1f8ba9	0.03895155
15	0xbf141717	-0.5784773
16	0x3e1825f0	0.14858222
17	0x3f234f6c	0.63793063
18	0xbed69c08	-0.41915917
19	0xbdc0bed0	-0.094113946
20	0x3e6cb3aa	0.23115411
21	0x3ea5bf15	0.32372347
22	0x3eedca04	0.46443188
23	0xbe49a6e0	-0.19692564
24	0x3e03016f	0.12793516
25	0x3d964cf0	0.073388934
26	0x3efc8bcf	0.49325415
27	0x3ecf1810	0.40448046
28	0xbd2cfd6b	-0.042233866
29	0x3ed6acfb	0.4192885
30	0xbeddb426	-0.43301505
31	0x3f298e20	0.6623249

conv_theta.weightnet.net.0.bn.running_var f4 [32]
0	0x4139ba2e	11.607954
1	0x410d38b6	8.826345
2	0x41306a17	11.025901
3	0x40a029f1	5.00512
4	0x41a26781	20.300539
5	0x40ddf9e7	6.9367557
6	0x420bdef7	34.96774
7	0x40bd4798	5.9149895
8	0x412a9a0f	10.662612
9	0x41a3d066	20.476757
10	0x4182f091	16.367464
11	0x41c81bae	25.013515
12	0x40c9fdbe	6.3122244
13	0x4109b4e2	8.606661
14	0x40c0ece0	6.0289154
15	0x417f466a	15.954691
16	0x3feb8872	1.8401015
17	0x40ebd047	7.3691745
18	0x411486c0	9.282898
19	0x418938d3	17.152746
20	0x410eef05	8.933354
21	0x419e5b5c	19.79461
22	0x415ca38d	13.789929
23	0x40abd992	5.370309
24	0x409e1b78	4.940853
25	0x418317e8	16.386673
26	0x4121cdd7	10.112754
27	0x401951c9	2.3956168
28	0x416ed47c	14.926876
29	0x4141df5a	12.117029
30	0x41597cad	13.592938
31	0x4164f34a	14.309397

conv_theta.weightnet.net.1.linear.weight f4 [32, 32]
0	0x3e102a0c	0.1407854
1	0x3dace5e4	0.08442286
2	0xbe31596d	-0.1731927
3	0xbd592402	-0.053012855
4	0x3d63638f	0.05551487
5	0xbd35273d	-0.044226874
6	0xbdf122fb	-0.1177425
7	0xbddea571	-0.10871399
8	0x3dcd043b	0.100105725
9	0x3ddbe8c4	0.10737756
10	0xbd3dfa3c	-0.04638122
11	0xbe168f35	-0.14703067
12	0xbdf4f40f	-0.11960613
13	0x3d8f46e0	0.0699594
14	0xbd9cd8b6	-0.07658522
15	0xbd43aebe	-0.04777407
16	0x3db92237	0.09039729
17	0x3d641afb	0.055689793
18	0x3df9ddd3	0.12200513
19	0x3c7f32e5	0.015576099
20	0x3d221192	0.039567538
21	0x3e286d50	0.1644795
22	0x3d41e8cf	0.047341164
23	0x3e1bd2ab	0.15217082
24	0x3d534f5f	0.051589366
25	0xbd7346d6	-0.059393726
26	0xbe49e01c	-0.19714397
27	0xbcd003c6	-0.025392424
28	0xbdb37556	-0.087626144
29	0x3db8c3b4	0.090217024
30	0x3d179abf	0.03701281
31	0x3e20b598	0.15694273
32	0x3dd8f68b	0.10593899
33	0x3dcf34b7	0.101174764
34	0xbe3a382b	-0.18185489
35	0x3e0996c7	0.13436423
36	0x3cdc2e1a	0.026877452
37	0x3d53e822	0.05173505
38	0xbe322181	-0.17395593
39	0xba3033fe	-0.00067216146
40	0x3e077ef7	0.13232027
41	0xbc94c998	-0.018162534
42	0xbcf179e3	-0.029477065
43	0x3da1ad63	0.07894399
44	0xbdcc4752	-0.09974541
45	0xbdd4413d	-0.10364006
46	0xbda5367d	-0.080670334
47	0x3de51f9f	0.11187672
48	0x3cc9fb0d	0.024655843
49	0x3d95ba36	0.073109075
50	0x3cddd329	0.027078228
51	0x3e04ce9a	0.12969437
52	0x3d8c1959	0.06840772
53	0x3b259c12	0.0025270027
54	0x3e1be6ce	0.15224764
55	0xbd35385b	-0.044243198
56	0xbd3f3baa	-0.04668776
57	0xbe41711e	-0.18890807
58	0x3b0c93dd	0.0021450438
59	0x3d8cdc4d	0.068779565
60	0xbdb7dfe4	-0.089782506
61	0x3b85f468	0.0040879734
62	0x3d5df241	0.05418611
63	0xbd14bde7	-0.036313917
64	0x3dbee27a	0.09320541
65	0xbd1b7da5	-0.03796162
66	0x3e155d83	0.14586453
67	0x3de5df81	0.112242706
68	0xbdb12e1c	-0.08651373
69	0x3dc40317	0.09570902
70	0xbd26a97f	-0.040688988
71	0xbe252bff	-0.16130064
72	0xbd5bc7d1	-0.053657357
73	0xbd9b47bd	-0.07582042
74	0x3de7457b	0.11292549
75	0xbe29045e	-0.16505572
76	0xbded6979	-0.11592383
77	0x3e22f2d7	0.15912949
78	0xbb6c7dfb	-0.0036085832
79	0x3d5c335e	0.053759925
80	0x3ba22ad6	0.004948954
81	0xbd15a43b	-0.036533576
82	0xbcf05ccf	-0.02934113
83	0x3da58b45	0.08083204
84	0xbd73a7b4	-0.059486106
85	0x3dc9e3f6	0.09857933
86	0x3d83060d	0.063976385
87	0xbdbb3b78	-0.09142202
88	0xbe277c92	-0.16356114
89	0x3dee45ee	0.11634432
90	0xbd47182b	-0.048607033
91	0xbc15406b	-0.009109597
92	0xbd75970b	-0.0599585
93	0xb919fd13	-0.00014685495
94	0x3cceb4c7	0.025232686
95	0x3e228723	0.15871863
96	0x3bcee893	0.006314346
97	0xbdafa630	-0.085766196
98	0xbd958e74	-0.073025614
99	0xbd4b0bbb	-0.049571734
100	0x3deb8f38	0.11501926
101	0xbe492817	-0.196442
102	0xbcad98ef	-0.021191088
103	0x3bb23235	0.005438114
104	0xbe41dda0	-0.189322
105	0x3c840b49	0.016118662
106	0xbcebaead	-0.028769815
107	0xbe0d781d	-0.13815351
108	0x3bee94f6	0.007280941
109	0xbdb60a31	-0.088886626
110	0x3e0f72db	0.14008658
111	0xbe01bf0e	-0.12670538
112	0x3d948f66	0.072539136
113	0x3e51182a	0.20419374
114	0xbe313ec9	-0.17309107
115	0x3e093a39	0.13401116
116	0x3d589d5d	0.05288445
117	0x3daa71bd	0.08322475
118	0x3dcf1b5c	0.1011264
119	0x3dcc5cf8	0.0997867
120	0x3cc7ab1e	0.024373587
121	0x3ceee737	0.029162986
122	0xbd269804	-0.040672317
123	0x3cef7a2a	0.029233057
124	0x3e361943	0.17783074
125	0x3d02c2e7	0.031924155
126	0xbe3e9e64	-0.18615109
127	0xbcb0f4fc	-0.021601193
128	0xbe2ce6d6	-0.16884932
129	0x3e425c7c	0.18980592
130	0x3dcbf817	0.09959429
131	0xbcaf6d9d	-0.021414572
132	0xbdc4e128	-0.09613258
133	0x3da5e659	0.08100576
134	0x3e0af8fe	0.13571545
135	0xbe31ef9b	-0.17376558
136	0xbd9da580	-0.07697582
137	0x3e0defe4	0.13861042
138	0x3d90a74d	0.0706316
139	0x3ddbce5c	0.10732719
140	0xbd8bf7ea	-0.06834395
141	0xbd9ea3dd	-0.07746098
142	0xbded3587	-0.11582475
143	0x3cf9fd9b	0.030516436
144	0xbdd03ff8	-0.10168451
145	0x3e2c7c3a	0.16844264
146	0x3dccf039	0.10006756
147	0xbd708b1b	-0.05872641
148	0xbd4439ce	-0.04790669
149	0x3bf78419	0.007553589
150	0xbc1e278f	-0.009652986
151	0xbd604ff3	-0.054763746
152	0xbdb6fa5d	-0.08934472
153	0xbcd3c177	-0.025849087
154	0x3d314a6f	0.043283876
155	0x3df2746c	0.11838612
156	0x3c0e4cae	0.008685274
157	0xbe102af1	-0.14078881
158	0x3d450a7e	0.04810571
159	0xbe082ad9	-0.13297595
160	0xbd798139	-0.060914252
161	0xbdb94ec1	-0.09048224
162	0xbd9ec4b9	-0.077523656
163	0xbe0743f3	-0.13209514
164	0x3c5e5e8c	0.013572346
165	0x3e063310	0.13105416
166	0x3d59dd89	0.053189788
167	0x3b987c08	0.0046534576
168	0x3dc7e80e	0.09761058
169	0x3d0831a7	0.033250477
170	0xbc2aa894	-0.010416169
171	0x3d170494	0.0368696
172	0x3e0a3c78	0.1349963
173	0x3c494d79	0.012286537
174	0x3dee047c	0.11621949
175	0x3e0534d6	0.13008437
176	0x3ccdbe69	0.025115209
177	0xbe0d6692	-0.13808659
178	0x3e0a6137	0.13513647
179	0x3dc48e3c	0.095974416
180	0x3d947b00	0.07250023
181	0xbd97f4a1	-0.07419706
182	0x3d00efa1	0.031478528
183	0x3db4fd6d	0.088374
184	0x3d7bb7ec	0.0614547
185	0x3e2e1a3e	0.17002198
186	0x3e041ae4	0.12900883
187	0x3e232c25	0.15934809
188	0xbdd6535f	-0.104651205
189	0xbe21a54f	-0.15785716
190	0x3d5dda04	0.054162994
191	0x3d7c07ef	0.061531004
192	0xbdb9f187	-0.09079271
193	0x3c901726	0.017589163
194	0xbe0f5bb8	-0.13999832
195	0xbc979b7d	-0.01850676
196	0x3d457581	0.048207764
197	0xbd923694	-0.07139316
198	0xbe06d169	-0.13165821
199	0x3ddad65d	0.10685418
200	0xbd1c45c3	-0.038152467
201	0xbc277ab0	-0.010222122
202	0x3d91e126	0.07123022
203	0x3e01a5f7	0.12660967
204	0x3e08c897	0.13357769
205	0xbe0da1bb	-0.13831227
206	0xbde7bfd2	-0.11315884
207	0xbd195d26	-0.03744235
208	0xbc5dadfc	-0.013530251
209	0x3dd84ee7	0.105619244
210	0x38480a5a	4.7693356e-05
211	0x3b6d899b	0.003624535
212	0xbd1014a8	-0.03517595
213	0x3e0a97dd	0.13534494
214	0xbda73bf6	-0.081657335
215	0x3dd8d413	0.10587325
216	0xbe23aa6f	-0.15982984
217	0xbd0f82c3	-0.035036813
218	0xbe15d8d2	-0.14633492
219	0xbdcc3fba	-0.099730924
220	0xbe1dfbdd	-0.1542811
221	0x3b996960	0.004681751
222	0xbdf790fd	-0.12088201
223	0xbe0a8262	-0.135263
224	0xbccb7bfe	-0.024839398
225	0x3e038a73	0.12845783
226	0x3d6044c6	0.054753087
227	0x3da01fcb	0.07818564
228	0xb9b1b5fb	-0.00033895657
229	0xbd83445a	-0.064095214
230	0xbd8a2d8b	-0.06746968
231	0x3e3f5ea3	0.18688445
232	0xbdfc0854	-0.12306276
233	0xbe14ed15	-0.14543565
234	0xbd4ae596	-0.049535356
235	0x3d171818	0.036888212
236	0x3ca21b9a	0.019788552
237	0x3d7c3233	0.06157131
238	0x3ce23a05	0.027615556
239	0xbdd647b9	-0.10462899
240	0x3dc4d469	0.096108265
241	0xbe039e83	-0.12853436
242	0x3c471f09	0.012153395
243	0xbe047dad	-0.12938567
244	0x3bb53f96	0.0055312617
245	0xbdc90cba	-0.098168805
246	0x3dcfec03	0.101524375
247	0xbc3cfc84	-0.011534814
248	0xbddf728c	-0.1091052
249	0xbe5a05e3	-0.21291308
250	0xbe07e9a1	-0.13272716
251	0xbda6489d	-0.08119319
252	0x3d0b8010	0.034057677
253	0xbe0b0851	-0.13577391
254	0xbdf1d9ef	-0.11809146
255	0x3e0fcf1a	0.14043847

conv_theta.weightnet.net.1.linear.bias f4 [32]
0	0x3d95f7af	0.073226325
1	0xbcfa632a	-0.030564863
2	0xbd87f7ae	-0.06639038
3	0x3d31dee2	0.04342545
4	0xbe257928	-0.16159499
5	0x3d54c656	0.05194696
6	0xbdb8a110	-0.09015095
7	0xbd7bd3fb	-0.061481457
8	0x3e322814	0.17398101
9	0xbcd305a5	-0.025759527
10	0xbc80d74b	-0.01572766
11	0xbb40eca2	-0.002943792
12	0xbc8c377a	-0.017116297
13	0xbc681ca2	-0.014166983
14	0xbda8a8eb	-0.082353435
15	0x3e194dbc	0.1497106
16	0x3db4277c	0.087965935
17	0xbd393b8e	-0.04522281
18	0xbe1507e6	-0.14553794
19	0xbe0a6c4e	-0.13517877
20	0xbe0b4d44	-0.13603693
21	0xbcd75d83	-0.026289707
22	0xbe1e7f2c	-0.154782
23	0x3d596257	0.0530723
24	0xbd35ee6d	-0.044416834
25	0xbe0c39d2	-0.13693932
26	0xbd6fbbb6	-0.058528624
27	0x3d7b8dfb	0.0614147
28	0xbd87460d	-0.06605158
29	0xbd0b8bb1	-0.034068767
30	0x3db224fb	0.0869846
31	0xbd4d8990	-0.050180018

conv_theta.weightnet.net.1.bn.weight f4 [32]
0	0x3f843969	1.033002
1	0x3f7f7263	0.99783915
2	0x3f7f2d6b	0.9967868
3	0x3f766c74	0.96259236
4	0x3f7b0931	0.980609
5	0x3f738de2	0.9513837
6	0x3f889ae8	1.0672274
7	0x3f7a64f8	0.97810316
8	0x3f7a82a6	0.97855604
9	0x3f79f5ff	0.97640985
10	0x3f800d3c	1.0004039
11	0x3f7634d9	0.9617439
12	0x3f7ca77b	0.98693055
13	0x3f75bb93	0.9598934
14	0x3f726704	0.9468844
15	0x3f7785ab	0.96688336
16	0x3f802201	1.0010377
17	0x3f88ca7d	1.0686795
18	0x3f796fc7	0.97436184
19	0x3f7751f9	0.96609455
20	0x3f867041	1.0503007
21	0x3f823ea8	1.0175371
22	0x3f8105d6	1.0079906
23	0x3f7471c3	0.95486087
24	0x3f7e3223	0.9929525
25	0x3f7ba343	0.9829599
26	0x3f821122	1.0161479
27	0x3f846f64	1.0346494
28	0x3f857601	1.0426637
29	0x3f76aa85	0.9635394
30	0x3f823292	1.0171683
31	0x3f7ed9a3	0.9955084

conv_theta.weightnet.net.1.bn.bias f4 [32]
0	0x3d17f966	0.03710308
1	0x3b4ad40e	0.0030949148
2	0xbc67bd5a	-0.014144266
3	0xbcdf8c81	-0.027288677
4	0xbc8d7161	-0.017265977
5	0xbac43ca8	-0.001497169
6	0xbc062abe	-0.0081889015
7	0xbc8d1f4b	-0.017226836
8	0xbbf1c7b8	-0.0073785447
9	0xbd29a460	-0.041416526
10	0x3ca8492b	0.020542702
11	0xbc65ce89	-0.014026293
12	0xbb6ed00b	-0.0036439921
13	0xbcfc890a	-0.030827064
14	0xbc92f433	-0.017938709
15	0xba1a6049	-0.00058889814
16	0x3d10ce98	0.035353273
17	0x3c14990b	0.009069691
18	0xbd0c6af8	-0.0342817
19	0xbca36d31	-0.019949527
20	0xbcb9662e	-0.02263173
21	0x3c0eb5e3	0.008710357
22	0x3cbd5d34	0.023115732
23	0xbcf883ab	-0.030336222
24	0xbbd739fc	-0.0065681916
25	0x39bd1300	0.00036063045
26	0x3c09044b	0.00836284
27	0x3d26a845	0.040687818
28	0x3d100e9d	0.035170186
29	0xbd50d5dc	-0.050985202
30	0x3b1e2b16	0.0024134568
31	0xbc6543bb	-0.013993199

conv_theta.weightnet.net.1.bn.running_mean f4 [32]
0	0x3e0d5ced	0.1380498
1	0x3cb38a8e	0.021916654
2	0xbd6da186	-0.05801537
3	0x3cbca679	0.0230286
4	0xbe457db9	-0.1928624
5	0x3e905db4	0.2819649
6	0xbe958390	-0.29201937
7	0xbe6c9f5a	-0.23107663
8	0x3ec40305	0.38283554
9	0xbe3b812c	-0.18310994
10	0x3cefa12b	0.029251656
11	0xbe2d43d9	-0.16920413
12	0xbe6a47ab	-0.22878902
13	0xbe537afc	-0.20652384
14	0x3ded786c	0.11595234
15	0x3da2c2a0	0.07947278
16	0x3e733a86	0.23752794
17	0xbec44ea1	-0.3834124
18	0xbdf61465	-0.12015609
19	0xbe251ac5	-0.16123493
20	0xbea4e711	-0.3220754
21	0x3d20b9a4	0.03923954
22	0xbe45f207	-0.19330607
23	0xbcff2d02	-0.031149391
24	0xbe659064	-0.22418362
25	0xbea120a2	-0.3147021
26	0xbcecfc24	-0.028928824
27	0x3e1e82fe	0.15479657
28	0x3e201c78	0.1563586
29	0xbd5fa85d	-0.054603923
30	0xbdfc83c0	-0.12329817
31	0xbe4eee0a	-0.20207992

conv_theta.weightnet.net.1.bn.running_var f4 [32]
0	0x3e0e791c	0.13913387
1	0x3e1597d5	0.146087
2	0x3d026c68	0.031841666
3	0x3e2384a7	0.15968572
4	0x3d3bb6ae	0.045828514
5	0x3e95ad34	0.29233706
6	0x3c80e9aa	0.01573642
7	0x3df73af6	0.12071793
8	0x3e0b46d2	0.13601235
9	0x3e85d947	0.26142332
10	0x3f064d3d	0.52461606
11	0x3dcecc6b	0.100975834
12	0x3d18a1d4	0.037263706
13	0x3e21db0f	0.1580622
14	0x3e047884	0.12936598
15	0x3dcc8bf0	0.099876285
16	0x3e7c5507	0.2464181
17	0x3d3a85bc	0.045537695
18	0x3d5846d1	0.05280191
19	0x3e8648f8	0.26227546
20	0x3c47f5ac	0.012204569
21	0x3ec2d636	0.38054055
22	0x3e09af3a	0.1344575
23	0x3eafe0c4	0.3435117
24	0x3dcd2799	0.10017318
25	0x3cf31e03	0.029677397
26	0x3db84db2	0.08999194
27	0x3e26d33a	0.16291514
28	0x3d37b95a	0.0448545
29	0x3dd8ef2e	0.10592495
30	0x3e31cba5	0.1736284
31	0x3cb92baf	0.022603838

conv_theta.weightnet.net.2.linear.weight f4 [16, 32]
0	0x3e156048	0.1458751
1	0xbd358703	-0.04431821
2	0x3df8ebf4	0.121543795
3	0xbd3c1d06	-0.045926116
4	0x3d594072	0.053039975
5	0xbda6de0e	-0.08147822
6	0x3cd2289f	0.025654135
7	0x3add1bfe	0.0016869304
8	0xbdd740fe	-0.10510443
9	0xbdbb158e	-0.091349706
10	0x3c725c01	0.014792443
11	0x3e18285c	0.14859146
12	0x3aa87ede	0.0012855192
13	0x3d3b54e3	0.04573525
14	0x3e3a1590	0.18172288
15	0xbdfaf7e0	-0.1225431
16	0xbbddc161	-0.0067674373
17	0xbdf26928	-0.11836463
18	0xbdf61321	-0.12015367
19	0xbe13504b	-0.14386098
20	0x3d279fca	0.04092387
21	0x3e059a3f	0.13047121
22	0xbd13007f	-0.035889145
23	0xbd993b64	-0.07482031
24	0xbdc3dfff	-0.09564208
25	0xbe5e0c37	-0.21684347
26	0xbdf0cb26	-0.117574975
27	0x3de667da	0.11250277
28	0x3decf914	0.115709454
29	0x3dff9a99	0.12480659
30	0x3e42bf76	0.19018349
31	0x3b56e9ca	0.0032793158
32	0x3d122abc	0.035685286
33	0xbb47e5e9	-0.0030502027
34	0xbdeca2b3	-0.1155447
35	0x3da0c291	0.078496106
36	0x3ddcdd7a	0.10784431
37	0xbc859f63	-0.016311353
38	0x3e102ad7	0.14078842
39	0x3e0fc2bd	0.1403913
40	0xbe118a3d	-0.1421289
41	0x3d6f22e6	0.05838289
42	0x3d9f5823	0.077804826
43	0xbd14be29	-0.036314163
44	0x3d2ca5c1	0.042150263
45	0x3d377406	0.044788383
46	0x3d93e3b6	0.07221167
47	0xbd951e86	-0.072812125
48	0xbe25981f	-0.16171311
49	0x3e196679	0.14980496
50	0x3e16ebca	0.14738384
51	0xbdcdb1c1	-0.100436695
52	0x3e52a6e6	0.20571479
53	0x3d78c2fd	0.06073283
54	0x3e21fc04	0.15818793
55	0x3daad4fb	0.08341404
56	0xba982529	-0.0011607754
57	0xbd877028	-0.06613189
58	0xbdcd53b9	-0.100257345
59	0x3d670038	0.056396693
60	0xbcd2622c	-0.025681578
61	0x3be598e1	0.00700675
62	0xbe1bbf79	-0.1520976
63	0xbe0812a3	-0.1328836
64	0xbe46861f	-0.193871
65	0xbe2e42ae	-0.17017624
66	0x3c002ec0	0.007823646
67	0xbe0e2768	-0.1388222
68	0x3db7b126	0.08969335
69	0xbd88d7fe	-0.06681822
70	0xbcc53433	-0.024072742
71	0x3d798a85	0.06092312
72	0x3cf4a66b	0.02986451
73	0xbd3f8186	-0.046754383
74	0xbd8c8a0b	-0.06862267
75	0xbcfbe6d2	-0.030749712
76	0xbdf56155	-0.11981455
77	0xbe219b02	-0.15781787
78	0x3dada383	0.08478453
79	0xbdad8b87	-0.08473878
80	0x3dc2b54f	0.09507238
81	0xbd748c5e	-0.059704177
82	0x3d043402	0.03227616
83	0x3cd13af5	0.025540808
84	0xbd87cd1e	-0.0663092
85	0xbd06d082	-0.032913692
86	0x3e257496	0.16157755
87	0x3d079484	0.03310062
88	0x3c4d1c45	0.012518947
89	0xbd4f282f	-0.05057543
90	0x3e196f95	0.14983971
91	0x3df9ee3a	0.12203641
92	0xbe07e1cc	-0.13269728
93	0xbe0078d6	-0.12546095
94	0x3e110b4b	0.14164464
95	0x3d82a48d	0.06379042
96	0xbd49db15	-0.0492812
97	0xbe139fe7	-0.14416467
98	0xbe119241	-0.14215948
99	0x3c74c49a	0.014939452
100	0xbd31e1ce	-0.043428235
101	0x3dcb5317	0.099279575
102	0xbb514154	-0.0031929808
103	0xbda78597	-0.08179777
104	0x3dd8fc55	0.105950035
105	0x3d9c8246	0.07642035
106	0x3ce3d8f4	0.027813412
107	0x3db61976	0.08891575
108	0x3e12d5a3	0.14339308
109	0xbcfc076a	-0.030765254
110	0xbbb27eed	-0.0054472596
111	0x3df1e752	0.11811699
112	0xbe3c249b	-0.18373339
113	0x3db44441	0.08802081
114	0xbcb9675d	-0.022632295
115	0x3dad6b09	0.08467681
116	0x3e3336fb	0.17501442
117	0x3d528200	0.05139351
118	0xbc0a75be	-0.0084509235
119	0x3d3e5f49	0.04647759
120	0x3da846bf	0.08216619
121	0x3d285087	0.04109242
122	0x3d1ff64f	0.039053258
123	0xbe24383a	-0.16037074
124	0xbdc1bd32	-0.09459914
125	0xbe3b058f	-0.18263839
126	0x3cba7d5f	0.02276486
127	0x3e00b1dd	0.1256785
128	0xbd2b0bb8	-0.041759223
129	0xbe05770b	-0.13033693
130	0x3e463a18	0.19358099
131	0xbe2b0c30	-0.16703868
132	0x3d649fe8	0.05581656
133	0xbd81d6c2	-0.0633979
134	0x3e5815dd	0.2110209
135	0xbda0678c	-0.0783225
136	0x3decdaed	0.11565194
137	0xbda83dac	-0.08214888
138	0xbde81817	-0.1133272
139	0xbe09fe9c	-0.13476032
140	0x3dee882f	0.11647069
141	0xbe1b64a2	-0.15175107
142	0xbdf89137	-0.121370725
143	0x3cb4670d	0.022021795
144	0xbe06ddf5	-0.13170607
145	0x3d52e72d	0.051489998
146	0x3d976a4c	0.073933214
147	0xbdc84c56	-0.09780185
148	0x3e3ed2f5	0.18635161
149	0x3c33b68a	0.010968814
150	0xbd484a3d	-0.048898924
151	0xbd92090a	-0.0713063
152	0x3d34774a	0.044059075
153	0x3dd3f7a5	0.10349969
154	0x3d9367a3	0.071975015
155	0x3d9476eb	0.07249244
156	0x3e49b8f2	0.19699457
157	0x3ccb61ed	0.024826968
158	0x3d873c98	0.06603354
159	0x3e0625b9	0.13100328
160	0x3c9f5424	0.019449301
161	0x3dc49c10	0.09600079
162	0xbdcfc2bc	-0.101445645
163	0x3d916e42	0.07101108
164	0xbdefdcde	-0.11712049
165	0xbdb410e3	-0.087922834
166	0xbe0b273c	-0.13589185
167	0xbde4199f	-0.11137699
168	0x3e5663be	0.20936486
169	0x3d94edbf	0.07271909
170	0x3bcfae5f	0.0063379253
171	0xbe1de4b7	-0.15419279
172	0xbdf2099d	-0.1181824
173	0xbd75afcb	-0.059982102
174	0x3cdeafe7	0.027183486
175	0xbdd3d519	-0.103433795
176	0x3db41237	0.08792537
177	0xbda5799a	-0.08079834
178	0x3cbab97d	0.022793526
179	0xbccd97d3	-0.02509681
180	0x3d826762	0.06367375
181	0xbe22b6d4	-0.15890056
182	0xbde6b74b	-0.11265429
183	0x3de7ee41	0.1132474
184	0x3d60e184	0.05490257
185	0xbdcb14c1	-0.09916068
186	0xbdc3f917	-0.095689945
187	0x3d359b83	0.04433776
188	0x3dca082b	0.09864839
189	0xbca1b284	-0.019738443
190	0x3dc6bc6d	0.09703908
191	0xbdfc45c9	-0.12317998
192	0xbe103bcf	-0.14085315
193	0x3cff110c	0.031136058
194	0xbdb0b7d7	-0.08628815
195	0x3e0938e4	0.13400608
196	0xbe08a977	-0.13345896
197	0xbe14f794	-0.14547569
198	0x3e22b21a	0.15888253
199	0xbe231989	-0.1592771
200	0x3df39a10	0.118946195
201	0xbe14f3a2	-0.14546064
202	0x3e12605a	0.14294568
203	0x3cbf610b	0.023361703
204	0x3d0fc83e	0.035103075
205	0x3da570df	0.08078169
206	0x3e376082	0.17907909
207	0x3d4cac1c	0.049968824
208	0x3d61c241	0.055116896
209	0xbca27a34	-0.019833662
210	0xbda80a2b	-0.082050644
211	0xbd473902	-0.04863835
212	0x3e3c1aa4	0.18369538
213	0x3d8b80b8	0.068116605
214	0x3e2e895e	0.17044589
215	0xbd4d6e2b	-0.050153892
216	0x3df39027	0.11892729
217	0x3dcaca47	0.099018626
218	0x3de729de	0.112872824
219	0xbcd9628e	-0.026536252
220	0x3c937d18	0.018003985
221	0x3e094e71	0.1340883
222	0x3ce9d330	0.028543085
223	0xbad262c6	-0.0016051165
224	0x3d0a7a74	0.033808187
225	0x3e17775c	0.14791626
226	0xbe31b994	-0.17355949
227	0xbd8e4108	-0.069459975
228	0xbdd31f13	-0.10308661
229	0xbd7c3a20	-0.06157887
230	0x3dd736e5	0.10508517
231	0x3d286da4	0.041120186
232	0xbcf2907f	-0.029609917
233	0xbe002b6f	-0.12516569
234	0xbcfc424d	-0.030793333
235	0x3d8e76e9	0.06956274
236	0x3dfc9127	0.12332373
237	0xbdaa3e65	-0.08312682
238	0xbe17f6a2	-0.14840177
239	0xbe2eb4cf	-0.1706116
240	0xbda553a2	-0.08072592
241	0x3e0e2f3b	0.13885204
242	0xbde1c3d2	-0.11023678
243	0x3da2ad70	0.07943237
244	0x3b32fab5	0.0027310078
245	0x3dc99d31	0.09844435
246	0xbe1bc5a4	-0.15212113
247	0xbe1c8f81	-0.15289117
248	0xbd35ede0	-0.04441631
249	0x3e212cce	0.15739748
250	0x3df05ea3	0.117368005
251	0xbdaa5a28	-0.08317977
252	0x3dfb4a5f	0.122700445
253	0xbdedfca6	-0.116204545
254	0x3db3cfbb	0.08779856
255	0xb99cd5d9	-0.00029913968

conv_theta.weightnet.net.2.linear.bias f4 [16]
0	0x3c8edce6	0.017439317
1	0xbe08ea4b	-0.13370626
2	0x3ddaaf19	0.106779285
3	0x3d053e51	0.032530133
4	0xbc8f77f3	-0.017513251
5	0x3d4b6641	0.049658064
6	0x3d9c5fb3	0.07635441
7	0x3cac93b7	0.02106653
8	0xbc868a87	-0.016423477
9	0xbce2956b	-0.027659139
10	0x3d107f14	0.03527744
11	0xbda0137a	-0.07816215
12	0x3c505ae0	0.012716979
13	0x3e125817	0.14291416
14	0xbd79d45d	-0.06099354
15	0xbe3056a0	-0.17220545

conv_theta.weightnet.net.2.bn.weight f4 [16]
0	0x3f8038ac	1.0017295
1	0x3f8404d8	1.0313978
2	0x3f81bb95	1.013537
3	0x3f845591	1.0338613
4	0x3f84c7c6	1.0373466
5	0x3f7cdb57	0.98772186
6	0x3f836171	1.0264112
7	0x3f844cfa	1.0335991
8	0x3f847de7	1.0350922
9	0x3f7eae33	0.99484557
10	0x3f8339bf	1.0251998
11	0x3f827c94	1.0194268
12	0x3f820c77	1.0160054
13	0x3f80e355	1.0069376
14	0x3f84a6e1	1.0363427
15	0x3f7e45f7	0.9932551

conv_theta.weightnet.net.2.bn.bias f4 [16]
0	0x3acf488c	0.0015814467
1	0x3ce9dc43	0.028547412
2	0x3c93f4a7	0.018060995
3	0x3cedbe25	0.029021332
4	0x3d0a1b54	0.03371747
5	0xbc5b42f1	-0.013382659
6	0x3cb01168	0.021492675
7	0x3ce7828f	0.028260497
8	0x3cff3db4	0.031157352
9	0xbbe1bdb8	-0.0068890713
10	0x3cb28f48	0.021796837
11	0x3c77824d	0.01510675
12	0x3caa4601	0.020785334
13	0x3b8939fb	0.00418782
14	0x3d07a8aa	0.033119835
15	0xbb9f381e	-0.0048589846

conv_theta.weightnet.net.2.bn.running_mean f4 [16]
0	0x3d1d2bcf	0.038371857
1	0xbc946f7b	-0.018119564
2	0x3c854bea	0.01627155
3	0x3da53ba0	0.08068013
4	0x3d94e0b4	0.07269421
5	0xbd97a5c2	-0.07404663
6	0x3e8b039a	0.27151185
7	0xbd00ed98	-0.031476587
8	0xbca62093	-0.020279204
9	0x3e80606f	0.25073573
10	0xbe1adbc0	-0.1512289
11	0x3d92b333	0.07163086
12	0xb9792e67	-0.00023763777
13	0x3e1ff634	0.15621263
14	0xbe55e3ac	-0.20887631
15	0xbe82e376	-0.25564164

conv_theta.weightnet.net.2.bn.running_var f4 [16]
0	0x3e22dedf	0.15905331
1	0x3dcbafa1	0.09945608
2	0x3e93024e	0.28712696
3	0x3def4e7e	0.11684893
4	0x3dcaa811	0.098953374
5	0x3e0806ec	0.1328389
6	0x3d718263	0.058962237
7	0x3db27e9a	0.087155536
8	0x3e36da92	0.17856815
9	0x3e534094	0.20630103
10	0x3e240ec5	0.16021259
11	0x3dc10638	0.09425014
12	0x3dc3ca12	0.09560026
13	0x3dab1a35	0.08354608
14	0x3dc73af3	0.097280405
15	0x3d955eac	0.07293448

conv_theta.linear.weight f4 [128, 16]
0	0x3dd627c5	0.10456804
1	0x3e5e2d73	0.21697025
2	0x3e4479de	0.19187114
3	0x3e8a4228	0.27003598
4	0x3e320c88	0.17387593
5	0x3d1d3dce	0.03838902
6	0xbd8f24b8	-0.069894254
7	0xbe314cd1	-0.1731446
8	0x3e18efc8	0.1493522
9	0xbd067ecf	-0.032835778
10	0xbd2f9e1b	-0.04287539
11	0xbe3ad3cc	-0.18244857
12	0xbe44b388	-0.1920911
13	0xbdb3e199	-0.08783264
14	0xbdf4a42d	-0.119453765
15	0xbe279d9e	-0.1636872
16	0xbbce84b0	-0.0063024387
17	0xbdff3e62	-0.124630705
18	0x3dcd647c	0.100289315
19	0xbe0ba1f1	-0.13635994
20	0x3e805071	0.25061372
21	0xbe7ad6aa	-0.2449595
22	0xbd4721a8	-0.04861608
23	0x3e85a0ca	0.26099235
24	0x3d8a3769	0.0674885
25	0xbe5592ff	-0.20856856
26	0x3b9278bb	0.0044699586
27	0xbe14c44e	-0.1452801
28	0x3e109c18	0.14122045
29	0xbda59faf	-0.08087098
30	0x3d51d265	0.05122604
31	0xbe53552e	-0.20637962
32	0x3df0bd7a	0.1175489
33	0xbe2bbf9d	-0.16772313
34	0xbdbf3c98	-0.09337729
35	0xbd3ca67c	-0.04605721
36	0xbe814062	-0.25244433
37	0xbd9bbc02	-0.07604219
38	0xbd12b864	-0.03582038
39	0x3e0aa7df	0.135406
40	0xbb08fb6c	-0.0020901812
41	0x3ddecc15	0.10878769
42	0x3e499223	0.19684653
43	0xbdae118c	-0.084994406
44	0x3dd7316c	0.10507473
45	0x3e551a42	0.20810798
46	0xbe6eec18	-0.2333225
47	0x3e54b7d6	0.20773253
48	0xbd51b5dc	-0.051198825
49	0x3e57dff9	0.21081533
50	0xbd39c6f5	-0.045355756
51	0x3d1d9b0a	0.038477935
52	0x3e22d34f	0.1590092
53	0xbe2cdf43	-0.16882043
54	0x3e885175	0.26624647
55	0xbd3bb21a	-0.045824148
56	0xbdd7ee38	-0.105434835
57	0xbe3bbbd6	-0.18333372
58	0x3e46a7af	0.19399904
59	0x3d418b7c	0.047252163
60	0x3e7a7f13	0.24462537
61	0x3e28f652	0.16500214
62	0x3e5329dd	0.20621438
63	0x3dbfa7aa	0.09358151
64	0xbc3212de	-0.010868756
65	0xbd661a8f	-0.056177672
66	0xbe748cfb	-0.23881905
67	0x3e07412f	0.1320846
68	0xbe032389	-0.12806524
69	0xbe2e8ae4	-0.1704517
70	0xbd26f711	-0.040762965
71	0x3c95a1a0	0.018265545
72	0xbdfc3a6c	-0.123158306
73	0xbe574239	-0.21021356
74	0xbe450911	-0.1924174
75	0xbdd67e7b	-0.10473343
76	0xbe435a90	-0.19077516
77	0x3e574a72	0.21024492
78	0x3e390d45	0.18071468
79	0xbe5ae807	-0.21377574
80	0xbe4132db	-0.18867056
81	0xbcfdbd96	-0.03097419
82	0xbde38ea3	-0.1111119
83	0xbc68aa09	-0.014200696
84	0xbdec8a30	-0.11549795
85	0xbe74a1a3	-0.23889785
86	0x3d9e36fe	0.07725333
87	0xbe55334c	-0.2082035
88	0xbe53fee3	-0.207027
89	0x3e065b62	0.13120797
90	0xbe75284e	-0.23941156
91	0x3d9a8799	0.075453945
92	0xbe6b6616	-0.22988161
93	0x3e0b0fa6	0.13580188
94	0xbd97e5b2	-0.07416858
95	0xbe2107fa	-0.15725699
96	0x3ca8d17b	0.0206077
97	0x3e3f2dc6	0.18669805
98	0x3e356f43	0.17718224
99	0xbdb967a6	-0.090529725
100	0xbddb18c2	-0.106980816
101	0x3dfb87ec	0.122817844
102	0xbda8f8e0	-0.08250594
103	0x3c193925	0.009352003
104	0xbd420920	-0.047371984
105	0xbdeb2d31	-0.11483229
106	0xbd31354d	-0.043263722
107	0x3e291b34	0.16514283
108	0x3dbd538a	0.092444494
109	0xbcab25b7	-0.020892007
110	0x3e89c670	0.26909208
111	0x3d87f745	0.0663896
112	0x3d70124e	0.058611207
113	0xbe5227e9	-0.20523037
114	0x3b73fb85	0.0037228775
115	0x3e222187	0.15833102
116	0xbc749a0f	-0.014929309
117	0xbe4c80b9	-0.19970979
118	0xbce8f706	-0.028438102
119	0x3cc8e652	0.024523888
120	0xbe8aa7b0	-0.2708106
121	0x3d9496eb	0.07255348
122	0x3e163065	0.14666899
123	0x3d21f0f2	0.039536424
124	0xbd7aeb67	-0.061259653
125	0x3db127c6	0.08650164
126	0xbd8f8072	-0.07006921
127	0xbdeda825	-0.11604337
128	0xbe711c26	-0.23545894
129	0xbe88a95e	-0.26691717
130	0xbe2b37e1	-0.16720535
131	0xbe37a7a3	-0.17935042
132	0x3d5c0885	0.053719062
133	0xbe0e4b85	-0.13895996
134	0xbe3c44b9	-0.1838559
135	0xbe23540a	-0.15950027
136	0x3d976450	0.0739218
137	0x3e15c66d	0.14626475
138	0x3e3bc099	0.18335189
139	0xbe8670ee	-0.26258034
140	0x3e252ca4	0.1613031
141	0x3deec97e	0.11659525
142	0xbe29ac68	-0.16569674
143	0x3e0c108c	0.13678187
144	0xbd62398f	-0.055230673
145	0x3e0148d3	0.12625436
146	0x3e655a42	0.22397712
147	0x3e654902	0.22391132
148	0x3e85b254	0.26112616
149	0xbd2a7633	-0.04161663
150	0x3dead4d9	0.11466379
151	0xbdbedda2	-0.09319617
152	0x3e36ccac	0.17851514
153	0x3e11d5a5	0.14241655
154	0xbe1c1c73	-0.15245228
155	0x3d35820a	0.044313468
156	0xbdef3924	-0.116808206
157	0x3c890052	0.016723786
158	0xbb8f6e0b	-0.004377132
159	0x3e46ef95	0.19427331
160	0xbdbf5075	-0.09341518
161	0xbe02cd1a	-0.12773553
162	0x3e64cb3d	0.22343154
163	0x3e506c9e	0.20353934
164	0xbd856e48	-0.06515175
165	0x3dad1917	0.08452051
166	0x3c6aaa66	0.014322853
167	0x3e3e17fa	0.18563834
168	0x3e827b70	0.254848
169	0xbe3c15d4	-0.18367702
170	0x3e32d80a	0.17465225
171	0xbd22a7a7	-0.039710667
172	0x3e56a56f	0.20961545
173	0x3e6ad626	0.22933254
174	0xbc87c8d4	-0.016575254
175	0xbe6e705e	-0.23285052
176	0xbcf099a1	-0.029370131
177	0x3e6d0dcc	0.23149794
178	0x3df5d2a5	0.12003068
179	0xbe4cc6f8	-0.19997776
180	0x3e09dd3a	0.13463297
181	0x3e2dd3a8	0.16975272
182	0x3e65eb8e	0.22453138
183	0xbdab5e0d	-0.08367548
184	0xbe507d23	-0.20360236
185	0xbac7ca98	-0.0015242873
186	0x3d7a7bcc	0.06115322
187	0x3e5198fb	0.20468514
188	0xbd73040f	-0.059330042
189	0x3df162d9	0.11786432
190	0xbe5a8dcd	-0.21343155
191	0x3e740707	0.23830806
192	0xbe050471	-0.12989976
193	0xbe7ae09e	-0.24499747
194	0xbe24bbd5	-0.16087277
195	0x3d909994	0.07060543
196	0xbdcf83bb	-0.101325475
197	0x3df5a57c	0.11994454
198	0xbe3586a5	-0.17727144
199	0xbe11d7f8	-0.14242542
200	0xbe5d246e	-0.21595928
201	0x3d4c50ee	0.049881868
202	0xbb94b22c	-0.0045378413
203	0xbe437763	-0.19088511
204	0xbcaeb409	-0.021326082
205	0xbdd876a0	-0.10569501
206	0x3de57acc	0.11205062
207	0xbd8fbd4a	-0.07018526
208	0x3e344095	0.17602761
209	0xbb6a4ac1	-0.0035750123
210	0xbd538fa8	-0.051650673
211	0x3e3f5ed9	0.18688525
212	0xbe5f6e2a	-0.21819368
213	0xbe2c0ad9	-0.16801013
214	0xbe3b58b3	-0.18295555
215	0x3bcaa3a8	0.00618406
216	0x3d38dc36	0.045131885
217	0x3e415b39	0.18882455
218	0xbe6b9b15	-0.23008378
219	0xbd4d616d	-0.05014174
220	0xbcdb964b	-0.026805064
221	0xbdf00459	-0.11719579
222	0xbdd6baa3	-0.10484817
223	0x3dcae3b3	0.099067114
224	0xbe196a55	-0.14981969
225	0xbdb686eb	-0.08912452
226	0xbb563adf	-0.0032688899
227	0x3e4f6d32	0.20256498
228	0xbe83da9d	-0.25752726
229	0x3dcab6f2	0.09898175
230	0xbd36ce52	-0.044630356
231	0xbe5dd415	-0.21662934
232	0xbd75efdf	-0.060043212
233	0xbe1bc714	-0.15212661
234	0xbe894d66	-0.26816863
235	0xbe85b657	-0.26115677
236	0x3e207f27	0.15673505
237	0xbe229630	-0.15877604
238	0xbe5f7350	-0.21821332
239	0x3c483975	0.01222073
240	0x3e0308a3	0.12796263
241	0x3e1ee4f0	0.1551702
242	0xbdc8198f	-0.097705
243	0xbdc6074c	-0.096693605
244	0x3e81f961	0.25385574
245	0xbd8f3254	-0.06992021
246	0x3e835420	0.2565012
247	0x3e7475f9	0.23873128
248	0xbe31f1b9	-0.17377366
249	0xbe3884e4	-0.18019444
250	0x3e107cec	0.14110154
251	0x3e419bbb	0.18907063
252	0xbe327280	-0.17426491
253	0xbcca9273	-0.024728036
254	0x3e3fdb17	0.1873592
255	0x3dd2c4f2	0.102914706

conv_theta.linear.bias f4 [128]
0	0x3e313aac	0.17307538
1	0xbddbf620	-0.10740304
2	0x3e673e1a	0.22582284
3	0x3e12a6d5	0.14321454
4	0xbe2c7f1f	-0.16845368
5	0x3d81b4c4	0.063333064
6	0xbd2df598	-0.042470545
7	0x3e70f162	0.2352958
8	0xbd2eef59	-0.04270873
9	0xbd0a000d	-0.033691455
10	0xbe0929c1	-0.13394834
11	0xbdb519f5	-0.088428415
12	0xbe452ebb	-0.19256108
13	0xbe2b46df	-0.16726254
14	0x3e5964b1	0.21229817
15	0xbda9b10f	-0.08285724
16	0x3d4d75ea	0.05016128
17	0x3d80a568	0.06281549
18	0xbe482739	-0.19546212
19	0xbe51602c	-0.20446843
20	0x3dc281b1	0.09497393
21	0x3e471a95	0.19443734
22	0x3b332d4a	0.0027340227
23	0xbe616c8c	-0.22014064
24	0xbbd15b3c	-0.00638905
25	0xbdb2c254	-0.087284714
26	0xbd65aeed	-0.056075025
27	0xbcd55c00	-0.026044846
28	0x3dc1c131	0.094606765
29	0x3d519eb9	0.05117676
30	0xbde3c30c	-0.111211866
31	0x3df2dc44	0.118584186
32	0xbe57c3ad	-0.21070738
33	0xbdcc248b	-0.099679075
34	0x3e7fd13e	0.24982163
35	0xbca02906	-0.019550811
36	0xbdea7762	-0.11448552
37	0x3e29995d	0.1656241
38	0x3d9bd794	0.07609478
39	0xbd9996c9	-0.07499463
40	0xbe2d47f1	-0.16921975
41	0x3dac372d	0.084089614
42	0x3e66bca1	0.22532894
43	0x3dae4900	0.085100174
44	0x3e1ce0c0	0.1532011
45	0xbd81f99f	-0.063464396
46	0x3e5b4aa1	0.21415187
47	0x3dbc9276	0.09207623
48	0x3d802846	0.062576815
49	0x3d079f78	0.033111066
50	0x3d6d61c2	0.057954557
51	0xbd8b836b	-0.06812175
52	0xbd55ebbe	-0.052226774
53	0xbe4eb2d1	-0.201854
54	0xbd530231	-0.05151576
55	0x3e3af124	0.1825605
56	0x3dd951a8	0.10611278
57	0xbc25ab09	-0.010111579
58	0x3e0568d2	0.13028267
59	0x3e7346b6	0.23757443
60	0x3db565b3	0.08857288
61	0xbe25f010	-0.16204858
62	0x3d1e27a8	0.038612038
63	0xbce4b56d	-0.027918542
64	0xbdc04b41	-0.093893535
65	0xbe538040	-0.20654392
66	0x3e6b47a6	0.2297655
67	0xbe339e89	-0.17540945
68	0x3e210545	0.15724666
69	0x3d8a7d76	0.06762211
70	0xbdf7964a	-0.12089212
71	0xbca2b00d	-0.019859338
72	0x3e5b437b	0.2141246
73	0xbd3cb304	-0.04606916
74	0xbdf13108	-0.1177693
75	0xbe34dcf6	-0.17662415
76	0x3e2ae676	0.16689476
77	0x3dbb0813	0.091323994
78	0x3ddae227	0.106876664
79	0xbe3121d2	-0.17298058
80	0x3dd1cc12	0.102440014
81	0x3d380917	0.044930544
82	0x3dfc96bb	0.12333437
83	0x3e053a27	0.13010465
84	0xbdcd3b28	-0.10021049
85	0x3da7a8e6	0.08186512
86	0xbe6af7ef	-0.22946142
87	0xbd4f1344	-0.050555483
88	0x3d17bd95	0.037046034
89	0xbdfe07f6	-0.12403862
90	0xbe438957	-0.1909536
91	0x3d41ecf0	0.0473451
92	0x3dd8fba6	0.10594873
93	0xbcdc7a7d	-0.026913876
94	0x3e356bbc	0.17716879
95	0x3e864444	0.26223958
96	0xbe7040e9	-0.23462261
97	0x3d94dbfa	0.0726852
98	0x3e5972c0	0.2123518
99	0x3e1b79fc	0.15183252
100	0x3e155ab3	0.1458538
101	0xbb86d4b4	-0.0041147117
102	0xbd9a3689	-0.07529933
103	0xbe3b6883	-0.18301587
104	0x3dbb443b	0.09143873
105	0x3e4ce029	0.20007385
106	0xbd8a099a	-0.067401126
107	0x3d105b5b	0.035243373
108	0xbe0a5ddd	-0.13512369
109	0xbbfdfe44	-0.007751258
110	0xbde4d4c8	-0.11173397
111	0x3d9c3f15	0.076292194
112	0x3d9f9b28	0.077932656
113	0x3dac5003	0.084136985
114	0x3d13a343	0.03604437
115	0xbdd92e95	-0.10604588
116	0xbcb2ea9f	-0.021840392
117	0xbd2b5c2a	-0.04183594
118	0x3d49f101	0.049302105
119	0xbcf48137	-0.02984677
120	0xbdd233b4	-0.10263768
121	0xbe041f58	-0.12902582
122	0xbde540d1	-0.111940034
123	0x3d46e46b	0.04855768
124	0xbe46cf28	-0.19414961
125	0xbe30d850	-0.17270017
126	0xbe64b5ff	-0.22335051
127	0x3e385443	0.18000893

cnn.0.module.weight f4 [128, 256]
0	0x3bfe8da0	0.007768348
1	0xbd3de699	-0.046362493
2	0x3db8566a	0.09000857
3	0x3d6eea9d	0.058329213
4	0xbd67ea42	-0.05661989
5	0xbd3028a3	-0.043007504
6	0x3d08f52a	0.03343693
7	0x3c6b7ae2	0.014372559
8	0xbd27c5f7	-0.04096028
9	0xbcf14c8d	-0.029455448
10	0x3c98ff96	0.01867656
11	0xbca44050	-0.020050198
12	0xbcdcd14c	-0.02695527
13	0x3cf83cc9	0.030302422
14	0xbb911875	-0.0044279643
15	0xbcda7e16	-0.02667145
16	0xbceda492	-0.029009137
17	0xbd932714	-0.07185188
18	0xbd331f58	-0.043731064
19	0xbd350c34	-0.04420109
20	0xbd165f9b	-0.03671227
21	0xbbd8a9bc	-0.006612031
22	0x3cba7de4	0.022765107
23	0xbc962f0a	-0.018332977
24	0xbd43fe93	-0.047850203
25	0x3ce8790b	0.02837803
26	0x3cf5af62	0.029990856
27	0x3c87270e	0.016498115
28	0x3d6354ee	0.055500917
29	0xbce4aee4	-0.027915426
30	0xbaeee935	-0.001822746
31	0xbbd666c8	-0.006543014
32	0x3d0f8bba	0.035045363
33	0xbcfd2666	-0.030902099
34	0xbd8f70cf	-0.070039384
35	0x3cf32dd5	0.02968494
36	0xbceedea3	-0.029158896
37	0xbafbf9d1	-0.0019224231
38	0xbd13337e	-0.03593778
39	0x3d0a686c	0.03379099
40	0xbbf486e6	-0.00746237
41	0x3c47406f	0.012161358
42	0xbda9f6de	-0.08299039
43	0x3d8a2e33	0.06747093
44	0xbcc8e5f1	-0.024523707
45	0x3d8a0607	0.06739431
46	0xbc9e8b84	-0.019353636
47	0xbc9c9c13	-0.01911739
48	0xbc1c759a	-0.009549523
49	0x3d7aef9a	0.061263658
50	0xbd3fa25a	-0.04678569
51	0x3d82d0b2	0.06387462
52	0x3d70d651	0.058798138
53	0xbc3731e9	-0.011181333
54	0x3bc77bd7	0.006087761
55	0x3d11451a	0.03546629
56	0xbd403aab	-0.04693095
57	0x3db7c216	0.08972566
58	0x3d2ff407	0.042957332
59	0x3d23a879	0.03995559
60	0x3d75f0d5	0.06004413
61	0x3d8f7593	0.070048474
62	0x3d11ad8f	0.03556591
63	0xbba1a2ae	-0.004932723
64	0xbda853bb	-0.08219095
65	0x3ccffe2d	0.025389755
66	0x3c9164aa	0.017748196
67	0xbb80e4ac	-0.00393351
68	0xbd209a4f	-0.03920966
69	0xbd9de670	-0.07709968
70	0xbb8cd0e5	-0.004297363
71	0x3c2ea3ed	0.0106592
72	0xbd33aca2	-0.043865807
73	0x39953a3c	0.00028462883
74	0x3d3caaf7	0.046061482
75	0xbcd3afd6	-0.025840681
76	0xbdaba14c	-0.08380374
77	0xbd4352ea	-0.047686495
78	0xbd449600	-0.047994614
79	0xbd7cb514	-0.061696127
80	0xbd7c2db6	-0.06156703
81	0xbbb8cd6b	-0.005639722
82	0x3ba4bc79	0.0050273505
83	0xbca274db	-0.019831112
84	0x3cb1b65b	0.0216934
85	0xbda19b13	-0.07890906
86	0xbd9d7024	-0.07687405
87	0xbcd9034d	-0.026490832
88	0xbd38395a	-0.04497657
89	0xbad857be	-0.0016505641
90	0xbcae87bb	-0.021304956
91	0x3c94768c	0.018122934
92	0xbd9aad57	-0.07552593
93	0xbd960aa8	-0.07326251
94	0xbced7cc2	-0.028990153
95	0xbcde36c6	-0.027125727
96	0x3bbcc8a1	0.0057612215
97	0xbd75db99	-0.060023878
98	0xbd87158d	-0.06595907
99	0x3d0eba0d	0.0348454
100	0xbd68f0fe	-0.056870453
101	0xbd6762ed	-0.056490827
102	0xbd8489d8	-0.06471604
103	0xbd040388	-0.03222993
104	0x3d1f2ff4	0.03886409
105	0x3c4ca915	0.012491484
106	0x3c572746	0.013131922
107	0xbd8443f1	-0.06458271
108	0xbcd3bdff	-0.025847433
109	0x3d2414dd	0.04005896
110	0x3cdaad90	0.02669409
111	0xbbb0a370	-0.005390577
112	0xbd2c4313	-0.042056154
113	0xbd915cb4	-0.0709776
114	0x3bc06bac	0.0058722105
115	0xbc3cc3e0	-0.01152131
116	0xbcf7d5d7	-0.030253334
117	0xbd841d07	-0.06450849
118	0x3bee02ae	0.007263503
119	0xbc0dc263	-0.008652302
120	0x3d76aba3	0.06022228
121	0xbc5d39e4	-0.013502572
122	0xbc8726e0	-0.01649803
123	0x3c7501f2	0.014954077
124	0x3b15888f	0.002281699
125	0x3b4bf3f9	0.003112076
126	0x3ce29470	0.027658671
127	0x3c996498	0.018724725
128	0x3ccc79a0	0.02496034
129	0xbca92213	-0.02064613
130	0x3c9e6ed2	0.019339953
131	0xbd44e215	-0.04806717
132	0x3d6df5ad	0.058095623
133	0x3d1d8817	0.038459864
134	0xbdca73a1	-0.09885336
135	0x3d632d37	0.055463042
136	0x3a0b26b3	0.0005308196
137	0xbca92dbc	-0.02065169
138	0xbd2d583c	-0.042320475
139	0xbd8a79ae	-0.0676149
140	0x3d53c9f5	0.051706273
141	0x3d868fc6	0.06570391
142	0xbb4ea944	-0.0031533996
143	0xbca2641f	-0.019823132
144	0xbd10afe4	-0.035323992
145	0x3c2e6e2d	0.010646385
146	0xbd61e499	-0.05514965
147	0xbd954023	-0.07287624
148	0xbdb60b37	-0.08888858
149	0xbd9c5e98	-0.0763523
150	0xbd9f5547	-0.07779937
151	0xbc4bb57a	-0.012433404
152	0x3c5e444b	0.013566087
153	0x3d8141c6	0.063113734
154	0x3d9d74f7	0.07688325
155	0xbcb38796	-0.021915238
156	0x3a9b1eb1	0.0011834708
157	0x3d670129	0.05639759
158	0xbc708351	-0.014679746
159	0xbda73e5b	-0.0816619
160	0xbd2b8a05	-0.041879673
161	0x3d10afe5	0.035323996
162	0x3dbd3ada	0.09239741
163	0x3ce760e0	0.028244436
164	0x3d9398bb	0.072068654
165	0xbda73fee	-0.081664905
166	0xbd042c47	-0.03226879
167	0xbdaf585e	-0.085617766
168	0xbc824175	-0.015900353
169	0x3d467a24	0.048456326
170	0x3bb5eb89	0.0055517596
171	0xbceba5db	-0.02876561
172	0xbbc9d891	-0.00615985
173	0xbc19d46b	-0.009389023
174	0xbd4ee175	-0.05050798
175	0xbd10a4d6	-0.03531345
176	0x3d0ccc9e	0.034374826
177	0xbd9aa155	-0.07550303
178	0x3daa725c	0.083225936
179	0x3dcbab4e	0.09944783
180	0xbd5738ac	-0.05254428
181	0x3d4d4fd5	0.050124962
182	0xbc2afcea	-0.010436276
183	0x3d95baf4	0.07311049
184	0xbda1e556	-0.079050705
185	0xbce344ee	-0.02774283
186	0x3c67e494	0.014153618
187	0xbd5807b3	-0.052741718
188	0xbdab8f63	-0.08376958
189	0x3d287e26	0.04113593
190	0xbdb88a42	-0.090107456
191	0x3cb7c4d0	0.022432715
192	0xbd430f42	-0.047621973
193	0xbcd63f9f	-0.026153384
194	0xbc82c4ea	-0.015963037
195	0xbd931ab3	-0.07182827
196	0x3bb28011	0.0054473956
197	0x3d6f4e86	0.058424495
198	0xbd2cb881	-0.042168144
199	0xbbc316c2	-0.0059536407
200	0xbd31aa9d	-0.0433756
201	0xbd66fa83	-0.05639125
202	0xbd0cba94	-0.034357622
203	0xbd71fb5b	-0.059077602
204	0xbd3f6a35	-0.046732146
205	0xbbe75b1e	-0.0070604226
206	0xbd29418e	-0.041322283
207	0xbcbd267c	-0.02308964
208	0x3cfc8639	0.030825721
209	0x3c958c1c	0.018255286
210	0xbdb3d939	-0.08781666
211	0x3db06291	0.0861255
212	0x3d0a7115	0.03379925
213	0xbd218c05	-0.039440174
214	0xbbad7a71	-0.005294137
215	0x3d4b31fe	0.049608223
216	0x3c5c1613	0.013432997
217	0x3db93ea0	0.09045148
218	0x3d45cf0e	0.048293166
219	0x3da6f6dd	0.08152554
220	0x3d47f5c9	0.048818383
221	0xbd94a1c5	-0.072574176
222	0x3db804d0	0.08985293
223	0x3d2c1329	0.04201046
224	0xbb123bf6	-0.0022313572
225	0xbc93ab59	-0.01802604
226	0x3cf01054	0.02930466
227	0xbd2b777b	-0.041861992
228	0x3c44229f	0.011971145
229	0x3c09bf24	0.008407388
230	0x3da114c9	0.078652926
231	0x3d822600	0.06354904
232	0x3d643758	0.055716842
233	0x3db468ed	0.088090755
234	0xbce60628	-0.028079107
235	0x3d98e368	0.07465249
236	0x3cc9aaca	0.024617571
237	0x3cb992c4	0.022652991
238	0x3ca90bcd	0.02063551
239	0xbda83cac	-0.08214697
240	0xbd61dfdf	-0.05514514
241	0xbcf6a5f2	-0.030108426
242	0xbda58bda	-0.08083315
243	0x3d22d189	0.03975061
244	0x3d0a335a	0.03374038
245	0x3d0915fc	0.03346823
246	0x3bd20d69	0.00641029
247	0xbd96cb2e	-0.07362972
248	0xbcddc191	-0.027069839
249	0x3d374fd0	0.04475385
250	0xbbef3e54	-0.0073011313
251	0xbd9be2d5	-0.07611624
252	0x3d8fa5c7	0.070140414
253	0x3c39c488	0.011338361
254	0xbc7ae4d5	-0.015313347
255	0x3d6ef874	0.058342412

cnn.0.module.bias f4 [128]
0	0x3da7f64b	0.082012735
1	0xbd15ebaa	-0.0366017
2	0xbcd9167c	-0.02649998
3	0xbbd9830e	-0.0066379374
4	0xbb3b873f	-0.0028614549
5	0xbd691780	-0.056907177
6	0x3cb99e23	0.022658413
7	0xbd972b7e	-0.07381342
8	0xbd564da3	-0.052320134
9	0x3d4a329e	0.04936468
10	0xbce3bbad	-0.027799452
11	0x3dacb57a	0.084330514
12	0x3d941bc5	0.07231859
13	0x3c94c816	0.018161815
14	0x3d9d6319	0.07684917
15	0x3d4d3465	0.050098795
16	0xbd6aeba6	-0.057353638
17	0x3c873842	0.016506318
18	0xbd143bec	-0.03618996
19	0x3cebf0d5	0.028801361
20	0x3d3ceee7	0.046126273
21	0x3da89f1b	0.08233472
22	0x3d019e64	0.031645194
23	0x3d2c19d9	0.042016838
24	0x3d2f5569	0.042806063
25	0x3db38535	0.087656416
26	0xbdc2ca8a	-0.095112875
27	0xbc42ec07	-0.011897094
28	0xbd91a7e2	-0.07112099
29	0xbdc25b5c	-0.09490082
30	0xbd200666	-0.039068602
31	0x3d1809b4	0.03711863
32	0x3d143543	0.036183607
33	0xbdb655c5	-0.08903078
34	0x3d718c15	0.058971483
35	0x3d30d1a7	0.04316869
36	0x3c256d97	0.010096929
37	0x3d52a19f	0.051423665
38	0x3c893877	0.016750557
39	0x3d810324	0.06299427
40	0xbb4e0df7	-0.003144143
41	0x3d524dba	0.051343657
42	0x3d194d1d	0.037427057
43	0xbd9f60be	-0.07782124
44	0xbda264e1	-0.079293974
45	0x3c7bf434	0.015378047
46	0xbdbef85c	-0.093247145
47	0x3bd1a9b8	0.006398406
48	0xbd5bb86b	-0.05364267
49	0x3c3e4194	0.011612315
50	0xbd694611	-0.056951586
51	0x3d517359	0.051135395
52	0x3d3eac8b	0.04655127
53	0xbbfef5cd	-0.0077807666
54	0xbbb75b38	-0.005595591
55	0xbda99527	-0.08280402
56	0x3d749234	0.059709743
57	0x3b00aeb7	0.0019635388
58	0x3d26fdcf	0.040769394
59	0x3c0dadfc	0.008647438
60	0x3c25456d	0.010087353
61	0x3daff745	0.08592085
62	0xbd3acb26	-0.045603894
63	0x3d1e9ed6	0.038725697
64	0x3c16d4dd	0.009206024
65	0x3dc137c2	0.09434463
66	0xbd1eec85	-0.03879978
67	0xbca8e957	-0.020619078
68	0x3d69a878	0.05704543
69	0x3d4297ec	0.047508165
70	0x3d18782c	0.03722398
71	0xbcfee3f4	-0.031114556
72	0x3d9b54dc	0.07584545
73	0x3cd8a665	0.02644653
74	0x3d69bc01	0.05706406
75	0xbd916411	-0.07099164
76	0xbd70fb3f	-0.058833357
77	0xbc99e3ee	-0.018785443
78	0x3d276b51	0.04087383
79	0x3d263e88	0.04058698
80	0xbda2891f	-0.0793631
81	0xbd6ea70a	-0.05826477
82	0xbca3c424	-0.019990988
83	0xba057785	-0.0005091357
84	0x3c965c2a	0.018354494
85	0x3c8c80d0	0.017151266
86	0x3d440dcd	0.047864724
87	0x3c927db1	0.0178822
88	0x3d55c5b5	0.0521905
89	0x3d4e0a29	0.05030266
90	0x3d89574d	0.067061044
91	0x3d50ec61	0.05100668
92	0xbc964e64	-0.018347926
93	0xbc3e1187	-0.0116008585
94	0x3cd7ae67	0.026328279
95	0xbd4a0573	-0.049321603
96	0xbd0b4e82	-0.034010418
97	0x3d9fd5ba	0.07804437
98	0xbdcb810d	-0.09936724
99	0x3b223b32	0.0024754521
100	0x3da8ef52	0.08248772
101	0x3da19021	0.078888185
102	0x3d82c70a	0.0638562
103	0x3bb7633f	0.005596548
104	0x3caf377b	0.02138876
105	0xbc4cb799	-0.012494945
106	0x3d7bd77c	0.0614848
107	0x3c162dd1	0.009166197
108	0xbca758cb	-0.020428082
109	0x3da03eba	0.07824464
110	0xbbc8a79e	-0.006123497
111	0x3c2c3085	0.010509615
112	0x3b70105b	0.0036630842
113	0x3da56120	0.08075166
114	0x3d9294c9	0.07157285
115	0x3d9e9c72	0.07744683
116	0x3d3c13f6	0.045917474
117	0xbd15b381	-0.03654814
118	0xbd0020dd	-0.03128134
119	0xbda90b52	-0.08254112
120	0x3d5599c9	0.052148614
121	0xbd1878f0	-0.03722471
122	0x3cacb46e	0.02108213
123	0x3d9cd0e3	0.076570295
124	0x3cfb95ae	0.030711021
125	0xbbdc648e	-0.0067258542
126	0x3da3093b	0.07960745
127	0xbd2ffaeb	-0.042963903

cnn.1.conv.0.depthwise.weightnet.net.0.linear.weight f4 [32, 2]
0	0xbe59914f	-0.21246837
1	0xbf30f599	-0.6912475
2	0xbec37b35	-0.38179937
3	0x3eb1ac4f	0.34701774
4	0xbf1c256e	-0.60994613
5	0x3f0ae0fa	0.54249537
6	0xbf25091a	-0.6446701
7	0xbf10b211	-0.5652171
8	0xbef0d05b	-0.47033963
9	0x3f0dfc9c	0.55463576
10	0x3f0f79eb	0.5604541
11	0x3e9ba94d	0.30402604
12	0x3e867bf2	0.26266438
13	0xbf28a4a7	-0.6587624
14	0x3ec1c0c5	0.37842384
15	0x3e1da4b6	0.15394863
16	0xbd8c1d1f	-0.06841492
17	0x3f08acbe	0.53388584
18	0xbed17440	-0.40909004
19	0xbf2dbeaf	-0.67869085
20	0xbf05410f	-0.52052397
21	0x3e28c8fd	0.16482921
22	0x3e83b504	0.2572404
23	0x3f31693f	0.6930122
24	0x3e457fef	0.19287084
25	0x3d35555f	0.04427087
26	0xbe83b2c3	-0.25722322
27	0xbe9c01bf	-0.30470082
28	0xbf0696de	-0.52573955
29	0x3f25dcb9	0.6478992
30	0xbecb3dfd	-0.3969573
31	0xbe8b9b44	-0.27266896
32	0xbf27ee51	-0.65598017
33	0x3ebc9480	0.36832047
34	0x3f28bbe4	0.659117
35	0xbf1e67ce	-0.61877143
36	0x3e729e58	0.23693216
37	0x3ee79508	0.4523089
38	0x3eb846c4	0.3599149
39	0xbd8a6c18	-0.067588985
40	0xbec517e1	-0.3849478
41	0xbe634939	-0.22195901
42	0xbd8b0a12	-0.0678903
43	0x3e7b8c85	0.24565323
44	0xbe857d3b	-0.26072106
45	0xbf254c26	-0.6456932
46	0xbe2f163e	-0.17098328
47	0x3eb40d14	0.35166228
48	0x3f0a42df	0.5400829
49	0x3ef972c4	0.48720372
50	0x3e0e2b28	0.1388365
51	0xbf09b84f	-0.5379686
52	0xbf0496ab	-0.517924
53	0x3d3b2cfd	0.0456972
54	0xbf005b53	-0.5013935
55	0xbf0f4eca	-0.559796
56	0x3ec83aca	0.39107352
57	0xbf0c2c6f	-0.547553
58	0x3e2bb932	0.16769865
59	0xbeef7b70	-0.46773863
60	0xbe47c76c	-0.19509667
61	0xbf1f9bcf	-0.6234712
62	0x3f3211ea	0.69558585
63	0xbec9e908	-0.394356

cnn.1.conv.0.depthwise.weightnet.net.0.linear.bias f4 [32]
0	0xbf0a0492	-0.53913224
1	0x3ec1de08	0.3786471
2	0xbe38623b	-0.18006222
3	0x3e3f8529	0.1870314
4	0x3dfccbd7	0.12343567
5	0xbf0d0682	-0.55088055
6	0x3e0a68ff	0.13516615
7	0xbf254f73	-0.64574355
8	0xbeffb0d4	-0.49939597
9	0xbd90c20d	-0.07068262
10	0xbe9e6cd9	-0.3094242
11	0xbe86e1ce	-0.2634415
12	0xbf1cfd42	-0.6132394
13	0x3ed247a4	0.41070282
14	0x3dda93aa	0.10672696
15	0xbf239334	-0.6389649
16	0xbd9628c8	-0.07331997
17	0xbf171246	-0.5901226
18	0xbd2c568b	-0.04207472
19	0x3e2b680b	0.16738908
20	0xbea25038	-0.31701827
21	0x3f0fa9a0	0.561182
22	0xbf1c6db4	-0.61104894
23	0x3d764146	0.060120843
24	0x3f00a67f	0.5025405
25	0xbf09ba73	-0.53800124
26	0x3dee756a	0.11643489
27	0xbd7c580c	-0.061607406
28	0xbe9b827c	-0.3037299
29	0xbef46ed5	-0.47740808
30	0x3c9604c4	0.01831282
31	0xbf120cbd	-0.5705069

cnn.1.conv.0.depthwise.weightnet.net.0.bn.weight f4 [32]
0	0x3f7a07fc	0.97668433
1	0x3f814721	1.0099832
2	0x3f7f8bf1	0.9982291
3	0x3f7c7993	0.9862301
4	0x3f7f1498	0.996408
5	0x3f837990	1.0271473
6	0x3f7cc3c7	0.9873623
7	0x3f7fd85c	0.99939513
8	0x3f7c0dc2	0.9845849
9	0x3f7b7f64	0.9824126
10	0x3f7ef805	0.995972
11	0x3f856e8d	1.0424362
12	0x3f7c286a	0.98499167
13	0x3f7e42ba	0.99320567
14	0x3f81080f	1.0080584
15	0x3f78c3ce	0.97173774
16	0x3f7f3e3a	0.99704325
17	0x3f7b8657	0.9825186
18	0x3f810a3b	1.0081247
19	0x3f79b843	0.97546786
20	0x3f7af28e	0.9802636
21	0x3f77c8f0	0.9679098
22	0x3f81ee58	1.0150862
23	0x3f7f2b86	0.99675786
24	0x3f802ddf	1.0013999
25	0x3f875bef	1.0574931
26	0x3f83c87f	1.0295562
27	0x3f801a2a	1.0007985
28	0x3f7d9150	0.99049854
29	0x3f8382aa	1.027425
30	0x3f80ea60	1.0071526
31	0x3f81eacc	1.0149779

cnn.1.conv.0.depthwise.weightnet.net.0.bn.bias f4 [32]
0	0x3aa7e4ba	0.0012809255
1	0xbc0a0407	-0.008423812
2	0x3b39d873	0.0028357774
3	0xbc9a8861	-0.018863859
4	0xb92e704f	-0.00016635771
5	0x3cdf8343	0.02728427
6	0x3cbc7ab0	0.02300772
7	0x3c4c20bf	0.012458979
8	0xbb2d75b2	-0.0026467857
9	0x3ca6dc3f	0.020368693
10	0x3cd5a108	0.026077762
11	0x3d3f437e	0.046695225
12	0xbc106b39	-0.008814626
13	0x3c001b73	0.007819044
14	0x3cff4fb4	0.031165935
15	0x3cad4a87	0.021153701
16	0x3c864ff1	0.01639554
17	0x3c693cb8	0.014235668
18	0x3b2520eb	0.0025196623
19	0xbce8019f	-0.028321085
20	0xbd0bd514	-0.034138754
21	0x3c4754e8	0.012166239
22	0x3bdc4d3c	0.0067230742
23	0x3cbc1b98	0.022962376
24	0x3ca7765e	0.020442184
25	0x3bfb7c01	0.0076746945
26	0x3ccc0716	0.024905723
27	0xbc89a70c	-0.016803287
28	0xbc9f58d7	-0.019451542
29	0x3ca032bb	0.01955544
30	0xbd2dba8d	-0.042414237
31	0x3cb48741	0.02203715
