weights/clock_weights/model_weight-RxSO2.pth (torch_old, 924023 bytes, 184 tensors)

conv_theta.weightnet.net.0.linear.weight f4 [32, 2]
000000 36 ad af 3e 91 c0 28 bf 5b 65 aa be 56 4d b1 be
       0.34311837 -0.65918833 -0.33280453 -0.34629315
000010 09 fa de 3d 5f 45 5a be 7e 9b 1d 3f 34 0c f2 3c
       0.10887534 -0.21315525 0.6156539 0.029546835
000020 92 97 4f be a3 b4 4c 3e 05 68 92 be fb 3a 1c 3e
       -0.20272663 0.19990782 -0.28594986 0.15256874
000030 d5 80 67 be b1 44 b0 3e 2a 28 06 3f 9e 42 24 3f
       -0.2260774 0.34427407 0.52405035 0.6416415
000040 87 6f ae 3d fd b4 d1 3e b1 1b a5 3e 44 3b b9 3e
       0.08517366 0.40958396 0.3224769 0.3617803
000050 07 c7 32 be 58 96 a5 be d0 fe 90 be 0c 35 9d be
       -0.17458735 -0.32341266 -0.28319407 -0.30704534
000060 92 71 04 3f 0f 77 cb be 7d 1c ad 3e 57 0d 10 3f
       0.51735795 -0.39739272 0.33810797 0.56270355
000070 5a 47 c2 3e 79 7c 24 bf fa 16 d1 bc ab 54 ab bd
       0.37945062 -0.6425243 -0.025523651 -0.083657585
000080 e8 cc 39 bf be 39 ef be d5 55 16 3f ef 33 0f 3f
       -0.7257829 -0.4672374 0.5872472 0.5593862
000090 09 38 5a bd 2d e5 c3 bd 3b 09 09 bf 9b ca 47 3d
       -0.053276096 -0.09565196 -0.5352971 0.048777204
0000a0 fd d8 18 bf 56 8e 06 3e 4c b5 b6 be 64 35 bb 3e
       -0.597061 0.13140234 -0.35685194 0.3656417
0000b0 16 de 81 3d 7f fb 1a 3f 1d 8b 48 be 19 02 22 3f
       0.06341188 0.6054 -0.19584318 0.6328445
0000c0 0b 73 11 bf e3 e1 1a 3f 85 cb 10 bf 61 14 0b bf
       -0.56816167 0.60500926 -0.56560546 -0.5432797
0000d0 9e d5 ec be 6b ae 1b 3f 63 53 22 3f 26 a1 9b be
       -0.46256727 0.60813016 0.6340849 -0.30396384
0000e0 b0 77 2e 3f 2a 43 29 bf bf 9d 8c 3e 4f b1 a1 3e
       0.6815138 -0.6611811 0.274641 0.31580588
0000f0 e8 4c 03 3f 8c 72 0e 3f f2 42 18 3c ec c8 92 be
       0.51289225 0.55643535 0.009293305 -0.28668916

conv_theta.weightnet.net.0.linear.bias f4 [32]
000000 1c b0 d9 be ad 38 29 3e ac 45 d7 3e 78 ed ab 3e
       -0.42517173 0.16525526 0.42045343 0.33579612
000010 72 b6 b7 3e 8a c7 1b 3f de 42 ad 3e 57 f2 86 3e
       0.35881382 0.6085135 0.33840078 0.26356766
000020 9f b2 32 3f 7c de f3 be 13 f3 85 be 0d e7 83 3e
       0.69803804 -0.4763068 -0.26162013 0.25762215
000030 71 63 23 3f e5 5f b7 3e d4 4e b1 3d ba f6 28 bf
       0.6382361 0.3581535 0.086576134 -0.66001475
000040 2a f2 82 3e 78 b9 f6 be 63 8a 2c 3f 3d b8 33 bf
       0.25575382 -0.48188376 0.6739866 -0.70203
000050 c4 34 fd bd 6f 0f 02 3f 04 f8 f3 be 95 9b ab 3e
       -0.1236358 0.508048 -0.47650158 0.33517137
000060 5b 55 e6 3e f7 ec 05 bf d4 24 b7 3e 9e 64 98 3e
       0.44986996 -0.52314705 0.35770285 0.29764265
000070 c4 b3 7b 3e 5f fd 16 bf 2f 73 2f 3f 52 02 b7 3e
       0.24580294 -0.58980364 0.6853513 0.35743958

conv_theta.weightnet.net.0.bn.weight f4 [32]
000000 43 8a 81 3f 3d 02 79 3f db 96 80 3f d0 0d 7e 3f
       1.0120319 0.9726904 1.0046037 0.99239826
000010 95 0b 82 3f a2 37 76 3f ff 94 80 3f 92 14 7f 3f
       1.0159785 0.9617864 1.004547 0.9964076
000020 be e1 80 3f f2 27 82 3f df 5d 80 3f c3 fb 7b 3f
       1.0068891 1.016844 1.0028647 0.9843103
000030 a8 41 83 3f 9c af 81 3f 78 94 7c 3f 7f 49 7e 3f
       1.0254412 1.0131717 0.98664045 0.99330896
000040 26 a3 7d 3f f5 53 84 3f b7 cc 78 3f 0d 27 81 3f
       0.9907707 1.0338122 0.9718737 1.0090042
000050 c2 b4 84 3f dc 22 7b 3f f6 0e 81 3f 19 35 7c 3f
       1.0367663 0.98100066 1.0082691 0.9851852
000060 55 7b 7a 3f 62 fe 80 3f 93 20 7e 3f d5 1e 86 3f
       0.9784444 1.0077631 0.99268454 1.0478159
000070 8d e4 76 3f dd 9d 81 3f 12 a8 80 3f 17 c5 7e 3f
       0.9644249 1.0126301 1.0051291 0.99519485

conv_theta.weightnet.net.0.bn.bias f4 [32]
000000 6c 18 e5 3c d4 a9 b1 bc ec 79 6d 3c e9 3a 4d 3b
       0.027965747 -0.021687426 0.0144944005 0.003131563
000010 c0 69 99 3c 96 5b 0d bd a9 c4 9a 3c e9 2e 41 bc
       0.018727183 -0.03451117 0.018892603 -0.011790969
000020 f0 3d ff bc 06 d0 b3 3b 9a 6e 0e 3d 0d 51 01 bc
       -0.031157464 0.005487445 0.034773447 -0.007892859
000030 35 03 b1 3c 6c 3c 22 3c 44 ec 94 b9 42 0b 00 3c
       0.021607975 0.009902101 -0.0002840479 0.007815184
000040 35 af 81 bc 0e 92 5e 3c 43 54 07 bd ee 51 0e bd
       -0.015830616 0.013584627 -0.033039343 -0.034746103
000050 b3 a1 a6 3c 8e d3 35 3c ed 55 0f bc 61 f5 f5 ba
       0.020340776 0.011097802 -0.008748514 -0.0018765145
000060 31 cf 05 bb e9 a3 63 3a d8 41 8d bc 84 ad 17 3d
       -0.0020417685 0.00086837873 -0.01724331 0.03703071
000070 2a 84 0d bd f5 b0 45 3c f7 1a 12 bb 10 0c 10 3c
       -0.03454987 0.012066116 -0.0022293904 0.008791938

conv_theta.weightnet.net.0.bn.running_mean f4 [32]
000000 12 89 da be 09 b3 2a 3e c8 f7 d6 3e aa 8b aa 3e
       -0.426827 0.16669859 0.41985917 0.3330968
000010 68 41 b8 3e 29 22 1c 3f ba e7 ad 3e 79 e5 85 3e
       0.359874 0.60989624 0.33965856 0.26151636
000020 da 95 32 3f ff 84 f4 be 51 8d 85 be dc 7a 84 3e
       0.69759905 -0.47757718 -0.26084378 0.25874984
000030 5f cb 22 3f 74 a8 b6 3e de 83 ad 3d a1 f2 28 bf
       0.6359157 0.35675395 0.08472417 -0.6599522
000040 21 8d 84 3e 66 ed f7 be 9c 9c 2c 3f d5 14 33 bf
       0.25888923 -0.48423308 0.67426467 -0.6995366
000050 04 a1 f7 bd e5 75 02 3f cc 08 f4 be 68 1d ac 3e
       -0.12091258 0.5096114 -0.4766296 0.33616185
000060 90 ad e7 3e c9 57 05 bf 66 50 b8 3e e8 f6 96 3e
       0.45249605 -0.52087075 0.3599884 0.2948525
000070 11 77 78 3e 40 3c 17 bf 4d e5 2e 3f 42 ea b6 3e
       0.2426417 -0.5907631 0.68318635 0.357256

conv_theta.weightnet.net.0.bn.running_var f4 [32]
000000 eb a0 98 3d 5f 3d bb 3c 62 2e ff 3b f6 ed 36 3c
       0.07452568 0.022856412 0.0077875117 0.011165133
000010 5c f2 fc 3b 61 e5 ca 3b 79 e0 aa 3c c3 51 9a 3d
       0.007719321 0.006191895 0.02085899 0.07535126
000020 52 73 e2 3c bd 50 c8 3c 4c 98 93 3c 8f 5d 91 3c
       0.02764288 0.024452562 0.018016957 0.017744808
000030 7d a3 09 3d 5a da 61 3d 8f f0 92 3d 52 b9 97 3a
       0.03360318 0.055139877 0.07174789 0.0011575615
000040 be fa 50 3d cf de 7a 3d 65 7a ce 3a 58 e8 0e 3c
       0.051020376 0.061247643 0.0015753029 0.008722387
000050 90 1d 58 3c f6 9c d1 3c 41 37 76 3d 26 6b 88 3d
       0.013190642 0.02558754 0.060111288 0.06661062
000060 46 c9 8d 3d af de 6b 3d 96 95 88 3d d8 a8 db 3c
       0.069231555 0.057585414 0.06669156 0.02681391
000070 cf 15 ae 3d 30 d0 97 3c 5c ea 6e 3d 5d bc 5c 3c
       0.085002534 0.018531889 0.05832897 0.013472644

conv_theta.weightnet.net.1.linear.weight f4 [32, 32]
000000 ad f4 cd bd 62 cd 84 bd 6d 84 0f be 9a 1c 91 3d
       -0.10056434 -0.06484486 -0.1401536 0.070855334
000010 85 92 18 be 5b b7 08 3e 59 b7 20 3e 8b a4 29 be
       -0.14899643 0.13351195 0.15694942 -0.16566674
000020 a3 d5 a6 3d 32 69 1e be 85 d0 5e 3d d4 e2 c4 bd
       0.08146217 -0.15469816 0.05439808 -0.096135765
000030 4d e7 43 3d 3a 2f 67 3d b7 01 20 be eb 32 92 bc
       0.047828007 0.056441523 -0.15625654 -0.017846545
000040 36 3b dd bd 90 ed e7 3d 05 0d af 3c 96 3b 5f bd
       -0.10802309 0.11324608 0.021368513 -0.054500185
000050 87 4c b2 bd e7 5b 98 bd 32 f2 9e 3d 7a 09 09 bd
       -0.08706003 -0.07439404 0.07761039 -0.033456303
000060 be 1e 2a be 60 9a 14 3e 73 04 22 3d e9 14 4f 3c
       -0.1661329 0.14512014 0.039555024 0.012639263
000070 d8 c9 47 bc e5 8a 1b be fb bf e2 bd f3 f4 4c 3c
       -0.012194119 -0.15189703 -0.110717736 0.012509572
000080 d5 5e 34 3b 51 42 79 3d a5 bb 1e 3e e5 39 b3 3d
       0.0027522345 0.06085426 0.15501268 0.08751277
000090 8a 94 84 3d 25 34 f9 3d de 75 a4 bc 24 6c 8d 3d
       0.06473644 0.12168149 -0.020075735 0.06905392
0000a0 76 6c 84 bc 4c 68 30 bd a1 e6 b1 3d 9f fa ff bd
       -0.016165 -0.043068215 0.08686567 -0.12498974
0000b0 97 8a 18 be 91 20 83 bd 26 8a 83 bb de 82 8c bc
       -0.14896618 -0.06402696 -0.0040142713 -0.017152246
0000c0 89 6b 25 3e 1e 15 35 be d2 e6 cb bd ac d2 1b 3c
       0.16154303 -0.17683837 -0.09956135 0.009510677
0000d0 33 8d 47 3e c3 6e c8 3d 23 94 c7 3d 88 cb 87 3d
       0.19487457 0.09786751 0.09745052 0.066306174
0000e0 88 e8 f9 3d 75 36 39 3e 34 0c 39 be ee 7c 5f bb
       0.12202555 0.1808718 -0.18071061 -0.0034101564
0000f0 ef 8d 3c 3b d9 e3 36 3d 0e c7 55 3d 1a eb de bd
       0.0028771122 0.044650886 0.052191786 -0.10884686
000100 a5 f8 fe 3d e7 f1 fa bd 0d d7 fb 3a bf 8c e6 bd
       0.12449769 -0.122531705 0.001921387 -0.11257314
000110 ea ab 11 be 7f 93 32 3b cd 4d a5 3d a5 1c 18 3e
       -0.14225736 0.002724856 0.0807148 0.14854677
000120 25 46 1a be 25 33 13 3e 35 40 d8 3d 56 1d e1 bd
       -0.1506582 0.14374979 0.105591215 -0.109919235
000130 48 ce 88 bc 1c 10 19 3a 48 47 4b bd 70 88 12 3e
       -0.016699925 0.00058388873 -0.049628526 0.1430986
000140 0d e5 da 3d 0f 84 83 3d 37 43 58 3d 29 13 b0 bc
       0.10688219 0.064216726 0.052798476 -0.021493511
000150 45 0f 02 3e e6 11 a7 bd d0 4f 1e 3e 50 3a e6 bd
       0.12701137 -0.08157711 0.15460134 -0.11241591
000160 c5 18 b9 3d 50 8f 83 bd 68 e1 75 bc 27 28 a2 bd
       0.090379275 -0.06423819 -0.015007354 -0.07917815
000170 54 df 99 3d b1 e5 16 bd 14 ac 32 be db 47 bd 3d
       0.075132996 -0.036840145 -0.17448455 0.09242221
000180 d0 4f 8b 3c 37 2a 21 3e e0 3d d7 3d 68 65 e6 bd
       0.017005831 0.1573876 0.105098486 -0.112498105
000190 7b 25 af bd de 74 fd bd 32 9e a5 bb 5c 1b ce 3d
       -0.08552071 -0.12375806 -0.0050542587 0.10063812
0001a0 10 00 d7 bc d6 8b 85 3d fb 0f 02 3e 54 c2 15 3e
       -0.026245147 0.06520812 0.12701409 0.14624912
0001b0 e6 2c db bd 0d cc 18 3e 7b ab 3c 3d ff 58 6d 3c
       -0.10701923 0.14921589 0.046061974 0.01448655
0001c0 a2 51 59 3d 00 0e 19 bd d0 bb 94 3d ee 28 25 3e
       0.053056367 -0.037366867 0.07262385 0.16128895
0001d0 78 58 14 3e b6 a6 cb 3d 18 7b bf 3d b7 53 89 3d
       0.14486873 0.09943907 0.0934965 0.067054205
0001e0 20 4b ba bd 22 fc 94 bd aa 92 9e bd 69 9e b2 3b
       -0.0909636 -0.07274653 -0.07742818 0.005451013
0001f0 bd b3 3a 3e 53 a0 cd bd 06 be e4 3d bf 72 7c bd
       0.18232627 -0.10040345 0.111690566 -0.061632868
000200 03 57 99 3d 2d b2 dc bd 32 b0 d7 ba ed 9f 24 3e
       0.07487299 -0.10776172 -0.0016455709 0.16076632
000210 58 4d 14 3e 93 c8 fd 3d db a1 d5 bd c8 76 26 3d
       0.1448263 0.12391772 -0.10431262 0.040640622
000220 16 d4 45 3e b0 e3 05 3c 6f eb a7 bd 49 6a c8 3d
       0.19319186 0.008171961 -0.08199202 0.09785897
000230 71 b6 aa bd 28 37 5f 3c ae 86 a7 3d f3 db b1 3d
       -0.08335579 0.01362399 0.08179985 0.0868453
000240 2d c7 2f be 2b d1 c2 3d a8 f9 17 bd a6 f0 ca 3d
       -0.17165823 0.09512552 -0.037103325 0.09909181
000250 6e ee 85 3c 21 81 de bd c8 04 e3 bd 2b d6 39 3e
       0.016349044 -0.10864473 -0.11084896 0.18148105
000260 b5 61 2c 3e b3 52 60 3b 06 05 32 be 59 d0 10 bd
       0.16834147 0.003422898 -0.17384729 -0.035354946
000270 5a 29 f8 3d 88 cb c3 bd 0c 30 cd 3d 97 81 01 3b
       0.12117262 -0.09560305 0.1001893 0.001976108
000280 d0 3e 05 be 43 c3 73 3c c2 42 18 3e a8 26 92 bd
       -0.13012242 0.014878097 0.14869216 -0.07136279
000290 ec 08 89 bc 39 82 05 bb 64 2b 6f 3c dc b1 8b bc
       -0.016727887 -0.0020371808 0.0145977475 -0.017052583
0002a0 e8 a7 07 3e ea 7b 00 be 24 8e 97 3c 44 57 20 be
       0.13247645 -0.1254727 0.018500395 -0.15658289
0002b0 86 ce 18 3e b3 dc df bd 6b 8c d3 3b b6 85 47 bd
       0.14922532 -0.10930767 0.006455948 -0.0487115
0002c0 8d 93 2d 3e 68 89 23 be eb 82 4e bd 6c c9 06 bd
       0.16950817 -0.15970385 -0.05041782 -0.032906935
0002d0 aa 49 d4 bc b6 cf ff bd e3 a1 3a 3e e1 2b 38 bd
       -0.025914032 -0.124907896 0.18225817 -0.04496372
0002e0 79 2a 13 be c2 dc ec bd c7 11 de 3d c4 e1 cc 3d
       -0.14371671 -0.11565544 0.108432345 0.10003999
0002f0 f8 cd ec bc 45 de 27 be 82 27 0d be 91 5c 21 3e
       -0.028906807 -0.16393383 -0.13784602 0.15757968
000300 4e 76 89 bd ea 47 b7 bd d9 54 09 3d 9e 53 cd bd
       -0.06712018 -0.089492634 0.033528183 -0.10025714
000310 b8 d7 58 3e 37 2a 3c 3d 42 5c f4 3d c3 b1 90 3c
       0.2117604 0.045938697 0.11931659 0.017662888
000320 61 c8 d1 bd 2f ae a4 bc b2 f0 27 be fc 07 24 3d
       -0.10243297 -0.020102588 -0.16400412 0.040046677
000330 91 76 c6 3d 95 29 7a bd 4b d3 c5 3d aa fd 79 3d
       0.096905835 -0.061074812 0.096594416 0.06103293
000340 42 d1 96 3d 68 bc 32 3e 3f 5b 1c 3e 15 67 e9 3d
       0.073641315 0.17454684 0.15269183 0.113966145
000350 32 af 0c 3e 56 3c 0a be a8 92 cf 3d da 91 37 3d
       0.13738707 -0.13499579 0.10135394 0.04481683
000360 81 53 33 3c ca 6e 32 3e 67 01 0a be 11 0c 90 bc
       0.010945202 0.17425075 -0.13477097 -0.017583879
000370 53 b5 90 bd 4a fa 70 3d 19 ae 7d bd 33 11 fb bd
       -0.07065835 0.058832444 -0.06193361 -0.1225914
000380 7c b2 4b 3e 7e e9 02 be 43 55 1d bd 34 55 b7 bd
       0.19892305 -0.12784383 -0.03841139 -0.08951798
000390 f6 f8 85 3c 5d 8a cf bb c0 1d 14 3e 48 d3 04 3e
       0.016354065 -0.006333633 0.14464474 0.12971222
0003a0 11 bf ee 3d 39 b5 18 be f3 67 ca 3d 35 6b 90 bd
       0.11657537 -0.14912881 0.09883108 -0.07051698
0003b0 94 17 96 3c ea 67 ba 3d f2 01 27 bc 76 1d bf bd
       0.01832179 0.09101851 -0.010193335 -0.09331791
0003c0 2c 4d b0 bc b3 bf b6 3d 77 0c 44 3d 4b 02 34 3e
       -0.021521173 0.089232825 0.04786345 0.17579
0003d0 43 85 61 bd cf b8 37 bd d6 1b 68 bc 1d d1 49 bb
       -0.05505873 -0.04485398 -0.014166793 -0.0030794807
0003e0 76 93 5c 3d e3 8e b2 3c 99 d7 0a be 0c e0 71 3c
       0.053851567 0.02179665 -0.13558806 0.01476289
0003f0 50 db f5 3d a9 da 85 3d 6d bc 3c 3e ae 0f f4 bd
       0.12004721 0.06535847 0.18431254 -0.11917053

conv_theta.weightnet.net.1.linear.bias f4 [32]
000000 c7 30 21 3e 91 5b ce bc 32 a8 b4 bd 48 be 22 3e
       0.15741263 -0.025190147 -0.08821143 0.15892899
000010 44 ca 5a 3d af 91 12 3e 7d 91 1f 3e 0a 32 03 3e
       0.05341555 0.14313386 0.15582843 0.12812057
000020 90 c8 64 bd e0 ed c5 3d 84 68 e0 bd 5f 7c a2 3c
       -0.055855334 0.09664512 -0.10957435 0.019834695
000030 e1 6c af bd 94 67 9e bd 24 4b 00 3d a4 24 60 bd
       -0.08565689 -0.077346 0.03132166 -0.054722443
000040 83 f6 e9 bd d1 a6 25 be f0 0a de 3d 64 14 90 3d
       -0.114239715 -0.16176917 0.1084193 0.07035139
000050 86 ae 20 be 5e cb 29 bd 8a c9 b4 bd 9a af 11 3e
       -0.15691575 -0.04145371 -0.08827503 0.14227143
000060 0f f1 d7 3d b5 61 10 3e 52 54 f9 3c d3 61 87 3d
       0.10544025 0.14099772 0.030435715 0.06610455
000070 70 69 28 be cd 59 2e 3e 2c 26 2d bd c6 31 aa bd
       -0.16446471 0.17026444 -0.04227273 -0.08310275

conv_theta.weightnet.net.1.bn.weight f4 [32]
000000 87 02 83 3f a6 34 82 3f 79 d4 7e 3f d7 47 7f 3f
       1.0235146 1.0172317 0.9954296 0.99718994
000010 af 13 80 3f 38 be 80 3f 60 fe 80 3f 7f 33 81 3f
       1.0006007 1.005805 1.0077629 1.009384
000020 7c b3 7f 3f a1 2a 7c 3f 1c 4d 82 3f fe 39 7d 3f
       0.99883246 0.98502547 1.0179782 0.98916614
000030 3b cd 86 3f 10 1c 81 3f 50 40 84 3f bb db 7f 3f
       1.0531381 1.0086689 1.0332127 0.9994466
000040 3f ba 7c 3f bd 72 80 3f 50 db 82 3f 1f 08 82 3f
       0.9872169 1.0035015 1.0223179 1.0158728
000050 95 cf 83 3f 8e 28 7f 3f b2 36 79 3f af 18 82 3f
       1.0297724 0.99671257 0.97349083 1.0163783
000060 46 42 81 3f ed 8b 80 3f cc 6f 7b 3f 81 55 81 3f
       1.009835 1.0042702 0.98217463 1.0104219
000070 7f 6d 7e 3f 12 2a 7e 3f f2 6b 7f 3f 4b ea 7f 3f
       0.9938583 0.99282944 0.99774086 0.9996688

conv_theta.weightnet.net.1.bn.bias f4 [32]
000000 28 9f 8e 3c 06 a5 47 3b 73 37 78 bb 11 cb d8 bc
       0.017409876 0.0030463352 -0.0037874847 -0.026464017
000010 60 24 02 3b b3 eb a3 bc af 46 8f bb 1d ec b2 bb
       0.0019858107 -0.020009851 -0.00437244 -0.005460276
000020 87 f8 f4 ba 1c 10 b1 bb d9 fc 56 3c 4c bc 6d 3c
       -0.001868979 -0.0054035317 0.013121807 0.0145102255
000030 2f fb c0 3c a9 fe a4 3c 00 7b 61 3c f7 49 25 bd
       0.023557274 0.020140963 0.013762236 -0.04035374
000040 18 41 c3 bc a4 4c bf 3b 7d cf 36 3c 23 cd 84 3c
       -0.02383475 0.0058379937 0.0111578675 0.016211098
000050 8a be 17 3d 08 65 3c 3c 56 79 9b bc ee 69 a7 3b
       0.037046947 0.011498697 -0.018978756 0.0051090633
000060 48 5d 6e bb dd 8b 9a bc 8f 97 30 bc 0e c3 86 b8
       -0.0036371518 -0.01886552 -0.010778322 -6.42595e-05
000070 3e 0d 3b bb c4 e2 97 3c f1 fc 02 3c fd 3f c8 bc
       -0.0028541829 0.018540747 0.007994876 -0.024444574

conv_theta.weightnet.net.1.bn.running_mean f4 [32]
000000 40 13 9c bc 12 e1 ee 3d 5a 4d 12 bd 6b 45 bd 3e
       -0.019052148 0.116640225 -0.0357183 0.36967024
000010 b0 7c 45 3e f6 55 09 3d 8f 17 97 3e 7a 09 86 3e
       0.19285846 0.033529244 0.2951016 0.26179105
000020 d3 3d 61 be 08 a4 72 3e 39 9b 19 bd dd 30 c7 3d
       -0.2199624 0.23695385 -0.037501547 0.09726117
000030 a1 61 dd be 56 f3 35 bd 5d 0f f5 3d 4a b1 44 bc
       -0.43238547 -0.044421516 0.11965821 -0.01200516
000040 cc 62 64 3d b0 aa 20 be e7 16 2f 3e 66 60 50 3e
       0.055758283 -0.15690112 0.1709858 0.20349273
000050 75 38 c1 be 41 3b 83 3c 29 b8 b4 bd 5b 34 29 bd
       -0.37738386 0.016019465 -0.08824188 -0.041309696
000060 c9 77 04 3e 21 92 8f 3e 61 bb f9 3d 96 73 31 3d
       0.1293632 0.28041175 0.12193943 0.043323122
000070 c2 92 ff 3b 8c f4 84 3d 7d 1c 99 be dc ef 4f bd
       0.0077994773 0.06491956 -0.29904547 -0.050765857

conv_theta.weightnet.net.1.bn.running_var f4 [32]
000000 27 73 cd 3c 92 10 8a 3d ee 5b d3 3c d4 39 b5 3d
       0.025079323 0.06741442 0.025800671 0.088489205
000010 a2 70 9a 3d b0 53 2b 3e 5c e9 77 3d 2f 3c 94 3d
       0.07541014 0.16731143 0.060525283 0.072380416
000020 04 6b 81 3e 04 3f 06 3e 2b 8a fe 3c b8 ec 5e 3e
       0.2527696 0.13109976 0.031071743 0.21769989
000030 67 2c bc 3d 5c ce 40 3d 93 bb a4 3d 5a 29 17 3e
       0.091881566 0.0470718 0.080435894 0.14761868
000040 ca 66 8f 3e b6 e2 00 3d f5 3e bf 3d 8b e9 6f 3d
       0.2800811 0.03146621 0.0933818 0.058572333
000050 16 3c 1a 3d da 22 62 3e 5c 13 c8 3c 4a 78 05 3e
       0.03765496 0.22083607 0.024423294 0.13034168
000060 76 ab b2 3c b1 76 f8 3d d9 e9 96 3e 62 3a e7 3c
       0.021810275 0.121320136 0.29475287 0.028226081
000070 4a a5 ef 3d 3a 95 54 3e 7e c4 9e 3d 9c e5 72 3d
       0.11701448 0.2076005 0.07752322 0.059301004

conv_theta.weightnet.net.2.linear.weight f4 [16, 32]
000000 c3 9b 3a 3e 95 79 dc bd 00 0a 2e 3d c2 ac fe 3d
       0.18223481 -0.107653774 0.042490005 0.12435295
000010 ea bb db 3d a5 31 45 3e 09 af e6 bd 43 0e 49 be
       0.10729201 0.19257219 -0.11263854 -0.19634347
000020 36 0e ec 3d b7 43 20 be c7 e3 88 bd 6c 95 a1 b9
       0.11526148 -0.15650831 -0.0668407 -0.0003081964
000030 2a 56 1d 3d 00 54 e5 bd 00 51 ac 3d c3 22 47 3d
       0.03841225 -0.11197662 0.08413887 0.048617136
000040 76 d6 0e 3e 47 d4 f1 bd dd 3b dd bd 40 f9 4d bd
       0.13948998 -0.11808067 -0.10802434 -0.05028653
000050 e9 7e 2e 3d 89 ec 2e 3d 71 76 63 bd 87 5a 21 39
       0.0426015 0.042706046 -0.055532876 0.0001538788
000060 35 19 22 bd bf ed 0c bc 20 fe 7b 3d 86 f6 c3 3d
       -0.03957482 -0.008601605 0.06152165 0.09568505
000070 f1 0f 00 3e 18 01 94 bc 0c c5 47 3e e6 cf 08 be
       0.12506081 -0.018066928 0.19508761 -0.13360557
000080 04 03 c4 3d 56 f6 62 3d 3a 3f df bd 7c 02 ef bd
       0.09570888 0.055410706 -0.109007314 -0.11670396
000090 22 0b 4b be 13 ef fb 3d f5 a3 b5 3c 22 24 a9 3b
       -0.19828466 0.12301459 0.022172907 0.005161778
0000a0 f7 cb 84 bd b4 f7 de 3a 60 58 2e bd d3 2e f2 3d
       -0.06484216 0.0017011077 -0.04256475 0.11825337
0000b0 eb 9f d0 3d 30 e8 22 be 75 0f 80 3c f8 86 f8 bd
       0.10186752 -0.15908885 0.01563237 -0.12135118
0000c0 6a 47 9d bd e6 34 b4 bd 9d 01 ee 3d 02 74 e8 bc
       -0.07679637 -0.08799152 0.116214015 -0.02837563
0000d0 96 5a ac bd 8c 2c c2 3d 81 8c 24 3e d7 3d 16 be
       -0.084157154 0.09481153 0.16069223 -0.14672028
0000e0 68 2c 10 3d 32 5d de bd 0a b5 47 3d a7 ca c0 bd
       0.0351986 -0.10857619 0.048756637 -0.09413653
0000f0 bd 86 f8 bd 66 13 20 3e fe 60 d0 3d de f1 1e 3e
       -0.12135074 0.156324 0.1017475 0.15521953
000100 59 1c ce bd 01 d3 99 bd c8 e4 0d be bf b3 1b be
       -0.10064001 -0.07510949 -0.13856804 -0.15205286
000110 1e 9e 25 be e9 78 b6 3c 1f a7 ba bd 15 1d bc bd
       -0.16173598 0.022274451 -0.09113907 -0.091852345
000120 f4 ae 1f 3e 78 a2 be 3d 55 44 06 be c1 c3 fa 3d
       0.15594083 0.09308332 -0.13112004 0.12244368
000130 0c 8f 07 be 34 8a c9 3d fb 82 4a be 99 e1 34 bd
       -0.13238162 0.09840813 -0.19776528 -0.04416046
000140 61 a9 33 bc a7 0a 05 3e b2 7b 96 bd 7e 43 74 bd
       -0.010965676 0.12992345 -0.07347812 -0.059634678
000150 f2 a9 34 3e bc 6f 3d 3d 2e 78 9a 3b f4 25 2a 3e
       0.17642954 0.046249136 0.0047140336 0.1661604
000160 c6 62 93 bd 1b 0c e3 3d a7 1d 1c 3e 13 0d 09 3e
       -0.07196574 0.11086293 0.15245686 0.13383894
000170 7f 4b cb bd 8d f2 81 3d 82 ee 39 3d 99 24 d2 3d
       -0.09926509 0.06345091 0.045393474 0.10260887
000180 47 6d ee bd 17 c2 43 3d 50 da 1e 3e 4e 09 ae 3b
       -0.11641937 0.04779252 0.15512967 0.005311168
000190 88 3b 4c bc 5a 5e a8 bc f1 36 fe bd 85 67 1a 3e
       -0.012465365 -0.020552803 -0.12412823 0.15078552
0001a0 3b 48 0c 3e 1e 95 2b 3d 89 2c 40 3e 2b 72 da 3d
       0.13699429 0.041890256 0.18766989 0.10666307
0001b0 93 12 06 3e af df e3 3d 2f ff 2c be 8d 25 83 3c
       0.13093023 0.11126649 -0.1689422 0.016009117
0001c0 c1 b1 1a be 42 08 af 3b 43 f4 d3 3d 56 b9 23 3d
       -0.1510687 0.0053415606 0.103493236 0.039971672
0001d0 b6 ed ea bd 9b 9b d0 bd dd 20 fa 3c c2 51 21 be
       -0.11471121 -0.101859294 0.030533249 -0.15753844
0001e0 87 ce 32 be 98 39 8a bd a4 b5 52 bd 74 06 fb 3b
       -0.17461596 -0.067492664 -0.051442757 0.0076606814
0001f0 d1 94 05 be 27 b4 f5 3d 77 b5 f9 3d f1 c8 fb 3b
       -0.1304505 0.11997252 0.12192815 0.007683866
000200 79 a9 dd 3c 79 3b 06 3d bf cb 16 3d af 77 ec bd
       0.02705835 0.03277156 0.0368154 -0.11546265
000210 23 3e 0d be 5a 2c 19 3e b3 a3 95 3d ec 76 0d bd
       -0.13793235 0.14958325 0.07306614 -0.03453724
000220 56 35 70 bd f5 ec 33 3d b7 c6 83 bd 50 f5 26 3e
       -0.058644615 0.04392715 -0.06434386 0.16304517
000230 7f da 4e 3c 8d 04 be 3d 0c e7 44 be 53 fd 87 bd
       0.012625336 0.09278212 -0.19228762 -0.06640115
000240 40 06 47 be cf b5 03 3e 84 f8 86 3d 1b 5f df 3d
       -0.19435978 0.12862323 0.06590369 0.10906812
000250 a0 f8 0f 3e 5f ec dd bd 62 1b 9e 3d ca df a5 3d
       0.14059687 -0.108361 0.077200666 0.08099325
000260 6a 3d 20 be df 95 e3 bd 97 c6 f4 3d 1b 98 60 bc
       -0.15648428 -0.1111257 0.119519405 -0.01370814
000270 de 0b 8e 3d c0 f2 0d 3e 7a 76 e0 bd e0 d4 fb 3d
       0.06935857 0.13862133 -0.109600976 0.12296462
000280 1b b9 c6 3d 36 ac ac bd f7 cb 1d be 1d 59 96 bd
       0.09703275 -0.08431284 -0.15409838 -0.07341216
000290 a3 9d 10 3c 55 7b 09 be cf 26 d2 bd 4a d0 96 bd
       0.008826646 -0.13425954 -0.102613084 -0.07363947
0002a0 7a 41 bf 3d d5 a0 2f 3e 9a 0d 5d bd ae c0 fb 3d
       0.093386605 0.17151196 -0.05396805 0.1229261
0002b0 a5 21 27 3e b6 25 9a 3d 47 34 5a bd 6f 9e 03 be
       0.16321428 0.07526724 -0.05327251 -0.12853406
0002c0 d9 98 30 be 99 27 31 3e 6e 8f 66 bc 36 58 ff bd
       -0.17245807 0.17300262 -0.014072282 -0.12467997
0002d0 1f 39 b0 3d 31 73 97 3d 86 66 e7 bd 74 7e a5 bd
       0.08604645 0.07395018 -0.11298852 -0.0808076
0002e0 44 6a 70 bc f3 cf ee bd be 65 f6 bd 40 d6 38 3e
       -0.014673773 -0.11660757 -0.120311245 0.1805048
0002f0 48 75 15 be cd 9b 22 3e 26 95 a7 3d 24 7a 30 bd
       -0.1459552 0.15879746 0.08182745 -0.043085232
000300 26 12 a7 bd 76 39 2f 3e 2f 36 0d 3e 70 89 bf 3c
       -0.081577584 0.17111763 0.137902 0.023380965
000310 b4 53 12 be 9a 35 b0 bd c0 3e 13 be f3 ea 07 be
       -0.14289743 -0.08603974 -0.14379406 -0.1327322
000320 51 11 19 be 1f c7 19 3e ca 3c 98 3b af db 8b bc
       -0.14948012 0.15017365 0.0046459185 -0.017072527
000330 03 ae 0c 3e 9a 51 23 3d 7d 97 22 3e 57 62 89 bc
       0.13738255 0.039872743 0.158781 -0.016770525
000340 28 c3 a0 bd 02 84 b4 bd e0 e4 36 bd 1e 64 0e bd
       -0.07849723 -0.08814241 -0.044651866 -0.034763448
000350 53 83 b1 3b 96 20 89 3d ab ee 0e 3e af e4 90 bd
       0.0054172664 0.066956684 0.13958232 -0.07074868
000360 0f c6 fb 3d 46 c1 9e 3c c7 7b f8 bd f8 f2 d7 bd
       0.12293636 0.01937927 -0.12132984 -0.105443895
000370 37 34 c0 bd d9 01 d2 bd 02 2b 78 bd 8a db ea 3d
       -0.09384959 -0.10254259 -0.06058789 0.11467655
000380 5d 97 cc 3c dc 5f d6 3b d4 7f a5 3d 22 4f 10 bd
       0.02497452 0.006542189 0.08081022 -0.035231717
000390 0e 05 26 bd ca 77 2f 3d 48 5d 7d bd 92 8f ea bd
       -0.040532164 0.04283885 -0.061856538 -0.11453165
0003a0 c1 99 e5 bb ca 76 3d 3a 96 91 c3 bd a5 b6 c8 bc
       -0.0070068543 0.0007227479 -0.09549253 -0.024501154
0003b0 d3 d0 10 bb e3 d8 25 be f6 4c 08 3d 81 31 74 bd
       -0.0022097125 -0.16196017 0.03327652 -0.059617523
0003c0 07 26 a5 bd 50 8d 8d bd 17 4a ea 3c 71 c0 fe bc
       -0.08063894 -0.06911719 0.028599782 -0.031097623
0003d0 f0 03 2b 3e 69 91 94 3d b7 a0 15 3c 93 dd 4b 3d
       0.16700721 0.07254297 0.009132556 0.049771857
0003e0 7c 92 09 be 3b ce 55 3d e9 e8 19 3e 13 63 a4 bc
       -0.13434786 0.05219863 0.15030254 -0.020066774
0003f0 ea a5 9d bc 99 84 0b 3e a9 cb 19 bc 4e 31 3f be
       -0.019244153 0.136248 -0.009386935 -0.18671152

conv_theta.weightnet.net.2.linear.bias f4 [16]
000000 49 c7 c7 3d 82 78 8d bd 5a 60 3e bd 59 53 b4 ba
       0.097548075 -0.06907751 -0.046478607 -0.001375775
000010 1e d4 6f 3d 31 88 e0 bd 14 75 5e bd e8 0e e9 bd
       0.0585519 -0.109634764 -0.054310873 -0.11379796
000020 ba a4 27 bc 03 66 68 3c aa 25 bf bd 36 10 d2 3d
       -0.010232145 0.014184478 -0.09333356 0.10256998
000030 bb 17 bd bb 47 fc 7c bc f4 82 b1 bd b5 49 24 be
       -0.005770651 -0.015441007 -0.086675555 -0.16043742

conv_theta.weightnet.net.2.bn.weight f4 [16]
000000 22 15 88 3f c0 c5 80 3f e8 ba 81 3f 9e 0d 80 3f
       1.0631449 1.0060349 1.0135164 1.0004156
000010 aa 4c 80 3f 46 26 82 3f 04 c8 7f 3f 9f c8 87 3f
       1.0023396 1.016793 0.99914575 1.06081
000020 62 bb 87 3f bc 5c 86 3f dc 03 88 3f 08 dd 81 3f
       1.060406 1.049705 1.0626178 1.0145578
000030 f7 74 81 3f 00 c3 80 3f 5e 86 80 3f 4c 1b 81 3f
       1.011382 1.0059509 1.0041006 1.0086455

conv_theta.weightnet.net.2.bn.bias f4 [16]
000000 e9 43 71 3d 9c 9a 35 3c 29 a4 aa 3c 72 ea e5 b9
       0.058902655 0.011084225 0.02083023 -0.0004385296
000010 35 cd 11 3c 15 a3 b2 3c bf 72 06 3b a6 77 5f 3d
       0.008899023 0.02180628 0.0020515171 0.054557465
000020 e4 66 74 3d 1b 69 39 3d 24 9d 6e 3d 01 ba 79 3c
       0.059668437 0.045266252 0.05825533 0.015242101
000030 21 c9 3d 3c 09 7b 33 3c 59 a4 28 3b ab 2f 17 3c
       0.011583597 0.010954627 0.0025732724 0.0092276735

conv_theta.weightnet.net.2.bn.running_mean f4 [16]
000000 d9 4c 2c 3e 6b 4e c4 bd 92 51 47 bd 7c 11 06 3d
       0.1682619 -0.095852695 -0.048661776 0.03273152
000010 2a 25 0b 3e d2 fc 18 be 90 d4 e6 bd 94 24 2c be
       0.13588396 -0.14940193 -0.11271012 -0.16810828
000020 da 72 41 be 78 d3 4f be ae bc 01 be c3 44 84 3e
       -0.18891469 -0.20295513 -0.12669632 0.2583371
000030 93 fa 3a 3e 09 ea 86 bd e3 d0 ad 3d 74 2a 9c 3d
       0.18259649 -0.065876074 0.084871076 0.07625285

conv_theta.weightnet.net.2.bn.running_var f4 [16]
000000 15 68 7c 3d 01 4f 33 3e 70 a4 26 3e 6f 8a 62 3e
       0.061622698 0.17510606 0.16273665 0.2212312
000010 cd 3f cd 3e fd 23 2a 3e 06 f2 22 3e e8 69 5a 3d
       0.4008774 0.16615291 0.15912637 0.053323656
000020 72 99 28 3e f7 09 c1 3d 7e 50 b2 3d af 48 89 3e
       0.16464785 0.09425729 0.08706759 0.26813266
000030 2e 82 64 3e 1e 63 03 3e a7 68 56 3e d2 ae 13 3e
       0.22315285 0.12830779 0.20938359 0.14422157

conv_theta.linear.weight f4 [128, 16]
000000 5a 45 f9 bd d7 c7 dc bd 62 5c ad bd a2 d8 1e 3d
       -0.12171431 -0.10780304 -0.08464886 0.038780816
000010 9f 3e 78 3e 19 60 f5 3d f5 d5 0a 3e 21 9f 2d be
       0.24242638 0.1198122 0.1355818 -0.16955234
000020 16 0a 5d 3d e6 0b ec 3d 12 91 94 bd 04 33 ec 3b
       0.053964697 0.11525707 -0.072542325 0.00720823
000030 43 a2 00 3d c4 73 62 be c8 32 1e 3e 06 92 21 3d
       0.031404745 -0.22114474 0.15449059 0.0394459
000040 97 d1 11 3c 15 2c 52 3e 7b b3 7b bd e2 f4 26 be
       0.008900068 0.20524628 -0.061450463 -0.16304353
000050 fd 18 d4 3d de 06 19 3e 1e d2 62 be c2 6f 80 3e
       0.10356329 0.14944026 -0.22150466 0.25085264
000060 1e a6 99 3d 23 85 5f be 3f fe c2 bd ee 6f 81 bd
       0.075023875 -0.21828131 -0.0952115 -0.06320177
000070 d0 f1 25 3e c8 ef 4a 3e a1 64 68 3e c3 43 14 3d
       0.16205525 0.19818032 0.22694637 0.036197435
000080 d5 2e 1a 3e 55 99 1a 3e 8d 91 27 bc 23 ed 7a 3e
       0.15056928 0.15097554 -0.010227573 0.24504523
000090 6c b3 ee 3d 96 fc 14 3e 5d 57 47 bd b8 04 33 be
       0.11655316 0.14549479 -0.0486673 -0.17482269
0000a0 8e 52 76 3e 2b 4b 54 be b2 a3 21 3d be 8a 6c 3e
       0.2405493 -0.207318 0.039462753 0.23099801
0000b0 52 aa 5a be ea 19 42 3e 84 0b 98 bd 5f cf 16 be
       -0.21354035 0.18955198 -0.074240714 -0.14727543
0000c0 9c f4 eb 3d a7 be 61 bd 55 17 53 3d 62 b4 5d be
       0.11521265 -0.05511346 0.051535923 -0.21650842
0000d0 76 e0 74 3d 2b a5 96 3d 21 71 0e be a7 3d 0d 3e
       0.059784375 0.07355722 -0.13910343 0.1379305
0000e0 98 0a 3b bd c1 b1 56 3d 4e 80 8d 3e 01 a8 cb 3d
       -0.0456644 0.052415613 0.2763695 0.099441536
0000f0 11 d7 89 3e 45 d3 0e 3e 3a 1d 3b be 3a 39 e5 3d
       0.26921895 0.1394778 -0.18272868 0.11192556
000100 58 a3 8c 3e cf 6e 26 3e 2d 17 b2 3d fa e2 e8 bd
       0.2746837 0.16253208 0.08695827 -0.11371417
000110 42 5d f3 3d 32 8c 35 3e 92 b5 b5 bc 7f aa 82 3e
       0.11883022 0.17729262 -0.022181306 0.25520703
000120 2d 77 5c 3e 0b 5f 2a bd 74 fa 4f be 20 90 20 bb
       0.21529837 -0.041594546 -0.20310384 -0.0024499968
000130 10 64 8a 3d 0e 9f 46 be ce b9 e3 3d e5 29 ec bd
       0.06757367 -0.19396612 0.11119424 -0.11531428
000140 61 bb 79 3e 10 7a d5 bd f8 06 d9 3d e0 21 45 3e
       0.24387886 -0.10423672 0.10597032 0.19251204
000150 3e 52 14 3e 19 04 96 bd d5 a7 fc 3c 7a 3a e2 bd
       0.14484498 -0.07325 0.030841747 -0.1104631
000160 82 c8 10 3e c1 7d 33 3d ad 3c 2b 3d 67 f2 0f 3e
       0.14138988 0.0438211 0.04180591 0.14057313
000170 7a f0 51 3e b8 bf eb 3d 68 ce c0 3d 5e 2f 48 3e
       0.20501891 0.11511177 0.09414369 0.19549319
000180 8c d3 7d be 59 51 56 be b7 64 75 bd dd b6 19 3e
       -0.2478773 -0.20929469 -0.059910502 0.15011163
000190 de b5 5f be 7c 24 12 be 45 2b 32 bd 0e 51 41 3e
       -0.2184672 -0.1427173 -0.043498296 0.18878576
0001a0 2a a1 5f be b2 d4 08 be 2c 90 0d 3c db 8f 16 3e
       -0.21838823 -0.13362387 0.00864033 0.14703314
0001b0 e3 f2 e9 bd da 81 37 be 96 99 01 3d 23 dd 36 be
       -0.1142328 -0.17920628 0.03164061 -0.17857794
0001c0 8f 26 64 be fd 05 46 be 60 67 2d 3d 3e eb 16 3d
       -0.22280334 -0.19338222 0.042334914 0.03684544
0001d0 8a 60 c7 3c 0a 48 21 3e 45 a5 fb 3d 05 01 67 3e
       0.024338026 0.15750137 0.12287382 0.22558983
0001e0 e4 49 1e 3e 53 08 f9 bd 4e 8e 89 3e 6b 9f 4b 3e
       0.15457875 -0.12159791 0.26866382 0.19885032
0001f0 34 81 f9 3c b1 6a c6 3d 84 98 e9 bd ed 89 4f bd
       0.030457117 0.096883185 -0.11406043 -0.050668646
000200 6c 69 fc 3d 41 5e 02 3d d3 0c 0f be b1 a3 97 bd
       0.12324795 0.03182817 -0.13969736 -0.074042685
000210 e5 8a ee 3d c7 52 35 bd 97 51 43 be ae b2 81 3e
       0.11647586 -0.044268396 -0.19074093 0.25331634
000220 9e 2e ab bc 96 64 16 be ab 1c 92 3e ab 0b 2e 3e
       -0.020896252 -0.14686808 0.28537497 0.16996638
000230 e0 fc 68 3e 60 3d bf 3d 99 9b 2a bd 0c de 1d bd
       0.22752714 0.09337878 -0.041652296 -0.03854184
000240 03 42 81 3e a0 5a c7 3d 8e 80 61 3e 51 2b 49 3d
       0.25245675 0.09734082 0.22021696 0.049113575
000250 61 67 f0 bd e9 02 6b 3e 2b 14 e9 bd c7 f4 b7 bd
       -0.11738468 0.22950329 -0.113808 -0.089822344
000260 e8 04 42 3e d6 ac 2e 3e d1 c6 47 3d d1 9b 5a bd
       0.18947184 0.17058119 0.04877359 -0.053371254
000270 1e 7b 05 be 7d 7f ce bc 68 42 31 be 9f e1 56 be
       -0.13035247 -0.025207276 -0.17310488 -0.20984505
000280 b4 8e b6 3d 87 dd 4a be 3d 5a 1b 3c 4a 4a ac 3d
       0.08913937 -0.19811068 0.009481964 0.08412607
000290 b8 79 3a 3e db b0 6a 3e 34 63 9a bd 6c 00 05 be
       0.18210495 0.22919028 -0.07538453 -0.12988442
0002a0 09 48 52 bc bb c5 4f 3e 61 63 58 3e aa ac 65 3e
       -0.012834557 0.20290272 0.2113166 0.22429147
0002b0 de 8c 26 be 38 84 75 bd 25 bb 50 3e 56 60 11 3e
       -0.16264674 -0.059940547 0.2038389 0.14196905
0002c0 42 b0 67 be e0 82 65 be 2d e4 49 be 71 fa 39 3c
       -0.22625831 -0.22413206 -0.19715948 0.011351214
0002d0 9d 64 3f be ab 06 29 be d5 56 9b 3d 8b d2 f6 bd
       -0.18690725 -0.1650645 0.07584921 -0.12051877
0002e0 3b 6e 3f 3e 80 47 3d be 42 95 66 be d1 78 db 3d
       0.18694393 -0.18484306 -0.22517875 0.10716403
0002f0 2d df 2d be 50 eb 48 be 18 2d cd 3d 39 37 5e 3e
       -0.16979666 -0.19621015 0.100183666 0.21700753
000300 cd 38 8f 3d 46 27 03 3e 78 ca fe bc 90 d1 52 3e
       0.06993256 0.1280795 -0.031102404 0.20587754
000310 c6 1f 02 3d 02 7c 24 be c0 dd 0a 3d b7 cc 8c 3e
       0.031768583 -0.1606293 0.033902884 0.27499935
000320 8f e8 26 3e ea 56 32 3e 81 d3 a9 bd 5d fb 42 be
       0.16299652 0.17415968 -0.08292294 -0.190412
000330 82 55 fb 3b f2 95 28 be ed 32 a2 3d a8 db 2f be
       0.0076701054 -0.1646345 0.079198696 -0.17173636
000340 74 69 46 3e 7d 88 7d 3e 36 88 3d 3e d8 0c 11 be
       0.19376165 0.24759097 0.18508992 -0.14165056
000350 24 c9 37 be db 6a 3b ba f5 8f 67 3e f7 d7 84 3e
       -0.17947823 -0.00071494066 0.22613509 0.25946018
000360 13 4d 4f 3e b4 6f 2f 3e 18 b8 f3 3d 36 69 df 3d
       0.20244245 0.17132455 0.119003475 0.10908739
000370 20 4d 03 be 48 3f cb 3d 54 7e 4a 3e 18 fa f1 bc
       -0.1282239 0.09924179 0.19774753 -0.0295382
000380 7c 9d 52 3e 9e 6c 77 bd 4e 81 49 be f2 ab d7 bb
       0.20567888 -0.06040632 -0.19678232 -0.006581777
000390 43 ad f5 3d d0 3e eb 3d 68 86 03 bd 89 99 02 be
       0.11995938 0.1148659 -0.0321106 -0.12753882
0003a0 25 f9 59 3e 79 b2 6d be 98 09 01 3d 81 9e 64 be
       0.21286447 -0.23212613 0.03150329 -0.2232609
0003b0 b0 59 bb 3c 4a 21 d8 3d 0e 47 11 3e 84 ad 4f be
       0.022869915 0.105532244 0.14187261 -0.20281035
0003c0 0b 4d 0e be 92 c7 71 be 0f dc 1c be db 11 d4 bd
       -0.13896577 -0.23611286 -0.1531832 -0.10354968
0003d0 c1 0b d1 bd 6f b6 e2 bd 38 51 5f be 51 b9 1f 3e
       -0.1020732 -0.11069953 -0.21808326 0.15598036
0003e0 d9 d9 b9 3d 82 f6 dc bc 5a 5e 2e 3e 1c d2 59 be
       0.09074754 -0.026973013 0.1702818 -0.21271557
0003f0 72 ca 05 3e 4b c9 2d be 2a 3e c4 3c 54 51 f8 3b
       0.13065508 -0.16971318 0.023955423 0.0075780544

conv_theta.linear.bias f4 [128]
000000 9b 3a 8d bd 76 d5 be bc f7 df ae 3d 36 34 9e bc
       -0.06895944 -0.023295145 0.08538812 -0.019312005
000010 48 61 08 bd 91 c9 15 3e 61 18 21 be 0f 4f 5d 3c
       -0.0332959 0.14627673 -0.15731956 0.013507619
000020 7f f5 2c 3d 3f 03 f4 3d d7 c0 2a 3d dc 49 6c be
       0.04222631 0.11914682 0.041687813 -0.2307505
000030 e7 a5 79 bd c1 a8 66 3e 7b b7 3c 3d 41 0b 3f 3c
       -0.060949232 0.22525312 0.046073418 0.011660398
000040 e4 94 89 3e c1 84 94 3e 33 1c 9f ba 29 37 41 be
       0.26871407 0.29007533 -0.0012139141 -0.18868698
000050 8f 19 85 be d4 12 b9 3d e0 3b 33 3e 53 29 f8 bd
       -0.25996062 0.09036794 0.17503309 -0.12117257
000060 8d 96 d0 bc eb 0b 96 3d bf 19 58 bd 03 70 dd bd
       -0.025462413 0.07326492 -0.05275893 -0.1081238
000070 4c 51 b6 bd da 71 4b bc ca 17 fa 3d 1f 02 8f bc
       -0.08902225 -0.012417281 0.12211569 -0.017457066
000080 82 74 5a 3c 54 b5 da 3d c3 43 5e 3d ff 38 40 be
       0.013333442 0.10679117 0.05426384 -0.18771742
000090 3c fb 44 3d 03 ba fb 3c 91 94 56 3e a5 3e 6e bc
       0.04809116 0.030728346 0.20955111 -0.014541303
0000a0 3d d2 25 be 8d 39 4b be 6d 78 62 bd b9 0f 78 3e
       -0.16193481 -0.19846173 -0.05529063 0.24224748
0000b0 fb f1 a5 3d 72 90 b4 3b 4e 63 45 3e 6b c7 87 be
       0.08102795 0.0055103833 0.19276163 -0.2651933
0000c0 06 3e 83 be ec cc 25 bd cf ed dc 3d 0a ba 78 bb
       -0.25633258 -0.04047863 0.10787546 -0.0037952685
0000d0 44 d4 44 be df 26 40 ba 25 8a 2c 3e 3e 03 84 be
       -0.19221598 -0.0007330011 0.16849573 -0.25783724
0000e0 7f 5a 0e 3c d7 c3 d0 bc 4b a5 cb bc a9 b2 56 3e
       0.008688568 -0.025484009 -0.024859091 0.20966591
0000f0 b1 ad 29 be 11 77 56 3e 8d 0d a2 be 87 c9 0e bc
       -0.16570164 0.20943858 -0.31650963 -0.00871504
000100 82 c1 1b be 8d 4d 84 be b1 d8 3b 3e 51 9a c5 3d
       -0.15210536 -0.25840417 0.1834438 0.09648574
000110 d1 93 41 3d 23 2a 12 be 98 84 80 3e 00 0a b2 be
       0.04726011 -0.14273886 0.2510116 -0.34773254
000120 64 5e 84 bd 28 57 88 3d 28 08 a6 3d 22 8d 78 3c
       -0.06463316 0.06657249 0.081070244 0.015170367
000130 87 e0 95 bd d6 62 39 3e f8 14 df 3d 51 bb 7c bd
       -0.07318216 0.18104109 0.10892671 -0.061702076
000140 da 26 83 be 69 5d 15 3e ea 25 e0 bd c1 d8 23 3e
       -0.2561558 0.14586414 -0.109447315 0.16000654
000150 55 02 94 be 52 4a f1 bd bc 26 a5 bd b6 05 8e bc
       -0.2890803 -0.117817536 -0.080640286 -0.017336708
000160 2b f8 5b 3e d5 02 3e 3e 27 8f 9b bd 7a ef a4 bd
       0.21481387 0.18555768 -0.075956635 -0.08053489
000170 4d 4f 55 3e 07 d6 45 3e 78 97 ce 3d 50 e5 cd bc
       0.20831032 0.19319926 0.10087484 -0.025133759
000180 ec fa b4 bd 6b ac b1 3d 9e f9 bc bd f8 8a 36 be
       -0.08836922 0.08675464 -0.09227298 -0.1782645
000190 d0 d1 d7 bd 9c 2f 74 bd de df 4a 3e db 58 a4 bd
       -0.105380654 -0.059615716 0.19811961 -0.0802476
0001a0 dc 57 0f 3e 5b 2a 8b 3c 2b 4c 81 3c 55 dc 8a bc
       0.1399836 0.01698797 0.01578339 -0.016950766
0001b0 41 3b 47 be ef cf 83 be ff 0e 5a be b6 05 7b bd
       -0.19456197 -0.25744578 -0.21294783 -0.061284743
0001c0 8b a3 66 bd 55 a2 67 be 5c 44 fe 3d 17 61 95 3e
       -0.05630831 -0.22620519 0.12415382 0.29175636
0001d0 19 5b 0f be b6 36 d5 3c e9 cb fd bc 15 f3 4c 3d
       -0.13999595 0.026027065 -0.030981021 0.05003651
0001e0 8e 43 3f be da 0c 7c be 12 d7 4b be 93 39 41 bd
       -0.18678114 -0.24614277 -0.19906262 -0.047174048
0001f0 95 86 a6 3d 64 d3 0f be c5 3a ed 3c fe ef 90 be
       0.08131138 -0.14045483 0.028958688 -0.283081

cnn.0.module.weight f4 [128, 256]
000000 7f a1 90 bb 8e d9 1f 3d 26 73 90 3d a0 65 e4 3c
       -0.004413783 0.039025836 0.07053213 0.02788049
000010 be 75 ed 3c d8 c7 62 3d cd cb c9 bb 97 19 80 3d
       0.028986808 0.055366367 -0.006158328 0.06254881
000020 f7 fa 20 3d 2f 06 46 bd 54 26 de 3a a6 13 59 bd
       0.03930184 -0.04834574 0.0016948679 -0.052997254
000030 ba 0f 07 bd bf 84 e3 bc 42 6e 40 bd 85 45 4f bd
       -0.032973982 -0.02777326 -0.04698015 -0.05060341
000040 b4 9a d0 3c 61 c7 a3 3d 4f 49 42 3d 9c bd b9 bc
       0.025464393 0.07997013 0.047433194 -0.02267342
000050 6b 9e 44 bd 11 26 13 3d f6 4c 3e bc f0 3c 16 3d
       -0.04800264 0.035924975 -0.011615029 0.03667921
000060 6e 14 3a bd 25 b1 05 3d c6 d2 42 bd 1a cb 70 3d
       -0.04542964 0.03263964 -0.04756429 0.058787443
000070 3e 22 b5 3c c6 38 eb 3c 38 74 ae 3c 3f ed 4c bd
       0.022111055 0.028713595 0.021295652 -0.050030943
000080 88 23 8b 3d 1e e2 02 bd 06 ec e0 bb 02 20 2b bd
       0.067938864 -0.031953923 -0.0068640737 -0.041778572
000090 06 85 0c 3d 33 0a cc bc 09 90 95 bd 0d 65 10 3d
       0.03430655 -0.024907207 -0.07302863 0.03525262
0000a0 fd bf 0f 3d f0 47 14 3d c5 22 85 bd ac 9e 0d bd
       0.035095204 0.036201417 -0.065007724 -0.03457515
0000b0 9c 0c 9b 3b 3a 60 c1 bc 92 2e 83 3d 1c 75 03 bd
       0.0047317278 -0.023605455 0.06405367 -0.032094106
0000c0 e4 83 3c bd b8 99 d2 3c b8 1e 4b bc 87 2d 86 bd
       -0.04602422 0.025708064 -0.012397461 -0.065516524
0000d0 2e bc cc bc 4b a4 e0 bc c3 33 88 3d a1 c3 2f 3d
       -0.024992075 -0.027422091 0.06650498 0.042911176
0000e0 70 93 0d bd 08 2f 30 bd 5f 59 a1 3c 1d a5 1a 3d
       -0.034564435 -0.043013602 0.019695936 0.03775512
0000f0 89 49 56 3d a4 c6 bc 3c 79 e5 87 bb 0f 77 74 3d
       0.052316222 0.023043938 -0.0041472283 0.059683856
000100 84 1d 39 3d c3 b3 b9 bc b5 5f 6e bd c2 48 89 bd
       0.045194164 -0.022668725 -0.058196742 -0.067033306
000110 19 a7 69 bd 48 5a 14 bd bb b9 74 3d d9 ca 77 3d
       -0.057044122 -0.03621891 0.05974744 0.060496185
000120 c0 83 c9 3d f9 d7 83 3d 28 06 06 3d 5f fd 0c bd
       0.098395824 0.06437678 0.032720715 -0.03442132
000130 80 51 3b 3c 8f 66 8e bd ca e2 a1 3c 49 ce 43 bd
       0.011433005 -0.06953155 0.019761462 -0.04780415
000140 35 0f 78 bc 2c e0 05 bb ae b0 1a 3c 84 13 41 bd
       -0.015140344 -0.0020427806 0.009441538 -0.047137752
000150 af 8d b7 bc 85 12 b0 3b b9 80 43 3d 9e 05 f4 bc
       -0.022406427 0.0053733015 0.04773018 -0.029787835
000160 ec b1 ee bc 3b 17 73 bd 09 42 cf 3c 15 3f cb bc
       -0.029137574 -0.059348326 0.025300043 -0.024810353
000170 68 00 a6 bc 15 d2 18 3d 2f 38 30 3d dc b3 3f bc
       -0.020263866 0.037309725 0.04302233 -0.011700597
000180 90 1a 89 3d 75 01 63 bc 03 d1 de bc ff 49 ac bc
       0.066945195 -0.013855328 -0.027199274 -0.021031378
000190 ec cd cf bc e4 f6 2f 3d 29 d4 11 bd f1 8d 18 bd
       -0.025366746 0.042960063 -0.035602722 -0.03724474
0001a0 7b e5 05 bc 23 8b e2 3c fd 57 b7 bc 53 a7 14 3d
       -0.008172388 0.027654236 -0.022380823 0.036292385
0001b0 d6 a3 44 3d 35 1d 1c bd 67 91 8a 3d 0e ba d5 3b
       0.04800781 -0.03811379 0.067660145 0.0065224236
0001c0 c8 48 84 3c f0 00 05 3d a2 af 72 3d 2d 6a 33 bd
       0.016147986 0.032471597 0.059249528 -0.04380243
0001d0 e1 69 79 bd de cc 81 3d e8 b5 4e bd 87 2d 84 bd
       -0.06089199 0.063379034 -0.050466448 -0.06453996
0001e0 8a 72 83 3c b6 5e 82 3b 5d c1 cc bc 19 e6 4e 3a
       0.016045827 0.0039785756 -0.024994547 0.00078925636
0001f0 55 78 cc 3c 2d e6 82 bb 0b ad f6 bc a2 9b 8d 3d
       0.024959723 -0.0039947242 -0.03011181 0.0691445
000200 d6 87 41 3d d5 e4 a3 bd 05 ba 6f 3c 5c 41 d7 bd
       0.047248684 -0.080026306 0.014631753 -0.10510513
000210 27 96 14 be 86 27 d0 bd 0f 2b 12 3d 2c 8c 40 bd
       -0.14510404 -0.101637885 0.035685595 -0.04700868
000220 4c 2c 06 be d7 68 90 bd 14 d2 0e bd f2 b4 ad 3d
       -0.13102835 -0.070512466 -0.034868315 0.08481778
000230 60 d3 4a bd a9 a4 b5 bd 39 b2 62 3c 0c 92 33 3d
       -0.04951799 -0.08869297 0.013836437 0.043840453
000240 77 45 09 be 46 93 99 bd 8e d4 e0 3c 6c 59 2e 3d
       -0.13405405 -0.07498793 0.027445104 0.042565748
000250 7e 89 94 3d e7 4b 4a bd 0b 38 ff 3c 86 6a 57 3d
       0.07252787 -0.049388792 0.031154653 0.052591823
000260 64 e2 13 3e 3d d2 15 bd 00 96 82 3d 1c 18 95 bd
       0.1444183 -0.036577452 0.063762665 -0.07279989
000270 c2 98 07 be 71 cd 4a bd a8 e3 48 bd 7d a8 96 3d
       -0.13241866 -0.04951233 -0.049045235 0.07356355
000280 4f c9 ac bd f8 79 0e 3e 43 b3 9b bc aa 8b 1b ba
       -0.08436834 0.13913715 -0.019006377 -0.00059335923
000290 17 9b 52 bd 94 f5 35 bd 86 cb b8 3d ae e0 da 3c
       -0.051417436 -0.044423655 0.09023194 0.026718464
0002a0 59 62 57 bb 83 11 71 bd f4 51 31 3e 89 b8 ae bc
       -0.0032865016 -0.05885459 0.17316419 -0.021328228
0002b0 a7 50 18 bd 11 fb 8d bd 9d 8a 07 be 6d b4 9b 3d
       -0.03718629 -0.06932653 -0.1323647 0.07602773
0002c0 67 88 7e bd c7 35 69 bd 0e dc a2 bd a8 6c 3c 3d
       -0.062141802 -0.05693605 -0.07952128 0.04600206
0002d0 52 82 c4 3d 34 f5 52 3d 92 e8 c6 bd d1 ef d4 bc
       0.09595169 0.051503375 -0.09712328 -0.02599326
0002e0 bb 4d 28 bc 43 22 5b 3d 67 26 6b bd 7e c1 26 bd
       -0.010272439 0.05349947 -0.05740967 -0.040711872
0002f0 f5 25 08 bc 8e 4f af bd 9f 75 ec 3b cd 42 92 bd
       -0.008309831 -0.08560096 0.00721617 -0.071416475
000300 02 81 09 bd 54 11 d6 3d a8 ac 59 3d 04 91 35 3d
       -0.033570297 0.10452524 0.053143173 0.04432775
000310 5c 87 aa 3c 37 f3 66 bd 46 b3 5a bd 05 92 cd 3d
       0.020816498 -0.05638429 -0.053393625 0.10037617
000320 a8 56 17 ba a8 bf 23 bd 5f 7c 19 be 41 19 a5 3d
       -0.00057731057 -0.0399777 -0.1498885 0.080614574
000330 a2 a1 91 bd 3d b5 88 3d fb e8 2f 3d 5e a5 0f 3d
       -0.07110907 0.066751935 0.042946797 0.035069816
000340 eb 08 80 3d 2b f0 94 3d ee 2f ce bd e7 51 ab bc
       0.06251701 0.07272371 -0.100677356 -0.020913078
000350 7e fa ea 3d 81 0e 81 bd 44 c1 53 bd 6a eb 57 bd
       0.11473559 -0.063015945 -0.051697984 -0.052714743
000360 7f fb 74 3d bc c2 7a 3d 77 e3 8d bd 3d e9 7f 3d
       0.059810158 0.06122087 -0.06928151 0.062478293
000370 85 d9 a4 3c dc 47 1d 3d 83 3a 8d 3d 72 2e 80 bc
       0.020123253 0.03839861 0.06895926 -0.015647147
000380 df 6b 83 bd 90 6e 08 bc 51 fd cf 3d 63 33 29 3e
       -0.06417059 -0.008327141 0.10155738 0.16523509
000390 d2 bc d3 3c dd d8 6b bd 66 26 ba 3d 2c 9b 37 bd
       0.025846872 -0.057579864 0.09089355 -0.044825718
0003a0 d2 ff 85 bd cf c7 06 3d 94 fd 17 bc e3 e8 cb 3d
       -0.065429345 0.032905396 -0.009276766 0.09956529
0003b0 ff 0c 0e be f4 eb 41 ba 57 c6 0b be 45 2c 40 3d
       -0.13872145 -0.00073975255 -0.1364988 0.04691722
0003c0 e1 a8 2d be 21 f2 98 3c 6a 43 43 bd ce 1b 92 bd
       -0.16958953 0.018670144 -0.047671713 -0.071342096
0003d0 af 9b 9d bc db cc 96 bb 05 4b 85 3c fc 15 04 3e
       -0.019239275 -0.0046020574 0.016271124 0.12899011
0003e0 0a fd 1e bd cf 1e 16 3d db 66 af 3d 9e b6 cb bd
       -0.038815536 0.036650475 0.0856454 -0.09946941
0003f0 b5 e4 a1 bd 06 a8 07 3e ea 2c 08 bd 09 62 cb 3c
       -0.079049505 0.1324769 -0.03324596 0.02482702

cnn.0.module.bias f4 [128]
000000 39 e7 bd 3c 5a d5 2d bd 74 15 c5 bc e0 88 1e bd
       0.023181545 -0.042439796 -0.024058081 -0.038704753
000010 5a 24 2d bb cc 5d b7 bc 68 ff 42 3d 5e 02 cd bc
       -0.0026419372 -0.022383593 0.047606856 -0.025025543
000020 a4 fc af 3d 21 be 20 bc eb 57 15 3d 37 ea da bb
       0.08593109 -0.009810955 0.0364608 -0.0066807526
000030 40 29 f8 3b b0 08 bc 3d ab e7 b9 bc da 54 ec bb
       0.0075732768 0.091813445 -0.022693476 -0.0072122635
000040 64 47 25 3c 90 a5 72 bc b2 b2 02 3c 8d 63 15 bd
       0.010087822 -0.014809981 0.007977175 -0.036471892
000050 a5 fe cd bc eb 6d a9 bb e8 5b 19 3c 75 64 cd bc
       -0.025145838 -0.005170574 0.009360291 -0.025072316
000060 19 9e ab 3c ff bb 24 3c 6b 49 e5 3c 08 53 b0 bb
       0.02094941 0.010054587 0.02798911 -0.005380992
000070 f7 58 a9 bd 51 b9 b3 bc 07 3b ee bc d1 00 a1 bc
       -0.08268922 -0.021938952 -0.02908088 -0.01965371
000080 af 11 c7 3d 1d 5f 94 3d 34 5c 46 3d 93 08 76 3b
       0.0972017 0.07244704 0.048427776 0.0037541732
000090 61 90 43 3d 6b 58 23 bd 95 1c a2 bc 0e 68 19 bd
       0.047745112 -0.039879244 -0.01978902 -0.03745275
0000a0 86 d7 51 bd 01 79 41 bd a9 7c 7c 3d 3d 38 db 3c
       -0.05123093 -0.04723454 0.061642323 0.026760215
0000b0 60 94 a9 bc 37 b6 88 3c a2 ee 9b bd 64 9b 15 3c
       -0.020700634 0.01668845 -0.07613875 0.009131286
0000c0 e3 32 0d bb 83 1d 93 3d 47 2d 1c bd c1 7a ac bd
       -0.0021545223 0.07183363 -0.038129117 -0.08421851
0000d0 48 9c 71 3d 70 2a a9 3c ba 61 46 3d 56 33 bf bc
       0.058986932 0.020650119 0.048433043 -0.023339909
0000e0 56 8c 8a 3d 86 dc 5b 3d 4f 87 91 3d 94 1f 09 3d
       0.06765048 0.053677104 0.07105886 0.03347738
0000f0 db d2 bd bc ee 21 93 bc dc 8f 8d 3d 04 f8 87 bd
       -0.023171833 -0.017960515 0.069122046 -0.06639102
000100 e2 ea db bc bd c6 17 bd 5e 37 aa 3c 91 47 48 3d
       -0.0268454 -0.037054766 0.020778354 0.048896376
000110 d1 c1 57 bd 01 53 f0 bc ad f6 03 3d b4 5b 56 3d
       -0.052675072 -0.029336454 0.03221767 0.05233355
000120 17 d8 90 3d 86 5d 8c bc 62 85 9c bc 1e 3b 6a 3d
       0.07072466 -0.01713444 -0.01910657 0.057185285
000130 c5 2a 25 bc b3 9a 13 bd 8d 28 b3 3c e2 ee 1e bd
       -0.010080998 -0.036036205 0.021869922 -0.038802035
000140 d2 c3 aa bd f4 0c a0 3d 48 bc c8 3c f5 b2 06 bd
       -0.08338131 0.078149706 0.024503842 -0.03288551
000150 cd c8 06 3d 39 30 94 3d 9e ef 49 3d 44 cb 7a 3d
       0.032906342 0.0723576 0.049300782 0.061229005
000160 64 f3 0c 3d b5 92 b8 bd ad ba e3 bc 64 be 96 bd
       0.034411803 -0.09012357 -0.027798975 -0.07360533
000170 ea f0 3a bc b9 ec ab 3d e5 47 27 3d 1a ad 06 bd
       -0.011409977 0.08394761 0.04084005 -0.032879926
000180 9e 7f 8e bd 69 e1 ad 3d 8d 4b 87 3d aa 09 93 bd
       -0.06957935 0.08490259 0.06606207 -0.07179578
000190 d2 c5 ad bc 44 ac de bc 06 5c 6b bd ba 4b a6 3d
       -0.021212492 -0.027181752 -0.057460807 0.081199124
0001a0 31 8b 1e bd 0f 12 c3 3b b3 ae 94 3c 92 34 a1 3d
       -0.038706962 0.0059530805 0.01814971 0.07871355
0001b0 49 11 30 bd 82 74 93 3d bf 3a 07 bd 58 04 67 bc
       -0.042985234 0.071999565 -0.03301501 -0.014100157
0001c0 97 36 13 3d 3d a0 3f 3d d2 0a 40 3d 26 c7 29 3d
       0.035940733 0.046783675 0.04688532 0.04144969
0001d0 80 c8 c7 3c 87 dc 0f bc ce de 78 3d d3 20 84 3b
       0.024387598 -0.008780605 0.060759358 0.0040322333
0001e0 46 db 08 bd 31 45 f0 bb 16 16 fb bc ec 1d 88 3d
       -0.03341224 -0.007332467 -0.03065018 0.06646332
0001f0 ff ab 6b 3d f3 3c 9e bd b4 8a b9 3d 1d f8 c8 bd
       0.057537075 -0.07726469 0.09059659 -0.09812949

cnn.1.conv.0.depthwise.weightnet.net.0.linear.weight f4 [32, 2]
000000 ae 3c ad 3e cd 6a 6c be 63 dc 39 3d 31 21 1c 3f
       0.33835357 -0.23087616 0.045376193 0.60988146
000010 86 5c 0a 3e 16 61 e1 be 17 80 65 be 37 c6 37 be
       0.13511857 -0.44019383 -0.22412144 -0.17946707
000020 21 d4 a8 be db 50 2b bf a9 16 2c 3f d9 17 10 be
       -0.32974342 -0.6692025 0.67222077 -0.14071597
000030 73 d0 03 bf 97 c2 15 bf f7 2a 12 bf eb 97 69 be
       -0.51489943 -0.58500046 -0.5709681 -0.22811858
000040 d8 93 d5 3d fd 61 34 bf 88 9a 9a 3e 6d e9 05 bf
       0.104285896 -0.7046202 0.30196023 -0.52309304
000050 19 17 cd be 84 92 14 bf 99 93 1a 3f 93 ac 29 bf
       -0.40056685 -0.58036065 0.60381466 -0.6627895
000060 7c f5 d5 be 3e 86 14 bf 8a 30 0c 3f 2e 1b 39 3f
       -0.41788852 -0.5801734 0.54761565 0.723071
000070 bf 13 88 be 5d 72 62 be 39 07 b3 3d ae 57 98 3e
       -0.26577565 -0.22113939 0.08741612 0.29754394
000080 c1 96 7a be d4 fa 23 3f ce 8f 93 3e 64 a1 38 bf
       -0.2447157 0.6405461 0.28820652 -0.7212126
000090 0a ae 0d 3e d1 81 89 be 65 be 9e ba 0a 6d a5 3e
       0.13835922 -0.26856855 -0.0012111185 0.32309753
0000a0 11 b6 13 3f d7 3c 88 3d f8 df 1d bf ce 78 29 be
       0.57699686 0.06652229 -0.61669874 -0.1654999
0000b0 95 f9 c9 be 5a d4 8f be 0f 91 01 bf aa df 5e 3e
       -0.39448228 -0.280917 -0.50611967 0.21765009
0000c0 d2 4a c3 be 67 cc 2b bf 2f 6c 94 3e 70 d8 2b 3f
       -0.3814302 -0.6710877 0.28988788 0.6712713
0000d0 23 7b 23 bf 58 24 18 bf 75 85 34 3f 2c ae b6 be
       -0.63859767 -0.59430456 0.7051614 -0.35679758
0000e0 5e 5b da be 3a 23 92 3e 54 b0 fc be 5a 21 9c be
       -0.42647833 0.285425 -0.49353278 -0.30494195
0000f0 ca 38 a6 3e 79 e5 91 3e 6d e1 94 3d 75 34 24 bf
       0.32465202 0.28495386 0.07269559 -0.64142543
