weights/1dreg/matern/matern_convcnp.pth (torch_old, 29333 bytes, 12 tensors)

pre_mlp.0.weight f4 [8, 3]
000000 5f 40 94 bb 05 1e a6 3e a7 18 26 3f 9c b8 17 3c
       -0.004524275 0.32444778 0.64881366 0.009260323
000010 04 24 29 be cf e4 5b 3f 3c 16 27 3b f8 79 ec bf
       -0.16517645 0.8589601 0.002549543 -1.8474722
000020 88 e5 ab bd 55 d2 83 39 8a 53 c7 3d 1e 2b 73 3f
       -0.08393389 0.00025142977 0.09732731 0.94987667
000030 e2 52 65 bb 02 82 22 bf ab cd 22 3f b7 70 bb 3b
       -0.003499203 -0.63479626 0.63595074 0.0057202238
000040 b5 0b 51 bc c3 fb 5b bf 36 1a d8 3a 80 72 97 3e
       -0.012759139 -0.8593103 0.0016487304 0.29579544
000050 f4 ff 7a bf ef 6f 50 bc ce 9a 98 be da fd 17 bf
       -0.98046803 -0.012722 -0.29805607 -0.5937172

pre_mlp.0.bias f4 [8]
000000 a0 c7 d8 be b3 1b b7 bd f7 c4 00 bf 6e fa 18 be
       -0.42339802 -0.0894083 -0.50300545 -0.14939281
000010 10 7a b6 be 51 19 02 be 3d 22 ee bd 34 d5 e0 bd
       -0.3564 -0.1270497 -0.11627624 -0.10978165

cnn.0.weight f4 [16, 8, 5]
000000 d6 61 ce bd 4a cc 97 bd d7 31 18 3e 3a 28 ba 3d
       -0.100772545 -0.07412012 0.14862762 0.09089704
000010 8d c1 f5 3a c0 35 8a be d3 08 82 be 2f 3c 8c be
       0.0018749699 -0.26994133 -0.25397357 -0.27389666
000020 f3 23 84 bd 16 86 bc be ec 8e b1 bd a6 56 28 bc
       -0.06452169 -0.3682105 -0.08669838 -0.010274565
000030 6e 41 81 3e 29 64 0b bd 58 08 c2 3d 6c c7 5c be
       0.2524523 -0.034031067 0.09474248 -0.21560448
000040 99 18 a3 bc ab fb a7 be fd 99 5e be aa 43 99 be
       -0.01990919 -0.32809195 -0.2173843 -0.29934436
000050 39 1b 57 bd 5f 0d 74 be c9 b3 ca be 12 21 4d bc
       -0.052516196 -0.23833226 -0.3959029 -0.012520092
000060 1c 63 b3 be 9e a1 b2 bd e5 18 0f 3e 9b 41 fb 3d
       -0.35036552 -0.08722232 0.1397434 0.122683726
000070 82 30 83 3e 3a 47 51 3e 5f c0 07 3e e1 d7 d7 3d
       0.25622946 0.20437327 0.13256977 0.105392225
000080 ab 79 d9 3c bb 60 c9 3d 5e dc 8d 3d 1e 53 80 bd
       0.026547274 0.09832903 0.06926797 -0.06265853
000090 51 82 27 be 36 a7 53 bd 02 e5 f8 3d dc f6 14 3e
       -0.16358306 -0.051673137 0.12153055 0.14547294
0000a0 0e e3 75 bd d4 f7 63 be 6f 0d 56 be 1c c1 bd 3d
       -0.06003099 -0.22262508 -0.20903562 0.09265348
0000b0 c5 03 96 bd 03 4a 39 be 33 6d 5e 3e 5a 46 3a be
       -0.07324938 -0.1809464 0.21721344 -0.181909
0000c0 cc e1 13 be fd 20 77 3c e7 36 f6 3a ee 7e 22 3d
       -0.14441603 0.015083549 0.0018784673 0.03967183
0000d0 89 c6 62 be c1 6d 36 be a0 3f c6 bc 79 42 3a be
       -0.22146048 -0.17815305 -0.02420026 -0.1818942
0000e0 45 6b 5b be 34 39 10 be b9 88 5a be 4c ab 17 3d
       -0.21427639 -0.14084321 -0.21341218 0.037028596
0000f0 a6 8b e9 bc 83 4d d9 bd 7a 0c 21 3e a5 67 54 bd
       -0.028508972 -0.10610487 0.15727416 -0.051856656
000100 67 74 e1 bd 01 15 9d 3d bd 75 82 bd c9 51 39 3e
       -0.1100853 0.07670022 -0.06370113 0.18097605
000110 d1 6d 12 3e 42 fa dd bd b3 90 59 bd 07 34 c6 bd
       0.14299704 -0.108387485 -0.05311651 -0.09677892
000120 38 56 01 3d 66 b4 4f be 02 da 14 be 66 05 24 3e
       0.031576365 -0.2028366 -0.14536288 0.16017684
000130 6e 9a 42 bc 55 66 2c be 8d 22 07 bd bc 4b 1d 3e
       -0.011877639 -0.16835912 -0.032991935 0.15360922
000140 91 bf 06 bf 8c 35 3f be dc 0b 0a be fc 59 27 bd
       -0.5263606 -0.1867277 -0.13481086 -0.0408573
000150 33 64 08 bd cd b1 d3 be b6 14 46 bf 2d e9 a3 be
       -0.033298682 -0.4134659 -0.7737535 -0.32013837
000160 e5 fa 2a bf c6 90 a2 be f5 f9 09 3d e8 74 d7 3d
       -0.66789085 -0.31751078 0.033685643 0.10520345
000170 3f a0 1b be 09 2d c4 3b 97 83 3c 3e c5 ca b0 be
       -0.15197848 0.005986814 0.18409573 -0.345297
000180 09 06 ff be 70 c8 2c be 6c 06 ed bd ce a0 fa be
       -0.49809292 -0.16873336 -0.115734905 -0.4895081
000190 80 fc ed be 25 64 ef be 4f e9 09 bf 27 9b 1d bf
       -0.46481705 -0.46756092 -0.53871626 -0.6156487
0001a0 ee 6a d8 be 82 23 58 be 41 0e 99 3d f8 89 9d 3e
       -0.4226908 -0.21107295 0.07473422 0.30769324
0001b0 a1 9f 90 3e 54 0a 47 3e 77 08 a3 3d da 37 6f bd
       0.28246787 0.19437534 0.07960599 -0.058402874
0001c0 a5 55 01 3e e2 e9 db bd ce b1 09 bd fe 33 a4 bd
       0.12630327 -0.10737969 -0.033616833 -0.08017729
0001d0 71 51 ea bd 55 b1 f4 bc b9 61 93 3e 80 76 8c 3e
       -0.11441315 -0.029869715 0.28785494 0.27434158
0001e0 17 8c bc 3c 02 91 b6 bd 10 b8 6b 3e 80 7f 9f 3e
       0.023016019 -0.08914377 0.23019433 0.31151962
0001f0 2c 76 25 bd ee a3 bc bd 48 27 9c bc 50 e3 92 3d
       -0.0403959 -0.092109546 -0.0190617 0.07172263
000200 72 ab d1 3d b7 41 8c 3e ea 4c 0d be 73 ca 89 be
       0.10237779 0.27393886 -0.13798872 -0.2691227
000210 93 aa ab 3e 69 85 44 3e 52 8c b7 bd 2f 3e b0 3b
       0.33528575 0.19191517 -0.08962311 0.0053785066
000220 96 6e 16 3e ee 79 55 bc e7 f8 43 3d 1c 8d 49 3d
       0.14690623 -0.013029559 0.047844794 0.049206838
000230 16 da a1 bd f5 ba 95 be 64 59 0f 3e e9 cb 8c 3e
       -0.07902925 -0.292442 0.13998944 0.2749932
000240 57 af c4 3c d8 42 76 be 18 ba 22 bf 06 00 6d be
       0.02400939 -0.24048936 -0.63565207 -0.2314454
000250 a0 c1 a1 be 93 88 4e be 15 7b 9d be 44 31 e5 be
       -0.31593037 -0.20169286 -0.30757967 -0.4476415
000260 ca 84 bb be ac 9a cd be 7a 92 8f be d1 70 09 bf
       -0.36624748 -0.40157068 -0.2804144 -0.5368777
000270 a2 6d 85 be e3 ed 77 3d ae de 95 be 1a d4 d9 bd
       -0.26060206 0.0605296 -0.29271454 -0.10636158
000280 7d f7 51 3e 9b 78 4f bc 67 f4 46 3e 8e 5b 1f bf
       0.20504566 -0.012663032 0.1942917 -0.62249076
000290 df e3 b2 be 93 4f ce 3c e5 ae 6e 3e ee 68 74 3e
       -0.34939477 0.025184428 0.23308904 0.23868152
0002a0 77 c6 40 bf 5d 98 c5 be 61 60 e0 3a e2 ec 80 be
       -0.75302833 -0.38592806 0.0017118567 -0.25180727
0002b0 fc af fb 3c b7 94 33 be c5 06 0b be b8 e1 08 3e
       0.030723564 -0.17537199 -0.13576801 0.13367355
0002c0 03 3d d4 3d 0b 2e 18 3d 1c 03 77 bf 54 25 ea be
       0.103631996 0.037153285 -0.9648912 -0.45731604
0002d0 1e 3a 98 3e 9d 47 64 3e 61 0e 4d 3e 81 c7 00 bf
       0.2973184 0.22292943 0.20025016 -0.5030442
0002e0 89 6e 8b be b5 c7 85 bd d1 4c 1a 3e aa ba 46 3d
       -0.2723277 -0.06532232 0.15068366 0.04851786
0002f0 66 14 b9 bc 63 96 0d be 8e 99 ac 3b 7c cc 7d 3e
       -0.022592735 -0.13826899 0.0052673286 0.24785036
000300 a8 60 8b 3e 5c 0e 8d bd 34 08 e2 be 37 61 2c bd
       0.2722218 -0.068875045 -0.44146883 -0.0420849
000310 a1 53 cb 3d 21 b2 78 3d d4 d0 28 3d 76 49 4a be
       0.0992806 0.060716752 0.04121478 -0.19754586
000320 10 89 5d 3d 97 de 26 3e 54 e6 91 3d 21 e2 14 3e
       0.05408579 0.16295849 0.0712401 0.14539386
000330 53 2c 31 be 25 5c 72 3e f4 3b 3e 3e f2 8c 35 3e
       -0.17302065 0.23667963 0.18577558 0.17729548
000340 cc d4 26 3e fb 03 5d be f5 10 2c 3b 56 a6 eb bd
       0.16292113 -0.2158355 0.0026255224 -0.115063354
000350 7a 12 64 be a1 8d 6b be 18 77 1e be 8c 88 22 be
       -0.22272673 -0.23003246 -0.15475118 -0.15872401
000360 e9 af 81 3d 0e 6f 02 ba f6 87 9f bd 63 44 68 3d
       0.0633238 -0.0004975655 -0.07789604 0.056705844
000370 75 89 7f bd ab 02 57 be e9 20 92 3c bb 1f 44 be
       -0.06238695 -0.20997111 0.017837958 -0.19152729
000380 f0 54 2a be 5a 4c 12 3d 8b 01 88 be 51 35 4b be
       -0.16633964 0.035717346 -0.26563677 -0.19844557
000390 bd 9f 90 3d f6 ef d6 3d 96 49 45 3d 45 af 6f bd
       0.07061718 0.10494988 0.04816588 -0.05851676
0003a0 e5 59 46 3d d5 47 d9 3d 69 c9 3e 3e 43 32 72 3e
       0.048425574 0.10609404 0.1863152 0.23651986
0003b0 4b 2f 0a 3d 17 bc 7f be b2 b8 95 3d 88 86 14 3e
       0.03373651 -0.24974094 0.073106185 0.14504445
0003c0 33 90 79 bf 9e a5 92 bd 19 ea e1 3d e8 99 8e 3e
       -0.97485656 -0.07160495 0.11030979 0.27851796
0003d0 ec c6 15 bd 8a 07 79 bf f0 00 b4 be 65 42 2d 3e
       -0.03656666 -0.9727713 -0.35156965 0.16919859
0003e0 6f f7 25 be 95 45 9a 3d fc 14 71 be 9f e2 30 be
       -0.1620767 0.07532803 -0.23543161 -0.17273949
0003f0 b4 fd cb bd 2d 48 2b bc ce 96 28 3d fb b6 85 bf
       -0.099604994 -0.01045422 0.041159444 -1.0446466

cnn.0.bias f4 [16]
000000 a7 57 82 3c 29 cd 30 bc 6d 7f d1 3c a9 58 6d 3c
       0.015910937 -0.0107911015 0.025573457 0.01448647
000010 21 a1 df 3d 09 78 54 bd 1f 3e 8f 3d a8 7b 0d bd
       0.10919405 -0.051872287 0.069942705 -0.034541756
000020 39 25 4e b7 1b 60 a2 3c b7 99 da bc 6e bd 41 3c
       -1.2287223e-05 0.019821217 -0.026684625 0.011824949
000030 65 ba 99 3d bf 3d 01 bd 43 ee 09 bc 44 e3 3b bd
       0.07506255 -0.031553026 -0.008418622 -0.045871034

cnn.2.weight f4 [32, 16, 5]
000000 e6 3a 08 bd d7 28 23 3e 8c 35 56 3e 10 49 7d bd
       -0.033259295 0.15933548 0.20918864 -0.061837256
000010 7e be 6a be 7e c6 90 3d 67 86 22 3e 0d 3d 42 3d
       -0.2292423 0.070691094 0.15871583 0.047421504
000020 78 51 21 3e 72 6f fa 3d b8 0b 92 3e d7 5d 2b 3f
       0.15753734 0.12228288 0.28524566 0.66940063
000030 38 92 2c be 93 a0 83 be df e0 89 be e7 ec ea 3d
       -0.16852653 -0.25708446 -0.26929376 0.11470967
000040 24 21 4e 3f 49 3d 16 3e 9a 15 c4 3e cd 23 30 3f
       0.8051932 0.14671816 0.3829773 0.6880463
000050 9e bd 3a 3e 9b 26 9a 3e 0b ac 10 3e a5 52 c2 3e
       0.18236396 0.3010758 0.14128129 0.37953678
000060 4a 24 08 3e 4a 39 0a be 27 25 8f be 12 05 93 bd
       0.13295093 -0.13498417 -0.27958032 -0.071787015
000070 24 84 a1 bd 89 69 e2 3e bb 00 1b bf 96 a0 71 3e
       -0.07886532 0.44221142 -0.6054799 0.23596415
000080 ae 79 e9 3e d2 99 c5 be 55 9d 9f 3e 50 50 97 bd
       0.45600647 -0.38593918 0.31174722 -0.07388365
000090 97 56 c9 bd b1 2d c8 bd 08 e9 3b 3e 3d d9 bc 3d
       -0.09830969 -0.0977434 0.18350613 0.092211224
0000a0 9d fc 62 3e 8a e3 d7 bd e0 d7 29 3f 85 a1 8b bd
       0.22166677 -0.105414465 0.66345024 -0.06817917
0000b0 32 c2 60 bb 4a 65 9e 3d 63 44 0f 3e 6e 63 51 3e
       -0.0034295437 0.07734163 0.13990931 0.20448086
0000c0 c2 fd d7 3d ce fb 82 3d 7a 5e e6 bd f7 5a ec bd
       0.10546447 0.06395684 -0.11248489 -0.11540788
0000d0 5e 07 16 be be 90 a4 bd 85 ad eb 3d a3 71 d7 bd
       -0.14651248 -0.0803542 0.115077056 -0.10519721
0000e0 10 d3 0c 3e 0b 4e 69 bd aa ca fb bd c8 92 ca bd
       0.13752389 -0.056959193 -0.122945145 -0.098912776
0000f0 9b 9a ae be d5 55 3b be 5c f3 83 3e 2f 51 40 bd
       -0.3410233 -0.18294461 0.25771606 -0.046952423
000100 53 4e c1 bc 82 f2 ae 3c d2 fc 81 bc 33 74 f3 3d
       -0.023596918 0.021355871 -0.015867624 0.118873976
000110 b4 17 16 3e f8 b0 e4 bd 21 23 71 be 12 e0 a7 bd
       0.1465748 -0.111665666 -0.23548557 -0.08197035
000120 2a ee 63 be df 16 81 3d ac b9 ea 3d 40 f2 2c 3e
       -0.22258821 0.063031904 0.11461195 0.16889286
000130 e9 5d b9 bd df b8 9e be c0 86 34 3e 00 b0 2e 3e
       -0.09051115 -0.3100042 0.17629528 0.17059326
000140 01 6b 3d be a9 3c 4c bf aa fa 3f bf f3 26 df be
       -0.1849785 -0.7978006 -0.7499186 -0.43584403
000150 a1 2a 4a bf f4 3b bf 3d 98 bf d4 3d 1e 2f 9c bd
       -0.78971297 0.09337607 0.10388106 -0.076261744
000160 7f f7 4e 3e 94 f9 b8 3c 1d 1b 83 3d b7 ff 9e be
       0.202116 0.022579946 0.06401656 -0.3105447
000170 71 f3 6f be e1 6f 80 be 6e ad 15 be 35 57 0b 3e
       -0.2343271 -0.25085357 -0.1461694 0.13607486
000180 2f 25 35 3d 57 8b f4 3c 8f b5 0c be ee c0 cf 3d
       0.044224914 0.029851599 -0.13741134 0.1014422
000190 a6 89 31 be 78 96 d5 be 88 8e 44 bd a6 2b 45 be
       -0.17337665 -0.4171636 -0.04798749 -0.19254932
0001a0 b8 87 5b be 9d 77 47 be 4c f1 7b 3e 17 17 82 3e
       -0.21438491 -0.19479223 0.24603766 0.2540824
0001b0 12 0a 67 bc 6a ae 37 be 38 1a f0 3d 74 69 4b be
       -0.014101522 -0.17937627 0.11723751 -0.19864446
0001c0 1f 9f f9 be 55 97 d8 3d c0 6a 2d be 9b f5 19 3e
       -0.48754212 0.10575739 -0.16935253 0.15035097
0001d0 6f 37 3e 3e e0 e1 24 3a ac 0b f8 3a 03 37 75 bb
       0.18575834 0.00062897615 0.0018924377 -0.0037416823
0001e0 01 55 67 3e 88 a2 a5 be aa 2d b7 be e0 40 4b be
       0.2259102 -0.32350564 -0.35777026 -0.19848967
0001f0 88 d8 6d 3c 24 b2 60 bf 01 71 e4 be 41 34 a6 be
       0.014516957 -0.8777182 -0.44617465 -0.32461742
000200 3e 28 51 bf 4e 50 5c 3e 8e 98 40 3d f7 d0 dd 3c
       -0.8170203 0.21515009 0.047020487 0.027077181
000210 56 a8 76 bd ec 0a 0f 3d 97 62 00 bd 9c 48 62 bf
       -0.06021913 0.034922525 -0.031344023 -0.88392043
000220 69 16 2b bf 3c 4e 9c be 49 4f 60 be 32 15 10 3e
       -0.6683107 -0.30528438 -0.21905245 0.14070585
000230 4a 98 14 be 03 97 14 bf 40 b7 6d bf a8 95 08 bf
       -0.14511219 -0.58042926 -0.9285774 -0.5335336
000240 74 e6 47 bf 12 3f b9 3c 87 47 93 3c 18 74 b6 bc
       -0.7808602 0.022613082 0.017978443 -0.022272155
000250 a7 7a 80 3d e9 c6 68 3d 89 61 70 3e 69 32 66 3e
       0.06273394 0.05683032 0.23474707 0.22480167
000260 ae 67 6a bd 8c ce 10 bb 21 77 d2 be 24 2d d7 3d
       -0.057227783 -0.0022095768 -0.41106513 0.10506657
000270 d5 90 9d be 38 1c a9 be 17 6b 07 be e9 9f 9f 3d
       -0.3077456 -0.33029342 -0.13224445 0.07794172
000280 3a 2d 13 3c 35 9c 02 3e 19 61 26 3d 39 6a ff bd
       0.008982951 0.12754901 0.040619943 -0.12471432
000290 17 86 93 bb 66 13 2a 3d 18 f7 30 bd ea f1 8b bd
       -0.0045020687 0.041522406 -0.043204397 -0.06833251
0002a0 ec 75 96 bd 86 ad 24 bd da 2f 7d 3e 61 1c 88 bc
       -0.073467106 -0.040204547 0.24725285 -0.016615095
0002b0 3a 1a 14 be 17 fb d0 bd 56 eb b4 bd 89 f1 3e 3d
       -0.1446313 -0.102041416 -0.08833949 0.046617065
0002c0 1c 68 75 3d c2 a8 20 be eb b3 0b 3e ec f1 e7 bd
       0.05991374 -0.15689376 0.13642852 -0.1132544
0002d0 e9 39 e9 be b6 c3 14 be e5 12 04 3e 83 77 fa 3d
       -0.45551994 -0.14527783 0.12897833 0.12229826
0002e0 28 35 be 3b 09 0c 35 3e 46 d4 77 bd 69 7e 09 be
       0.0058046766 0.17680372 -0.060505174 -0.13427128
0002f0 ae f7 3e 3e 8f e0 85 3a 93 6a 82 3e 7a 36 c6 be
       0.1864917 0.0010214018 0.25471935 -0.38713437
000300 aa 07 50 be 95 36 81 bd c9 3f 63 3e 31 a9 18 3e
       -0.20315424 -0.06309239 0.22192301 0.14908291
000310 81 63 d5 3c f8 b0 33 3c 44 6b 24 be bc 63 11 be
       0.026048424 0.010967486 -0.16056544 -0.14198202
000320 74 0c 49 3d c9 9f 97 be b2 f1 fd bc 40 b6 59 3e
       0.04908414 -0.29614094 -0.030999038 0.21260929
000330 e2 5e 15 be f5 41 3b 3e ee 9a c1 3d 82 50 4c 3d
       -0.14586976 0.1828688 0.094533786 0.049881466
000340 b8 de 83 be 33 59 10 be 69 96 cd bc 20 f0 68 bd
       -0.25755858 -0.14096527 -0.025096135 -0.056869626
000350 09 c3 a0 3c e2 a9 14 3e 11 91 cb bd d9 9d a3 3e
       0.01962425 0.1451793 -0.099397786 0.31956366
000360 99 c5 86 3e 88 b0 53 3c a6 b6 e4 bd df 29 d2 be
       0.2632263 0.012920506 -0.1116765 -0.4104757
000370 3d ef 40 3e 80 1d e8 3c 56 bb 4b bd 62 db ea bd
       0.18841262 0.02833438 -0.049739204 -0.11467625
000380 25 5b cd bd 45 23 08 3e 65 c2 a7 bd 38 06 c0 bd
       -0.1002715 0.13294704 -0.08191375 -0.09376186
000390 72 6d ab ba 0a 7d 22 3e 43 52 91 be ef ca 47 be
       -0.0013078882 0.15868011 -0.28383073 -0.19511007
0003a0 11 5e 3e 3d 20 e3 95 3b 21 14 d0 3e 15 8a 03 be
       0.046476427 0.0045741946 0.40640357 -0.12845643
0003b0 37 06 b4 3c 55 c4 ce bc 0d 7d c0 3d d5 67 9d bd
       0.02197562 -0.025240103 0.093988515 -0.0768582
0003c0 fd c7 e8 3c 49 aa 11 be d5 63 01 be be b2 8e 3e
       0.028415674 -0.14225115 -0.12635739 0.27870744
0003d0 39 12 43 be 57 df 06 3e b1 db 12 3e 4c 9a c1 bd
       -0.1904992 0.13171135 0.14341618 -0.09453258
0003e0 86 98 4b 3c 6e be ba 3d af f9 a2 bc a9 ba 0c bb
       0.012426501 0.09118353 -0.019894449 -0.0021473563
0003f0 b9 ed 56 3d e0 8f d3 3d 69 96 8b 3d 31 64 13 3e
       0.052472804 0.10330176 0.06815798 0.14393689

cnn.2.bias f4 [32]
000000 65 53 5a be 02 6e 16 3d e6 d4 96 3d f5 71 64 bd
       -0.21320875 0.036726005 0.07364826 -0.05577274
000010 34 63 22 3d 2f c4 37 bd 36 0f e8 bc 87 f9 94 be
       0.03964539 -0.04486483 -0.028327566 -0.29096624
000020 b6 95 3f bc ff 20 0a be 1d 78 fd bd 2c f2 1b be
       -0.011693409 -0.1348915 -0.123764254 -0.152291
000030 62 df 83 bc d7 70 1a 39 8e 5d 6c bd 3b 17 8a be
       -0.016097728 0.0001472862 -0.05770641 -0.26970848
000040 b3 08 7e be ac 2a 57 bd 0e 7f 98 bd 53 9e b9 3c
       -0.24808006 -0.05253093 -0.07446109 0.022658503
000050 f8 4d 6d be 2d d2 99 bc f9 e8 6d bd 6c ad 2a be
       -0.23174274 -0.018776977 -0.05808351 -0.16667718
000060 68 37 75 bd fc 54 13 be 45 2c 23 3b 6f 32 1a be
       -0.059867293 -0.14387888 0.0024898213 -0.15058301
000070 07 af b8 3d de c9 51 be 76 42 8d be fd ee b4 be
       0.09017759 -0.20487162 -0.27589768 -0.35338584

cnn.4.weight f4 [16, 32, 5]
000000 31 a9 73 bd f6 12 5b 3e ab 01 d5 3e f9 46 a8 bd
       -0.059487525 0.21393952 0.41602835 -0.08216662
000010 97 51 22 3e 7d 82 33 bd 38 c5 12 3f 42 15 a5 3d
       0.15851437 -0.043825615 0.5733218 0.08060695
000020 dc 26 8e 3e c7 a5 cd 3e d6 43 91 bd 2e 57 e7 3c
       0.27764022 0.4016554 -0.07093017 0.028239813
000030 21 80 59 3d 66 74 7b 3d f0 1a 36 bf e1 ea b5 3d
       0.05310071 0.061390303 -0.71134853 0.0888269
000040 0c 89 39 3f 83 70 d7 bd 50 69 59 be 71 1d 1a bf
       0.7247474 -0.10519507 -0.2123158 -0.60201174
000050 03 d3 e5 3d 44 8c 58 3e 18 34 98 be 24 4e e6 be
       0.11221888 0.21147257 -0.29727244 -0.44981492
000060 c8 15 8e bc f3 22 b3 be 47 b0 a8 be 2e 7c 7c 3e
       -0.01734437 -0.34987602 -0.3294699 0.24656746
000070 16 16 0c 3e 47 b5 c3 3e 2a 2a a5 3d 6d 1a 2c 3f
       0.136803 0.3822424 0.08064683 0.6722782
000080 b4 1b a0 bd 04 e3 ee be e7 86 9c be 3d b2 91 bd
       -0.07817784 -0.46657574 -0.30571672 -0.071140744
000090 e7 4a 7b 3c 0d 7a 10 3e f4 5b ae bc 5f 70 69 bd
       0.015337682 0.14109059 -0.021284081 -0.05699193
0000a0 5a 60 c1 3d a7 b6 14 3e 56 ed 2f 3e 38 d8 31 3e
       0.09442206 0.14522801 0.1718038 0.17367637
0000b0 86 c3 76 be 8b 1d 3d bf b6 50 38 be 8a 43 53 3e
       -0.24098024 -0.73873204 -0.17999539 0.20631233
0000c0 01 7e e2 bd fe b4 13 3d 1c b3 5b be 2e ff 6d be
       -0.110591896 0.03606128 -0.21455044 -0.23241875
0000d0 d7 b5 ac bc d0 8b 0d bf 50 7a 99 bd 8d a4 61 be
       -0.021082802 -0.5529146 -0.074940324 -0.22035427
0000e0 d4 b9 cf be 0f ca cc be 35 d7 36 be 6c a7 f3 3d
       -0.40571463 -0.39997908 -0.17855532 0.118971676
0000f0 05 c9 3f be 75 47 70 bd b5 8d b0 3c 2b ba 41 bd
       -0.18729027 -0.058661897 0.021551946 -0.047296684
000100 15 26 4c 3d 23 e9 1a be 1d 50 ca bd 4f 0d bf be
       0.049841005 -0.15127997 -0.09878562 -0.3731484
000110 8f a0 50 bd ac 16 e4 bd 8e 25 13 be af a9 81 be
       -0.05093437 -0.11137137 -0.14369795 -0.2532477
000120 ae 32 2f 3d 54 b4 94 3d 91 25 f7 3d 11 47 f2 be
       0.04277294 0.07260957 0.12067712 -0.47319844
000130 fd 2b 0c bf 3e ab c5 be bd 7a b1 bd b5 c5 0a be
       -0.5475462 -0.3860721 -0.086659886 -0.13551982
000140 62 ce ba 3e 0b 3a 00 3f 8b f3 31 3e 8c 66 a1 3c
       0.36485583 0.50088567 0.1737806 0.019702218
000150 49 8b 1a bf 77 65 1c be fc eb ff 3c 92 6b 87 3c
       -0.6036878 -0.15273081 0.031240456 0.016530786
000160 d6 df 3e bd cc 21 6d bd 16 54 d1 bd ca c5 cb bd
       -0.046600185 -0.05789356 -0.10221116 -0.09949835
000170 d7 da 3b bf d9 50 16 bf cc 75 e2 bd 52 a3 50 3e
       -0.733808 -0.58717114 -0.11057624 0.20374802
000180 4b a0 20 3f 21 52 c1 3e 24 b8 c0 be 60 02 aa bf
       0.6274459 0.37757972 -0.37640488 -1.3281975
000190 c9 4a d3 be 3b 49 59 bf 48 35 38 3c 73 6d 3a 3f
       -0.41267994 -0.84877366 0.011243172 0.72823256
0001a0 5d 67 b9 be 69 e9 2e be 6a 23 a4 bd fa 5b f9 be
       -0.36211672 -0.17081226 -0.08014567 -0.48702985
0001b0 ca ba e5 be fe c5 5c be 94 ed 62 be 9e d0 c7 be
       -0.4486907 -0.21559903 -0.22160941 -0.3902635
0001c0 fb 71 e5 be 1b 49 0d 3d fa 72 8c 3e 48 2e 4a bd
       -0.44813523 0.034493547 0.2743147 -0.049360543
0001d0 68 7f c7 bd c9 2c a9 bd 5e cc c8 bd 05 21 6e bd
       -0.09741098 -0.08260495 -0.09804605 -0.05813696
0001e0 ae f5 89 3e 6f 09 35 3f ee d5 98 3d e6 55 3b 3e
       0.2694525 0.7071752 0.07462679 0.18294486
0001f0 6f 5d 88 3e df a4 53 3e 5b 2a 3b bf be 8c a3 bf
       0.26633784 0.20668362 -0.73111504 -1.2777326
000200 e5 b3 1a bf b0 8a 5f bf 6a 09 c7 be 13 63 3d be
       -0.6043075 -0.87320995 -0.3887437 -0.18494825
000210 cc a1 3f bd 9d a6 85 bd 71 76 9b 3d 2f 22 15 be
       -0.04678516 -0.065259196 0.0759095 -0.14563821
000220 cf ef b6 3e 1f 7e 41 be fd 5d 21 bf 77 4a 42 bf
       0.35729834 -0.18895768 -0.6303404 -0.75894874
000230 33 10 1d be 82 f5 ff 3d 1c b7 d7 bd 97 78 98 3d
       -0.15338211 0.12497999 -0.10532972 0.07444876
000240 98 ca 57 3e a6 d9 6a 3e a7 71 03 bf bc b2 54 be
       0.21073377 0.22934589 -0.51345295 -0.20771307
000250 3c 5b 96 3e 45 58 5f be 35 b7 2a 3d 76 b7 3e bf
       0.2936648 -0.21811016 0.041678626 -0.7449869
000260 83 30 0d bf de 58 96 bd 83 2c 45 3e 51 4b 40 bf
       -0.5515215 -0.07341169 0.19255261 -0.75114924
000270 07 50 b1 be fc 17 91 3c 9d 59 fc 3d 12 98 35 3e
       -0.3463137 0.017711632 0.1232178 0.17733791
000280 dd 3c c1 3d 3d e8 2e be 9c 2c 31 3d 4a ab 48 bd
       0.09435437 -0.1708078 0.043255433 -0.04899148
000290 cc 7f 56 3d 58 15 30 bd 5c fd 94 3d ec 03 8b bd
       0.05236797 -0.042989105 0.07274887 -0.067878574
0002a0 0d 73 a5 3d 86 0a d6 bd 8f c3 35 3d 2b 2d 1b bd
       0.08078585 -0.10451226 0.044375952 -0.037884872
0002b0 3c d8 01 3d ec 35 18 be 6e 3f f9 3d dd f3 43 be
       0.031700358 -0.1486432 0.121703014 -0.19135995
0002c0 72 ea 58 3d b1 57 07 3e 15 f3 e0 3d f2 5d 08 be
       0.05295796 0.13217045 0.10983864 -0.13317087
0002d0 af ec 0e bd 0a 9f 4c 3d 45 7d f4 3d c1 70 63 bd
       -0.034893688 0.04995636 0.11937956 -0.055527452
0002e0 74 d6 57 3d 14 89 7d 3d 80 05 d9 3d ea 7d 20 be
       0.052694753 0.061898306 0.10596752 -0.15673032
0002f0 3f a7 48 3d be df 8a 3d f1 d0 bd bd 4d ef 00 3d
       0.048987623 0.06780957 -0.09268368 0.031478215
000300 32 8e 89 3b e1 27 49 bc 8a 03 94 3c f3 ec ba bc
       0.004197859 -0.012277574 0.018068094 -0.022818064
000310 8d 1a b2 bc 27 e2 b2 bd 1b 65 34 bd 15 43 3c be
       -0.021741176 -0.087345414 -0.044041734 -0.18384965
000320 01 db 01 be 2b 22 0d bd a3 c3 3c be f8 9c 09 3d
       -0.126812 -0.034456413 -0.18434004 0.033596963
000330 a6 01 04 be 97 36 c5 bd 01 d0 f3 bd 34 b4 a7 bd
       -0.12891254 -0.09629553 -0.11904908 -0.08188668
000340 2a f4 5c bd 55 16 c4 3b 26 91 f1 ba f0 88 2a be
       -0.05394379 0.0059841075 -0.0018430098 -0.166538
000350 a2 63 3e bd 16 72 d9 bc 75 04 e4 bd 4a 11 99 bc
       -0.046481736 -0.026543658 -0.111336626 -0.018685002
000360 6f a9 22 be c6 d9 61 bc 88 72 31 bd bd e9 d9 3d
       -0.15884946 -0.013784831 -0.043322116 0.10640285
000370 98 c7 df bd d5 ff ed 3c dd 3d 0e be 86 e7 77 bd
       -0.10926741 0.029052654 -0.13890786 -0.060523532
000380 dc 25 4b bc 77 68 20 be 4a d9 30 3d 4c 51 32 be
       -0.012399163 -0.1566485 0.043175973 -0.17413825
000390 d6 07 0b be 1a c9 0e bc b1 37 05 bd f2 4d 18 be
       -0.13577208 -0.008714939 -0.032523815 -0.14873484
0003a0 24 1e f3 bd 59 79 b2 bd 76 c6 1f be 06 31 7c bd
       -0.11870983 -0.087145515 -0.1560305 -0.06157019
0003b0 cb d0 9c bc a9 bd 66 be 06 f2 fa 3c 88 90 d8 bc
       -0.019142529 -0.22533287 0.030632984 -0.026436105
0003c0 4f eb ae bc 63 18 d8 3d 40 39 26 3e 81 f5 36 3d
       -0.021352438 0.105515264 0.16232777 0.044667725
0003d0 86 e7 08 3d c4 04 85 3d 0d 40 ec bd be 4b 32 bd
       0.033423923 0.064950496 -0.11535654 -0.043529265
0003e0 97 d8 33 bd be c0 ef 3d ac 52 a5 bb f1 24 23 be
       -0.043907728 0.117066845 -0.0050452556 -0.15932061
0003f0 26 e7 1e be ad c9 07 be 00 90 b1 3d 20 7a f3 bd
       -0.15517864 -0.13260527 0.08670044 -0.11888528

cnn.4.bias f4 [16]
000000 6e 46 73 bd 3c cf c0 bd 3d 80 b8 3b fa bd d8 3b
       -0.05939334 -0.09414527 0.0056305216 0.006614444
000010 38 e5 52 bd 96 8d 16 be 8d 1b fe bd 76 c8 7a 3c
       -0.05148813 -0.14702448 -0.12407599 0.015306583
000020 b0 fe 42 be 69 16 93 bd e9 6e b0 3c d6 f8 07 3e
       -0.19042468 -0.07182009 0.021537261 0.13278517
000030 cf 26 0d 3d c6 ca 13 be ff 7c e3 be 1c 96 7f bc
       0.03446084 -0.1443282 -0.44431302 -0.015599754

cnn.6.weight f4 [8, 16, 5]
000000 9a 26 ea 3d 69 c0 68 be d3 5c 5d 3d 52 85 d3 3e
       0.11433144 -0.22729649 0.054043602 0.41312653
000010 c5 6b 9f 3e 21 f5 52 3d b5 02 3e be ff 95 e2 bd
       0.3113691 0.051503304 -0.1855572 -0.11063766
000020 9a 5d a1 3d c6 9b 32 3d d4 15 b0 bd 52 d4 6a be
       0.07879181 0.04360559 -0.085979134 -0.22932556
000030 d4 77 0c be 32 c3 97 3e d4 c8 75 3e 37 1e ae 3d
       -0.13717586 0.2964111 0.24002391 0.08501857
000040 87 4a 48 3c 14 0f 47 3d 65 fb 25 3d ec 02 11 3e
       0.0122248 0.048598364 0.04052295 0.14161271
000050 6e 7c c9 3d 9e 6c 7f be 58 ca 91 3d e8 1c 5e 3e
       0.09838186 -0.24943778 0.07118672 0.21690714
000060 d3 f6 51 3e d2 17 59 bd 1c 0c 2c 3d 55 c8 f8 3d
       0.20504312 -0.053001232 0.042003736 0.12147585
000070 01 13 47 be e9 fe 29 be 16 55 e5 be c2 cc 3c 3c
       -0.19440843 -0.16601147 -0.44791478 0.011523427
000080 bc e0 ac 3e 30 61 c9 3e 83 ea 67 3e ff f7 0c 3e
       0.3376521 0.3933196 0.22648053 0.13766478
000090 29 b1 e7 3d 2f cb 22 3e 1f 65 0a be 9c ec 0d 3c
       0.113130875 0.15897821 -0.13515137 0.008662369
0000a0 ea e6 71 bd 1a 6a fc 3d 69 58 0e bd 48 5f 43 be
       -0.059058107 0.12324925 -0.034752283 -0.19079316
0000b0 07 3e f9 be a6 23 35 3d 80 a8 9b 3e 6b e5 0f 3e
       -0.48680136 0.04422345 0.30401993 0.1405236
0000c0 a0 fd 07 3d 23 3a f0 bd 22 86 04 3f 81 d7 d9 3d
       0.03320086 -0.11729839 0.5176717 0.10636807
0000d0 b2 4f ba 3e 61 d6 8b be 94 f4 03 bd f6 df 15 3e
       0.36388928 -0.27311996 -0.03221567 0.14636216
0000e0 bb c7 51 3d f3 02 27 3e a2 67 93 be 15 66 d7 3d
       0.05121587 0.16309719 -0.28790003 0.105175175
0000f0 4d 2b 80 3e b2 b9 ee bb 0b 49 b8 3d ac cb 57 bd
       0.25033036 -0.00728532 0.08998307 -0.05268447
000100 cf e7 97 bd 58 cc d0 be a3 40 1b be 42 09 c9 bd
       -0.07417261 -0.40780902 -0.15161376 -0.09816219
000110 b7 e2 73 3d 65 92 7e 3e db 59 28 be d2 3c f5 bd
       0.059542384 0.24860533 -0.16440527 -0.11974491
000120 08 ff d6 be 87 65 c8 be 99 fd 00 be 51 79 8f be
       -0.41991448 -0.3913996 -0.1259674 -0.28022245
000130 39 f3 b1 3e 28 04 a1 3d e0 1a 6b 3d 60 f9 f5 bd
       0.34755877 0.07862121 0.057398677 -0.12010455
000140 ad e9 d0 3c b7 bb 00 bf a7 c7 b7 3e 88 ef 69 3e
       0.02550205 -0.5028643 0.3589451 0.2284528
000150 ed 11 e5 3b eb 02 a1 3d 53 e5 27 be 21 ed 0d 3e
       0.0069906623 0.07861885 -0.16396074 0.13859989
000160 ff 74 65 be 21 6a 19 3e 54 5f 39 bf 95 97 dd bd
       -0.22407912 0.14981891 -0.72411084 -0.108199276
000170 da dc b4 be 7f e1 8c be 8c b7 be bd 6d 79 c4 3e
       -0.35324746 -0.2751579 -0.093123525 0.3837389
000180 7a 35 ab 3d 3e c3 e9 bd e7 c4 f2 be 0d cf 5f bf
       0.08359809 -0.114141926 -0.4741585 -0.8742531
000190 7e e0 a7 3e 4c 9e b4 bc 1a ff 19 bd 72 3c 84 3d
       0.3278846 -0.022048138 -0.0375968 0.064568415
0001a0 63 ad ba 3e 75 b4 1e 3f 78 75 d7 3e fb ae da 3c
       0.3646041 0.61994106 0.4208181 0.026694765
0001b0 69 b9 1b bf 85 74 fe bf 7d 87 7c bd 17 4c f0 3d
       -0.6082979 -1.9879309 -0.06165265 0.11733263
0001c0 a1 05 84 be c9 23 57 bf c1 7d 84 bf 1b 42 75 bd
       -0.25785545 -0.8403898 -1.0350877 -0.059877496
0001d0 15 0a c6 be 7b 18 04 be 58 6e 50 bd 32 af 5c bd
       -0.38679567 -0.12899964 -0.050886482 -0.053878017
0001e0 26 f2 29 be 37 8d 00 be 11 4f 0f 3e eb 34 92 bd
       -0.16596279 -0.12553869 0.13995005 -0.071389996
0001f0 9d 85 1c 3d 62 db 28 3e 57 3e 90 be 16 f7 21 be
       0.03821336 0.16489938 -0.28172562 -0.15816912
000200 38 da bc be 87 57 56 be 24 97 ac 3e 6c b3 ab be
       -0.36885238 -0.20931827 0.3370906 -0.33535326
000210 e8 41 90 3e 27 f7 5a be 18 ab 2b 3e 8b 79 56 bf
       0.28175282 -0.21383344 0.16764486 -0.8377921
000220 57 18 10 bf 09 4d c8 3c 87 7c 10 bf 6d 33 eb bf
       -0.5628714 0.024450796 -0.56440014 -1.8375069
000230 82 d6 83 3e 1d 19 82 3e 61 a3 b7 bc 5e 1f c1 be
       0.25749594 0.25409785 -0.022416772 -0.37719244
000240 4c 7c b5 bd 01 b9 82 bd 4a bf fd 3d 65 fa 4e be
       -0.08861598 -0.06382943 0.12390001 -0.20212705
000250 d5 cb ef bd ae 96 76 3e dd 66 06 bd 3e 0f 7a be
       -0.117088 0.24080917 -0.03281294 -0.24419877
000260 29 06 47 3d 72 6f 46 be 69 3f 9d bd 95 67 c0 be
       0.04858986 -0.1937845 -0.0767811 -0.37579027
000270 65 fd 40 3d c1 5a 8e 3e ac 26 82 be ee 5c cb be
       0.047116656 0.27803615 -0.2542013 -0.39719337
000280 a3 9b a4 be c2 e7 10 3c 6a 24 ee 3d da c2 66 3e
       -0.3214999 0.008844318 0.11628039 0.22535267
000290 db cb 46 3e bd 7d 8d 3c 67 38 b2 3d b7 be ec 3d
       0.19413702 0.01727187 0.08702164 0.115598135
0002a0 d6 1b cd 3c 43 d4 c1 3d f7 4c 58 3e 30 ae 2f 3e
       0.025037687 0.09464314 0.2112311 0.17156291
0002b0 b7 40 ec 3e 14 27 e8 3e fb 5c 4b 3e 6f a6 34 bd
       0.46143124 0.45342314 0.19859688 -0.044104036
0002c0 63 35 87 3d f4 3e 72 3e d8 f1 e1 bc 7b 26 ba 3d
       0.066019796 0.23656827 -0.02758114 0.09089371
0002d0 e1 99 ac be 50 93 9c bf d7 6c 4c bf 25 19 89 3e
       -0.3371115 -1.2232456 -0.79853576 0.26776996
0002e0 7a 9c 46 be ea 61 77 3e a2 61 e4 3e 31 30 04 3d
       -0.19395629 0.24158445 0.44605738 0.03227252
0002f0 85 2c 6e be b5 5a 63 be be 4d 88 3e 47 bc 09 be
       -0.2325917 -0.2220257 0.26621813 -0.13450728
000300 76 fc a3 3e 18 e5 d6 3e 05 dc a3 3e 06 a0 0a 3e
       0.3202855 0.4197166 0.320038 0.13537607
000310 62 21 ec bd b0 7e c7 3e 46 9a 06 be 57 fa d5 3d
       -0.11529805 0.38963842 -0.13144788 0.10448139
000320 b0 3a 5b 3f 6e 5c eb bb eb 35 08 bf d3 10 11 bf
       0.85636425 -0.0071826493 -0.5320727 -0.56666297
000330 77 99 66 3f 89 25 be 3d 71 27 06 3e 1b 23 44 3e
       0.9007792 0.09284503 0.13100983 0.19154017
000340 dc d3 4e 3c 90 c7 9a 3c a2 44 45 bf 3a 97 e0 3d
       0.012623753 0.018893987 -0.7705785 0.10966344
000350 56 68 b6 3e 3c 8e be 3e 8c 4e 29 3f e4 d4 bb bb
       0.35626477 0.3721789 0.6613548 -0.0057321656
000360 5a 6c 52 3e 67 c0 0c be 9a f0 be 3e 16 5e 94 be
       0.20549145 -0.1374527 0.3729294 -0.28978032
000370 0f a6 e6 bd ab 7a fb 3d 96 89 8b 3e e1 70 e9 3d
       -0.11262142 0.122792564 0.27253407 0.11398483
000380 bb 69 62 3e b9 96 f0 3d 9b ac 8d 3e 02 b3 d0 3d
       0.22110645 0.11747498 0.2767075 0.10190393
000390 30 f1 25 bc 07 ea c5 bd a1 61 94 3e 6d 3a 63 be
       -0.010128304 -0.09663778 0.28980735 -0.22190256
0003a0 0c ca a5 be 2b bb 23 bd a1 f9 3e 3e 33 61 86 3e
       -0.32380712 -0.03997342 0.18649913 0.26246032
0003b0 6e ea e4 3e ee 72 8a 3e cb fe 91 be a1 44 a9 bd
       0.44710106 0.2704081 -0.28514704 -0.08265043
0003c0 f4 8f 31 3d b2 6c f0 3d ff d2 bc 3d 2b 20 e2 bd
       0.043350175 0.11739482 0.09219932 -0.11041292
0003d0 2c 48 97 3e cc 9b 20 be f3 60 0f 3e 21 c4 12 be
       0.2954725 -0.15684432 0.14001827 -0.1433263
0003e0 0a 9a c6 bc 0a 11 16 3e 57 9e 6c 3c 66 89 b7 3e
       -0.024243373 0.14654937 0.014442048 0.35847014
0003f0 50 97 8c 3e fe ea 16 be a0 97 1d bd 89 c8 1d bd
       0.27459192 -0.1473808 -0.03847468 -0.038521323

cnn.6.bias f4 [8]
000000 ae e2 9b 3e 9c 11 19 be 20 59 ea be aa ce cb 3d
       0.3044638 -0.14948124 -0.45771122 0.099515274
000010 40 47 eb bd 9f 3f 4e 3f a0 d4 28 3e 7a fb 12 be
       -0.11488199 0.8056583 0.1648736 -0.14353743

mean_linear.weight f4 [1, 8]
000000 02 a8 ef 3c aa b0 14 3f c2 cf 0e 3c 46 31 a4 be
       0.029254917 0.5808207 0.0087165255 -0.32068843
000010 ba d2 09 3d f3 af 87 bb 1e ab 88 3e b5 7d 1b 3e
       0.03364823 -0.004140848 0.26693052 0.15184672

var_linear.0.weight f4 [1, 8]
000000 b1 65 87 bf 98 b5 7a 3f d0 4d a1 3f 54 cf 2c bf
       -1.0577909 0.9793334 1.2601871 -0.6750386
000010 d6 09 fc 3e 62 ac ba bf e1 72 8b bf a4 77 a3 3f
       0.49226254 -1.4583857 -1.0894433 1.2770886
