weights/1dreg/matern/matern-fill12-64.pth (torch_old, 135032 bytes, 84 tensors)

prelinear.0.module.weight f4 [8, 3]
000000 65 10 07 bc 4d bd e3 40 dd 92 cd bd d4 34 4b bc
       -0.008243655 7.116858 -0.100377776 -0.012402732
000010 01 61 f7 3e d6 48 4d 3f e6 f5 da 3d 2b 7a ae bd
       0.48316196 0.80189264 0.10691433 -0.085193954
000020 0e 77 5e bf 0b db 3a 3e 65 5c 1c 3d 9a 66 74 bf
       -0.86900413 0.18247621 0.03817405 -0.9546906
000030 05 d1 08 be 85 1e d8 3d 9f 45 76 bf ea 2a e9 3c
       -0.13360985 0.10552696 -0.96199983 0.028462846
000040 1e ef 47 be 3e b0 33 3f ef a3 4f be 5c 86 b6 bd
       -0.1952481 0.701908 -0.2027738 -0.08912346
000050 1e 17 6a bf 49 23 95 bd e9 c8 c0 3c aa 4c 6d 3f
       -0.91441524 -0.07282121 0.023533301 0.92695105

prelinear.0.module.bias f4 [8]
000000 0a c8 d3 be 77 df 4c bc 5b 40 a7 3d e1 e2 68 bf
       -0.41363555 -0.01250445 0.08166572 -0.9097119
000010 b0 cf 2c bf 7f 2f b7 3e 7a 92 0a 3e c9 6d df be
       -0.67504406 0.35778424 0.13532439 -0.43638447

conv.0.weightnet.net.0.linear.weight f4 [32, 1]
000000 1c ac 0b bf 1a 2b a3 be ee 6e a4 3e 6c f2 a5 3c
       -0.54559493 -0.3186882 0.32115883 0.020257197
000010 5e c9 5e 3f 7d f2 0d be c9 1b 35 be 4d d0 68 3d
       0.8702601 -0.13862033 -0.1768638 0.056839276
000020 ae 34 48 3f 76 6b ec 3e 05 a3 02 3f 28 7c 02 bf
       0.7820538 0.46175736 0.5103 -0.509707
000030 07 b2 16 be 45 b3 6b bf 9e 2a c4 3d 7d c6 5e bf
       -0.1471635 -0.9207042 0.09578441 -0.8702162
000040 20 3c 00 3f 9e 62 3d 3e 80 c2 21 3f 04 fa ba 3e
       0.50091743 0.1849465 0.6318741 0.36518872
000050 29 19 7f 3f e9 b3 0c bf a4 2b 51 3d e0 81 e0 3e
       0.99647766 -0.5496202 0.05106701 0.43849087
000060 65 bb fd be 22 c7 8b 3e 7f 74 db 3d e2 6a a4 3f
       -0.49557033 0.27300364 0.10715579 1.2845118
000070 2b 29 6e 3e 39 5a f8 3e 20 5f 63 bf a0 08 44 bf
       0.23257892 0.48506334 -0.88817024 -0.7657566

conv.0.weightnet.net.0.linear.bias f4 [32]
000000 80 2b ec bd 20 4a 28 be 84 18 1c 3f 56 7c 1c be
       -0.115317345 -0.16434526 0.6097491 -0.15281805
000010 50 88 f3 be 35 cf 83 3f 21 d7 95 be 5b ae de be
       -0.47564936 1.029761 -0.29265693 -0.43492398
000020 ac 5c b0 3e 65 e3 28 3e a0 4e 72 bf 06 0e 3d bf
       0.34445703 0.16492994 -0.9465122 -0.73849523
000030 24 fd 12 3d 14 bf 06 3f dd 49 a8 3d 69 aa 0b 3e
       0.035885945 0.5263531 0.08217213 0.13639225
000040 3c 59 0c bf af 20 63 bf 96 85 77 3f bb 10 a0 bd
       -0.5482366 -0.88721746 0.9668821 -0.07815691
000050 5f c7 f1 3e 53 ed 94 bd fc d4 26 be b0 60 f0 be
       0.4722242 -0.072718285 -0.16292185 -0.46948767
000060 57 92 05 3f 89 f9 8d 3f c2 1f 7e 3f 11 69 d7 bd
       0.5217642 1.1091777 0.9926721 -0.10518087
000070 22 3b 60 bf 41 de e2 3d 81 19 35 bf c2 04 7f 3f
       -0.8759023 0.11077548 -0.7074204 0.99616635

conv.0.weightnet.net.0.bn.weight f4 [32]
000000 df a0 46 3f 8a dc 4a 3f a4 e5 bc 3f 17 20 b6 3f
       0.7758922 0.79242766 1.4757581 1.4228543
000010 40 1b dc 3f 14 91 52 3f 3d df 1b 3f bc 4a b5 3f
       1.7195816 0.8225262 0.6088751 1.4163432
000020 66 ad db 3f cd d8 bb 3f 1c 9d cb 3f fd 14 41 3f
       1.7162292 1.4675537 1.5907321 0.7542265
000030 b4 f9 47 3f 2a 77 4a 3f ee 6c 73 3f 6e b7 55 3f
       0.7811539 0.7908808 0.9508809 0.83483016
000040 f4 a3 c5 3f d1 f0 c2 3f 30 29 bc 3f 5e e3 c6 3f
       1.544066 1.5229741 1.470007 1.5538137
000050 02 19 cb 3f 07 cb 14 3f 2e 7d 69 3f 55 22 d5 3f
       1.5867007 0.58122295 0.91206634 1.6651102
000060 4b 9c 42 3f 8f 6c cc 3f 67 02 d9 3f 6c 7f ce 3f
       0.76019734 1.597063 1.6953858 1.6132636
000070 ca d8 a6 3f e8 95 c6 3f 0b 4a 83 3f ca 59 4a 3f
       1.3034909 1.5514498 1.0256971 0.7904326

conv.0.weightnet.net.0.bn.bias f4 [32]
000000 b6 f8 17 be 83 ed f1 bd 31 ff 93 bc db 49 88 3c
       -0.1484097 -0.1181288 -0.01806602 0.01663678
000010 3e 9c b1 3d ef 5f c4 bd e1 62 0a be df 57 a7 bd
       0.08672379 -0.095886104 -0.13514282 -0.08171057
000020 b5 a8 9a 3d 9b b7 2a bc 9f cc 18 3d ae a8 fa bd
       0.075517096 -0.0104197515 0.037304517 -0.12239204
000030 51 e5 f4 bd a3 32 eb bd 04 76 81 be a7 9d 15 be
       -0.11957801 -0.114842676 -0.2528535 -0.14610921
000040 94 a3 5c bc 72 fb 1b bb 11 e7 d4 36 ce 63 73 3c
       -0.013466734 -0.0023800996 6.344992e-06 0.014855338
000050 45 a5 16 3d 35 3a 76 be 73 f8 b5 be 34 63 0c 3d
       0.036778707 -0.24045642 -0.35541114 0.034274295
000060 3f 59 1e be 5b fd c3 3c 70 1a 0d 3d d5 82 69 3d
       -0.15463732 0.02392452 0.03444904 0.057009537
000070 e2 13 a6 bd 8b b0 95 bc 61 7c 40 3c f3 8a 19 be
       -0.08109261 -0.018272659 0.011748404 -0.14994411

conv.0.weightnet.net.0.bn.running_mean f4 [32]
000000 f1 ca eb bd 0b 4b 29 be 89 01 1c 3f aa 5d 1d be
       -0.115133174 -0.16532533 0.6093984 -0.15367761
000010 5f 4b f2 be 17 cb 83 3f 19 4b 95 be 35 07 df be
       -0.4732313 1.0296353 -0.29158857 -0.43560186
000020 fa a3 af 3e 4e 7d 28 3e 1b 32 72 bf 6b 1c 3d bf
       0.34304792 0.1645405 -0.94607705 -0.7387149
000030 c0 91 0c 3d 41 95 06 3f 18 cd a4 3d 2e 4b 0a 3e
       0.034318686 0.52571493 0.08046931 0.13505241
000040 4a 30 0c bf b5 41 63 bf a9 79 77 3f f1 05 a3 bd
       -0.54761183 -0.88772136 0.96670014 -0.079601176
000050 b1 cf f1 3e 42 70 94 bd 21 81 26 be 36 57 f0 be
       0.47228768 -0.07247974 -0.16260196 -0.46941537
000060 f2 d5 05 3f 1a db 8d 3f 03 4a 7e 3f 56 dc d7 bd
       0.5227958 1.108249 0.9933168 -0.105400726
000070 06 9b 60 bf 98 fb e1 3d 8b e7 34 bf 36 e0 7e 3f
       -0.87736547 0.11034316 -0.70665807 0.9956087

conv.0.weightnet.net.0.bn.running_var f4 [32]
000000 b1 18 88 3c bc 38 b9 3b 55 14 bc 3b 28 e3 bf 37
       0.016613336 0.005652515 0.0057397285 2.2874752e-05
000010 86 01 2d 3d 89 a5 8d 3a d1 19 e3 3a 7b c3 3a 39
       0.04223778 0.001080678 0.001732642 0.00017811164
000020 ef 71 0b 3d 18 34 43 3c 9b 2c 6d 3c 8d 04 6e 3c
       0.034044202 0.011914276 0.014475967 0.014527452
000030 da f1 9d 3a 1a 85 41 3d 17 24 05 3a 59 47 2c 3d
       0.0012050227 0.047246076 0.0005078925 0.04206023
000040 34 6b 65 3c fb 91 fa 3a dd b3 b6 3c b9 37 f3 3b
       0.01400261 0.0019116992 0.022302562 0.007422414
000050 9e 4b 62 3d 11 54 8a 3c 4d 45 18 39 4b 07 2f 3c
       0.055247895 0.01688579 0.00014521666 0.010682891
000060 44 8c 60 3c 5f a6 88 3b 3e 14 25 3a 68 44 bc 3d
       0.013705317 0.0041702236 0.0006297267 0.09192735
000070 7f a2 44 3b 87 11 56 3c 2d 24 34 3d bf af 05 3d
       0.0030004082 0.013065702 0.043979812 0.032638308

conv.0.weightnet.net.1.linear.weight f4 [32, 32]
000000 cc 94 50 3d 60 8a 54 bd a1 c1 a3 3e 7e e3 94 3e
       0.050923154 -0.051889777 0.31983665 0.29079813
000010 fb c9 6e 3f 14 74 cc bd 38 9a 0b 38 8a d9 e8 3e
       0.9327695 -0.09983078 3.328381e-05 0.4547847
000020 ab c7 8a 3f b2 a0 bc 3e 11 02 49 3f 65 d7 f6 bd
       1.0842184 0.3684135 0.7851878 -0.12052802
000030 f3 60 f0 bd cc 34 a2 3d 11 55 8b be 16 10 5e 3d
       -0.117372416 0.079202265 -0.27213338 0.05421456
000040 1d 8a 79 3e 52 e9 da 3e e1 c4 8c 3e c4 6c 2d 3f
       0.24369092 0.42756134 0.27493957 0.6774409
000050 ac 56 7d 3f d0 cf c7 bd 46 a3 67 be eb fa 49 3f
       0.98960376 -0.09756434 -0.22620878 0.78898495
000060 a3 fb 85 bd 21 82 4d 3f ec 84 54 3f 61 a7 74 3f
       -0.065421365 0.80276686 0.8301532 0.955679
000070 91 e5 da 3e ab 02 ea 3e 91 dd 54 be ac 13 62 be
       0.4275327 0.4570516 -0.20787646 -0.22077817
000080 df f6 c1 bd ef 68 c1 bd a7 b2 74 bf fa 7d cd be
       -0.09470915 -0.094438426 -0.955851 -0.40135175
000090 8e bd 4e bf f4 bc 81 3b 37 ad d6 3d 68 8f 23 bf
       -0.8075799 0.0039592925 0.10482257 -0.63890696
0000a0 ef 2a 69 bf d1 bd d2 bf bc a9 aa bf 8a cc 12 bc
       -0.91081136 -1.6464177 -1.3333049 -0.008959899
0000b0 4c 37 6e bd 76 21 51 3e 4d 92 d7 bd 87 33 88 bd
       -0.058158204 0.2042292 -0.105259515 -0.06650453
0000c0 71 fd 78 bf 0e e5 49 bf 0f 5c 65 bf 1d 14 9e bf
       -0.9726172 -0.78865135 -0.89593595 -1.2349888
0000d0 ec 3f 4e bf 37 6b 54 3e 26 16 d9 3b 9a 28 08 bf
       -0.8056629 0.20744024 0.0066249548 -0.53186953
0000e0 ef a9 36 bd f7 c4 98 bf e5 3c 06 bf 70 bf 1f bf
       -0.044595655 -1.1935109 -0.5243667 -0.62401485
0000f0 db 87 12 bf aa 69 27 bf d5 ae 3f 3e 70 70 61 bd
       -0.5723855 -0.65395606 0.18719037 -0.05503887
000100 1f 2a 56 be 5e d8 0c be 11 36 83 3e fe 84 85 3b
       -0.20914505 -0.13754413 0.25627187 0.004074692
000110 0f 26 d6 3e ba 01 7f bd 96 d5 2f be 1f a9 49 3e
       0.4182591 -0.062257506 -0.1717132 0.19693421
000120 f1 e8 ff 3e ff 85 9e 3e a3 75 71 3e 4d 16 44 3b
       0.49982408 0.30961606 0.23580031 0.002992052
000130 08 ad 96 3d 94 17 4c be cc 6a 4c be b2 8e 24 be
       0.07357222 -0.1993087 -0.19962615 -0.16070059
000140 69 78 8a 3e 99 31 be 3d 67 66 05 3e 54 2f 3f 3e
       0.2704499 0.09286804 0.13027345 0.18670398
000150 c4 0a cc 3e 96 c7 b5 3d 10 d5 5c be 07 a4 dd 3e
       0.39851964 0.088759586 -0.21565652 0.43289205
000160 8f 23 4b be 25 da 86 3e ee 07 81 3e 76 e6 8d 3e
       -0.19837783 0.26338306 0.25201362 0.2771489
000170 ad 2d 27 3e 52 8b 75 3e 3c e9 1f be 61 28 07 bd
       0.16326018 0.23978928 -0.15616316 -0.032997493
000180 cf 64 07 3e dd de 07 be e9 b7 ac be b8 f2 e9 be
       0.13222049 -0.1326861 -0.33734062 -0.45692992
000190 98 33 d0 be 7a 96 de bd 7f 8d 05 3d 39 90 93 be
       -0.40664363 -0.10868545 0.032605644 -0.2882097
0001a0 34 0e 45 be d2 c5 0d bf f8 29 9e be 69 26 19 3e
       -0.192437 -0.55379975 -0.30891395 0.14956059
0001b0 5b 58 38 3e b3 f6 e2 3b f9 46 52 be f7 ac 01 be
       0.18002455 0.0069263815 -0.20534886 -0.12663637
0001c0 59 e7 cc be f8 a8 96 be 18 67 b2 be 02 1b 6a be
       -0.40020254 -0.29425788 -0.3484428 -0.22861865
0001d0 71 b4 7e be b8 72 07 3e ea 4f 63 be d5 ee 01 bf
       -0.2487352 0.13227355 -0.22198454 -0.50755054
0001e0 1d c6 2b 3e 62 57 9a be 72 e1 dc be 64 93 d4 be
       0.16774793 -0.30144793 -0.4314075 -0.415187
0001f0 82 c3 04 bf cd 33 a2 be 27 4e 49 3c df a0 1b 3e
       -0.5186082 -0.31680146 0.012286699 0.15198086
000200 05 0e cd 3d 9e 96 a7 3c a3 83 92 3e 7c 96 c3 3e
       0.1001244 0.020457562 0.28616056 0.38200748
000210 af a9 59 3e f3 53 6b 3c e8 b9 34 be ea 5b 9a 3e
       0.21256135 0.014363277 -0.17649043 0.3014825
000220 e8 cf b2 3e 47 45 b0 3e 6d 15 d3 3e 0a f1 5c bd
       0.34924245 0.34427854 0.41227284 -0.05394081
000230 53 e0 18 be da 0c 22 3d 49 69 42 3d 5d ec 0b bc
       -0.14929323 0.039563037 0.04746369 -0.00854024
000240 40 de 9c 3e 20 ee 91 3e 5a 2e e6 3e 13 0c e8 3e
       0.30638313 0.28501987 0.44957238 0.45321712
000250 42 fd 82 3e d6 35 d1 3c 3f 73 09 3d 56 dd fe 3d
       0.25583845 0.025538366 0.033557173 0.1244456
000260 5c f8 15 be ed 3b e9 3e cc 15 3a 3e 9c 36 e7 3e
       -0.14645523 0.45553532 0.18172377 0.4515885
000270 6c d7 bb 3e 22 78 81 3e 7d 85 64 bd 15 30 1d 3d
       0.3668779 0.25286967 -0.055791367 0.038375933
000280 bc c2 40 3d 7d d1 ab bb 22 ee 64 3e a4 55 b5 3e
       0.047060713 -0.005243479 0.22356465 0.354169
000290 02 6c de 3e 07 25 e9 bd f1 43 06 3e fe 06 6d 3e
       0.43441778 -0.113840155 0.13111855 0.23147199
0002a0 ea c3 33 3f 69 18 7f 3e f3 bc 0b 3f 24 48 94 bd
       0.70220816 0.24911655 0.5458519 -0.07240322
0002b0 2b 25 03 3e ac c4 02 be ad f1 50 3e 48 09 20 bd
       0.12807147 -0.12770337 0.20404692 -0.03907135
0002c0 4f 54 89 3e b6 e6 00 3f f0 04 13 3f 26 b6 ec 3e
       0.26822135 0.50352037 0.5742941 0.46232718
0002d0 be c4 0d 3f ef c6 bc bd 26 f9 78 3d 43 ad b2 3e
       0.5537833 -0.09217631 0.06078448 0.34897813
0002e0 ff d3 6a 3d 6f b6 94 3e e8 03 05 3f f1 51 09 3f
       0.05733108 0.29045436 0.51959085 0.5364066
0002f0 8a 5e a9 3e 84 2b 01 3f 71 5d 0c be 09 36 40 3e
       0.3307994 0.50457025 -0.1370752 0.18770613
000300 a4 8f ef ba 0a 9c 82 be bf c6 07 be fd 30 81 be
       -0.0018277061 -0.25509673 -0.1325941 -0.25232688
000310 ec 0a 85 be 7a 9c 84 be c8 05 fb bd 11 46 2a be
       -0.25984895 -0.25900632 -0.12256962 -0.1662829
000320 b7 ea 2f be dc 72 5d be a6 01 53 be de 37 8e be
       -0.1717938 -0.21625847 -0.20606098 -0.27776998
000330 8c d8 96 be 3c 2d c0 bd a8 db c4 bd 8d 91 4f be
       -0.29462087 -0.09383628 -0.096122086 -0.20270367
000340 86 e6 03 be 23 f6 02 bc a6 f5 37 be f0 d0 5b be
       -0.12880906 -0.007993254 -0.17964801 -0.21466422
000350 d9 23 ad bd 63 bf e1 bd 12 b5 c5 3d 84 b4 90 be
       -0.08454103 -0.11022832 0.09653677 -0.28262722
000360 0f b2 3c be 2e 51 a9 be b3 b0 15 be 41 e3 a5 be
       -0.18427299 -0.33069748 -0.14618187 -0.32399943
000370 a0 47 05 be 30 c5 6f be cb b0 67 be 13 65 1a be
       -0.13015604 -0.23415065 -0.22626035 -0.15077619
000380 75 69 af bd b1 88 93 3d cf fa ae 3e 9a ee 7e 3e
       -0.08565036 0.07203806 0.34175727 0.24895707
000390 65 c7 e9 3e 66 fc cd 3d 83 eb bc bd 7b 32 c8 3e
       0.45659938 0.10057907 -0.09224608 0.39101014
0003a0 d4 9e 2d 3f 12 19 a3 3e eb 77 c2 3e 57 8d 11 bd
       0.6782048 0.31855065 0.37982115 -0.035535183
0003b0 6d f9 28 be 3a ff df bd 00 64 42 be 68 7c 65 3d
       -0.16501398 -0.109373525 -0.1898346 0.056026846
0003c0 fd 14 9f 3e ed cf a4 3e 71 1a 5e 3e 65 e3 b1 3e
       0.310707 0.32189885 0.21689774 0.347438
0003d0 d8 c8 54 3e 75 ba 40 be 2d f8 4f bc 08 d8 b7 3e
       0.20779741 -0.18821128 -0.012693447 0.35907006
0003e0 70 66 b5 bd 99 0d 42 3e 8e 4e 94 3e 99 73 00 3f
       -0.08857429 0.189505 0.28966182 0.5017639
0003f0 62 18 b9 3e 6e 8e a5 3e 06 a0 fe 3c 47 de 07 be
       0.36151415 0.32335228 0.031082164 -0.13268386

conv.0.weightnet.net.1.linear.bias f4 [32]
000000 b9 d0 29 bd a6 74 84 be 9e 03 50 3e 3e b3 f2 bb
       -0.04145882 -0.25870246 0.2031388 -0.0074066212
000010 a7 19 ec 3d ef be 37 3e 64 b2 57 be 8c 41 24 3e
       0.1152833 0.17943929 -0.21064144 0.16040629
000020 95 bf 76 bc be 56 32 3e ad 54 6c 3e 85 47 26 3e
       -0.015060325 0.17415902 0.23079176 0.1623822
000030 b2 5f 51 bd 4b bd a3 be 82 71 b8 bd f8 72 5d 3e
       -0.051116653 -0.31980357 -0.09006025 0.21625888
000040 f4 7b 1f 3d d4 e3 27 3d b4 2f 3a 3d 82 3d f6 3d
       0.03893657 0.04098876 0.04545565 0.120234504
000050 92 ba 80 3e 17 49 4b 3d b4 55 c5 3c 08 83 d3 3d
       0.25142342 0.04963025 0.024088718 0.103277266
000060 b7 8f 54 3e 79 70 96 3e c9 b6 34 bd cd a5 95 3d
       0.20757948 0.29382685 -0.04411963 0.073070146
000070 da 58 5c 3e 0a 46 47 bd 87 d7 5b bd 0e 24 fa be
       0.21518269 -0.04865078 -0.05367234 -0.48855633

conv.0.weightnet.net.1.bn.weight f4 [32]
000000 6e d0 87 3f d2 b7 f4 3e a1 79 83 3f 01 ee 3e 3e
       1.0610483 0.47796494 1.0271493 0.18645479
000010 f5 f1 00 3f 0b ea 4a 3f bd 3c c0 3f 1a 73 18 3f
       0.503692 0.7926337 1.5018536 0.5955063
000020 03 f1 1d 3f 8c 56 80 3f 65 58 91 3f 9e b6 84 3f
       0.6169588 1.0026412 1.1355101 1.036823
000030 2b 0b 96 3f 7f 02 89 3f 60 eb 99 3f 4e 78 51 3f
       1.1722158 1.0703887 1.2024956 0.81824195
000040 56 ff 7f 3f 8c 36 8d 3f 19 12 83 3f b1 7c 73 3f
       0.99998987 1.1032271 1.0239898 0.9511214
000050 ac 60 a0 3f d2 ac 81 3f e7 8c 7f 3f c9 0c 19 3f
       1.2529502 1.0130866 0.99824375 0.59785134
000060 a4 c4 05 3f f8 f6 98 3f 3b 6f b2 3f 78 7d 68 3f
       0.52253175 1.1950369 1.3940195 0.9081645
000070 e6 57 92 3f 86 97 6a 3f cc 2b 54 3f ea b0 90 3f
       1.1433074 0.91637456 0.8287933 1.130399

conv.0.weightnet.net.1.bn.bias f4 [32]
000000 dc 69 0d 3e 32 6c 25 be 9d 7d b7 3d 09 9e ba be
       0.13809913 -0.16154554 0.08959506 -0.36448696
000010 73 3c 92 be 81 5d 0a be 28 ce f2 be b2 a2 99 be
       -0.28561744 -0.13512231 -0.4742291 -0.3000694
000020 4d f1 88 be 95 32 40 3d af 8d 09 bd df 4e 39 3e
       -0.26746598 0.04692324 -0.033582386 0.18096493
000030 45 1f 67 be db 80 c8 bc 7f 3e 64 be c5 a7 d0 be
       -0.22570522 -0.024475506 -0.22289465 -0.40752998
000040 8c a8 4e be 2a bf 64 be c1 da eb bc d3 43 b5 3d
       -0.20181483 -0.22338548 -0.028790833 0.08850827
000050 ff cb 58 be 32 b2 9f 3e 30 36 91 bd cc f5 14 bd
       -0.21171568 0.3119064 -0.070904136 -0.036367223
000060 aa d6 0e be 4a ee 68 3e 2c 10 26 3e fa 02 64 3d
       -0.13949075 0.2274715 0.16217107 0.0556669
000070 b2 bd 37 be 46 d2 8b be e7 e8 7c be 7e 38 71 bd
       -0.17943457 -0.27308863 -0.2469822 -0.058891766

conv.0.weightnet.net.1.bn.running_mean f4 [32]
000000 3b 42 a7 40 97 43 ec c0 d4 b2 12 40 eb 97 3f c0
       5.226835 -7.3832507 2.2921648 -2.9936473
000010 f3 94 30 40 41 8b 71 40 59 73 02 c0 25 68 43 40
       2.7590911 3.7741244 -2.0382903 3.0532315
000020 d9 fb 17 c0 87 d1 d5 40 b5 19 5b c0 0f 54 bd 40
       -2.3747466 6.681827 -3.423444 5.916511
000030 79 58 1a c0 41 04 07 3f c4 e6 1c c0 78 77 79 c0
       -2.41165 0.52740866 -2.4515848 -3.8979168
000040 e7 be 00 c0 74 f4 02 c0 c4 5c 46 c0 0f 5b bc 40
       -2.0116518 -2.0461702 -3.099412 5.8861156
000050 44 3b 3b c0 4a d1 e0 40 d5 34 7f 40 b0 d6 49 c0
       -2.9254923 7.025548 3.9875996 -3.1537285
000060 6b 13 f5 c0 ab e1 cb 40 cc d4 48 3f 7e 7c c9 40
       -7.6586204 6.3712974 0.784497 6.296447
000070 7a ab 18 c0 81 29 0c c0 31 50 46 c0 20 18 43 c0
       -2.385466 -2.1900332 -3.0986445 -3.0483475

conv.0.weightnet.net.1.bn.running_var f4 [32]
000000 8e 48 c6 42 82 31 37 43 a0 5f 93 41 b1 f9 0c 42
       99.14171 183.19339 18.421692 35.24384
000010 ae bc d4 41 9c 93 3b 42 14 8c cc 40 14 25 f3 41
       26.592129 46.89415 6.3920994 30.393105
000020 da a2 43 41 b6 a2 16 43 0e 84 28 42 a6 8e ed 42
       12.227259 150.63559 42.12896 118.77861
000030 96 7e 66 41 b5 b5 17 41 30 17 6c 41 bc 7b 57 42
       14.405905 9.481862 14.755661 53.870834
000040 d4 0c 1b 41 80 5f 2d 41 60 c7 d3 41 40 3c e1 42
       9.690632 10.835815 26.472351 112.617676
000050 17 2d ef 41 d6 1c 2c 43 12 56 4e 42 46 ee 0f 42
       29.897017 172.11264 51.584053 35.98269
000060 3a 6a 58 43 31 48 03 43 84 e0 dc 40 fc 56 0c 43
       216.41495 131.282 6.9024067 140.33978
000070 ef 1a 98 41 2e c9 2a 41 37 33 d8 41 1c 35 89 41
       19.013151 10.674116 27.025007 17.150932

conv.0.weightnet.net.2.linear.weight f4 [16, 32]
000000 ca b6 f0 3d 5c 02 08 3e 4d 32 60 bd 85 c8 90 3d
       0.11753614 0.1328215 -0.05473547 0.07069496
000010 8b 16 41 bd 91 b4 80 3d 0a 8b d0 3e 3c db c3 bd
       -0.04714064 0.0628444 0.40731078 -0.095633
000020 46 5d ef bc 62 7f bf 3d 6f 93 c8 3e 94 7b 04 be
       -0.02921928 0.09350468 0.39174983 -0.12937766
000030 ed 57 e3 3e fa 70 64 be ff 62 a7 3e d1 c0 59 3e
       0.4440302 -0.22308722 0.32692716 0.2126496
000040 28 d8 96 3e ea 5c 55 3e 53 d8 59 3e d3 cf 1b bd
       0.2946179 0.20836225 0.21273927 -0.038039993
000050 69 44 6f 3e 47 95 f4 bd 8c 4e 53 3d f1 f7 eb 3d
       0.2336594 -0.11942535 0.05158858 0.115219004
000060 23 09 42 3c a3 7c 94 bd 1a 6d b3 be 3d 6f ca 3d
       0.011842999 -0.07250335 -0.35044175 0.09884498
000070 1b 96 c5 3e a7 d4 5e 3d 62 fd 5c bd 06 98 c6 3e
       0.38591084 0.05440202 -0.053952582 0.3878786
000080 ee 86 aa be 68 25 22 3e db 3e 09 bf df 87 05 bd
       -0.33306068 0.15834582 -0.53611535 -0.03260028
000090 aa e0 91 be 9a 28 c9 be 3f 47 85 3d 2c 7d a0 bd
       -0.28491718 -0.3928879 0.0650773 -0.07836375
0000a0 36 8b da bd 6d 3e 05 bf 86 f0 7b bd 7a 7c ce be
       -0.10671084 -0.5204838 -0.061508678 -0.40329343
0000b0 ce 75 97 3e 21 45 90 bc 8b 09 e7 bc 0a 4a ba 3d
       0.29582065 -0.017611088 -0.028202793 0.09096153
0000c0 5f 38 9a bd d3 e4 1f 3d c9 84 31 3e 3d 35 f2 be
       -0.07530283 0.039036583 0.1733581 -0.47306243
0000d0 9a 49 5c 3e 68 89 25 bf 2e 64 6b be c8 97 08 be
       0.21512452 -0.6466279 -0.22987434 -0.1333915
0000e0 cd c6 97 3d 7e f5 db be c9 fa 46 bd df fe f3 be
       0.07410965 -0.42960733 -0.04857901 -0.4765539
0000f0 4b 44 53 3e 03 96 d0 bd d4 41 88 bd 53 16 53 bd
       0.2063152 -0.101848625 -0.06653181 -0.051534962
000100 52 dd d0 bd 39 43 e4 3c d2 44 f0 bc d2 66 ae bd
       -0.101984635 0.027864086 -0.029329691 -0.08515705
000110 4a 44 18 3c 01 13 72 bd f1 2e 12 3f 96 ea 05 3e
       0.009293625 -0.059100155 0.57102877 0.13077769
000120 05 ee 39 3e 79 af 5b 3c 5a ad a1 3d 47 fa 20 bb
       0.18157203 0.013408535 0.07894392 -0.002456324
000130 56 2e 92 3e 36 6c ae be 29 84 0a 3e ff c9 cb bd
       0.28550977 -0.34066933 0.13526978 -0.09950637
000140 e3 e1 06 3e 71 41 18 3e b2 11 54 3e bd c0 c2 3d
       0.13172106 0.14868714 0.20709875 0.09509418
000150 b2 ad cd 3c f1 74 db bc 49 ad 9f 3e d0 e3 71 3d
       0.025107238 -0.02678916 0.31186894 0.05905515
000160 9b 2a cf bc 98 d2 dc bd 10 17 06 bf 3f f4 2e be
       -0.02528887 -0.10782355 -0.5237894 -0.1708536
000170 0f 21 68 3e a2 0e 29 3e ce 30 74 3d 4f c8 8b 3d
       0.22668861 0.16509488 0.059616856 0.06825315
000180 60 57 e7 be a5 4e 05 3e e2 fa 4e 3b 57 b5 96 3b
       -0.4518385 0.13018282 0.0031582643 0.004599254
000190 fb d4 66 3d ab ef a6 be 24 f2 c7 bc 67 f9 37 be
       0.056355458 -0.32604727 -0.024407454 -0.17966233
0001a0 8f ac 5e be 06 1a 8c be bb 74 4b be 33 d7 d0 be
       -0.21745513 -0.27363604 -0.19868748 -0.40789184
0001b0 2c c6 8c bc f9 71 c1 be 03 2a 1f bd 7a b8 8c be
       -0.01718434 -0.37782267 -0.038858425 -0.27484494
0001c0 ba 8e 8e bc 4b 80 29 be e7 8f c7 3c d1 50 76 be
       -0.017402042 -0.16552846 0.02436061 -0.24054267
0001d0 ea 45 0f be eb 2a 16 be eb 3b ef bd a2 57 9c bd
       -0.13991514 -0.1466481 -0.1168135 -0.07633902
0001e0 6d a2 5a 3c d6 da 94 be 3d 3b 6c be dd dd 2e be
       0.013344389 -0.2907321 -0.23069473 -0.17076822
0001f0 78 96 35 3c 91 c0 2a be a8 b4 b7 bd 2c a0 c4 3d
       0.011083238 -0.16675021 -0.08970004 0.09600863
000200 03 ab 60 bd c6 a4 14 3f 13 6f 3c 3b 57 1f 98 3e
       -0.05485059 0.58063924 0.0028752729 0.2971141
000210 5d 0b ff 3d 0a e3 bb 3d f9 46 50 be 97 59 1d 3e
       0.12453339 0.09174164 -0.20339574 0.15366207
000220 2a 19 35 3e c7 bc 22 3e 63 c2 fc 3e e2 f0 6d bc
       0.1768538 0.15892325 0.49367055 -0.014522763
000230 40 04 26 3e d8 60 8b 3e ff 30 2a 3c 9a b8 cb 3e
       0.16212559 0.27222323 0.010387658 0.39789277
000240 82 7f e1 bc a8 a2 46 bd 3e c8 a4 3e 77 b0 03 3e
       -0.02752662 -0.048494965 0.32184023 0.12860285
000250 f2 b9 98 3e 6e b0 bf 3d 27 9b 82 ba de 97 e0 3e
       0.29829365 0.09359823 -0.0009964452 0.43865865
000260 49 b1 17 3f bb 0c 8f bd 49 74 e0 3e 72 8b 82 bd
       0.5925489 -0.0698485 0.4383872 -0.06374253
000270 97 ed 42 3e 58 51 09 3e 45 6d 7a 3e 23 47 58 3e
       0.19035946 0.13409936 0.24455746 0.21120887
000280 3a 18 a4 3c 89 a5 e4 3c c2 5d 0e bd e4 74 de 3d
       0.020031083 0.027910965 -0.034757383 0.10862139
000290 d2 7c f8 bc 86 62 03 be 46 dd 36 3f 88 eb 5c 3c
       -0.030332956 -0.12830552 0.71431386 0.013483889
0002a0 25 29 df 3c db c4 36 3e 66 cf 3b 3e 70 84 24 3d
       0.027241299 0.17848532 0.18340835 0.040165365
0002b0 4c 8b af 3e 04 69 59 be b3 7d 9d 3e 54 48 e2 bc
       0.34285963 -0.21231467 0.30759963 -0.02762238
0002c0 aa b7 70 3d 2e 77 7b 3e 21 8b 5e 3e d3 4f 7a bd
       0.058768906 0.24557182 0.21732761 -0.061111283
0002d0 f9 ad da 3e b0 f0 b3 bd 40 cc d0 bc 7f 6c 01 3e
       0.42710856 -0.08786142 -0.025488019 0.12639044
0002e0 74 67 4a 3e 4e d3 87 bd 1f 3e a1 be 8f 7a 1c 3e
       0.19766027 -0.066321 -0.31492707 0.15281127
0002f0 28 0f 07 3f 5a 9b d1 3e e9 97 87 bc fc a3 d7 3e
       0.527575 0.40938836 -0.016551929 0.42117298
000300 73 e9 14 bc 71 4e cf bd 60 64 2f 3e 5b 2b 3f bd
       -0.009088862 -0.101223834 0.17128134 -0.046672206
000310 2a 67 5f 3d 96 33 53 bd 26 00 1f 3f f4 5e 87 3d
       0.054541744 -0.051562868 0.621096 0.06609908
000320 d9 0b 8b bd 19 84 c4 bd 42 27 dd 3d 04 e6 78 3d
       -0.06789369 -0.09595508 0.107985035 0.060766235
000330 af c0 f1 3e 6c b1 b8 bd 41 2b cc 3e 0b 54 98 3d
       0.47217318 -0.090182155 0.3987675 0.07437905
000340 8b 1c 1b 3e 2a b1 ac 3e 4a 52 19 3e 3e a6 79 3d
       0.15147607 0.33728915 0.14972797 0.060949557
000350 dd b1 84 3e af b3 26 be 82 1f 49 3e d7 d2 ea 3c
       0.2591695 -0.16279481 0.19640926 0.02866499
000360 84 c9 40 3c 8b e6 16 3e b4 e7 cf be 31 d7 00 be
       0.011766795 0.14736383 -0.40606463 -0.12582089
000370 32 71 dc 3e 8e d7 8d 3d db 82 58 3c 6d d0 80 3e
       0.4305511 0.069258794 0.013214792 0.25159016
000380 26 b2 37 3e ff 51 65 3d 52 9a 00 bc ae d1 cf 3d
       0.17939052 0.0559864 -0.007849293 0.10147415
000390 d1 18 29 3e ab 62 90 3d db 70 e1 3e 49 e3 20 bd
       0.16513373 0.070500694 0.44031414 -0.039279256
0003a0 a6 b3 e8 3c 69 5f 80 3c ab 71 8e 3e 0a 8a a7 3d
       0.028405976 0.015670495 0.27821097 0.08180626
0003b0 1f 15 2d 3e e5 a6 75 bd c9 68 aa 3e 74 95 d3 bc
       0.16902588 -0.059973616 0.3328307 -0.0258281
0003c0 56 11 de 3c 0b 7a 8f 3e 44 83 0c 3e d1 df d4 bd
       0.027107876 0.280228 0.13721949 -0.10394252
0003d0 10 2e 85 3e 43 31 fb bd a7 7f de 3c c2 2f ca 3c
       0.26011705 -0.12265255 0.027160479 0.024680976
0003e0 58 98 2c bd 97 12 c3 bc a1 d4 ee be df f2 36 bd
       -0.042137474 -0.023812575 -0.46646598 -0.044665214
0003f0 6a 17 dc 3d da e2 99 3e 42 37 40 3e 2b 5e 60 3e
       0.107466534 0.30055887 0.18771079 0.21910922

conv.0.weightnet.net.2.linear.bias f4 [16]
000000 62 fd cc 3e 6b ab 84 3e 89 05 7b 3d a7 31 00 3f
       0.40037066 0.25912032 0.061284576 0.50075763
000010 80 45 14 3f 82 06 0e 3e 27 c6 a7 3d d7 e2 80 bd
       0.5791855 0.1386967 0.081920914 -0.06293266
000020 91 e2 15 3e a6 4e ab be b4 37 05 bf fe f2 9f be
       0.1463721 -0.33458441 -0.5203812 -0.31240076
000030 b9 f7 82 be 8f dc 8a 3e dc ca 1b be a3 d6 89 bd
       -0.25579622 0.27121398 -0.15214103 -0.06730392

conv.0.weightnet.net.2.bn.weight f4 [16]
000000 b1 3d 8b 3f 84 ae 55 3f b7 b4 49 3f 82 03 46 3f
       1.0878202 0.83469415 0.78791374 0.773491
000010 f9 63 71 3f 09 25 78 3f 9d 89 55 3f 3a a5 44 3f
       0.9429317 0.9693151 0.83413106 0.76814616
000020 12 a6 80 3f 02 68 69 3f ef 39 53 3f aa e2 76 3f
       1.0050681 0.9117433 0.82510275 0.9643961
000030 1e 27 5e 3f b4 80 5a 3f 56 ea 78 3f 36 4d 58 3f
       0.8677844 0.85352635 0.9723257 0.84492815

conv.0.weightnet.net.2.bn.bias f4 [16]
000000 8c a0 03 3d 50 dc 25 be a1 0b 9c be de 3f 64 be
       0.03213553 -0.16197324 -0.30477622 -0.22289988
000010 0f 7a 56 bd 96 03 94 bd 22 4c bd be 89 09 a1 be
       -0.052362498 -0.072272465 -0.36972147 -0.31452587
000020 ca 5d dd bc a9 29 da bd 30 45 ab be 3a 57 a3 bd
       -0.027022261 -0.10652477 -0.33451223 -0.079756215
000030 e9 86 06 be b9 d1 1d be b1 55 f3 39 f1 17 82 be
       -0.13137402 -0.15412034 0.00046412417 -0.2540889

conv.0.weightnet.net.2.bn.running_mean f4 [16]
000000 d8 e1 37 3f dd c7 4e bf 49 21 b0 3c e7 c1 ca be
       0.71828985 -0.8077372 0.021500247 -0.3960106
000010 c8 a2 91 3f dc 7b 0d 3f 14 1b f0 3e 55 96 e7 3d
       1.1377802 0.5526712 0.4689566 0.113079704
000020 11 66 36 3f 16 97 d7 bd ab 38 db bd f5 25 34 3e
       0.7124949 -0.10526864 -0.10704168 0.17592604
000030 d9 2e a1 bf f0 a2 a6 3b 42 d2 ec bf 4a 94 8a 3e
       -1.2592422 0.0050853416 -1.8501666 0.2706626

conv.0.weightnet.net.2.bn.running_var f4 [16]
000000 42 72 95 3f 1a 1c 3f 41 2c 15 41 3f 92 f0 05 40
       1.1675494 11.944361 0.7542293 2.0928082
000010 1d d4 d5 3f 52 26 ac 3f c6 7a 38 3f 2c d6 18 3f
       1.6705357 1.3449194 0.7206234 0.597018
000020 e4 f0 a5 40 21 59 9d 40 8d 2e 73 3f cb e5 cc 3f
       5.1856556 4.91713 0.94992906 1.6007627
000030 c5 b5 32 40 55 c4 2b 40 42 2f d1 41 9b a5 48 3f
       2.7923443 2.6838582 26.148075 0.78377694

conv.0.linear.weight f4 [16, 128]
000000 42 6d 45 3d 38 40 09 3e 2b 3e a5 3d 6c 50 b2 3d
       0.0481999 0.13403404 0.08068498 0.087067455
000010 b4 8d b8 3d 1b c7 d7 3d 2c fd cb 3c a2 68 96 3d
       0.09011403 0.10536023 0.024900995 0.07344176
000020 6f 01 14 3d b1 54 9c 3c 4b 15 8c 3d c6 2f cd 3d
       0.03613418 0.019083353 0.06839999 0.10018878
000030 74 03 88 3d 14 3b b9 3d 46 87 a3 3c 21 c4 f7 3c
       0.06641284 0.090444714 0.019961964 0.030244889
000040 cb ba 9a 3d b1 13 da bc d6 c9 7b 3e 1c 7d 9f bd
       0.07555159 -0.026620718 0.24588713 -0.077875346
000050 5a 15 15 bd 17 b0 18 3d 45 83 b0 3d b5 7e dc 3d
       -0.036397316 0.037277307 0.08618788 0.10766355
000060 24 7a bc bc a0 01 36 bd fa ac 16 3d e4 2d 04 bd
       -0.02300746 -0.044435143 0.036786057 -0.032270327
000070 56 f4 8e bd 1e 7b 43 bd 8e fa c5 3c 89 55 8c bd
       -0.06980197 -0.047724836 0.024167325 -0.06852252
000080 81 20 76 3e 05 b2 e3 3d e7 ea e0 3b 10 61 5b 3e
       0.24035837 0.11117939 0.00686394 0.21423745
000090 ae e6 69 3e 61 db 3e 3e 92 42 f7 3c 4f b9 a4 3c
       0.22841904 0.18638374 0.03018311 0.020107893
0000a0 78 30 40 3e e3 67 21 3e 83 86 12 3e b7 46 55 3e
       0.1876849 0.15762286 0.14309125 0.20827757
0000b0 4b 14 4c 3e d7 99 1e 3e a8 7f f6 3d 02 74 da 3d
       0.19929616 0.15488373 0.12036067 0.10666658
0000c0 23 fe 39 3e 21 6b 3e 3e b0 a0 50 bd 7a a6 95 3d
       0.18163352 0.18595554 -0.050934494 0.073071435
0000d0 03 49 3c 3e 8e e6 3c 3e d2 c1 94 3d a5 bd b7 3c
       0.18387227 0.18447325 0.07263531 0.022429297
0000e0 2c 95 70 3e 4e 81 17 3e 66 75 e3 3d ff 4a 80 3e
       0.23494405 0.1479542 0.11106376 0.25057217
0000f0 b4 dc 7c 3e f2 3e 39 3e f0 0d 6e 3e 13 1d f1 3c
       0.24693567 0.18090418 0.23247504 0.029432809
000100 e4 9b 57 3e 0f ec 21 3e 78 2c a0 bd a0 37 86 3d
       0.21055561 0.15812705 -0.07820982 0.065535784
000110 ae ab 2f 3e 58 01 f8 3d 64 60 a1 bc 95 6c cc 3c
       0.17155334 0.12109631 -0.019699283 0.02495412
000120 b3 0d 52 3e 1d 3e 41 3e 42 f6 9e 3d 57 9a 4c 3d
       0.20513038 0.1887135 0.07761814 0.049951877
000130 11 11 36 3e a0 f1 a4 3d eb fb 1d 3e 47 4f 12 3e
       0.17779948 0.08053899 0.1542813 0.14288054
000140 5c 68 38 be 07 43 0b bd 2e 7a c8 bc 40 3d 2d be
       -0.1800856 -0.03399947 -0.024472322 -0.16917896
000150 aa af 8e bc 9f b0 cd bd 3d 5f 11 bd 0e 16 32 bd
       -0.017417748 -0.100434534 -0.035491217 -0.043478064
000160 3d 32 56 bd 82 2f 1c be a1 8c 85 bd 5b 0c ec bd
       -0.052294005 -0.15252498 -0.065209635 -0.11525794
000170 de cf c3 bd 37 0c 89 bd 75 16 27 bd 94 63 30 be
       -0.09561132 -0.06691783 -0.0407929 -0.17225486
000180 4e ac 7a 3e 44 f8 80 3e e3 0b 2d bd 11 86 4f 3e
       0.24479792 0.25189412 -0.042247664 0.20265986
000190 4f 87 34 3e dc d7 18 3e b7 36 18 3e ff d0 42 3e
       0.17629741 0.14926094 0.14864622 0.19025038
0001a0 50 b8 46 3e eb 72 5a 3e 6f 90 be 3d 9d 7a 96 3e
       0.19406247 0.213329 0.09304892 0.29390422
0001b0 dd 32 56 3e be 46 8f 3e 71 bc 97 3e a6 99 56 3e
       0.2091784 0.2798366 0.29635957 0.2095705
0001c0 9e f9 93 be 9e 52 4d be 31 0f f0 bc 82 93 4f be
       -0.2890138 -0.20051047 -0.029304119 -0.20271114
0001d0 fd 5c 37 be 4c b0 70 be 7f a0 38 be 9f c2 52 be
       -0.17906566 -0.23504752 -0.18029974 -0.20582055
0001e0 41 c4 3f be 77 45 90 be 81 0d 7a be 6c 3d 87 be
       -0.18727209 -0.28177997 -0.24419214 -0.2641405
0001f0 a6 30 96 be 01 9e 81 be 13 d5 60 be 16 2f 3c be
       -0.2933399 -0.2531586 -0.21956281 -0.18377337
000200 78 f2 7a 3e 7f c3 05 3d 2a 4e b2 3e af 9c 66 3d
       0.24506557 0.032657143 0.3482526 0.05630177
000210 98 87 36 bd 1b db 50 3e 3d a0 d9 3e f8 79 03 3e
       -0.044562906 0.20396082 0.42505065 0.12839496
000220 75 18 33 3e 6a 9d b3 3e 42 47 3c 3e db 27 02 3e
       0.17489798 0.35081035 0.18386558 0.12710516
000230 b7 28 7d 3e 36 32 28 3d 4f f5 b7 3d f6 25 69 3e
       0.24722563 0.04106351 0.08982336 0.22768387
000240 fa bb 65 bd 1b 15 7b bd 39 bc f8 bd 6d 8e 04 bd
       -0.05608747 -0.061299425 -0.121452756 -0.03236239
000250 e8 f6 2d 3d d7 9d be bc 42 c5 10 3b 1b 09 d1 bc
       0.042471796 -0.023268623 0.002209023 -0.025517037
000260 66 84 e6 3d e8 62 8d 3d 86 2f 34 3d ad 88 0b bd
       0.11255722 0.069036305 0.043990634 -0.03406589
000270 1c 3f 6d 3c 79 3c b3 bd 92 28 84 3d 00 b1 1b 3d
       0.0144803785 -0.087517686 0.06453051 0.038010597
000280 37 f3 03 be ec 8a 52 bd 62 95 83 bd 8d fb 25 be
       -0.12885748 -0.051402017 -0.06424977 -0.1620924
000290 6e 5e 19 be a2 19 71 bd 95 2e 04 3d d1 db f2 bd
       -0.14977428 -0.058862336 0.032270987 -0.11858333
0002a0 4a 6d 07 be 4f c5 6c be 77 fa 37 be c5 24 d0 bd
       -0.13225284 -0.23122142 -0.17966639 -0.10163263
0002b0 50 2e 27 be 2c df 10 be 88 76 84 bc dc 67 f8 bd
       -0.1632626 -0.14147633 -0.016169801 -0.121291846
0002c0 34 05 04 be e7 bb 63 be 74 51 49 bd a2 1d 69 be
       -0.1289261 -0.22239648 -0.049149945 -0.2276521
0002d0 83 16 4a be 6b 52 a3 bd 7e ea f4 3d ee 08 cc bc
       -0.1973515 -0.07974704 0.11958788 -0.024906602
0002e0 a1 7c ec bd 81 23 eb 3c 70 42 a7 bd ed 3f d6 bd
       -0.115472086 0.028703453 -0.08166969 -0.104614116
0002f0 ae 8f 9a bd a5 ed 11 be f1 42 39 be b8 52 08 bd
       -0.07546936 -0.1425081 -0.18091942 -0.03328201
000300 01 10 21 be f4 72 21 be 9c f4 86 bd 92 0c 8d be
       -0.15728761 -0.15766507 -0.06589624 -0.27548653
000310 8e 3d 43 bd 52 78 4a bd 3c f8 f2 3d 0a f4 f7 bc
       -0.047666125 -0.049431153 0.11863753 -0.030267734
000320 8d f2 1a be bc 8c c2 bd e7 e2 e6 bd c2 49 21 be
       -0.15131588 -0.09499499 -0.11273747 -0.15750793
000330 c5 39 14 be c4 d3 41 be 60 56 38 be 62 92 32 be
       -0.14475162 -0.18928438 -0.180017 -0.17438653
000340 65 c1 50 3d ca b9 22 3e b3 42 16 3e 00 b0 d7 3d
       0.050965685 0.15891185 0.14673881 0.10531616
000350 93 72 70 3e 60 4c 33 3e b9 7c af 3b 1b 94 63 3d
       0.23481207 0.17509604 0.0053554443 0.055561166
000360 ef a4 4d bb 5f 12 fc bb 8d ca 59 3d 5d 94 43 3d
       -0.0031378826 -0.0076926197 0.053171683 0.047748912
000370 78 51 d6 3d 8c 12 80 3d 11 a1 26 3e b0 d0 bc 3d
       0.10464758 0.062535375 0.1627238 0.092194915
000380 11 68 10 bd 3f 1c ed bd 17 ed 43 3d 7f cd 52 be
       -0.035255495 -0.11577653 0.04783353 -0.20586203
000390 c8 8f ec bd 9f b1 3d be f4 cc 81 bd 2d 9b 54 bd
       -0.115508616 -0.18524788 -0.0633792 -0.0519058
0003a0 3a 58 47 be d4 cc 45 be fa c0 6d be 1d c6 0f be
       -0.1946725 -0.19316417 -0.23218146 -0.14040418
0003b0 19 ad 06 be ea bd 95 bd c0 74 e9 bd d2 51 e3 bd
       -0.13151969 -0.07311614 -0.113992214 -0.1109959
0003c0 d5 e7 79 3e 30 d2 37 3e ce 1c 91 3c 03 c0 22 3d
       0.24404843 0.17951274 0.01771393 0.039733898
0003d0 c3 d3 23 3e fd 85 04 3e c4 45 0f 3d 30 b3 af 3d
       0.1599875 0.12941737 0.034978643 0.08579099
0003e0 dd c9 02 3e 92 ee f8 3c e8 df 6e 3d 30 1d 1d 3e
       0.12772317 0.030387197 0.058319002 0.15343165
0003f0 d9 c8 d3 3d 6d 2a 93 3d d3 74 14 3e 53 97 40 3e
       0.10341043 0.071858265 0.1449769 0.18807726

conv.0.linear.bias f4 [16]
000000 1d 8a 22 3e 8e f8 4d 3e 9b c9 ee 3d 45 ed 6d 3d
       0.15872999 0.20114347 0.11659547 0.058087606
000010 a1 83 ad 3d bd 0b 95 3c 26 bd 92 3d 0b b4 44 3d
       0.08472372 0.018194074 0.071649835 0.048023265
000020 5d 7e cb 3d bd 5d f2 3d e5 2e 07 3e a7 00 4c 3e
       0.09936211 0.118342854 0.13201483 0.19922124
000030 6f ee a0 3e b0 5b 03 3e e0 e4 42 3d d6 24 89 3d
       0.3143191 0.12827945 0.047581553 0.06696479

conv.2.weightnet.net.0.linear.weight f4 [32, 1]
000000 28 19 2a 3f 1c 13 1a 3f 7e 11 8c be ae 72 0d 3f
       0.66444635 0.6018541 -0.27357095 0.5525311
000010 14 14 11 bf e1 9c ce 3e 8a 81 03 bf a7 ab 1a 3f
       -0.5667126 0.40354064 -0.51369536 0.6041817
000020 4d 86 86 be 9e 2a 1a bf 7d 2a 0b 3f 08 f8 0e 3f
       -0.26274338 -0.6022128 0.54361707 0.55847216
000030 4a 1c 42 be 21 26 12 be 2d f5 33 bf a9 76 1c 3f
       -0.18956104 -0.14272358 -0.70295984 0.6111856
000040 05 bd 0e 3f b4 fd bc 3e 4c b5 08 bf 84 c5 81 3e
       0.5575717 0.3691231 -0.5340164 0.25346005
000050 ad 8d 2f 3e ab 5c 4e 3f 21 cd 8e be 6a 93 3f bf
       0.17143889 0.8061015 -0.27890876 -0.7483431
000060 46 9e 1f be bb 9a c6 3e ac e5 27 3f 69 84 45 bd
       -0.1558772 0.38789925 0.65584826 -0.04822198
000070 76 65 35 3f 19 24 bf 3e 0e 41 cf 3d 7a a9 4b be
       0.7085794 0.37332228 0.1011983 -0.19888869

conv.2.weightnet.net.0.linear.bias f4 [32]
000000 3b 73 04 be 22 fc 25 be 94 59 92 3e 9c f3 99 be
       -0.12934582 -0.16209462 0.28583968 -0.30068672
000010 74 21 1b bf 19 bb 02 3f af 71 02 bf a3 51 62 be
       -0.6059792 0.5106674 -0.5095472 -0.22101454
000020 e3 cb 80 bf e6 2f 34 3f c6 0e 78 3f 7b 95 de 3e
       -1.0062221 0.7038559 0.9689754 0.4347342
000030 02 37 87 be 15 f7 2b 3f 04 3d bb 3e 45 42 d9 bd
       -0.26409155 0.6717389 0.3656999 -0.10608343
000040 0b 34 c5 be 2b 72 86 bf 55 de 01 bf dd a3 19 3f
       -0.38516268 -1.0503591 -0.50729877 0.6001566
000050 dc 57 10 3f 58 8e d8 3e 16 a5 86 bb ae 2c 34 bf
       0.5638406 0.422961 -0.0041090352 -0.70380676
000060 a1 5b c8 be 5e 26 0b bf 46 37 2c 3f cb 10 a4 3e
       -0.39132407 -0.5435542 0.6727184 0.32044062
000070 ae 14 b4 3e 7a 2d 9d 3f b1 af e0 be 03 68 ad 3f
       0.35172027 1.2279503 -0.43884042 1.3547367

conv.2.weightnet.net.0.bn.weight f4 [32]
000000 b8 99 41 3f 99 02 6e 3f d4 ba c3 3f 17 d3 f6 3e
       0.7562518 0.92972714 1.529139 0.48207924
000010 8f d8 ce 3f 2d 5a 54 3f 80 76 c8 3f 38 f3 47 3f
       1.6159838 0.829501 1.5661163 0.781055
000020 ea b6 8d 3f 2a 53 bb 3f 8f a0 6c 3f a1 e4 31 3f
       1.1071446 1.4634755 0.9243249 0.69489485
000030 61 88 d4 3f b4 85 9d 3f 88 92 af 3f 42 52 7a 3f
       1.660412 1.2306428 1.3716593 0.97781765
000040 17 de 2d 3f d5 97 4a 3f 29 16 ac 3f 27 c9 39 3f
       0.6791701 0.7913793 1.3444263 0.7257256
000050 ce 82 42 3f 3f 30 6a 3f 93 6f d0 3f c8 bf c6 3f
       0.7598084 0.9147987 1.628405 1.5527277
000060 0a 0c bf 3f 53 fc 51 3f 77 d5 2c 3f c8 38 ad 3f
       1.4925549 0.8202564 0.6751322 1.3532953
000070 cc 7c 5b 3f cb 92 59 3f 73 e0 50 3f 22 e7 cc 3f
       0.857373 0.84989613 0.8159248 1.6008036

conv.2.weightnet.net.0.bn.bias f4 [32]
000000 c9 e0 0a bd 37 23 43 bd a4 9f 97 3d 98 d8 3a be
       -0.033905778 -0.047641005 0.07403496 -0.18246686
000010 33 43 9b 3d 12 68 94 bd c2 42 f7 3d 9c 46 90 bd
       0.075811766 -0.07246412 0.1207328 -0.07044718
000020 80 0e d0 3d e7 72 0d 3e e8 6d 31 bd 9c 1d 34 be
       0.10159016 0.13813363 -0.043317705 -0.1758942
000030 28 65 fc 3d a5 8a e1 3b 84 1e e5 3d df 44 a4 bc
       0.123239815 0.006882983 0.11187461 -0.020052372
000040 32 b8 8c be db 12 25 bd 44 61 85 3d 75 33 c8 bd
       -0.2748428 -0.040301185 0.065126926 -0.0977544
000050 89 72 5d be bf ca 07 be b3 05 e1 3d 16 34 b3 3d
       -0.21625723 -0.13260935 0.10987415 0.08750169
000060 56 07 31 3e 12 d7 dd ba 01 5d 05 be b4 8b 93 3d
       0.17287955 -0.0016925058 -0.1302376 0.07204381
000070 4d 59 15 be 32 16 ec bc 48 2e 85 bd b3 c3 d1 3d
       -0.14584847 -0.028819177 -0.06502968 0.10242405

conv.2.weightnet.net.0.bn.running_mean f4 [32]
000000 00 20 05 be 13 9c 25 be ae 86 92 3e 9e 1e 9a be
       -0.13000488 -0.16172819 0.28618377 -0.30101484
000010 76 09 1b bf 56 18 02 3f ea 01 02 bf 14 d0 60 be
       -0.6056131 0.50818384 -0.5078417 -0.21954376
000020 02 8b 80 bf 84 85 34 3f 74 89 77 3f 55 2b de 3e
       -1.0042422 0.7051623 0.9669411 0.43392435
000030 1c 90 87 be f4 c5 2b 3f eb 8f bb 3e 51 88 d9 bd
       -0.26477134 0.6709893 0.36633238 -0.106217034
000040 5a 24 c5 be 06 6e 86 bf b8 2f 01 bf 3e 6f 19 3f
       -0.38504297 -1.0502326 -0.5046344 0.5993537
000050 35 82 10 3f 63 38 d8 3e 05 c6 81 bb 36 92 34 bf
       0.5644868 0.4223052 -0.0039603733 -0.705356
000060 b8 48 c8 be 58 36 0b bf 8e f7 2b 3f 3e ae a4 3e
       -0.3911798 -0.54379797 0.67174613 0.32164186
000070 81 1a b4 3e 5d 45 9d 3f 6e 37 e1 be fe 6b ad 3f
       0.3517647 1.2286793 -0.43987602 1.3548582

conv.2.weightnet.net.0.bn.running_var f4 [32]
000000 d8 b0 c8 3c 5d 9b a5 3c 8a 5d 8a 3b 04 60 8b 3c
       0.024498388 0.020215685 0.0042225765 0.017013557
000010 54 ad 92 3c 2e d3 14 3c 93 05 71 3c 05 54 a6 3c
       0.017904915 0.009083552 0.014710802 0.020303736
000020 e8 47 7b 3b d8 c3 a5 3c 3c bf 86 3c 29 3d 8e 3c
       0.003834242 0.020234987 0.01644861 0.017363148
000030 94 41 03 3b da be 93 3a e9 e8 e1 3c 70 b6 aa 3c
       0.0020028101 0.0011272088 0.02757688 0.020838946
000040 1f e7 8d 3c 53 52 f9 3b 0f 48 82 3c 50 27 6c 3b
       0.017322121 0.0076086908 0.0159035 0.0036034174
000050 b7 18 d6 3a 34 a6 14 3d 4d 37 8f 3b dd c3 fe 3c
       0.001633427 0.036291316 0.004370606 0.031099254
000060 c6 87 b2 3a a5 51 09 3c 1c 6b c4 3c 4f d3 07 39
       0.0013620786 0.008381282 0.023976855 0.00012953322
000070 df f3 e5 3c ea 9b fe 3b 2f 7d 13 3a 35 cd 10 3b
       0.028070388 0.0077700512 0.0005626259 0.002209497

conv.2.weightnet.net.1.linear.weight f4 [32, 32]
000000 aa 0e 2b bd 02 9d 3f be 6b aa ab be 78 3c 38 bd
       -0.04176203 -0.18712237 -0.33528456 -0.044979542
000010 9d 3c 10 bf 4f 9f c9 bd ae f6 ae be 56 eb 34 bc
       -0.5634249 -0.09844839 -0.34172577 -0.011042437
000020 3b af ae bd da 61 ab be 6d ea 3e 3d 9e c3 00 be
       -0.08529516 -0.33473092 0.046610285 -0.12574622
000030 4a 4e db be ae 13 ef be 94 4c 00 bf 88 2d 1e 3d
       -0.42833167 -0.46694702 -0.5011685 0.03861764
000040 8f f6 15 be 6c b1 02 be fa 38 f4 be dc d5 44 be
       -0.14644836 -0.12762994 -0.4769972 -0.19222206
000050 47 31 36 be aa fb 1e be a7 d0 fa be 53 56 7f be
       -0.17792235 -0.1552569 -0.48987314 -0.24935274
000060 bd 5c 8d be db 3a 03 be 12 77 44 be 1f f0 69 be
       -0.27609816 -0.1281542 -0.19186047 -0.22845505
000070 ee 18 6e bd 11 f9 4c 3d 01 9e 87 be 3e 73 5f be
       -0.058129244 0.050042216 -0.26487735 -0.21821305
000080 ec e0 6f be 7c 9f c3 be e5 53 c2 3d 10 e2 66 be
       -0.23425645 -0.38207614 0.09488658 -0.22547174
000090 5f 33 5f 3e 09 f1 43 be a6 e0 26 3e 45 6d ce be
       0.2179694 -0.19134916 0.16296634 -0.4031774
0000a0 29 47 39 3e ca 6b 91 bd 68 bb 8f be 13 30 52 be
       0.18093552 -0.07100637 -0.28072667 -0.20526151
0000b0 22 f2 0e 3e 90 73 9d 3d aa 67 66 3d 27 40 55 be
       0.13959554 0.076880574 0.056251206 -0.20825253
0000c0 2a d0 47 be a8 f8 e3 be 77 1d 77 bc 27 c3 ca be
       -0.19513002 -0.44525647 -0.015082709 -0.39602014
0000d0 d4 06 8f be 65 51 89 be 51 da b2 bc 3b 62 2b bd
       -0.27934897 -0.26819912 -0.021832617 -0.041841727
0000e0 27 99 6d 3e e9 8d 14 be 79 2b c5 be 45 2c a8 3d
       0.23202954 -0.1450726 -0.3850973 0.08211569
0000f0 29 fb c2 be cc ab 83 be 1f f5 bb be 1d c1 b7 bd
       -0.38082245 -0.25717008 -0.3671045 -0.0897238
000100 4f 08 ce bc a0 89 ce bd 48 3e 1d bf ee d8 cb bd
       -0.025150446 -0.10084844 -0.6142316 -0.099534854
000110 c1 7a 1f bf 08 71 98 bd e2 d4 35 bf a2 cd 52 be
       -0.6229668 -0.07443434 -0.7102796 -0.20586255
000120 0b 42 ae be 90 58 4b bf 3b 2e cb bc e1 08 38 be
       -0.34034762 -0.7943201 -0.024802318 -0.17972137
000130 c4 33 32 bf f0 40 9c be b0 28 3b bf 39 06 10 be
       -0.6961024 -0.30518293 -0.7310896 -0.14064874
000140 86 32 0b 3d ed c3 e0 3d 00 b0 11 bf ff 7c ea bd
       0.03398373 0.1097487 -0.5690918 -0.11449622
000150 cf d2 57 bd 27 5c 95 bd 24 e8 21 bf 3a fa 54 bf
       -0.052691277 -0.07292967 -0.63244843 -0.83194315
000160 b2 3d 1f bf 05 7d 6a be 14 c3 94 bd 4c 71 2b bf
       -0.62203515 -0.22899254 -0.07263771 -0.6696975
000170 57 15 6e bd cc 08 e8 bc 11 9d 6f be 02 05 2f bf
       -0.05812582 -0.028324507 -0.2339976 -0.68367016
000180 57 8e 3c be ce 26 6e 3d fe 65 b7 be b1 60 0d be
       -0.18413673 0.058142476 -0.3582 -0.13806416
000190 9c 9e b6 be b8 aa 07 be 86 6d f6 be c5 9a 8c bd
       -0.35667884 -0.13248718 -0.48130435 -0.068654574
0001a0 dc 64 ab bd 52 3e cd be a6 70 5e bd 74 93 83 3c
       -0.08368847 -0.4008661 -0.05430665 0.016061522
0001b0 7d 6f cf be a2 83 96 be 35 ad 90 be a9 08 65 bd
       -0.40514746 -0.29397303 -0.28257146 -0.055916462
0001c0 c5 65 9f bd 0c 2c 3e be 03 45 d1 be 6e 6d f8 bd
       -0.07783083 -0.1857149 -0.40872964 -0.12130247
0001d0 32 57 80 be 1f 10 cb bd a2 57 86 be a2 d7 ae be
       -0.25066525 -0.09915184 -0.26238734 -0.3414889
0001e0 6d e5 c6 be 79 71 26 be 90 78 06 be 3d 64 8c be
       -0.38846913 -0.16254224 -0.13131928 -0.27420226
0001f0 ff eb 87 3d 6a a3 19 be 4a 1f 46 3d 6e 9f e9 be
       0.066368096 -0.15003744 0.048369683 -0.45629448
000200 73 37 ef bd 9b b9 56 bd 77 f1 2b 3f 80 df 11 3e
       -0.11680498 -0.0524231 0.6716532 0.14245415
000210 a1 a7 30 3f 93 aa 81 bd 25 f0 48 40 48 b1 cc bc
       0.6900578 -0.063313626 3.1396573 -0.024986878
000220 e0 17 9f 3f 62 f3 ee 3f e6 2c a7 bd e6 5c 9b ba
       1.2429161 1.8668025 -0.081628606 -0.0011853247
000230 62 53 14 40 10 0c 82 3e dc 3f a0 3f c0 63 44 3b
       2.3175893 0.25399828 1.2519488 0.0029966682
000240 3e 2a 25 3e f7 e0 0c be d2 ac fc 3e e3 4c 95 bd
       0.16129395 -0.13757692 0.493506 -0.072900556
000250 0d 48 6e 3d 41 36 00 3e 8f 4e 94 3f 73 21 41 3f
       0.05817418 0.12520696 1.1586474 0.75441664
000260 e0 5e 97 3f 5a ee 76 3d 32 a5 b0 bc d7 b9 e4 3e
       1.1825829 0.060285904 -0.021563146 0.44673035
000270 48 21 df bd 1f 0e ee bd c2 1b a3 3d 58 54 49 3f
       -0.1089502 -0.11623787 0.07964279 0.78644323
000280 e7 59 5a be 8d 33 88 be e2 ef da be ba 66 85 bd
       -0.21323358 -0.2660183 -0.4276114 -0.06513734
000290 66 5c e0 be b9 62 c4 bd 08 87 9a be a9 c9 05 3d
       -0.43820494 -0.09589142 -0.30181146 0.03266302
0002a0 ba 5c a3 be 43 17 d0 be 48 56 24 3c db 83 eb bc
       -0.31906682 -0.40642747 0.010030337 -0.028749397
0002b0 c7 04 56 be 75 e9 e7 be 60 52 ef be f9 d5 8d bd
       -0.2090026 -0.452953 -0.46742535 -0.06925578
0002c0 68 8e 30 bd 19 ed 37 bd f5 1d 46 be da 5b eb bd
       -0.04310456 -0.04490385 -0.19347365 -0.11492129
0002d0 a3 99 7a 3d b6 f6 e7 bc 6f 32 d1 be 87 6b df be
       0.061181676 -0.028315883 -0.4085879 -0.43636724
0002e0 88 c5 d3 be 78 43 b3 bc 7f 33 1d be 8c e3 58 be
       -0.41361642 -0.021882758 -0.15351675 -0.21180552
0002f0 50 d5 4d be a4 38 c2 ba 87 a4 96 3d 04 b3 06 bf
       -0.20100904 -0.0014817906 0.073556 -0.52616906
000300 59 92 3b be e6 43 33 be f0 f9 d9 be f6 1c c4 3d
       -0.18317546 -0.1750637 -0.425735 0.09575836
000310 88 6d fe be dd 1f 19 be 61 75 fd be b4 4a 12 be
       -0.4969294 -0.14953561 -0.49503615 -0.1428631
000320 58 37 70 be 88 56 ea be cd c3 7b 3d 5a 31 ff 3c
       -0.23458612 -0.45769143 0.061466027 0.031151462
000330 77 56 c4 be 6a c1 aa be ec e2 82 be 1a 5e a2 3d
       -0.38347217 -0.33350688 -0.25563753 0.07928105
000340 35 a2 e1 3d aa 9b 17 be f2 1b 9b be c5 80 e7 3d
       0.11017267 -0.14805475 -0.30294758 0.11303858
000350 15 c4 64 be 5c 9c 33 be 8e 11 1c bf 2e 26 77 be
       -0.22340424 -0.17540115 -0.60964286 -0.24135658
000360 ea 16 f3 be 9a 4d 76 bd 2c 61 85 3d fe d5 01 bf
       -0.4747842 -0.0601326 0.06512675 -0.5071715
000370 c2 72 ef bd 2e c4 30 be 9a 89 b8 bd 43 db 89 be
       -0.1169181 -0.17262337 -0.090106204 -0.26925096
000380 c5 f7 e6 3c a0 74 aa bd 3e b3 a5 3f aa f0 2e 3e
       0.028194318 -0.08323026 1.2945325 0.17083994
000390 f7 1d 58 3f f7 d2 ff 3c a9 bb cb 3f d9 e3 cb bd
       0.8442072 0.031228526 1.5916644 -0.09955568
0003a0 95 b2 d2 3e 06 ab e8 3f 27 c8 76 3d 92 55 8a bc
       0.41151872 1.8177192 0.060249474 -0.016886506
0003b0 e6 3a 10 40 0d 5f fe 3e 9d 64 15 40 14 b5 12 bd
       2.2535949 0.49681893 2.334266 -0.03581722
0003c0 fa b0 19 3e d5 f0 1a bb a9 1c da 3e fa 24 ac bd
       0.15008917 -0.0023642082 0.4259999 -0.0840549
0003d0 03 9f ef 3d 5f ee 7a bc be d8 40 40 f5 0c 99 3f
       0.11700251 -0.015315621 3.013229 1.1957079
0003e0 31 e3 3a 3f 9f b0 08 3e 48 78 e9 3c f7 fc bc 3d
       0.73002917 0.13348626 0.028499737 0.09227937
0003f0 77 69 e6 bd ad 85 f8 3d d0 62 06 bc b1 07 28 40
       -0.112505846 0.12134872 -0.00820227 2.6254694

conv.2.weightnet.net.1.linear.bias f4 [32]
000000 c7 fa c9 be bd c3 5c 3e 04 f6 34 be dd 7e fc 3d
       -0.3944914 0.21559043 -0.17671973 0.12328885
000010 4b 9f 13 be 02 28 2c be d8 48 17 3e 4e 6b 1f 3b
       -0.14416234 -0.16812137 0.14773881 0.0024325433
000020 06 b0 b1 be cd 60 1f be 69 c1 b0 bd 3e b5 0d 3e
       -0.34704608 -0.1556427 -0.0863064 0.1383867
000030 8d b5 ba be b0 fd 9d 3e 4a 26 8e bc 20 5e 9d bd
       -0.36466637 0.3085761 -0.017352242 -0.076839685
000040 55 0b 0f be cc d8 9f bd 16 e7 14 be 47 2b ca bd
       -0.13969167 -0.078050226 -0.14541277 -0.09871536
000050 81 47 a7 bd 09 9c 0c bc fc e1 b2 be 78 5e 82 bd
       -0.08167935 -0.008582124 -0.34938037 -0.06365675
000060 3d 96 fa 3e b7 a4 43 bd 93 d2 f3 bd 38 7f 3c be
       0.48942748 -0.047764506 -0.11905398 -0.18407905
000070 35 15 e3 bd 62 61 de 3e c7 a5 7e bb 15 9f 5c 3d
       -0.11088029 0.43433672 -0.0038856135 0.05386265

conv.2.weightnet.net.1.bn.weight f4 [32]
000000 72 56 80 3f 36 2a 69 3f 93 8f 9b 3f 37 00 96 3f
       1.0026381 0.91080034 1.215319 1.1718816
000010 5a 5c 63 3f e7 f5 97 3f 61 b2 94 3f f4 b4 87 3f
       0.8881279 1.1871918 1.1616937 1.0602098
000020 b3 e6 b1 3f 28 d6 8a 3f 78 65 72 3f c1 b4 89 3f
       1.3898529 1.0846605 0.9468608 1.0758287
000030 45 7c 83 3f ec 58 9b 3f 86 d3 b8 3f 7f 33 8a 3f
       1.0272299 1.2136512 1.4439552 1.0796965
000040 7e 93 61 3f 06 07 89 3f d3 2e 8b 3f 6d fd 89 3f
       0.8811568 1.0705268 1.0873665 1.0780464
000050 a4 65 6b 3f 9a b1 95 3f 3f 2c 74 3f e9 7e 93 3f
       0.91951966 1.1694825 0.95380014 1.1523105
000060 6d fe 90 3f 88 0d 94 3f ee b4 85 3f c7 08 cd 3f
       1.1327645 1.156663 1.044584 1.6018304
000070 bd 5f 90 3f 53 c7 8c 3f 3a 01 81 3f 6c 95 8c 3f
       1.1279217 1.0998329 1.0078499 1.09831

conv.2.weightnet.net.1.bn.bias f4 [32]
000000 c7 61 fd bd f8 33 f3 3d 9d 39 b0 3c 25 27 08 3e
       -0.12372165 0.118751466 0.021511847 0.13296182
000010 d6 37 d2 bc 27 55 22 bd 08 ad 4a 3e 8e 94 a3 3d
       -0.02566139 -0.03963199 0.19792569 0.07987319
000020 a2 af a3 3d 66 d3 d0 3d 15 4e c5 bd f8 28 04 3e
       0.07992484 0.10196571 -0.096340336 0.12906253
000030 01 fa e4 3d da e5 26 be 0e 52 5e 3e 26 96 c2 3d
       0.11180497 -0.16298619 0.21710989 0.09501295
000040 5a b9 a4 3d e8 36 98 3b be ad 02 3e fc b2 1b 3c
       0.080431655 0.004645217 0.1276159 0.009503122
000050 9d fe f3 3d 0d 2d 94 bc d6 a8 85 3d 3f dd 6c 3d
       0.11913798 -0.018087888 0.065263435 0.057828184
000060 0f bb 85 3e 31 73 1b 3e d6 f5 cf be 5c bf 0f be
       0.26119277 0.15180661 -0.40617245 -0.14037842
000070 33 17 a5 bd 9d b5 97 3d 83 fe 25 bd fe 47 88 be
       -0.080610655 0.07407687 -0.040525924 -0.26617426

conv.2.weightnet.net.1.bn.running_mean f4 [32]
000000 bc 24 3a c0 9a 8e 17 3e 25 7d 92 c0 3c fb 14 c0
       -2.908492 0.14800492 -4.5777764 -2.3278341
000010 88 6c f8 40 65 b3 2f c0 25 2d 28 c0 92 2c 19 41
       7.7632484 -2.7453244 -2.6277554 9.573381
000020 b8 cf 2d c0 1a 79 0a 3f f5 f0 2c c0 fd 35 04 41
       -2.7158031 0.54091036 -2.7022069 8.263181
000030 53 5b 33 bf 05 58 57 c0 50 39 a8 3e 44 0e bb 40
       -0.70061225 -3.3647473 0.32856226 5.8454914
000040 f1 1e b9 40 ba 57 75 ba d5 35 10 41 8a 5a 20 c0
       5.785027 -0.00093590806 9.013143 -2.505526
000050 29 e1 20 40 b8 a1 4b c0 2b 14 52 be 9a 95 22 c0
       2.5137427 -3.1817455 -0.20515506 -2.540381
000060 3d 9d 1f 41 7d 10 2f c0 69 40 5e c0 28 d6 d8 bf
       9.975888 -2.7353814 -3.4726813 -1.6940355
000070 fc 4d d3 bf ff fb 7d bf 02 1a bb bf 34 6d 3a c0
       -1.6508174 -0.9921264 -1.4617312 -2.9129152

conv.2.weightnet.net.1.bn.running_var f4 [32]
000000 5c ae 6b 41 c0 bb eb 40 6d ad 4f 42 fc 3b 61 41
       14.730068 7.3666687 51.91936 14.077145
000010 3e 9f 4d 43 bc f4 88 41 84 af 9b 41 ca 41 90 43
       205.62204 17.1195 19.460701 288.51398
000020 2b b7 34 41 ce cf 1d 41 5a d5 80 41 69 16 4f 43
       11.294719 9.863234 16.104176 207.08754
000030 29 92 15 41 e1 1d 12 42 7c 66 9e 41 fa e2 c6 42
       9.348184 36.52918 19.800041 99.44331
000040 12 7d ef 42 16 59 83 41 51 91 84 43 c0 37 b8 41
       119.74428 16.418499 265.13528 23.027222
000050 c6 82 f2 41 ea ea e5 41 76 f2 0f 41 99 b4 67 41
       30.313854 28.739704 8.996695 14.481591
000060 5d 4f 8e 43 e7 86 87 41 83 43 00 42 b8 81 ef 3f
       284.62003 16.94087 32.06593 1.8711462
000070 f9 19 05 40 06 f8 be 41 d2 66 2a 41 bb c0 b7 41
       2.0797102 23.871105 10.650103 22.969107
