weights/1dreg/matern/matern_cnp.pth (torch_old, 335618 bytes, 14 tensors)

encoder.0.weight f4 [128, 2]
00000000: 118a c2bc 8fa1 6b3c e02c 2c3d 5002 3cbe
00000010: 254e ed3e abeb 983e b8c4 2bbf 0dbe 6f3d
00000020: ab92 083f bd33 ffbe da83 e6be 3982 fd3e
00000030: 682b 843e 6b9e 4abd 5797 47be 1ca3 c93c
00000040: 986e 59bc 6775 91bd 3bc1 f73d b9d1 cbbd
00000050: 598a b4be 16c5 203f 8283 083e 8a91 f73d
00000060: 1000 1fbf f814 35be 2285 833e b96f 1abe
00000070: e62f d0be 2b92 a4bd fe39 5dbe 937e 5a3e
00000080: 8f02 0b3f 7ff6 6a3d d8a6 69bc a1e5 80be
00000090: 0591 fdbe 97a7 0bbe 2a35 50bf 6d50 13be
000000a0: 17ca 62be 82bc e3bd a65f 093e 2368 453b
000000b0: 2d1c bd3c 22d9 4abd c74a 82bd bae8 473c
000000c0: 3401 863d b52e 0e3c eb0b 243f a83b 813e
000000d0: cfe2 a73e 8e20 84be 6d57 f1be e1fe 663d
000000e0: 2e94 4b3e 9a25 38be 5706 323e 2991 08be
000000f0: c0e9 57bc 5660 193c cf92 7a3d ab64 3cbb
00000100: 74e1 803d 865b b23d aaf8 26be 4ea1 90bb
00000110: e28d 8fbe 9399 80be 70b4 cbbe effd 8dbe
00000120: fadf 54bd cd2e 513d f4c2 083f bd4b 463e
00000130: 074a 34bf 2e92 7d3e 277b d73b 0804 8137
00000140: 6808 e33b 08d1 733a b645 04bf 1558 30be
00000150: 8192 96bc dd24 13be 898e d3bd 0546 0f3e
00000160: ccac 90bc db0e 8abe b454 af3e 8587 24be
00000170: 604d d3be 6cab 99be c951 4c3d e32f fcbd
00000180: 7d70 1abb 5396 70ba 0cd6 d1be 6ccc 0f3e
00000190: 068f 4f3f 6b5b 99bd 0867 e7b9 201c da3b
000001a0: d1b1 fdbe b05b 073e 6e26 20bf 545b d7be
000001b0: e3b1 49be 47aa c1be 1a9d 043f 15c8 803e
000001c0: 4b13 ddbe f9b9 84be e2d4 5d3e 1869 243e
000001d0: 42f4 0d3e 1f48 00bf 2cd7 f03e 3610 f3bd
000001e0: 0b5c 493d 27ab 59bc f698 0cbf f796 bdbe
000001f0: 8c86 0b3e 186b 66bb f35f 943e 5ed4 2bbc
00000200: f0a2 25bf 066b 3bbe ab77 b53e 988e c8be
00000210: 9845 62be 47a3 8f3e 67d6 33bf 05bd a53d
00000220: 0020 f238 8063 45bc c738 fe3d 479c 69be
00000230: 15e4 3f3d 55f8 22be 0eff 28be 1803 993c
00000240: bd9e 95be 2561 263e d4e1 a2bc e88c c0b9
00000250: 732a 68be e926 10bd 801b 00be 40f5 98bd
00000260: e500 0dbf 1cfb f1be 04c9 223c 0e72 3b3a
00000270: bd3b 81be 2982 5bbe 7d27 d83d 4bcb d2be
00000280: 57ab 1dbe 3047 0cbe 8c25 f3bd 0405 fa3d
00000290: aa80 8ebe 7dde f43b 9a2b 573d 7a3a abbe
000002a0: 416f c3be 94f3 873e bbe8 c1be a00c 5b3d
000002b0: 6577 bebe 9092 97bc 6e46 47be 563a 963b
000002c0: 36d1 9a3e 97bc 12be 9ef2 91bc 8ebf b03d
000002d0: a866 04bf f3f0 cebc 2fa1 18bf 0624 913e
000002e0: e4d9 b2be 1784 243e 9363 06bd e80c c43e
000002f0: 61c4 8c39 07d3 c5bb 239d 1dbf 69da 293e
00000300: 002b fc3d dc54 343d 9a76 e23d a539 87bc
00000310: 0839 a63e 5f25 9a3e 26ff cf3c 9cbc d6ba
00000320: 969b 283e c60e 933e 8805 0a3e 681e 20bc
00000330: 49b5 393e d563 84be 6bbe dc3e 55a1 8bbe
00000340: fe71 9f3e 0e3c bd3e 0ec3 b93e fd81 423e
00000350: ff98 c7be 9bca eebd ef26 623e 2e05 23bd
00000360: 4d17 9cbc ec51 133e de99 cebe b3dd 7a3e
00000370: 3e31 19be 1d80 9e3e 0044 f7be d6ec 71be
00000380: 9ac8 c63e 3dbe c5be aaaf 0fbf 4ab0 d4bd
00000390: 381f 953d 4146 463e aa88 373f a42f f33d
000003a0: b937 bebe 2f17 2abe 72cc aebb c640 b5bd
000003b0: c9cb 333f bba9 a0be f8e2 f13e 2436 9f3e
000003c0: 5432 c93e ef4b 913e eb76 303f 8ce4 f4bd
000003d0: a5ac 7b3e da50 e6be e267 693f 401a 033e
000003e0: cb8d 3b3c 464d e5b8 90e4 983d fde1 843d
000003f0: 4284 413f 3d8e 34be 7b3e b0bc 1854 bcbd
-0.023747476 0.01438178 0.042034984 -0.18360257 0.46348682 0.298673 -0.67097044 0.058530856
0.533488 -0.4984416 -0.4502247 0.49513415 0.25814366 -0.049467485 -0.19491325 0.02461391
-0.0132709965 -0.07102471 0.12097403 -0.09952111 -0.352618 0.6280073 0.13331416 0.12088306
-0.6210947 -0.1768378 0.2568751 -0.15081681 -0.40661544 -0.08035692 -0.21604154 0.21337347
0.5430078 0.057363983 -0.01426097 -0.25175193 -0.49524704 -0.13638149 -0.8133112 -0.14386149
-0.22147404 -0.111199394 0.13415393 0.0030121885 0.023084724 -0.04952348 -0.06361919 0.012201482
0.06543198 0.008678128 0.64080685 0.25240827 0.3279023 -0.25806087 -0.47137013 0.056395415
0.19880745 -0.17983094 0.17385231 -0.13336624 -0.013178289 0.009361347 0.061175164 -0.0028746526
0.06293002 0.08708863 -0.16305795 -0.0044137603 -0.28037935 -0.25117168 -0.397861 -0.27732798
-0.051971413 0.051070023 0.53422475 0.1936483 -0.70425457 0.24762794 0.00657596 1.5379876e-05
0.0069284923 0.00093008624 -0.5166887 -0.172211 -0.018380405 -0.14369531 -0.10329921 0.13991554
-0.017660521 -0.2696446 0.3424431 -0.16067322 -0.4126997 -0.30013597 0.049882684 -0.12313821
-0.0023565583 -0.00091776735 -0.40983617 0.14042825 0.8107761 -0.0748814 -0.00044136518 0.006656185
-0.49549726 0.1321857 -0.6255864 -0.42061865 -0.19696765 -0.37825224 0.5180222 0.2515265
-0.43178782 -0.25923136 0.2166324 0.16055715 0.13862708 -0.5011005 0.47039163 -0.11868326
0.049160045 -0.013285435 -0.549209 -0.3702924 0.13625544 -0.0035159048 0.28979453 -0.010487644
-0.6470175 -0.18302545 0.35442862 -0.3917129 -0.2209686 0.28054258 -0.70249027 0.08092693
0.0001154542 -0.012047648 0.12413173 -0.22813521 0.046848375 -0.15915044 -0.16503546 0.018678233
-0.2922267 0.16247995 -0.019883074 -0.00036726077 -0.22672443 -0.035193358 -0.1251049 -0.07468653
-0.5507949 -0.47261894 0.009935621 0.00071504794 -0.2524089 -0.21436371 0.10554407 -0.41170725
-0.15397392 -0.13699031 -0.11872396 0.12207988 -0.27832538 0.0074728117 0.052531816 -0.33443052
-0.38170817 0.26553023 -0.37872872 0.053478837 -0.37200466 -0.018502504 -0.1946046 0.004584591
0.3023774 -0.14329754 -0.017815884 0.08630286 -0.5171914 -0.025261378 -0.59620947 0.28347796
-0.34931862 0.16066013 -0.032809805 0.38291097 0.00026849195 -0.0060371193 -0.61567897 0.16587223
0.12312889 0.04402624 0.11057778 -0.01650698 0.32465386 0.30106637 0.025390219 -0.0016383114
0.16465601 0.2872221 0.13478673 -0.009772874 0.18135561 -0.25857416 0.43114027 -0.27271524
0.31141657 0.3695988 0.36281627 0.18994899 -0.38983914 -0.11659738 0.22085164 -0.03979986
-0.01905408 0.1438672 -0.40351766 0.24498634 -0.1496019 0.30957118 -0.48294067 -0.23625502
0.38824922 -0.38621703 -0.5612742 -0.10385187 0.07281345 0.19362737 0.7169291 0.11874321
-0.37151888 -0.16610406 -0.0053344304 -0.08850245 0.70232826 -0.31379494 0.47243476 0.31095994
0.3929621 0.28378245 0.68931454 -0.11957654 0.24577577 -0.4498356 0.9117414 0.12802982
0.01144738 -0.00010933964 0.0746547 0.06488416 0.75592434 -0.17632385 -0.021514168 -0.09195727

encoder.0.bias f4 [128]
00000000: ec36 dcbc e1ee 403e 22bd 883e 3da2 1dbf
00000010: 2e10 09bf e2ad 3fbf 15c8 093e f921 aa3d
00000020: 7a74 fb3c 41b1 583e dd1e 34bf ba4e 413e
00000030: d535 083c 5688 81bd cfeb afbc 0524 03bd
00000040: 94bd 9fbe 0f23 3dbe 5376 1abf b025 51bf
00000050: 102f 58be 75d5 97be 3513 9ebe dde5 583c
00000060: 774e a63d 5dc8 37bf 3f28 98bd 754d b4bd
00000070: cedb 923d 7725 903e 45f7 7dbd da39 07be
00000080: c9d7 c9be a485 a8be 44df 61bf 2a68 38bf
00000090: d584 2e3e a259 eebe e0a3 17bf fd38 27bd
000000a0: 23bf b5bc 4279 9bbe 07ef 29bf 4d8a 08bf
000000b0: ba9d a9bd f7cf 0cbf f810 25bf eb01 d7be
000000c0: 7e2b 8abc 1ad8 ae3e 1360 e1be 44d0 39bd
000000d0: 5ec5 93be ed66 0dbe 6042 713d a835 80be
000000e0: df68 99be 93b9 75be b8dc 49bf 40f0 9fbe
000000f0: cb5b 2dbd 2e14 4abf 1755 803e 5c35 d1be
00000100: f685 b9be abf5 cb3e 2437 363e ce72 29bf
00000110: 5636 07bf a92d 9f3d 6e1e 763e 080e 993e
00000120: 84b4 35be ee03 28bd b590 9bbe f97c e23c
00000130: 1105 d3be 1795 c2bc 3479 1abf eef0 52bf
00000140: 92a5 14bf ee52 093d 84c1 023f 167e f63d
00000150: 8292 703e 9998 ebbe e4df f4be 5dbf bb3e
00000160: 4f83 02bf 7281 f1be 963c 0cbf 591f 4cbf
00000170: 4173 fe3e 6cb6 13be 62b2 37bd 42bb dcbe
00000180: 1562 9a3d 0106 413e 88e9 24bf 27d5 71bd
00000190: 00a4 28bf 5227 ef3c 0500 b33e 6b76 9b3e
000001a0: b21c 51be 4395 7fbd f74c 11be 3f38 5b3d
000001b0: 84ff 1bbf 4596 3fbf 9d57 1fbf e80b 623d
000001c0: 0ee0 14bf cb38 b5be e334 ffbe 14d9 7ebd
000001d0: 3eb0 31bf 7d55 e2be 8ff8 45bf 247b 6fbe
000001e0: e68c 863d 5901 33bf fa98 fbbe cc05 3ebf
000001f0: 3502 11bd aacb d53d 467a 30bf 9c4c 8e3e
-0.026881658 0.18841125 0.26706797 -0.6157568 -0.53540313 -0.748747 0.13455231 0.08307261
0.030695189 0.21161367 -0.70359594 0.18877688 0.008313616 -0.06324832 -0.021474747 -0.032016773
-0.31199324 -0.18470405 -0.603368 -0.8169813 -0.21111703 -0.29655042 -0.3087403 0.013238397
0.08120435 -0.71790105 -0.07429551 -0.08803836 0.07170831 0.28153583 -0.062003393 -0.13205662
-0.39422444 -0.3291446 -0.882313 -0.7203394 0.17042859 -0.4655276 -0.5923443 -0.040825833
-0.022185868 -0.3036595 -0.6638035 -0.5333603 -0.08282037 -0.5500483 -0.6447902 -0.4199365
-0.016866442 0.34149247 -0.4401861 -0.045364633 -0.28861517 -0.13808794 0.05890119 -0.25040936
-0.29962823 -0.23996572 -0.78852415 -0.31237984 -0.04232387 -0.7893704 0.25064918 -0.40861022
-0.36235017 0.39835867 0.17794472 -0.66190803 -0.52817285 0.07772381 0.24035046 0.29893517
-0.17744642 -0.041019373 -0.3038384 0.027647482 -0.41214803 -0.023752732 -0.6034119 -0.8239888
-0.5806514 0.033526354 0.5107653 0.12035768 0.23493388 -0.4601486 -0.47827065 0.36669436
-0.5098161 -0.4716907 -0.54779947 -0.7973533 0.49697307 -0.14425057 -0.044847853 -0.43111616
0.07538239 0.18849947 -0.6441884 -0.05904117 -0.65875244 0.029193554 0.34960952 0.30363783
-0.20421103 -0.062398206 -0.14189516 0.053520437 -0.6093676 -0.7483867 -0.6224306 0.055187136
-0.5815438 -0.35394892 -0.49845037 -0.06221874 -0.6940955 -0.44205847 -0.77332395 -0.23386818
0.06569843 -0.6992393 -0.4914015 -0.74227595 -0.035402495 0.104392365 -0.68936574 0.27792823

encoder.2.weight f4 [128, 128]
00000000: f022 7ebc 21da 9cbd 43df aabd 0632 7d3d
00000010: b0ad 303c e792 973d 3e7c 153d 72f7 643d
00000020: 808c c0bc e360 30bd 4474 c8bc bc18 acbd
00000030: 4342 a03d 85b1 a63d 3ba7 803d d2da aabd
00000040: e08f 503c 403d ebbb 2c8e a4bc 6e54 633d
00000050: 2fd8 83bd 9bff 29bd d01f fabc 42f4 1f3d
00000060: d10f 883d 4e2f 463d d8e2 23bd 6ac5 413d
00000070: 40a2 333c c05f e2bc f561 02bd 9911 9dbd
00000080: c086 273b 38f8 7cbd c7dd 9a3d d01d 50bc
00000090: 704c a8bc e047 4a3c b171 02bd 8918 25bd
000000a0: 8880 5cbd ad33 b23d 5651 12bd 4011 1ebc
000000b0: ae55 693d 2864 6b3c 885d e83c 2893 da3c
000000c0: 6ccb 88bd a44b 133d 24b8 953c 4dbe 63bd
000000d0: beb6 183d 678f 7ebd 3c6e febc b0d2 c0bb
000000e0: e866 dfbc b6e3 0d3d 90a3 4cbd 8598 823d
000000f0: 769a 83bd 1810 913c 8319 a03d dbed 983d
00000100: d042 b8bb a4fc 08bd c054 8e3b 6ebf f7bc
00000110: 89d2 983d 4875 8bbd 565e 533d d2ff 78bd
00000120: 0056 96b9 00db e0ba 8fad b43d 8860 b03c
00000130: bc0f c2bc f341 9b3d 08d5 07bc 5ff8 72bd
00000140: 78e3 b4bc a899 b6bc 48dd 36bc 41b0 10bd
00000150: 8414 aebc 9f35 a9bd bfd4 0ebd 20c0 0c3c
00000160: 0ac7 fabc c067 b43c d758 8cbd ba12 0f3d
00000170: 2f45 9cbd 52b5 203d d18b 84bd 678c 51bd
00000180: 5a55 3dbd c25c d7bc e088 553b 3282 a3bd
00000190: c4d4 6bbd 9913 33bd 4013 c13c 76d9 34bd
000001a0: 4a9d f8bc 7b71 9f3d d68d d4bc c0c3 4cbb
000001b0: 6d3a b03d 3075 bb3c 50d8 c1bc 8aa0 4a3d
000001c0: 0019 963b 78d4 8abd c055 43bc 4091 1dbb
000001d0: fa4a 403d bcf2 99bd c040 e73c 0615 3f3d
000001e0: e42e a3bc 01fe a13d 506e 54bc 2059 83bb
000001f0: a12b 8cbd 6ca2 80bd f774 64bd e6ec 53bd
00000200: 0aed 53bd b151 e1bd ee7d a0bd 72b0 40bd
00000210: 7870 90bd 37f7 8bbd 812e a5bd 5b6c a3bd
00000220: 43ca 12bd bf37 99bb 6741 dfbc d631 5dbc
00000230: cee6 0abd 66c5 2f3d f021 493d c093 b7bd
00000240: d4da 28bd 28cb 3d3c 3005 fe3b a1ec 0a3c
00000250: 883e 57bd 22dd 8ebd 3ba5 923d 177d 0dbd
00000260: e50a 643b 795c 79bd 80bb 6bba 5844 8bbd
00000270: e897 143c a1bb aabd 4f47 d4bd 8ab5 4b3d
00000280: 16fb 973d afb8 b6bd f6b1 433d 8e6f 95bd
00000290: b53d 67bd a2f2 193d faa4 bb3b d84d 95bd
000002a0: ba3e e73b 6212 49bd beed 35bd 0675 7fbd
000002b0: 82cc 7cbd efbe 913d 9e53 6dbd f071 88bb
000002c0: 97db d6bd 5ec7 dc3c 0878 00bc 538e b4bb
000002d0: 9bbf eebd b288 dcbd 1d5a 06bd aa25 8abd
000002e0: b750 fb3c 88c6 ae39 308b f73b 6288 283d
000002f0: 04b7 c83c 76a4 353d 7435 c83c 8059 6cbc
00000300: 7137 4a3d 02f1 323d 5de5 22bd 8103 c0bd
00000310: 4adc 5c3d 3982 62bd 9c55 ce3b 2d49 94bd
00000320: b48c 8bbc 0d8f 2dbd 6a1d acbd d1cf b7bd
00000330: 5640 97bd e66a b2bd 543b c23c a87d 28bc
00000340: 5088 e43c d90c 5dbd 2607 283d 2eeb 5d3d
00000350: 93ea 063d 5a16 9e3d 0664 493d 35ad adbd
00000360: 8b22 a23d 4158 26bd c351 ccbc 33c1 953c
00000370: 0165 1cbd 9a20 acbc 9b8a 8b3d 7478 b33c
00000380: 5fef ecbd c54f 55bd 7061 8dbc 3274 1ebd
00000390: 73c6 01ba 08b2 2bbd e1d3 af3c 1c62 acbd
000003a0: 7c79 613d 68bb bdbd c3d4 e8bd 49b9 67bd
000003b0: 7436 4f3d 2edf 3a3d b046 bcbd 12cb a23b
000003c0: 78df 7b3c 7c3d cebd 901a 833d 65af 9fbd
000003d0: c08f a33a 9623 213d 3281 333d baed 413d
000003e0: 96be aabd f45b b3bc 94b7 0e3d 6aec 6abd
000003f0: a27d 03bd 31bd dfbd 7201 0d3d 5041 ccbd
-0.015511259 -0.07658792 -0.08343365 0.061815284 0.010783598 0.07401066 0.03649544 0.055900045
-0.023504496 -0.04306115 -0.024469502 -0.08403155 0.078251384 0.08139328 0.06281897 -0.08342518
0.012729615 -0.0071789324 -0.020087324 0.05550044 -0.06437718 -0.04150353 -0.030532748 0.0390513
0.06643642 0.048384957 -0.040011257 0.04730741 0.010963976 -0.027633548 -0.0318317 -0.07669372
0.0025562495 -0.061760157 0.07561832 -0.01270242 -0.02054426 0.012346238 -0.031846706 -0.0403066
-0.053833514 0.087012626 -0.0357221 -0.009647667 0.056966476 0.014367141 0.028364912 0.026681498
-0.06679425 0.03596081 0.018276282 -0.055601407 0.03728365 -0.062148478 -0.031058423 -0.005884491
-0.02727075 0.03464099 -0.049960673 0.06376747 -0.064259455 0.01770787 0.07817366 0.07467242
-0.005623199 -0.033444062 0.004343599 -0.030242648 0.074620314 -0.06809479 0.051603638 -0.060790844
-0.00028674304 -0.0017155111 0.08822166 0.021530405 -0.023689143 0.07580938 -0.008290537 -0.059318896
-0.022081122 -0.022290066 -0.011161156 -0.03532434 -0.021250017 -0.082621805 -0.03487086 0.008590728
-0.030612487 0.022022128 -0.06852882 0.03492997 -0.07630383 0.03923542 -0.0647198 -0.05115929
-0.046223976 -0.026289348 0.0032582805 -0.07983817 -0.057575956 -0.04371986 0.02356875 -0.0441527
-0.030348439 0.077853166 -0.025946539 -0.0031244606 0.08604894 0.022883028 -0.023662716 0.04946951
0.004580617 -0.067788064 -0.0119223 -0.0024042875 0.046946503 -0.07517001 0.028229117 0.04665091
-0.01991982 0.079097755 -0.012965754 -0.0040084273 -0.06844259 -0.062809795 -0.05577561 -0.051739596
-0.05173973 -0.110019095 -0.07836519 -0.04704327 -0.07052702 -0.06834262 -0.080655105 -0.079796515
-0.035837423 -0.004675835 -0.027252866 -0.013500651 -0.03391152 0.042912863 0.04910463 -0.08963728
-0.041224316 0.011584081 0.0077520832 0.008479268 -0.05254987 -0.069757715 0.071604215 -0.034543123
0.0034796533 -0.060879204 -0.0008992478 -0.06800145 0.00906942 -0.083365686 -0.103651635 0.049733676
0.07420938 -0.08921944 0.04777714 -0.07296668 -0.056455333 0.03758491 0.005726454 -0.07290238
0.007057038 -0.049089797 -0.04441618 -0.06236746 -0.06171847 0.07116496 -0.05794107 -0.004163973
-0.10491102 0.026950534 -0.007841118 -0.0055101304 -0.116576396 -0.1076826 -0.032800782 -0.06745465
0.030678136 0.00033335784 0.0075544342 0.04114569 0.024501331 0.044346295 0.024439551 -0.014425635
0.04936928 0.043686874 -0.03976952 -0.09375668 0.05392102 -0.05529997 0.0062968265 -0.0724052
-0.017034866 -0.042372752 -0.08404048 -0.08975185 -0.07385318 -0.087117955 0.02370993 -0.010283865
0.02789703 -0.05396733 0.041022442 0.054179363 0.03293855 0.07719107 0.049167655 -0.08480302
0.07916745 -0.04061151 -0.02494133 0.018280601 -0.038182262 -0.02101164 0.06813546 0.021908022
-0.11569094 -0.052078027 -0.017258376 -0.03868503 -0.0004950531 -0.04191783 0.021463336 -0.084171504
0.055047497 -0.092642605 -0.11368706 -0.056573186 0.05058904 0.045622997 -0.0919317 0.0049680555
0.015373103 -0.10070321 0.06401551 -0.07797126 0.0012478754 0.039340578 0.043824382 0.047345854
-0.08337133 -0.021894433 0.034843042 -0.05735437 -0.032102235 -0.10924757 0.034425206 -0.09973395

encoder.2.bias f4 [128]
00000000: e076 0fbc 0f89 2d3d dc18 bbbd 9379 8ebd
00000010: 81d6 aabd 2d1d 07bd 117c c53d d665 3bbd
00000020: bf2e d2bc 0d83 afbd 8743 d2bd 0397 9bbd
00000030: 3bdc 0ebe 63ae 1dbe a2e9 3bbe d457 813c
00000040: 0cc6 fe3c fe68 9bbd 2856 9d3d a848 cbbd
00000050: 13f4 0fbe e75c b5bd 8ae6 e1ba f59c 5dbd
00000060: f15f dabd c98b 8ebd 660c c03d b671 28be
00000070: 1d6b 7abe 7705 38be 38b8 debd 4e10 1e3e
00000080: 1069 2bbd b122 a93d 86f7 b6bd 8a5c 18be
00000090: 8665 20bd 6de5 acbd 3a1f 52bc ba67 3e3e
000000a0: 09fa bebd fb80 bebc 9afe f5bd 7c94 15bd
000000b0: dfb6 693b 43b2 ccbd cb7e 8abe 8b23 cdbd
000000c0: 4626 973d 65f1 3a3e 599d 15bd 9f34 54be
000000d0: 40d0 de3d b812 2e3d 290c 74be 0b11 0bbb
000000e0: 2943 95be 147f 62be 4ac6 acbd fd17 893d
000000f0: e800 c1bd 7718 9dbe a58a 843c e95e 213d
00000100: c031 abbd 5407 8fbd df23 c9bd 671f 013e
00000110: a9bb 8abd 1e82 8abd 11d8 de3d ba26 903b
00000120: 2741 bd3c 0afb e4bd 9d80 4dbc fad0 a0be
00000130: 4a9d 403e fc9b 20bd 55b5 07be 2641 c6bc
00000140: c0fb 85bc 2e2a 58be b180 90bd ebed 00be
00000150: e487 cc3d 0fb8 3ebe 3772 153e ff4e c3bd
00000160: 3e99 87bd a13f f83b 3a05 b1bd 4306 18bd
00000170: 9e96 783c e25c 42be eff7 0ebe 0de6 44bd
00000180: a9e8 0abe 89f0 1b3e c4ce 3cbe d740 103e
00000190: cadd 21bd 8b68 98be 0689 80bd 8999 9fbd
000001a0: f94a e7bd 6e41 debe b295 3a3d c199 82bd
000001b0: c7ea ebbc f6cd d9bc 7ca6 e8ba 8f83 92bc
000001c0: fdab 64be dd69 d93b 6e64 81be dd59 76bd
000001d0: c39e 48be a97a a5bd 57c8 47be 7e6a 2fbe
000001e0: e176 8fbd ac38 b4bd 73f3 b3be 0a85 683d
000001f0: fbb9 193e b104 babc c8fd 0abe fd3c 18bd
-0.008756369 0.042367037 -0.09135601 -0.06956782 -0.083416946 -0.03298681 0.096428044 -0.045751415
-0.025657056 -0.08569918 -0.10266786 -0.075971626 -0.13951199 -0.15398555 -0.18350843 0.01578895
0.031100295 -0.07588385 0.076824486 -0.099259675 -0.1405795 -0.0885561 -0.0017234844 -0.054104764
-0.106628306 -0.06960256 0.09377365 -0.16449627 -0.24454923 -0.17970835 -0.10874981 0.15435907
-0.041848242 0.0825857 -0.0893393 -0.14879051 -0.03915932 -0.08442197 -0.012824828 0.18594256
-0.09325034 -0.023254862 -0.12011452 -0.03651856 0.0035661978 -0.09994938 -0.2704986 -0.10016545
0.07380347 0.18256147 -0.03652701 -0.20723198 0.10879564 0.04249832 -0.23832764 -0.0021219875
-0.29152802 -0.22118789 -0.08436258 0.066940285 -0.09424001 -0.30682728 0.016179392 0.039397154
-0.083590984 -0.069838196 -0.09821295 0.12609635 -0.067740746 -0.06763099 0.10881055 0.004399148
0.023102356 -0.111806944 -0.012542871 -0.31409436 0.18810001 -0.03921126 -0.13252766 -0.024200987
-0.016355395 -0.2110984 -0.07055796 -0.12590759 0.099868566 -0.186249 0.14594351 -0.09536552
-0.066210255 0.0075759445 -0.08643575 -0.037115347 0.015172629 -0.18980744 -0.13961767 -0.048070956
-0.13565315 0.15228476 -0.1843825 0.14087234 -0.039518155 -0.2976726 -0.06276135 -0.077929564
-0.11293597 -0.43409294 0.045552917 -0.063769825 -0.028798474 -0.026587468 -0.0017749812 -0.017884998
-0.22331233 0.0066349343 -0.25271934 -0.060144294 -0.19591813 -0.08080036 -0.19510017 -0.17130467
-0.07005096 -0.08799872 -0.35146675 0.0567675 0.15012352 -0.022707315 -0.13573372 -0.037167538

encoder.4.weight f4 [128, 128]
00000000: 2022 48bc e021 863c 94f7 26bd 4924 8e3d
00000010: 69e4 82bd 7e5d 8d3b 57e7 1dbf e5b8 19bf
00000020: 2f5f 3dbd 871b 31bd 05e8 4cbd 58d5 01bf
00000030: 3c8f 413a 4196 283d 646b 03be 1263 a6bd
00000040: d5c4 2cbf 7503 833d 121e 773d fcf1 67bd
00000050: c010 3bbd 1de2 c93b bb76 1fbe e4c0 cabc
00000060: 4a83 b3bb 16e9 cb3a 890d 6f3d ed2f ddbe
00000070: e042 94bd f330 b8bd 809c f63c 3651 82bf
00000080: b74e 2fbd 0a7d b33d 10e1 2d3d a032 59bd
00000090: e74c 8ebd 1ff2 cf3c 0d30 ce3c a537 a73c
000000a0: 3bbc a5bc f96d 80be 5ff6 88bd 4267 aebd
000000b0: ee4a 463c 6997 d3be 457f 94bd 6c88 a1bd
000000c0: e3fd e13d ffd3 d93d 2c81 41bd aedd 6abd
000000d0: ea7f 9c3d e38d 3d3d b645 87bd 1844 253d
000000e0: 6fa1 913c dfc6 7bbe d3dc 1dbb d92b 503d
000000f0: ce24 ab3c 93ef 06be 2fde e1bc e01c 0bbf
00000100: ca86 143d c9c1 06be 3db0 ed3c 6db4 d23d
00000110: c41d 2a3d d7d8 97be 22cd ee3c 6deb 3dbd
00000120: 9bcb dabc 30f8 89bd 8324 54bd 2b3d 65bb
00000130: 0069 ebbd 8e47 9dbd e12e 08be 0bec 9d3d
00000140: 2bfc f8bd e5b2 5bbc 6988 3dbd f442 fdbc
00000150: 4187 f2bd 2a31 9bbe a410 833d 89e9 69be
00000160: ffb0 213d f1f5 8ebd 8e39 92bb 793f db3b
00000170: 10db 8a3d 3533 c4be 77df d6bd fdcd 10be
00000180: 6274 d2bd 0276 febe c132 ddbd 4629 1f3d
00000190: 51fa dc3a 7922 f6bd 452d 49bd 2a4e cebd
000001a0: e7c8 81bc 7d68 c9bd 43d5 87bd 6c7a 05bf
000001b0: f51c aa3d 893b c93c 4342 0fbe 2d89 8f3b
000001c0: f6cb 0e3e 2677 8cbd 27f6 d2bd 1484 543d
000001d0: 7c2a c2bd bcb2 6ebc 09b5 2dba 27bd 03be
000001e0: 430b 653d 6b61 393d 8bb7 3cbd 2e43 b63d
000001f0: 489b a9bc 6ca7 acbd 2891 b1bd 9aa9 5ebe
00000200: f85e 9ebc 4ff7 a3bd ceb6 92be ebf0 643d
00000210: af5d 183e beec ccbd c295 f2be a2ae 66bd
00000220: 80be 7abc 5285 b6bd d5be aebd 01b7 14be
00000230: c506 cebd 9841 84bc 10f9 b4bd 4133 1cbd
00000240: b3f1 36be 7c2d 6abc 4632 66bd 6272 d9bd
00000250: 9db6 183d e57a 08bd b9a7 cbbe cb7d fc3d
00000260: 6cf2 123b 5d1f 96bd 1b2e 45be b374 09bd
00000270: 3d40 b5bd de2c c13d 1949 193a 4609 e13c
00000280: af8f 683e 0969 55bd 7c70 afbc e75a 15bd
00000290: 4781 9ebd 9610 873d 7f57 f1bb c4ad d0bd
000002a0: 1edd 03bd 419f 2dbd e216 4a3d 80cb 423b
000002b0: f698 33be 4a27 b53d 260f e03c 6f03 873c
000002c0: a300 a4bd ef82 b2bd d1bb 943d 061c 27bd
000002d0: e4f4 44be fda4 883d 74b5 d9bd 056b b3bd
000002e0: d365 86be 2376 c7bd 4092 1cbf fd0f 08be
000002f0: 38e0 4dbd 1eb1 f5be 2a9d ebbd ef3c 9f3d
00000300: 179e bbbd 0915 26bc c24c 21bd 357c 0dbd
00000310: 7f14 2abe e05d d33b 3f3f 50be 2dd7 cabd
00000320: c30b 41be 6b1f d2bc 8127 92bc 5f9b bebd
00000330: 7069 0ebe c6ec 9dbd a79f 91be 5fd5 79bd
00000340: ac98 85be 746b afbd db16 c7bc 2478 c53c
00000350: d105 b5bd d17a a93c 38c4 9cbd 7f5e 12bd
00000360: 02fe 36bd 9694 45be a15d a5bd 8320 f8bc
00000370: 9e0a 023c 5bb1 02be 9ab6 95be af23 68be
00000380: 568c d0bd a082 333e 07a6 83bd f85d 4ebd
00000390: 33c5 513b 6766 003e b972 efbd 3760 053d
000003a0: a39e c6bd 715f eebd 5c37 b2bd 745c b53b
000003b0: 7c01 193c 7046 03bc 2e45 bcbd 173a cdbd
000003c0: 16d2 a3bd da87 8abd 5273 2dbe 38df 59bd
000003d0: 9de5 80bc 1562 50ba 1d70 a33c 4777 96bd
000003e0: 83d7 b1bc 2d30 c1bc d523 8cbd b732 383d
000003f0: d23c a7be 4cf6 fd3c 4586 86bb 1746 0fbd
-0.012215167 0.016373575 -0.040763453 0.069405146 -0.06391222 0.0043141237 -0.6168112 -0.6004775
-0.046233352 -0.043239143 -0.05002596 -0.5071616 0.00073837093 0.04115892 -0.12833935 -0.08124365
-0.6748784 0.06397144 0.06033141 -0.05662726 -0.04567027 0.006160988 -0.15572636 -0.02475018
-0.0054782974 0.0015557136 0.058362518 -0.43200627 -0.07239318 -0.08993711 0.030103922 -1.0181034
-0.042799678 0.08764084 0.042450964 -0.053026795 -0.06948262 0.025384007 0.025169397 0.020412276
-0.020231357 -0.25083902 -0.066876166 -0.085157886 0.012102826 -0.41326454 -0.07250837 -0.078873485
0.11034753 0.10636138 -0.04724233 -0.057340316 0.07641585 0.04627789 -0.06605093 0.040348142
0.017777173 -0.24587582 -0.002408792 0.050823066 0.020891573 -0.13177328 -0.027571766 -0.54340935
0.036261357 -0.1315986 0.029014701 0.1028832 0.041532293 -0.29657623 0.02915055 -0.046367098
-0.026708415 -0.06736791 -0.051792633 -0.0034979086 -0.114946365 -0.076796636 -0.13299133 0.07711037
-0.12157472 -0.013409351 -0.04627267 -0.030915715 -0.11842204 -0.30310947 0.06399658 -0.22842993
0.039475437 -0.06980503 -0.0044624275 0.006690916 0.06780064 -0.38320318 -0.10491841 -0.14141078
-0.102761045 -0.49699408 -0.10800696 0.03885772 0.0016859268 -0.12018294 -0.049115438 -0.10073502
-0.015842868 -0.09834383 -0.06632473 -0.52139926 0.08306304 0.024564521 -0.1399012 0.0043803663
0.13944992 -0.06858663 -0.10300856 0.051883772 -0.094807595 -0.014568981 -0.00066264026 -0.12865125
0.055918943 0.04525892 -0.046073478 0.08899532 -0.020703927 -0.08430371 -0.086702645 -0.21744385
-0.019332394 -0.08006155 -0.28655094 0.05589382 0.14879487 -0.100060925 -0.4737988 -0.056318887
-0.015304208 -0.089121476 -0.08532492 -0.14522935 -0.10059885 -0.016144559 -0.088365674 -0.038134817
-0.17865638 -0.014293071 -0.05620029 -0.1061752 0.03728353 -0.033320326 -0.397764 0.123286806
0.0022422327 -0.07330201 -0.19255869 -0.03355856 -0.08850143 0.09432386 0.0005847379 0.027470242
0.22711061 -0.052102122 -0.021415941 -0.036463644 -0.077395014 0.065949604 -0.0073651667 -0.10189393
-0.032193296 -0.042388204 0.04933823 0.0029723346 -0.17538819 0.088453844 0.027350973 0.01648113
-0.08007934 -0.0871638 0.07262386 -0.04079821 -0.19234043 0.06672094 -0.106303126 -0.08760647
-0.2624956 -0.0973933 -0.6116066 -0.13287349 -0.05026266 -0.47986692 -0.11504586 0.07775294
-0.091610126 -0.010136851 -0.039379843 -0.03454228 -0.16609381 0.0064503998 -0.20336626 -0.09904323
-0.18852143 -0.025649747 -0.017841103 -0.093069784 -0.13907409 -0.077111766 -0.28442118 -0.060994502
-0.26093042 -0.08565417 -0.02430289 0.02410514 -0.08839 0.020688446 -0.07654613 -0.03573465
-0.044675834 -0.19294962 -0.08074499 -0.03028894 0.007937102 -0.12762968 -0.29240876 -0.22669862
-0.10183017 0.17530298 -0.064281516 -0.050382584 0.003200841 0.12539063 -0.116918035 0.03256246
-0.09698226 -0.11639298 -0.08701965 0.005534703 0.009338733 -0.008012399 -0.091928825 -0.100208454
-0.07999055 -0.06764193 -0.16938522 -0.053191394 -0.015734488 -0.00079491857 0.01995092 -0.07346969
-0.02170921 -0.023582542 -0.06842772 0.04497024 -0.3266359 0.031001233 -0.0041053616 -0.034978952

encoder.4.bias f4 [128]
00000000: c17d 3c3d 3558 74bc 8133 153e 9cad 0f3b
00000010: 906a dfbd 33c5 e2bd 6a1e 95be b2a4 e33d
00000020: dc18 7dbd c162 9b3c d7de 37be 89a9 12be
00000030: 0d39 55be 486b 4bbe 25e1 e8bd eac4 cabb
00000040: 4ecc 21be 9793 18be 63d5 673e bdd1 27be
00000050: c02c a9bc 5818 053d 9f65 97be d556 b0be
00000060: 1e75 15be 181c 073e 0c49 4dbd e462 30be
00000070: b864 2cbe a0a2 d8be 8dfd 45be d595 ed3d
00000080: a1cd 0fbe c01a 683d e1c0 54be 1a89 debc
00000090: 00d6 16be 211c 8abc cb76 2bbe 1017 fdbe
000000a0: 6ea2 abbd 37f0 b8bd 19e2 16be eadb fcbd
000000b0: 5a85 6cbe b86f 1d3e 82a0 f2bd 1593 3cbb
000000c0: 952e c7bc 7efe 1bbe d70f 9e3d d14a 943d
000000d0: b4c3 a33c 919d 79be 0eed 1d3e ae0f cebd
000000e0: e464 14be 7a96 4fbe 7a76 05be 3f25 1ebe
000000f0: 0a3e 71bd 49d4 39bc 4373 50be 4785 0cbe
00000100: 1394 37bd a69f ddbd a875 b8be 1a35 c8be
00000110: ddcd afbd 96e0 983c 9ac6 5c3d 272f cebc
00000120: 7592 dfbd 666b 02be 7f16 41be e655 44bd
00000130: 533b cfbd 71e7 bebd cf2b 25be 2421 113e
00000140: 2d87 82bd 2f6e 48bd 6efa bf3d a13c 5dbd
00000150: 2a88 b53c f4ff 11be 313d cebd 18b5 36be
00000160: e4e8 c0bd b67f 82bd 9c02 993d dccc f2bd
00000170: 9afa 03be aaff b5be 364a 07be 6764 fa3d
00000180: 82dd 423d 2867 ecbd dbc9 14be 99a3 7fbc
00000190: c676 dfbd f688 0ebe 5865 d23d d441 fdbd
000001a0: b4fe 8b3c 56e7 52bd 25a3 1bbe 3549 d4bd
000001b0: 8adf 5b3e 6e0a 653e 867c 4bbe 92fe bebd
000001c0: 83b0 f83c 43c0 ebbd 75f4 26be 6598 f73c
000001d0: 2388 cbbe ee03 d8bd aa23 0e3d ede2 2dbd
000001e0: 088c 393e 7f60 203e 8cbd 71bd 40ef 853d
000001f0: 030a 8b3d 10e7 bb3c 0b6c 78bd bf9f 5fbd
0.046018366 -0.014913608 0.14570428 0.0021923548 -0.10908997 -0.11072769 -0.29124767 0.111153975
-0.061791286 0.018967988 -0.179561 -0.14322485 -0.20822544 -0.19865143 -0.11371068 -0.0061880248
-0.15800592 -0.14900051 0.22639994 -0.16388603 -0.020651221 0.03249392 -0.29569718 -0.34441248
-0.14595458 0.1319431 -0.05011849 -0.17225224 -0.16835296 -0.42311573 -0.19335003 0.11600844
-0.14043285 0.056666136 -0.20776702 -0.027164984 -0.14730072 -0.016859116 -0.16744535 -0.49431658
-0.083805904 -0.09030192 -0.14734687 -0.12346633 -0.23097745 0.15374649 -0.11847021 -0.002877419
-0.024314204 -0.152338 0.07717865 0.072408326 0.01999078 -0.24376513 0.1542246 -0.100615844
-0.14491612 -0.20272246 -0.13033476 -0.15443896 -0.058897056 -0.011342117 -0.20356469 -0.13722716
-0.04481895 -0.10821466 -0.36027265 -0.39103013 -0.08584187 0.018661778 0.05390034 -0.025168968
-0.10916606 -0.12736282 -0.18856238 -0.04793348 -0.10118737 -0.09321488 -0.16129993 0.14172798
-0.06373439 -0.048933204 0.093739375 -0.0540129 0.022159655 -0.14257795 -0.10070265 -0.1784252
-0.0941942 -0.06372015 0.07471201 -0.1185548 -0.12888566 -0.3554662 -0.13211903 0.122261815
0.047574528 -0.11543113 -0.14530127 -0.01560297 -0.10911326 -0.13919434 0.10273236 -0.12366071
0.017089225 -0.05149015 -0.15198953 -0.10365526 0.21471992 0.2236726 -0.1987172 -0.09325899
0.030357605 -0.115112804 -0.1630419 0.030224035 -0.39752302 -0.105476245 0.03470198 -0.04245274
0.18119824 0.1566181 -0.059018657 0.06539774 0.06789019 0.022937328 -0.060649913 -0.054595705

encoder.6.weight f4 [128, 128]
00000000: 1907 003e ac2c d53e e558 ea3d 7076 863e
00000010: 0e1e fcbc 7c38 273e 2167 fe3d 1f95 2f3e
00000020: 355c 10be e68a b03e 40f3 28bc 5a0f 7bbe
00000030: 58b6 713b 7bb1 73bc ec5e 0ebe b9ad e0bc
00000040: d3b3 013d 053a 4c3e 0c6d 723e 70dc 753d
00000050: 8956 de3c d2ce 3d3e 4bba a3be acd0 743e
00000060: ec89 10bd aeef e33c 97b3 f03d fda4 a53a
00000070: 8c78 c53e 4644 803e 7876 9c3c 3b8e 803e
00000080: 4aff 0ebd 41cf efbd 6e0f e43c 1b26 09bd
00000090: f936 4c3d 1ffa 27be 75bb 29bc e91a c13d
000000a0: 84ec 5dbd 8fbe 043e 8ac1 02bd c767 acbd
000000b0: 74ad 4dbc 7103 99b9 7751 95bd 8019 193d
000000c0: 7197 2f3d 8e3f 3f3e 41fa b63e f249 d93e
000000d0: 80a8 843e ea24 f83c 2308 2cbd ee1f 40bd
000000e0: d52d f2bd 64d7 013d 2c31 a3bd c28b e13e
000000f0: ef92 f3bd 5e4a b83d c233 e93d 7016 7a3d
00000100: b9e1 6bbe 7e00 d33e 9c99 043e 7a9e 69be
00000110: 8d68 6fba fdd0 a1bd 0028 9e3c 72d2 ebbd
00000120: 97be 263c aec4 eebb aadf cb3d 9b65 9bbd
00000130: 862a 68be a5d8 bcbd 9bb3 d13c 3d37 273e
00000140: bc08 0fbc 5589 533d 9cfb d53d 50b9 8f3c
00000150: 253a 15bd 0294 813d 6f73 c63c 2e69 773d
00000160: 2d68 36bd 0f20 983d 513c 81bd c004 c33d
00000170: 83a7 b73d af65 c13e b22d 333e 4a58 ee3d
00000180: 2a6f e43c b91d 893d 197e 90bd cb3c 42be
00000190: 103d 203d 5486 e6bc b58c 33be 899b 453d
000001a0: bd83 8b3e d336 263d 4664 d0bb 7a20 1dbe
000001b0: 2d99 d73d 828b c13d 38ae 22bc 86c0 ae3c
000001c0: ce36 5ebe 207d 0abb 5e38 833d 43b7 3abe
000001d0: 28f2 883e ea2c 923c a048 303d 074e 093e
000001e0: 070f d03d 5f81 e13d 911d 6fbd ea4b 2d3e
000001f0: 2263 9dbe 0e6a a53e 9d5e e0bc db0d 6cbe
00000200: 3518 853d 83e0 cd3e f815 fd3c d8de 2c3e
00000210: 1080 32bd 6864 833d bf65 3f3e d5ce 3ebe
00000220: 0163 983e 5a51 2dbe 8a85 4a3c 2ee9 8fbd
00000230: bb94 54bc b88a aabb 2cb2 c6bd 87ff 27bc
00000240: 9d95 c3bd 715e c7bd 0b49 033e a4f0 073e
00000250: 80d1 1dbd 383e 893d 67ce d9bd 3652 71be
00000260: 2d02 92bc df99 28be a0d2 c83d 5c0f b4bc
00000270: 5feb 1e3e 2f4e b7be c945 353e da7c 40be
00000280: 7795 753d cf15 8dbd f3fc 04be a5e7 53bc
00000290: eede 913e f6f3 293e bbe3 b6bc 50e5 2cbd
000002a0: 5769 acbc f72d e6bc 9e50 f5bb b77c 3d3b
000002b0: 66e1 19be 5732 e13c caf9 59bb 8e3c 33bd
000002c0: d776 143c 1cd1 453d c217 393e 116e d03c
000002d0: a98f f03d e4a9 babd bac7 adbd e949 0c3c
000002e0: 89d5 17bd a5ad 5dbe 9c72 f5bc 31b3 0bbe
000002f0: ebb4 07bc 61cb d3ba 40c4 c43c ab15 b13c
00000300: 5610 6e3d f292 84be ae14 76bd 6a1a 35be
00000310: 7a78 be3d 52c5 613e a3b0 c6bb 2def a53c
00000320: 89ae 363d b2ea 8e3d 39a1 3bbd 1d2d a0bd
00000330: 2d6c 23be b425 b7bd 5386 eebd 9472 1f3e
00000340: 4498 443e 9537 03be ac13 2b3e e267 ee3c
00000350: 6e67 233e f3f5 513d 92b2 cebc 46b5 fa3d
00000360: 5e9d 39bd 146b 25be d139 c2bd bb95 c6bd
00000370: 70cd 653c a968 173d 7c2d 913d d26f fe3c
00000380: eb2d fbbc 1a4f 0a3d edea dd3d f065 f73d
00000390: c7f7 d5bc 6393 033d 802d 313e 0776 4ebd
000003a0: b384 44bd 3dbe db3c 6497 f03d 0b2d 233e
000003b0: 9791 993e d521 48bd 024b 0fbe d2db 953c
000003c0: 2a06 c9bd a342 903c f384 d0bd 6509 193e
000003d0: 3c50 11be de3f 7d3d 14d9 5d3c 1f2f f0bc
000003e0: 644e f13b ada3 b43d f79e 4cbd 4790 193e
000003f0: c6e9 d53d 1980 9dbd a2b1 633e bd75 763c
0.12502708 0.41635644 0.114427365 0.26262236 -0.03077605 0.16330141 0.12422014 0.17146729
-0.14097674 0.3448097 -0.010311902 -0.24517575 0.0036882367 -0.014873858 -0.13903397 -0.027426587
0.031665634 0.19944008 0.2367441 0.06002468 0.027140873 0.18535927 -0.31978068 0.23907727
-0.035287783 0.02782425 0.11753004 0.0012637671 0.38568532 0.25052088 0.019099459 0.25108513
-0.03491143 -0.117094524 0.027839389 -0.033483606 0.049857114 -0.16404007 -0.010359635 0.09428961
-0.054180637 0.12963317 -0.031922854 -0.084182315 -0.0125535615 -0.00029184998 -0.07290929 0.037377834
0.042869035 0.18676588 0.35737804 0.42439228 0.25909805 0.03029104 -0.041999947 -0.04690545
-0.11825148 0.031699553 -0.07968363 0.4405194 -0.1189326 0.089985594 0.11386825 0.061056554
-0.23035325 0.41211313 0.12949222 -0.2281436 -0.0009132706 -0.079011895 0.019306183 -0.11514749
0.010177276 -0.0072866296 0.0995477 -0.07587739 -0.22672471 -0.09221009 0.025598338 0.16329665
-0.00873011 0.051644642 0.10448381 0.017544419 -0.036432404 0.063270584 0.024224965 0.06040304
-0.044532944 0.0742799 -0.063103326 0.0952239 0.08967497 0.3777289 0.174979 0.116379336
0.027885038 0.06695122 -0.07055301 -0.18968503 0.039120734 -0.028140225 -0.17534144 0.048244033
0.27248946 0.04057963 -0.00635961 -0.1534442 0.10527263 0.09450437 -0.009929232 0.021332037
-0.21700594 -0.002113171 0.064072356 -0.18233971 0.2674725 0.017843682 0.04303801 0.13408671
0.10159116 0.11011004 -0.058377806 0.1692349 -0.30739695 0.32307476 -0.027388865 -0.2305216
0.06498758 0.4021035 0.030894265 0.16881883 -0.04357916 0.06415635 0.18691157 -0.18633588
0.29763034 -0.16925564 0.01236094 -0.07026897 -0.012974913 -0.005204525 -0.09701952 -0.010253794
-0.09550021 -0.0973481 0.12820832 0.13275391 -0.038529873 0.067013204 -0.10635071 -0.23566517
-0.017823303 -0.16464947 0.098057985 -0.02197998 0.15519474 -0.35801837 0.17702402 -0.18797627
0.059956994 -0.06888925 -0.12987117 -0.012933646 0.28490394 0.1659697 -0.022325387 -0.042210877
-0.021046324 -0.02809809 -0.007486417 0.0028913447 -0.15027389 0.027489824 -0.0033260458 -0.04375892
0.009061537 0.048295125 0.18075469 0.025443109 0.11746151 -0.09114435 -0.084853604 0.008562543
-0.037068877 -0.21648271 -0.029961877 -0.13642575 -0.00828288 -0.0016158634 0.02401936 0.021616777
0.058121048 -0.2589336 -0.060078315 -0.17685857 0.09300323 0.22047928 -0.006063537 0.02025565
0.044600043 0.06978358 -0.04580805 -0.07821105 -0.15959235 -0.08942738 -0.11646714 0.15571052
0.1919871 -0.12814172 0.16706723 0.02910227 0.15957424 0.051259946 -0.025231633 0.122416064
-0.045316093 -0.16154128 -0.09483684 -0.096965276 0.014026031 0.036965046 0.070887536 0.03105918
-0.030661544 0.033766843 0.10835824 0.1207999 -0.026119126 0.03212298 0.17302513 -0.05040553
-0.047978114 0.026824111 0.117476255 0.15935151 0.2999389 -0.04886039 -0.13993457 0.018293295
-0.09815629 0.0176099 -0.10181608 0.1494499 -0.14190763 0.061828487 0.013540525 -0.029319344
0.007364081 0.08820281 -0.04995629 0.14996444 0.10444979 -0.07690448 0.2223573 0.015042719

encoder.6.bias f4 [128]
00000000: 0f7b 0f3e 78b1 a1bd 77c0 18bd eb5a de3d
00000010: c685 143c 4e4b e9bd e34f 003d fda2 04be
00000020: 69d9 34bd 4bee 353d ae21 bc3c 466b a0bd
00000030: 8a72 6bbd 1304 ffbd e124 943d a6f8 7f3d
00000040: 01d0 9d3c 44ec dc3c 5a63 3dbd 2c2a 09bd
00000050: 71b8 893d e1c7 c63d a32e de3b f8cb 4bbd
00000060: 4017 a73d d0a3 83bc b224 a23d 593d bb3d
00000070: b32c 14bc 8ba5 363d 352d e13c 21c9 933d
00000080: dd7d b03d c682 8b3d 296b c43c 3ea3 3c3d
00000090: 2dcb 5bbd e1c3 bbbd d58a d73d 0623 303d
000000a0: 49a7 c53d 7af3 603d 83d1 223d 0d35 5abd
000000b0: 43bd 4d3d d6d3 ca3d 2404 893c 636a bbbd
000000c0: 22d0 933d accc 4abd 751f 473d 0e86 08bd
000000d0: d730 8e3c 0557 a9bd 5ede 913d ca11 e83d
000000e0: 074e 5dbd 8cfa 28bd b10a 2f3d 23f7 4dbd
000000f0: 1f06 95bc d09a e33c 1ade 9cbd dcb1 ec3c
00000100: 69c2 a33d 9731 053e ef5b e13d 9aca 2e3d
00000110: e81d d53d d121 abbd 3c47 75bd 5f65 493c
00000120: 2667 ae3c fa23 823d 73af 913d 83b9 97bc
00000130: 7d35 d4bd 45fb bc3d 4c61 09bc efc9 9cbd
00000140: 0405 533c d98a 343d cec9 8fbd 3104 98ba
00000150: d881 85bd 278c aabc 3837 813d 454b 2c3d
00000160: de42 7fbd 2030 adbd 75f4 89bd 79e2 3abd
00000170: f307 003d e265 373d 211b 13be ad17 94bd
00000180: 3eaa c83b be7c c3bd e32f f63c a681 663c
00000190: 2a51 afbd ce2f 863d cf5d bd3d 1edd 15bd
000001a0: 765f 0fbd e128 6a3c 994e 5cbd 4a47 7d3d
000001b0: 3951 d13c 4204 bd3d 471b 4bba a8ed 45bc
000001c0: 9f97 82bd 5131 3b3d 81d2 b4bc 4505 b2bc
000001d0: 0c4c 40ba f44a cebc 9a1c 843d 71ec 253d
000001e0: f4e2 24be 064c 473d 242f 94bd 8742 9abb
000001f0: 5567 42bb 9075 823d f9d5 333c 8eb4 ecbc
0.14011787 -0.078951776 -0.037292924 0.10857185 0.009065097 -0.11391316 0.031326186 -0.129528
-0.04415265 0.044416707 0.022965278 -0.07832961 -0.05748228 -0.12451949 0.072335966 0.06249299
0.019264223 0.026968129 -0.046237327 -0.033487484 0.067246325 0.097060926 0.006780462 -0.049755067
0.081587315 -0.016069323 0.07917155 0.091425605 -0.00904386 0.044591468 0.027487377 0.07216097
0.086177565 0.068120524 0.02397688 0.046054117 -0.05366056 -0.0916822 0.10524527 0.04300215
0.09651048 0.054919697 0.039750587 -0.05327325 0.050229322 0.09903686 0.016725607 -0.09151151
0.072174326 -0.049511597 0.048613984 -0.03333097 0.017357273 -0.08268551 0.07122491 0.11331518
-0.05402949 -0.041254565 0.042734805 -0.050284516 -0.018191395 0.027783781 -0.0765955 0.028893404
0.07996065 0.13007198 0.11003863 0.042673685 0.10406095 -0.08356059 -0.059882388 0.012292235
0.02128942 0.06354518 0.071135424 -0.018521076 -0.103617646 0.09227613 -0.008385014 -0.07655703
0.012879614 0.044077728 -0.07020913 -0.0011597929 -0.06518906 -0.020818783 0.0630936 0.04206397
-0.06231963 -0.08456445 -0.067360796 -0.045626137 0.03125758 0.044774897 -0.14365818 -0.07231078
0.00612381 -0.09545277 0.030052131 0.0140689965 -0.08560403 0.06552087 0.09246408 -0.036587827
-0.035003148 0.014291973 -0.053785894 0.061835565 0.025551425 0.09229328 -0.00077479 -0.012080587
-0.06376576 0.04570133 -0.022073032 -0.021731028 -0.00073355506 -0.025182225 0.06450768 0.04050869
-0.16102201 0.048656486 -0.07235554 -0.0047076377 -0.0029663641 0.063700795 0.010976308 -0.028894689

decoder.0.weight f4 [128, 129]
00000000: 0eba 0bbf 4845 0cbd fbda a7bd 8043 293e
00000010: de60 e1bd d31f 933e f83f c7bd 31d0 a73c
00000020: 6ad7 ddbc f85e b6bb e903 cabd 20c9 0bbd
00000030: 29c6 9d3e 0b98 983e 6389 4bbe 5378 273e
00000040: 85bf e93d c59f 2bbc ff8f d23d c3ba e03d
00000050: 770f 15be 07e8 4dbe 02af c1bd bf98 973d
00000060: c6b1 7ebc ab6c 0fbe 390a b23b 09f6 88bd
00000070: e8bc e7bc 9ada 12be 7f07 c83c 5f1a 65be
00000080: 9098 893c 0a82 bebd a1ea 803d e7c4 913d
00000090: c716 61be bcaf 743e 585b 84be 3eb1 3cbe
000000a0: 4b99 52bd c81c c2bc d4ec 033d 9f32 a93c
000000b0: 315c 6e3d abf3 483e fd10 35be b90b e13d
000000c0: 5442 31be 101a 3abe 1477 983d 08f6 dd3d
000000d0: 6e3c 17be c563 e13d 4969 293c bde5 0fbe
000000e0: 821e 1f3e 380e 893e 587f 8e3d db95 02be
000000f0: 161e 3d3d 6add 2ebe 32e5 1c3e 3762 33be
00000100: e733 70bd b9da fbbd 8c0a 96bd 304a 263c
00000110: cdad 08be 9309 6c3d be1a 60be 9a4f 233e
00000120: 27c7 5c3e 7884 1fbe 2a63 d2bd 5489 d8bc
00000130: ca2e 403e bf03 303e d570 6fbd 5544 2abd
00000140: c7fe 1e3e 2b99 bdbd dc53 4b3d 475c e23c
00000150: 7f54 de3d 5e2d ae3c 2676 af3a 26e5 503d
00000160: f4df ddbd 8bbd 923d 4865 123e 2d04 e0bc
00000170: aef3 713c 4077 c63e 5dab 4b3d df68 95bd
00000180: ebc3 563e 60d2 723d d18d e53d 2580 a83c
00000190: 63c0 09be d019 43bd 3621 a63d 1e78 a73c
000001a0: 08f4 41be 8c0c bcbd bf32 b33c 79f1 4b3e
000001b0: 8cad c2bd ebae 403e 74b8 9b3e a150 303d
000001c0: 96f6 cfbd 7d97 87bd bb6b 333e 3265 11be
000001d0: a77e f73b 629e 493d c216 3f3e 5641 6c3d
000001e0: 8a26 213c 1c5f d7bd 197e ddba 1870 5b3e
000001f0: 8660 cd3d 8676 1ebe dbd5 593c 1e7f 173b
00000200: bb94 af3d 6a97 283f 2998 85bd 42db 083e
00000210: 5f2a 7c3d a94a 82bd b96d 34be c4c4 2abc
00000220: 4abc 58bc 428e 133d 8662 67bd 5f00 653d
00000230: dda4 b33d 36af c53d a5ef 903c 4919 3a3e
00000240: 197e 03be d5aa 57bd 36d5 fbbd 9285 143e
00000250: e1e8 5abd ca73 163e 8b57 8cbd 3542 39be
00000260: cec3 843d f0b9 23be 1ef6 073e d496 2cbc
00000270: d10b c33c 86cf eb3d 5dd9 0d3d 5bcd 24be
00000280: c962 e2bd 4e88 483e b59e 21be f4bf 433e
00000290: ba65 11bc a796 46be d973 9fbd 1051 1c3e
000002a0: 5540 8cbe 55f0 5c3c d965 c13d 4815 63bd
000002b0: dfea ff3d 19eb a4bb 036a 89be 9687 05be
000002c0: 59b2 bf3d 16ef af3e 1ab0 a4bc 4479 79bd
000002d0: c2ef ff3e bbcc 8dbd 10bb 7dbb aaba 17be
000002e0: 8868 af3d a399 9c3c e278 1c3b cd5b 153e
000002f0: 2440 82be d3a5 55be bbb8 b63d f23c 96be
00000300: 03d0 ca3d 8ec8 3c3e 909f b53c af99 93bd
00000310: acc0 a23e cdec 71bd 401f af3e 171b 873e
00000320: 2e89 163e e732 003d 1602 1dbd e789 1fbe
00000330: 0a38 663e fc61 543d 7ef3 8f3d 9aec d63d
00000340: cc6a 2c3e 56e5 e33d a2c6 793c 5ca0 a63d
00000350: 1ea8 213e e2e6 b53d 6e93 41bd 27a6 49be
00000360: 8814 e3bd 1a3f 84be bda8 3abd 6db8 2a3e
00000370: 2083 8e3d 7e39 3f3e b083 a8bd 6216 cabd
00000380: c1e7 15bd 5128 103e fbbf 21be 76fb 8c3e
00000390: 4f3c ed3b 18ab 703d 0835 313d 152a cd3d
000003a0: 6eaf 1fbe 7445 a8bd d71d 133e 8760 b23d
000003b0: 3952 763d 49d2 2fbe be53 64bd 8f9e e13a
000003c0: 7a0c f5bd 86f5 b9be 7f0b f3bd 3fbe 403d
000003d0: 70db babd af83 583e 6829 efbd 49d8 153e
000003e0: bf54 0cbd b714 993b 00ef b53c e562 983c
000003f0: dd50 0a3e 6dab 793e 9387 83bd 7122 f83d
-0.5458077 -0.03424576 -0.08196064 0.16529655 -0.11004804 0.28735217 -0.09728998 0.020485016
-0.027080256 -0.0055655204 -0.09864027 -0.034127355 0.30815247 0.298035 -0.19876628 0.16354494
0.114134826 -0.010475104 0.10281371 0.10973122 -0.1455668 -0.20108043 -0.09457208 0.07402181
-0.015545314 -0.14006297 0.0054333475 -0.066875525 -0.02828832 -0.14341202 0.024417637 -0.22373341
0.01679638 -0.09302147 0.06294752 0.07117634 -0.21981345 0.23895162 -0.2585094 -0.18426988
-0.051415723 -0.023695365 0.03220828 0.02065402 0.05819339 0.19624202 -0.17682262 0.10988564
-0.17310458 -0.18174005 0.07444587 0.10837942 -0.14769146 0.11005358 0.010340043 -0.14052482
0.15538982 0.2676866 0.06957883 -0.12752478 0.04617127 -0.1707665 0.15321806 -0.17517935
-0.058643248 -0.122975774 -0.073262304 0.010149524 -0.1334755 0.05762632 -0.21885201 0.15948334
0.21560346 -0.15577877 -0.1027282 -0.02643267 0.18767849 0.17188929 -0.058457214 -0.041569073
0.15526877 -0.0925773 0.04964052 0.027631892 0.1085596 0.021261867 0.0013386651 0.050999783
-0.10833731 0.07165059 0.14296448 -0.027345741 0.01476757 0.38762856 0.04972397 -0.07295393
0.20973174 0.05928266 0.1120869 0.020568917 -0.13452296 -0.04763204 0.08111803 0.020443019
-0.18940747 -0.091820806 0.021874784 0.19916333 -0.09505758 0.18816726 0.30414164 0.043045644
-0.101544544 -0.06620691 0.17521565 -0.14198759 0.00755294 0.04922331 0.18661025 0.057679497
0.009835849 -0.105161875 -0.0016898542 0.21429479 0.10028176 -0.154749 0.013295616 0.002311654
0.0857329 0.6585604 -0.06523163 0.1336489 0.061563846 -0.063618965 -0.17619981 -0.010422889
-0.013228485 0.03602434 -0.056490444 0.055908557 0.087716796 0.096525595 0.017692396 0.18173708
-0.12841071 -0.052653152 -0.12296526 0.14504078 -0.053444747 0.14692608 -0.06852635 -0.18091662
0.06482659 -0.15988898 0.1327748 -0.010534007 0.023809345 0.11514191 0.034631122 -0.16093962
-0.11053998 0.19583246 -0.15783198 0.19116193 -0.008874351 -0.19393407 -0.07785768 0.15265298
-0.2739283 0.013485034 0.09443254 -0.055440217 0.1249597 -0.0050329086 -0.26838693 -0.13040003
0.09360189 0.34362096 -0.020103503 -0.060906664 0.49987608 -0.06923815 -0.0038716234 -0.148173
0.0856486 0.019116228 0.0023875763 0.145858 -0.2543956 -0.20864038 0.08921953 -0.29343373
0.09902956 0.1843588 0.022170812 -0.07207047 0.31787622 -0.05906372 0.3420353 0.26387855
0.14700767 0.031298544 -0.038332067 -0.1557995 0.22482315 0.051851258 0.07028864 0.10494347
0.16837615 0.11127727 0.015245112 0.08136055 0.15786788 0.08881928 -0.04725974 -0.19692288
-0.110879004 -0.25829393 -0.045571078 0.16671915 0.06958604 0.18674275 -0.082282424 -0.098675504
-0.03659797 0.1407788 -0.15795891 0.275356 0.0072398554 0.058756918 0.043263465 0.10017792
-0.15594265 -0.08216372 0.14366852 0.087098174 0.060137007 -0.17170061 -0.055743925 0.0017213392
-0.1196527 -0.36320132 -0.11867427 0.047056433 -0.09123886 0.21143983 -0.116778195 0.14633287
-0.034260508 0.004671659 0.02220869 0.018601844 0.1350741 0.243818 -0.06422343 0.12115944

decoder.0.bias f4 [128]
00000000: bad0 92be 85e5 b93c ef8e a5be bf2b f0bd
00000010: a0af 6fbe 8c02 ab3d 56d9 b8bd 80c7 93be
00000020: a7d3 19be 0557 6dbd 58b9 bbbc 97fe c8bd
00000030: 5b66 18be 0eab 4ebe 5866 a8be 3aa7 68be
00000040: af28 86be 45f9 15be 367a a13d 13ea dcbd
00000050: 7ed2 123e 8c86 8c3e 2540 13be b954 02be
00000060: c5d0 88be df5d 483d c7b5 2b3e a051 07bd
00000070: b908 2b3a c010 c6ba 2eb6 24be 06a6 edbd
00000080: 9f1f 213e 9b4f 6dbe 8909 abbd 067b 87be
00000090: eac0 aa3d dfd4 4ebe e3a2 a4be 07f2 adbe
000000a0: d987 91be e4b5 c7bc f2ff 3abe bf0d 85bd
000000b0: df77 7bbd c591 71bd 490b ca3e 82d6 1c3e
000000c0: 2bb6 c9bd 6459 0a3e e3f4 6fbe 0a0a e53d
000000d0: e329 32be 5922 09be 4a0a 57be ee36 973d
000000e0: d217 e9bd b2b3 8fbe c781 2bbe 3641 a4bd
000000f0: 2ca1 12be eede 1cbe 2da5 70be 82e2 abbe
00000100: 9554 9cbd f8a5 d9bd 0820 983d 45a1 443d
00000110: a0f0 2bbe ffc1 48be 856f d33d 5259 c8be
00000120: a9c8 4ebe 9adb a1be bbef 0dbd daf7 e5bd
00000130: 1558 f13d 4585 63bd 9bc9 b7be 6f65 79be
00000140: 1f72 173e d9e0 45be d95a ffbd 5e61 febd
00000150: 44f6 75be 2648 a8bd 81bc a0be a97b 13be
00000160: d4eb 32bd bdae 56be d1f2 c5bc 6937 92be
00000170: ed68 78be 7f0a 69be 7897 21be 1b2e 28be
00000180: f390 a6bd 954d 8e3c 9f8d 7cbe 41af 88be
00000190: 5300 6dbc c010 b2bc ff96 2dbd cb71 043e
000001a0: b5f7 9339 37e1 223d 94b3 49be ebd2 e13d
000001b0: caa6 8fbe 2cf0 fcbd fb75 acbd 1948 e2bd
000001c0: 5c48 3fbe 45c0 3cbe e144 a7be 421c 0ebe
000001d0: 1297 4a3c 5792 79be 5211 5f3d 3068 2dbe
000001e0: e4c9 75be 9819 92be b0da b0be 12b7 23be
000001f0: 3c40 9cbe 5194 4dbd 0e10 16be bb44 f7bd
-0.2867487 0.022692451 -0.32335612 -0.11727094 -0.2340684 0.08350095 -0.090258285 -0.28863144
-0.15022145 -0.057944316 -0.022915527 -0.09814184 -0.14882796 -0.2018244 -0.32890582 -0.22720042
-0.26202914 -0.1464587 0.07884638 -0.107868336 0.14338109 0.274464 -0.14379938 -0.12727632
-0.2672178 0.048917647 0.16768561 -0.033036828 0.0006524432 -0.0015111193 -0.16085121 -0.11603932
0.15734719 -0.23174898 -0.08351428 -0.26461047 0.08337577 -0.20198391 -0.32155523 -0.33973715
-0.28423956 -0.024378724 -0.18261698 -0.064967625 -0.061393615 -0.058976907 0.39461735 0.15316203
-0.09849199 0.13510662 -0.2343326 0.111835554 -0.17398791 -0.13392009 -0.21000019 0.07383524
-0.113814965 -0.28066784 -0.16748725 -0.080202505 -0.14319295 -0.15319416 -0.2350051 -0.3357125
-0.0763332 -0.10627359 0.074279845 0.04800536 -0.1679101 -0.19605254 0.10324005 -0.39130646
-0.20193733 -0.31612855 -0.034652453 -0.112289146 0.117843784 -0.055547018 -0.35896 -0.243551
0.14789627 -0.19324054 -0.124685 -0.12420915 -0.24019724 -0.08216886 -0.31393817 -0.14402641
-0.043681934 -0.20965095 -0.024163635 -0.285579 -0.24258776 -0.2275791 -0.15780437 -0.16423838
-0.081331156 0.017370978 -0.24663399 -0.26696208 -0.014465409 -0.021736503 -0.04238033 0.12934034
0.0002822258 0.039765563 -0.1969741 0.110265575 -0.28056937 -0.12350497 -0.084209405 -0.11048908
-0.18679947 -0.1843272 -0.32669738 -0.13877967 0.0123651195 -0.2437223 0.054459877 -0.16934276
-0.24002796 -0.2853515 -0.34541845 -0.15987805 -0.30517757 -0.050190274 -0.14654562 -0.12073656
