weights/1dreg/eq/rbf_convcnp.pth (torch_old, 29315 bytes, 12 tensors)

pre_mlp.0.weight f4 [8, 3]
-0.0060299914 0.5857758 0.4630856 -0.010875032 -0.03462832 0.8770975 -0.003320935 -0.16128294
-0.35230553 -0.012254254 -0.21029814 -0.9769055 0.009984625 -0.30743742 0.8436775 -0.0045935195
-3.2719333 0.25816193 0.0105014825 -0.026299937 -1.0954101 0.0014109525 -0.47799686 0.68811584
00000000: 3c97 c5bb 67f5 153f 8e19 ed3e 312d 32bc
00000010: 6dd6 0dbd 7689 603f 0ba4 59bb 5b27 25be
00000020: 6461 b4be 11c6 48bc 6558 57be 7b16 7abf
00000030: 8d96 233c 7068 9dbe 40fb 573f 3c85 96bb
00000040: 5b67 51c0 cd2d 843e 690e 2c3c f772 d7bc
00000050: 6636 8cbf b6ef b83a 01bc f4be 5c28 303f

pre_mlp.0.bias f4 [8]
-0.27858338 -0.057030145 -0.8716434 0.025157696 0.032199297 -0.6741885 -0.10841478 -0.39686018
00000000: 7ba2 8ebe 7198 69bd 0624 5fbf 8317 ce3c
00000010: 69e3 033d 9e97 2cbf 9108 debd 4231 cbbe

cnn.0.weight f4 [16, 8, 5]
0.045976333 -0.018618988 0.028852636 0.26467744 0.020567702 -0.11865154 0.06417618 0.11909863
0.26120672 0.06922333 0.09424049 -0.053735495 -0.0660477 0.07252977 0.15984604 -0.25115737
-0.50374115 -0.3013595 -0.22550404 -0.33895895 -0.018310014 0.18827431 0.19211942 -0.17062902
0.18788497 -0.095075086 0.06291066 0.0918566 0.16506037 0.03583375 0.035426207 -0.2185647
-0.37417746 -0.295106 -0.40586278 -0.24889626 -0.08668756 0.14149012 0.0049610464 -0.053242438
-0.1386168 0.033800974 -0.1435544 -0.0043632076 -0.18778312 -0.14073624 -0.15591645 0.15421553
-0.059310436 -0.18869936 0.06405154 0.19138393 -0.14809956 0.0690355 -0.21836898 -0.17298783
0.094462685 0.047613233 -0.09020972 -0.12612617 -0.20424071 -0.10398394 0.19826566 0.0709283
-0.10671306 -0.21417837 -0.056328874 -0.19385707 0.12888913 0.17688408 -0.14438611 -0.01821794
-0.19276007 0.02723999 -0.12670338 0.17778257 -0.19076379 -0.19503467 0.123592004 -0.06413627
-0.19349398 -0.130271 0.1696156 0.18856746 -0.061836496 0.1794011 0.09759333 -0.23663484
-0.21229532 -0.17518733 0.081052355 0.0027121706 -0.24938926 -0.041105755 0.055039704 0.1285749
0.12150879 -0.12566824 0.06323332 -0.047336698 -0.16859755 -0.109298296 0.14098889 0.10030958
-0.11117511 -0.09706273 0.0041117314 -0.16123617 -0.19377638 -0.13513823 -0.1735261 -0.21134172
-0.23737285 -0.03283351 0.062265277 -0.084146224 0.15817201 -0.16923447 -0.05185713 0.0726299
-0.103839755 -0.023592526 0.13837866 -0.03701897 0.29982162 -0.17469425 0.05416996 0.2475476
0.06009434 0.2671295 -0.23629123 -0.2859117 -0.14619493 -0.076695904 0.123441935 -1.0343403
-0.39097178 -0.17304571 -0.33168894 -0.35535178 -0.28004545 -0.23116082 0.22473185 0.23187993
-0.05800153 -0.03166068 -0.057038635 -0.13196996 0.2002336 0.03918701 -0.7772413 -0.7066075
-0.51294553 -0.21098693 -0.11279627 -0.19636981 0.20183197 0.22360563 0.23576339 0.25850558
-0.6842609 -0.16670153 0.30180252 0.113742575 0.14947972 -0.49896735 -0.47889847 -0.09600983
0.21538062 0.34529924 -0.15829636 -0.052799467 0.1828338 -0.08747346 0.012342244 -0.32765752
0.26664424 0.01900659 -0.0049236612 0.109488755 -0.6316926 -0.16803335 -0.26952186 0.15822122
-0.052374776 -0.3241624 -0.17172289 -0.19516638 0.017365433 0.0981329 -0.43165442 0.2838709
-0.04169292 0.18195775 0.16219008 -0.7442389 -0.25588256 0.02898566 0.08922969 0.31896418
-0.37865484 -0.39016083 -0.062741056 -0.37973526 -0.012500104 -0.48583347 -0.57154214 -0.40071768
-0.41007793 -0.6700197 0.20106424 0.06793857 0.13167389 0.14699039 -0.14122729 -0.042210437
-0.09463282 0.15201698 0.2295583 0.15907998 -0.7877205 -0.7410762 -0.80207825 -0.5649305
-0.80464953 -0.3285805 -0.10200162 -0.040362496 0.020494424 0.15442532 -0.06224032 0.08074428
0.21491684 -0.039057646 -0.010196717 -0.4292393 -0.5963302 -0.28123587 -0.33162773 -0.6340909
-0.04341241 -0.08406119 -0.20384449 0.13352247 0.13436079 -0.2704772 -0.2524886 -0.093652315
-0.35997614 -0.21719953 0.14913735 0.15178826 0.14269923 0.017123172 -0.05302751 0.047067624
00000000: ae51 3c3d d986 98bc 5d5c ec3c cd83 873e
00000010: 997d a83c 94ff f2bd cd6e 833d fce9 f33d
00000020: e3bc 853e f6c4 8d3d 2801 c13d c019 5cbd
00000030: 0444 87bd 7d8a 943d aeae 233e b397 80be
00000040: 2ef5 00bf cb4b 9abe 88ea 66be 078c adbe
00000050: e2fe 95bc fbca 403e f4ba 443e 60b9 2ebe
00000060: eb64 403e bab6 c2bd 4ed7 803d 501f bc3d
00000070: 9605 293e 69c6 123d 121b 113d 6dcf 5fbe
00000080: 3094 bfbe 2218 97be 3fcd cfbe a9de 7ebe
00000090: 3f89 b1bd c9e2 103e 4690 a23b be14 5abd
000000a0: 90f1 0dbe e472 0a3d edff 12be 3df9 8ebb
000000b0: 384a 40be 291d 10be 90a8 1fbe adea 1d3e
000000c0: 80ef 72bd 683a 41be 742d 833d 26fa 433e
000000d0: 69a7 17be 7c62 8d3d 1e9c 5fbe b923 31be
000000e0: a775 c13d 1806 433d e0bf b8bd 3827 01be
000000f0: 7a24 51be 88f5 d4bd 2706 4b3e db42 913d
00000100: 608c dabd 9351 5bbe 1bb9 66bd 7882 46be
00000110: 83fb 033e 1a21 353e f4d9 13be ca3d 95bc
00000120: e562 45be 6626 df3c 88be 01be a20c 363e
00000130: 9557 43be 2bb7 47be ce1d fd3d e059 83bd
00000140: 4923 46be c365 05be b6af 2d3e d417 413e
00000150: 4448 7dbd ecb4 373e 03df c73d 6750 72be
00000160: f263 59be 4f64 33be c7fe a53d acbe 313b
00000170: e65f 7fbe 825e 28bd 5071 613d 23a9 033e
00000180: 9ad9 f83d 2daf 00be 7980 813d 20e4 41bd
00000190: d6a4 2cbe c9d7 dfbd 645f 103e 1c6f cd3d
000001a0: c7af e3bd d3c8 c6bd b4bb 863b 181b 25be
000001b0: 516d 46be ad61 0abe d3b0 31be f769 58be
000001c0: de11 73be 6e7c 06bd e009 7f3d db54 acbd
000001d0: d8f7 213e cd4b 2dbe 2468 54bd fcbe 943d
000001e0: f0a9 d4bd 1d45 c1bc 23b3 0d3e 34a1 17bd
000001f0: 3882 993e 0de3 32be 52e1 5d3d 1e7d 7d3e
00000200: 7c25 763d 33c5 883e 54f6 71be 0563 92be
00000210: 20b4 15be be12 9dbd 20cf fc3d 4365 84bf
00000220: 742d c8be e532 31be 22d3 a9be abf0 b5be
00000230: 1e62 8fbe 6cb5 6cbe 1b20 663e ef71 6d3e
00000240: 0393 6dbd a1ae 01bd 58a1 69bd 2223 07be
00000250: 090a 4d3e 8f82 203d 49f9 46bf 3be4 34bf
00000260: 6650 03bf f50c 58be bb01 e7bd 2b15 49be
00000270: 0aad 4e3e e0f8 643e f56b 713e d85a 843e
00000280: b92b 2fbf ceb3 2abe dc85 9a3e def1 e83d
00000290: 3611 193e a678 ffbe 2e32 f5be cda0 c4bd
000002a0: bd8c 5c3e 10cb b03e 7118 22be 4144 58bd
000002b0: c938 3b3e 4925 b3bd 2037 4a3c bac2 a7be
000002c0: 9885 883e b5b3 9b3c aa56 a1bb a43b e03d
000002d0: 9bb6 21bf ef10 2cbe c5fe 89be be04 223e
000002e0: ef86 56bd 9df8 a5be 20d8 2fbe b2d9 47be
000002f0: f441 8e3c e7f9 c83d cf01 ddbe 8757 913e
00000300: 32c6 2abd 2253 3a3e 2815 263e 7186 3ebf
00000310: 0a03 83be 5673 ed3c 0ebe b63d 464f a33e
00000320: 0cdf c1be 29c3 c7be 627e 80bd a96c c2be
00000330: 3ccd 4cbc 2abf f8be 9650 12bf de2a cdbe
00000340: bcf5 d1be 6986 2bbf c9e3 4d3e 6123 8b3d
00000350: 85d5 063e a684 163e e39d 10be dae4 2cbd
00000360: dace c1bd 57aa 1b3e 5511 6b3e dde5 223e
00000370: 0da8 49bf 2bb7 3dbf 0055 4dbf 499f 10bf
00000380: 83fd 4dbf b43b a8be 3ae6 d0bd 2553 25bd
00000390: ece3 a73c ac21 1e3e b5ef 7ebd 425d a53d
000003a0: 2913 5c3e e9fa 1fbd 2210 27bc 41c5 dbbe
000003b0: 19a9 18bf 26fe 8fbe 1ccb a9be c853 22bf
000003c0: 36d1 31bd 4628 acbd 9cbc 50be 1dba 083e
000003d0: e095 093e fd7b 8abe 3046 81be c9cc bfbd
000003e0: cb4e b8be 8e69 5ebe 76b7 183e 626e 1b3e
000003f0: bf1f 123e e545 8c3c 6033 59bd fbc9 403d

cnn.0.bias f4 [16]
0.0076231137 -0.02139976 -0.028185347 0.03353634 0.034202088 -0.006684629 -0.037718203 -0.0048409784
-0.034738254 -0.011670158 -0.029913574 0.0023213367 0.043930043 -0.0069951606 -0.009205432 -0.009387588
00000000: 50cb f93b 8d4e afbc f5e4 e6bc 675d 093d
00000010: 7d17 0c3d bb0a dbbb 677e 1abd 12a1 9ebb
00000020: b349 0ebd 3134 3fbc 500d f5bc 9121 183b
00000030: fdef 333d a937 e5bb 61d2 16bc 66ce 19bc

cnn.2.weight f4 [32, 16, 5]
0.08478666 -0.2563964 -0.24812785 -0.17768936 0.029654257 0.03246566 -0.0025086936 -0.06546487
-0.11643137 0.10509568 -0.08862008 -0.13862216 0.08198911 -0.11391021 0.09128149 0.47286794
-0.10399952 -0.63958895 -0.537913 -0.59644055 0.49618354 -0.15214413 -0.11034911 0.26952752
-0.059440944 -0.37392786 -0.30864984 0.5986888 0.45299917 0.20353958 0.14074701 0.0012809539
-0.23453693 0.11223583 -0.19003405 -0.639975 -0.47116154 0.093638025 0.12020341 0.5637401
0.24986333 0.11328522 -0.08504586 -0.16168776 0.028741185 -0.07405093 -0.12963898 0.015637444
0.10973712 0.13168803 -0.29861772 0.020194802 -0.06458598 0.31824592 -0.12759443 0.16299525
-0.05570549 -0.041342124 -0.19741257 -0.37406078 -0.07199536 0.19316414 0.020781616 -0.069028
-0.19742471 0.07118726 0.14452152 0.1304255 0.081497096 0.1414631 -0.34892383 -0.18262634
-0.4181646 0.28226757 0.13010141 -0.07713698 -0.2406172 -0.05007705 -0.024606308 -0.29255357
-0.054550897 -0.05389437 -0.08337076 0.14758189 -0.10262104 0.08523597 -0.100168355 0.11538646
0.09789536 0.14903529 0.15723555 0.15295637 0.14657444 -0.10313989 -0.05842283 0.15276691
0.4345783 -0.056752134 -0.23223032 -0.5833396 0.106439196 0.59613776 0.20092581 0.17598517
0.13947618 -0.24472848 -0.10472497 -0.2594577 -0.22396013 -0.2959657 -0.31377745 -0.10017779
-0.13178414 -0.3371126 -0.32524428 -1.1606754 -0.04851751 -0.53769904 -0.38338336 -0.032197215
-0.10516785 -0.52052444 -0.2909025 -0.22981033 0.14002432 0.32988605 0.15193395 0.47909996
-0.06969146 -0.4326203 0.11900216 -0.30584282 0.09096851 -0.036404513 0.24079224 -0.14905433
-0.18284295 -0.22851539 -0.39955324 -0.03156054 -0.12471948 0.12549302 -0.06271417 -0.13518183
-0.14237046 0.010123068 -0.0033823035 -0.011803663 -0.113782145 0.011001684 -0.10718772 0.37877205
0.36885235 0.024354633 -0.10581539 0.021240037 0.18581927 0.18169428 0.038412876 0.13118374
-0.1375353 0.02458842 0.020791065 0.051629227 0.17831385 0.032076277 0.007166432 0.106387645
-0.022072634 -0.033441994 0.09837908 -0.122762874 -0.008358304 -0.04546982 -0.09390436 0.25415176
0.4060791 0.4017516 0.50066096 0.3978029 -0.24913567 0.1072836 0.072650425 0.39656985
-0.1911192 -0.17380497 -0.012881413 0.14815402 -0.116862215 -0.19521244 -0.28429246 -0.21002378
0.032079514 -0.09296289 0.09623135 -0.07459031 -0.32321224 0.013592751 0.12488168 0.10622841
-0.10244866 -0.025406137 0.04871206 -0.08894973 -0.030391613 0.006936167 0.044502888 -0.065991625
0.053289633 -0.059535768 -0.058127347 -0.17553335 0.09808261 0.52403283 0.43952295 0.06316991
0.23252152 -0.04110968 -0.05783504 0.024404434 -0.31515095 -0.24781269 0.03831139 -0.1601627
0.07647262 0.14894962 0.12579265 -0.13498501 0.10912154 0.062381882 0.10038109 -0.089153714
0.08970278 -0.00630679 0.09635137 0.28197327 0.07336048 0.013838496 -0.009271392 0.05504486
-0.21271965 -0.083058044 0.12762445 -0.18315263 -0.3176538 0.15046594 0.13894854 -0.06463369
-0.12442165 0.003547573 0.012722433 0.017337233 0.086389765 0.11649977 0.13079344 0.24589524
00000000: a1a4 ad3d 6446 83be 3a15 7ebe 33f4 35be
00000010: 7ced f23c b6fa 043d e568 24bb 7212 86bd
00000020: 9273 eebd 673c d73d 727e b5bd f8f2 0dbe
00000030: e8e9 a73d c249 e9bd caf1 ba3d bf1b f23e
00000040: b3fd d4bd 1abc 23bf abb4 09bf 54b0 18bf
00000050: c50b fe3e accb 1bbe b7fe e1bd 83ff 893e
00000060: 5978 73bd 7973 bfbe 5a07 9ebe ab43 193f
00000070: 82ef e73e ae6c 503e fc1f 103e aee5 a73a
00000080: 732a 70be e6db e53d 4998 42be 67d5 23bf
00000090: 163c f1be 4bc5 bf3d 352d f63d 4551 103f
000000a0: 2cdc 7f3e 1502 e83d 862c aebd 7a91 25be
000000b0: a272 eb3c 04a8 97bd 15c0 04be 191a 803c
000000c0: dbbd e03d 3ad9 063e 6ce4 98be 926f a53c
000000d0: a745 84bd 21f1 a23e 1da8 02be 3ae8 263e
000000e0: 712b 64bd 5c56 29bd 8526 4abe e584 bfbe
000000f0: 4e72 93bd d2cc 453e 353e aa3c 8d5e 8dbd
00000100: b429 4abe a0ca 913d 73fd 133e 438e 053e
00000110: f3e7 a63d b4db 103e 25a6 b2be 6602 3bbe
00000120: ac19 d6be 6085 903e 4e39 053e fef9 9dbd
00000130: 5b64 76be 981d 4dbd 2b93 c9bc 95c9 95be
00000140: c370 5fbd 58c0 5cbd 4abe aabd b51f 173e
00000150: fb2a d2bd 3290 ae3d 1125 cdbd bd4f ec3d
00000160: 5d7d c83d b59c 183e 5b02 213e 98a0 1c3e
00000170: 9c17 163e 023b d3bd c74c 6fbd ee6e 1c3e
00000180: 0c81 de3e ed74 68bd c9cd 6dbe be55 15bf
00000190: cbfc d93d 7c9c 183f 7fbf 4d3e 7535 343e
000001a0: d8d2 0e3e 1a9a 7abe 0c7a d6bd a4d7 84be
000001b0: ce55 65be d188 97be 70a7 a0be 032a cdbd
000001c0: 6cf2 06be 069a acbe 6b86 a6be 0391 94bf
000001d0: 4cba 46bd a5a6 09bf d34a c4be 3ae1 03bd
000001e0: 3e62 d7bd 1741 05bf 2cf1 94be 6653 6bbe
000001f0: 8962 0f3e d3e6 a83e 9394 1b3e 974c f53e
00000200: 65ba 8ebd 6880 ddbe 68b7 f33d 6e97 9cbe
00000210: b34d ba3d e61c 15bd 3e92 763e b3a1 18be
00000220: 2f3b 3bbe f0ff 69be 3e92 ccbe a045 01bd
00000230: ed6c ffbd 3e81 003e 4970 80bd 1b6d 0abe
00000240: 90c9 11be 39db 253c a3a9 5dbb 2764 41bc
00000250: 9d06 e9bd 6840 343c 3c85 dbbd 69ee c13e
00000260: 37da bc3e 5e83 c73c bdb5 d8bd 96ff ad3c
00000270: 6847 3e3e 110e 3a3e d256 1d3d 0855 063e
00000280: 0ed6 0cbe a76d c93c 0652 aa3c 2b79 533d
00000290: e897 363e 6a62 033d 64d4 ea3b c4e1 d93d
000002a0: abd1 b4bc 79fa 08bd f97a c93d 1a6b fbbd
000002b0: 45f1 08bc 903e 3abd ee50 c0bd 2e20 823e
000002c0: 9ae9 cf3e 63b2 cd3e 512b 003f d2ac cb3e
000002d0: 6c1d 7fbe 81b7 db3d bfc9 943d 340b cb3e
000002e0: c0b4 43be eef9 31be 900c 53bc b0b5 173e
000002f0: 7555 efbd c5e5 47be c88e 91be 7910 57be
00000300: cf65 033d 5463 bebd f114 c53d cec2 98bd
00000310: 137c a5be 21b4 5e3c f7c1 ff3d 488e d93d
00000320: 9ad0 d1bd 8820 d0bc 4c86 473d 472b b6bd
00000330: d5f7 f8bc c948 e33b a948 363d 9e26 87bd
00000340: 3b46 5a3d c7db 73bd f116 6ebd 04bf 33be
00000350: 89df c83d 0427 063f 2709 e13e 3a5f 813d
00000360: 1f1a 6e3e a062 28bd 6fe4 6cbd cfeb c73c
00000370: 775b a1be 9cc2 7dbe 67ec 1c3d b101 24be
00000380: ad9d 9c3d 4086 183e cacf 003e 8339 0abe
00000390: 1d7b df3d 2584 7f3d 9a94 cd3d 3996 b6bd
000003a0: 17b6 b73d 30a9 cebb de53 c53d cd5e 903e
000003b0: 053e 963d dcba 623c 09e7 17bc b876 613d
000003c0: 2ed3 59be 561a aabd fcaf 023e 5d8c 3bbe
000003d0: 85a3 a2be be13 1a3e 8748 0e3e ab5e 84bd
000003e0: c7d0 febd 667e 683b c071 503c d006 8e3c
000003f0: 1eed b03d 6e97 ee3d b7ee 053e f6cb 7b3e

cnn.2.bias f4 [32]
-0.19452631 -0.27040732 -0.26497892 -0.31889278 -0.2858506 -0.09900732 -0.42113435 -0.2110356
-0.21336177 -0.13119023 0.02849166 0.061492678 0.02087422 0.0010157343 0.005860444 -0.03124549
-0.025656296 0.09826762 -0.3525022 -0.19221331 -0.10268606 0.010218908 -0.074716486 0.028280644
-0.18694714 -0.072384484 -0.1692415 -0.11946401 -0.027733885 -0.1233587 -0.03589562 -0.11474526
00000000: e831 47be d472 8abe 51ab 87be ea45 a3be
00000010: 035b 92be 5ac4 cabd ec9e d7be b719 58be
00000020: 827b 5abe bb56 06be 5767 e93c bfdf 7b3d
00000030: 6a00 ab3c 6322 853a f808 c03b 8bf6 ffbc
00000040: 272d d2bc 8940 c93d 2b7b b4be 91d3 44be
00000050: 124d d2bd 356d 273c f504 99bd cfac e73c
00000060: 126f 3fbe 513e 94bd a54d 2dbe 8ca9 f4bd
00000070: 2c32 e3bc 7ca3 fcbd 4907 13bd 90ff eabd

cnn.4.weight f4 [16, 32, 5]
0.0024065177 -0.06770697 -0.00074889435 -0.17752215 -0.23879433 -0.14824054 0.03929242 0.16493967
0.042958513 -0.35062447 -0.1978757 0.090416566 0.08976834 -0.04475731 -0.11851423 -0.02916003
0.09282815 0.020041402 0.020493057 0.05813188 -0.021176917 0.029171538 0.028020399 -0.07841834
0.0008201633 -0.026550818 -0.1371552 -0.09828276 0.026066203 0.23233064 -0.030266449 0.2048741
0.33220443 0.18183017 -0.0028238606 -0.48836434 -0.13606973 0.23205467 0.22609395 0.20003979
-0.020953516 0.097848855 0.00975273 0.1005371 -0.18981288 0.04264677 0.0020957508 0.044760536
0.07337208 0.08365134 0.21978438 0.037773594 0.032261718 -0.202343 -0.09682207 -0.05440272
-0.0030245206 -0.101314984 -0.017541055 0.001007082 -0.12712055 -0.07338817 -0.06566628 0.20221828
0.12923904 -0.30181664 0.009340819 -0.21630995 -0.611943 -0.07081182 0.06825349 0.009207426
0.25743917 0.2987572 0.23847367 0.045543365 -0.26273146 0.15407754 0.1729763 -0.17674217
0.025372133 -0.46211365 -0.36207947 -0.15842639 -0.4656775 -0.06794729 -0.14434928 -0.08231955
0.05310214 0.033315126 -0.022699531 -0.1043816 0.020507826 0.2848993 -0.07346134 -0.22574195
0.13235593 0.09567464 0.08143568 -0.0006054521 -0.3225324 0.04710746 0.2800934 0.3358127
-0.40158123 -0.05436301 0.08807872 0.12643182 0.0023488533 -0.20829432 -0.14822966 0.12105198
-0.09206301 0.11633347 0.12410045 0.21473849 -0.00044294292 0.013197681 -0.23039247 -0.26117533
0.0011019636 0.04448497 -0.03051801 -0.028120635 -0.017669808 0.013908114 0.21526407 0.021912467
-0.027733032 -0.12616023 -0.061182473 0.19268794 0.16828011 0.22607088 -0.047675434 -0.073675804
0.068142556 0.15867943 0.023466326 0.23912859 0.11027972 0.17754002 -0.15722786 -0.0019370817
-0.031743035 -0.15200327 -0.07840328 0.23249362 0.20432703 -0.011296638 0.18873169 0.067261174
-0.040031254 -0.17182142 -0.19302088 0.053197645 0.081288055 0.09622602 0.057172745 -0.07360044
-0.18429299 0.0353408 0.41402382 0.63972694 -0.022185186 -0.19827974 -0.07503409 0.32780758
-0.23593925 0.5994527 -0.046175327 -0.07065515 -0.0694194 0.2686374 -0.015540483 -0.16285811
0.063901976 -0.21836108 0.012799238 0.24478348 -0.4626324 -0.6829783 -0.17492521 -0.30846205
0.3284696 0.5091012 -0.11857336 -0.30539215 -0.19156802 -0.5907324 -0.5073204 0.26434433
-0.20507196 -0.1975312 -0.05030806 -0.83865446 0.6398519 0.1144488 -1.0327153 -0.8381202
-0.2322563 -0.11804743 0.18891205 -0.035016645 -0.007047526 0.5865747 -0.17118275 0.032152917
0.11813287 0.4699788 -0.46285623 -0.31639156 0.030014927 -0.1401554 0.58515567 0.29044268
0.18930273 -0.14625387 -0.45051214 -1.0411903 0.47808364 0.68805444 0.5099153 -0.70953286
-1.9121977 0.3601754 0.37060428 -0.0073872036 -0.386099 -0.059716813 -0.17948788 -0.19243439
0.03668777 0.06833363 0.058502436 -0.5920859 -0.079345204 0.036572475 -0.0738151 -0.253192
-0.5594369 0.044344712 0.16754727 0.038950082 -0.21275666 -0.36184913 -0.07407632 -0.17184895
0.1572144 0.2538049 -0.2822617 -0.25333863 -0.110090464 -0.36327288 0.09269615 -0.18172683
00000000: abb6 1d3b f4a9 8abd 7351 44ba 5ec8 35be
00000010: 8086 74be 5ecc 17be 17f1 203d f2e5 283e
00000020: 44f5 2f3d 0d85 b3be ed9f 4abe 522c b93d
00000030: 77d8 b73d 7153 37bd 97b7 f2bd 04e1 eebc
00000040: af1c be3d de2d a43c 0ee1 a73c b21b 6e3d
00000050: 377b adbc 26f9 ee3c 098b e53c cb99 a0bd
00000060: 3a00 573a 1a81 d9bc 6a72 0cbe 7948 c9bd
00000070: ca88 d53c 15e8 6d3e 58f1 f7bc 84ca 513e
00000080: b316 aa3e b031 3a3e 8510 39bb e40a fabe
00000090: dd55 0bbe bd9f 6d3e 2c85 673e 3bd7 4c3e
000000a0: b5a6 abbc fb64 c83d eac9 1f3c 65e6 cd3d
000000b0: 4f5e 42be 61ae 2e3d dd58 093b d356 373d
000000c0: 1a44 963d 6551 ab3d 280f 613e 7cb8 1a3d
000000d0: dd24 043d 0133 4fbe a64a c6bd 63d5 5ebd
000000e0: 0937 46bb 3b7e cfbd 42b2 8fbc 1100 843a
000000f0: e42b 02be 894c 96bd 0b7c 86bd 4f12 4f3e
00000100: 3d57 043e b687 9abe 3c0a 193c 5b80 5dbe
00000110: 4ca8 1cbf ca05 91bd 7cc8 8b3d beda 163c
00000120: 11cf 833e b4f6 983e 7132 743e ae8b 3a3d
00000130: bd84 86be 81c6 1d3e b320 313e e6fb 34be
00000140: 38d9 cf3c 299a ecbe 7b62 b9be 873a 22be
00000150: 486d eebe f327 8bbd 4cd0 13be 2797 a8bd
00000160: a181 593d 7175 083d 5ef4 b9bc 05c6 d5bd
00000170: 0700 a83c 52de 913e e672 96bd e628 67be
00000180: 5088 073e 11f1 c33d c0c7 a63d 34b7 1eba
00000190: f722 a5be c1f3 403d 6768 8f3e a4ef ab3e
000001a0: 0e9c cdbe bfab 5ebd 9e62 b43d 5877 013e
000001b0: 38ef 193b 1b4b 55be 84c9 17be 1aea f73d
000001c0: 888b bcbd 3e40 ee3d 6028 fe3d 68e4 5b3e
000001d0: cb3a e8b9 163b 583c 01ec 6bbe c6b8 85be
000001e0: c36f 903a df35 363d e800 fabc 3f5d e6bc
000001f0: 46c0 90bc dcde 633c 2f6e 5c3e c681 b33c
00000200: 6230 e3bc 2630 01be 799a 7abd fd4f 453e
00000210: 9f51 2c3e 207f 673e 5147 43bd 57e3 96bd
00000220: 538e 8b3d dc7c 223e 743c c03c 20de 743e
00000230: 55da e13d 0dcd 353e 5700 21be ade5 fdba
00000240: fc04 02bd bfa6 1bbe e691 a0bd cf12 6e3e
00000250: 1b3b 513e 8915 39bc e142 413e 3ac0 893d
00000260: d0f7 23bd f4f1 2fbe 44a7 45be c6e5 593d
00000270: 5a7a a63d 2612 c53d f82d 6a3d d4bb 96bd
00000280: 4db7 3cbe 84c1 103d eefa d33e 25c5 233f
00000290: b5bd b5bc d809 4bbe 79ab 99bd 65d6 a73e
000002a0: 0f9a 71be bb75 193f 5722 3dbd a6b3 90bd
000002b0: c22b 8ebd d78a 893e 839d 7ebc 47c4 26be
000002c0: 0adf 823d 0c9a 5fbe e5b3 513c 85a8 7a3e
000002d0: 27de ecbe aad7 2ebf 981f 33be bdee 9dbe
000002e0: 2b2d a83e 7554 023f 97d6 f2bd 5c5c 9cbe
000002f0: 682a 44be 3d3a 17bf c0df 01bf 2458 873e
00000300: 62fe 51be 9e45 4abe d30f 4ebd 0fb2 56bf
00000310: 56cd 233f 2264 ea3d 0430 84bf 0c8f 56bf
00000320: 98d4 6dbe dac2 f1bd 2972 413e 9d6d 0fbd
00000330: efee e6bb c229 163f 884a 2fbe c7b2 033d
00000340: a5ef f13d 10a1 f03e 7efb ecbe 13fe a1be
00000350: dde1 f53c e684 0fbe c3cc 153f e7b4 943e
00000360: 93d8 413e 93c3 15be 87a9 e6be b945 85bf
00000370: 61c7 f43e 5624 303f cf89 023f f2a3 35bf
00000380: e5c2 f4bf e968 b83e d8bf bd3e 5b10 f2bb
00000390: c5ae c5be 9e99 74bd accb 37be 850d 45be
000003a0: ea45 163d 81f2 8b3d 40a0 6f3d f192 17bf
000003b0: bd7f a2bd 05cd 153d 5f2c 97bd 62a2 81be
000003c0: 4237 0fbf cda2 353d 8391 2b3e 1f8a 1f3d
000003d0: e2dc 59be 4a44 b9be 53b5 97bd 2cf9 2fbe
000003e0: d0fc 203e b7f2 813e 9b84 90be 9ab5 81be
000003f0: 1c77 e1bd e7fe b9be 7bd7 bd3d 9916 3abe

cnn.4.bias f4 [16]
0.051055823 0.025183622 -0.009129603 -0.30226997 -0.102128536 0.031862475 -0.028564516 0.072196275
-0.1054794 -0.1103842 -0.053104643 -0.14649458 -0.2031972 0.24679995 0.29736677 -0.11113207
00000000: e91f 513d e24d ce3c 5594 15bc 21c3 9abe
00000010: c428 d1bd 3a82 023d 2200 eabc a4db 933d
00000020: 9505 d8bd 1d11 e2bd 4184 59bd ad02 16be
00000030: ed12 50be 20b9 7c3e 7540 983e 3699 e3bd

cnn.6.weight f4 [8, 16, 5]
-0.031273197 -0.079151265 0.17887636 0.04631662 0.03752751 -0.1526134 0.28968418 0.32792622
0.5708522 0.695896 -0.20935981 0.23189478 -0.07302977 0.1328157 0.27488172 0.78125644
0.27303785 -0.29761237 -0.3440866 -0.24637413 -0.19199844 0.13930975 0.08784099 -0.10607424
0.16904649 -0.076597795 0.11104843 0.008521769 0.12353208 0.08582723 -0.342847 0.120510794
0.3036335 0.20066209 0.08682581 0.18858883 0.32318842 0.08271871 0.010082256 0.07957932
0.06746283 -0.042409644 -0.41892803 -0.16484676 0.36554563 -0.2972437 -0.1579127 -0.0686036
-0.22062929 -0.14412145 -0.03532389 0.014376911 -0.08204343 -0.18574047 0.09943357 0.09577469
-0.10533774 0.08228673 -0.1472076 -0.15162455 -0.11923151 -0.13755214 -0.10869315 -0.07698115
-0.091137126 0.16833338 0.2539205 0.08528517 -0.19730182 0.0016485793 0.27155897 0.4887035
0.20443806 0.17985342 0.19512378 0.028039454 0.5011708 0.2853941 0.19503663 -0.22053516
-0.79411036 -0.009981892 -0.18331827 -1.3067513 -1.2279582 -0.040771727 -0.040349018 -0.019101417
0.11082511 -0.09040784 0.24448411 0.03666674 0.23550238 -0.55283064 -0.4101246 -0.06107542
0.37070775 0.08330273 0.1235087 0.32942277 -0.1994575 0.20866524 0.19399424 -0.26434672
-0.11570057 -1.338838 -0.80856556 -0.5210378 -0.09094604 -0.18972595 -0.15666902 0.17197353
-0.48190546 -0.22751918 -0.35501024 -0.29327324 -0.14003918 -0.08794176 -0.2074537 -0.07629907
0.7723143 0.2791985 -0.47028467 -0.3270626 -0.10848929 0.22097772 0.12931257 0.18394437
-0.17884073 -0.12269907 0.17522818 0.014786378 -0.01477079 -0.15156491 -0.21586877 -0.40868708
0.108107425 -0.18434304 0.43952417 0.42302153 -1.0533122 0.17725472 0.1451909 0.19417323
0.355483 -0.15543835 -0.21808144 0.09328744 -0.16399935 -0.5202529 -0.61367947 -0.05094823
-0.668235 0.10301877 0.13044763 0.13128743 0.6143685 0.06794569 0.093479834 0.22703278
-0.19815993 -0.17559604 -0.0017526479 -0.14536685 0.023913458 -0.24842854 0.047194693 -0.15080754
-0.14591561 0.41789097 -0.2145734 -0.31344923 0.17759694 0.19583803 -0.009452852 -0.33622888
-0.3002371 -0.09884627 0.6295978 0.66975856 -0.030971708 -0.0013761878 0.26839375 0.2607277
0.24652424 0.17174433 -0.008247222 -0.2666394 -0.05229959 0.020496959 -0.87267023 -0.08561019
-0.16214362 -0.066484176 0.64895487 0.055052202 0.13467894 0.09540999 0.2022828 -0.028470337
-0.6932739 -1.0578796 -0.21107222 0.40889102 0.26415858 -0.09257157 -0.15258722 -0.0628954
0.19947475 -0.16655163 0.0020016646 -0.09930952 0.08875424 0.16573344 -0.18520057 0.24692555
0.10509266 -0.0033459824 -0.03631962 -0.1728306 -0.16928932 -0.52311957 -0.20183592 0.042336896
-0.5128002 0.5205346 0.08209569 0.17604426 -0.39032552 -0.548516 -0.6449334 -0.66729563
0.013906822 0.16867375 0.38944167 -0.26927963 0.43096888 -0.15642954 -0.21821414 -0.24547754
0.044686574 -0.1622648 -0.10905755 0.069080725 -0.11045791 0.6054412 0.14550592 0.23130228
0.41509363 -0.06930717 0.5615635 0.48306495 0.49404487 0.14027786 -0.34250376 -0.578393
00000000: 5318 00bd 0f1a a2bd 5d2b 373e 7fb6 3d3d
00000010: 72b6 193d b046 1cbe 7c51 943e f2e5 a73e
00000020: 5f23 123f 3e26 323f 6b62 56be d375 6d3e
00000030: a290 95bd d700 083e 4cbd 8c3e 6c00 483f
00000040: 9ecb 8b3e a660 98be 1e2c b0be 8049 7cbe
00000050: 3d9b 44be 37a7 0e3e fae5 b33d 733d d9bd
00000060: 861a 2d3e 4edf 9cbd 5c6d e33d e49e 0b3c
00000070: 63fe fc3d 30c6 af3d a489 afbe 5dce f63d
00000080: da75 9b3e 5d7a 4d3e bbd1 b13d 6e1d 413e
00000090: f478 a53e 6d68 a93d 0c30 253c 7cfa a23d
000000a0: f429 8a3d bcb5 2dbd bc7d d6be 97cd 28be
000000b0: cc28 bb3e 5430 98be deb3 21be 0b80 8cbd
000000c0: a5ec 61be 9394 13be c9af 10bd 238d 6b3c
000000d0: 6306 a8bd c032 3ebe d4a3 cb3d 8525 c43d
000000e0: 50bb d7bd f285 a83d 97bd 16be 7743 1bbe
000000f0: a62f f4bd 78da 0cbe 849a debd 4ba8 9dbd
00000100: 1aa6 babd 965f 2c3e de01 823e fea9 ae3d
00000110: 7d09 4abe 2415 d83a c709 8b3e 5837 fa3e
00000120: 3658 513e 7f2b 383e 87ce 473e ffb2 e53c
00000130: bb4c 003f 2d1f 923e afb7 473e f8d3 61be
00000140: d14a 4bbf 178b 23bc c9b7 3bbe a043 a7bf
00000150: bc2d 9dbf 4100 27bd 0345 25bd 937a 9cbc
00000160: 46f8 e23d bf27 b9bd 0b5a 7a3e dd2f 163d
00000170: 8927 713e 4f86 0dbf dafb d1be 382a 7abd
00000180: 68cd bd3e 9f9a aa3d 21f2 fc3d 1aaa a83e
00000190: 963e 4cbe 57ac 553e 6da6 463e 7458 87be
000001a0: 6cf4 ecbd 0b5f abbf 27fe 4ebf bc62 05bf
000001b0: eb41 babd 8547 42be d86d 20be d419 303e
000001c0: 50bc f6be cafa 68be e7c3 b5be e927 96be
000001d0: 6e66 0fbe cf1a b4bd be6e 54be b042 9cbd
000001e0: 64b6 453f 1bf3 8e3e 27c9 f0be c074 a7be
000001f0: a22f debd fc47 623e 846a 043e ea5b 3c3e
00000200: 0622 37be a649 fbbd 046f 333e 9042 723c
00000210: 2f01 72bc d533 1bbe b40c 5dbe 6f3f d1be
00000220: 6d67 dd3d 6cc4 3cbe 5009 e13e 4796 d83e
00000230: efd2 86bf 4382 353e ecac 143e 59d5 463e
00000240: de01 b63e 3b2b 1fbe be50 5fbe 7c0d bf3d
00000250: 72ef 27be 4b2f 05bf 191a 1dbf 17af 50bd
00000260: 7311 2bbf 81fb d23d 1094 053e 3670 063e
00000270: 4147 1d3f 1c27 8b3d 5b72 bf3d 487b 683e
00000280: 70ea 4abe 73cf 33be 1bb9 e5ba 0cdb 14be
00000290: 28e6 c33c 0d64 7ebe 394f 413d 4b6d 1abe
000002a0: e76a 15be cef5 d53e 21b9 5bbe 6b7c a0be
000002b0: f9db 353e c489 483e 23e0 1abc 3126 acbe
000002c0: adb8 99be ea6f cabd 522d 213f 4c75 2b3f
000002d0: 61b8 fdbc 3361 b4ba e86a 893e 1a7e 853e
000002e0: da70 7c3e bfdd 2f3e 5b1f 07bc f684 88be
000002f0: 1838 56bd 3de9 a73c 5167 5fbf 6554 afbd
00000300: fa08 26be db28 88bd e821 263f 6b7e 613d
00000310: 47e9 093e 5066 c33d 3923 4f3e a03a e9bc
00000320: 667a 31bf 9968 87bf 5123 58be 2a5a d13e
00000330: cb3f 873e 2a96 bdbd d33f 1cbe 4ecf 80bd
00000340: 1c43 4c3e 838c 2abe 5c2e 033b ca62 cbbd
00000350: c8c4 b53d 07b6 293e 38a5 3dbe 0dda 7c3e
00000360: d23a d73d 4548 5bbb e2c3 14bd 81fa 30be
00000370: 2e5a 2dbe 2aeb 05bf 13ae 4ebe 7469 2d3d
00000380: e046 03bf c141 053f c921 a83d f244 343e
00000390: bfd8 c7be 8b6b 0cbf 5b1a 25bf e3d3 2abf
000003a0: 70d9 633c d0b8 2c3e e664 c73e 05df 89be
000003b0: f4a7 dc3e 112f 20be 8773 5fbe 775e 7bbe
000003c0: 4509 373d be28 26be 9159 dfbd 327a 8d3d
000003d0: c237 e2bd 32fe 1a3f 81ff 143e 81da 6c3e
000003e0: 2787 d43e ebf0 8dbd a0c2 0f3f 4a54 f73e
000003f0: 73f3 fc3e 00a5 0f3e a75c afbe 9011 14bf

cnn.6.bias f4 [8]
0.4567091 0.048502274 -0.16723607 -0.5407316 0.35443932 0.18653308 0.076043874 -0.4809694
00000000: c6d5 e93e 52aa 463d ef3f 2bbe 636d 0abf
00000010: 1279 b53e 8702 3f3e e4bc 9b3d 9f41 f6be

mean_linear.weight f4 [1, 8]
0.06294604 0.46639866 0.110357486 -0.0041563925 0.108678386 -0.4302954 -0.30180308 -0.008272969
00000000: dae9 803d cecb ee3e 1b03 e23d 5932 88bb
00000010: c692 de3d ae4f dcbe ef85 9abe 598b 07bc

var_linear.0.weight f4 [1, 8]
-1.1068164 -0.7033902 0.8263914 1.3759731 2.0434482 1.005785 -0.33117396 1.2793723
00000000: 29ac 8dbf 6111 34bf 638e 533f e31f b03f
00000010: dbc7 0240 90bd 803f a28f a9be 79c2 a33f
