weights/1dreg/eq/rbf_cnp.pth (torch_old, 335618 bytes, 14 tensors)

encoder.0.weight f4 [128, 2]
0	0x3d91ad13	0.071130894
1	0xbdb478ba	-0.08812089
2	0xbd70dfe9	-0.058807287
3	0xbe74f38d	-0.23921032
4	0xbf3b1d5e	-0.73091686
5	0xbdfaca02	-0.12245561
6	0xbf4b4b79	-0.7941204
7	0x3d9acccd	0.07558594
8	0xbe54f4ae	-0.20796463
9	0xbeaf1689	-0.3419688
10	0xbf18daee	-0.5970906
11	0x3dcf7b82	0.10130979
12	0xbdd4470f	-0.10365116
13	0xbe125b05	-0.14292534
14	0x3eba7f5b	0.3642529
15	0x3eda80fb	0.4267653
16	0x3e108fde	0.14117381
17	0xb929f8b7	-0.0001620975
18	0x3e90802d	0.2822279
19	0x3de1d4b6	0.110268995
20	0xbebea95b	-0.37238583
21	0xbd600214	-0.05468948
22	0x3dad0460	0.084481
23	0x3c8e95fa	0.017405499
24	0x3ec268fa	0.37970716
25	0x3e544ecd	0.20733185
26	0x3ec27c1a	0.37985307
27	0xbe1000cd	-0.14062805
28	0x3d23f117	0.040024843
29	0x3c77668a	0.015100131
30	0xbd81044c	-0.06299648
31	0x3e1ab83a	0.1510934
32	0xbf07d480	-0.53058624
33	0x3c6aab7c	0.014323112
34	0xbc2dc841	-0.010606826
35	0xbb1ab50b	-0.0023606445
36	0x3d89da4b	0.06731089
37	0x3eab7c0f	0.33493087
38	0xbe3684d8	-0.17824113
39	0x3eb0eff0	0.34558058
40	0xbe93d343	-0.28872117
41	0x3e7d6b57	0.24747978
42	0x3cf2e7a0	0.029651463
43	0x3cfe4bc0	0.03104198
44	0x3d163889	0.03667501
45	0xbc39b7f7	-0.011335365
46	0xbde4663b	-0.111523114
47	0xbdeb8d19	-0.115015216
48	0x3c9d2984	0.019184835
49	0xb930da4a	-0.00016865987
50	0xbe5a3719	-0.2131008
51	0xbdd123bb	-0.10211893
52	0xbf018b15	-0.5060285
53	0xbea271cc	-0.31727445
54	0xbeb8ceef	-0.36095378
55	0x3ea40c97	0.32040855
56	0xbf099362	-0.53740513
57	0x3ea59a8b	0.3234447
58	0xbe4d3721	-0.20040561
59	0xbe361081	-0.17779733
60	0x3f03e5c9	0.515225
61	0x3e071880	0.1319294
62	0xbdc6605c	-0.09686348
63	0x3a404fc9	0.00073361077
64	0x3eeb9773	0.46013984
65	0xbdc260a6	-0.094910905
66	0x3f012e69	0.5046144
67	0x3ebead3e	0.37241548
68	0x3ee18e71	0.44053987
69	0xbec196f4	-0.3781048
70	0xbf3fdceb	-0.7494647
71	0x3e2c176c	0.1680581
72	0xbecf6e6f	-0.40513942
73	0xbe564ddf	-0.20928143
74	0xbc95fa1b	-0.018307736
75	0xbafb2306	-0.0019160218
76	0x3eae28b8	0.3401544
77	0x3d1566fb	0.036475163
78	0x3c9f8147	0.019470824
79	0xbb9297a2	-0.0044736424
80	0x3f211901	0.6292878
81	0xbce77973	-0.028256154
82	0x3e83f5a3	0.25773343
83	0xbe3f5525	-0.18684824
84	0x3e948068	0.29004216
85	0xbc4a913b	-0.012363727
86	0xbe089e17	-0.13341556
87	0xbf18f6f5	-0.59751827
88	0xbd1322cf	-0.035921868
89	0xbc2758ef	-0.0102140745
90	0x3d9d319d	0.076754786
91	0xbd956f79	-0.07296652
92	0xbd832066	-0.06402664
93	0x3ec59e0c	0.38597143
94	0x3f3fbafe	0.748947
95	0x3e361fe7	0.17785607
96	0x3ec7bbea	0.39010555
97	0xbdb1db71	-0.08684433
98	0xbf1f7804	-0.62292504
99	0x3ee5daf5	0.44893613
100	0x3c03ee80	0.008052468
101	0xbe24f141	-0.16107656
102	0xbed67467	-0.41885683
103	0xbe9a0ce1	-0.3008795
104	0x3ea3d1e6	0.31996077
105	0xbdc3302b	-0.09530672
106	0xbbcbf045	-0.0062237107
107	0x3e647bd3	0.2231286
108	0xbefa2cd7	-0.48862335
109	0x3cc99da7	0.024611307
110	0xbd46097b	-0.048348885
111	0xbeb7d0f4	-0.35901606
112	0xbd88af77	-0.06674092
113	0xbec217cb	-0.37908778
114	0xbd976b15	-0.07393471
115	0xbd3fa946	-0.04679229
116	0x3ec31546	0.38102168
117	0xbdfc8fd4	-0.123321205
118	0xbd3a674c	-0.045508668
119	0xbeb07551	-0.34464505
120	0x3f1f2494	0.6216519
121	0xbead95f7	-0.33903477
122	0xbd00dd70	-0.03146118
123	0xbc0be75b	-0.008539046
124	0xbf0a7f73	-0.5410072
125	0xbc854fb5	-0.016273359
126	0xbe20a7ec	-0.15689057
127	0x39bb4ba4	0.00035723776
128	0x3ea43b13	0.3207632
129	0xbe83d98f	-0.25751922
130	0x3e029c62	0.12754968
131	0xbdff3976	-0.12462132
132	0x3d656890	0.05600792
133	0x3d030ad1	0.031992737
134	0x3ecebddb	0.40379223
135	0x3ea0e092	0.31421334
136	0xbea709ed	-0.3262476
137	0xbdbe6c3b	-0.09297987
138	0xbd1f28ce	-0.038857274
139	0x3ec93747	0.39299986
140	0x3e1017c1	0.14071561
141	0x3c70f937	0.014707855
142	0x3e09799a	0.13425294
143	0x3eb0b0cd	0.34509888
144	0x3e2b4d5f	0.16728733
145	0x3dee18d7	0.116258316
146	0x3eb3d8b3	0.35126266
147	0x3e802ba6	0.250333
148	0x3f19d8b4	0.6009629
149	0xbe88ced5	-0.267203
150	0x3dd60048	0.104492724
151	0xbd05e846	-0.032692216
152	0x3f13695c	0.5758264
153	0x3e88787c	0.26654422
154	0x3d28089c	0.041023836
155	0x3b031c14	0.002000575
156	0x3ef0e71b	0.4705132
157	0x3e1b99be	0.15195367
158	0xbbd1c833	-0.0064020394
159	0x3a2bedaf	0.000655855
160	0xbdb081fc	-0.086185426
161	0x3d59d11e	0.053177945
162	0xbe65899a	-0.22415772
163	0xbca477ea	-0.02007671
164	0xbd9e86d8	-0.07740563
165	0xbd93b735	-0.07212678
166	0x3e7beaf3	0.24601345
167	0xbec0bcc1	-0.37644008
168	0xbf15ef82	-0.58568585
169	0x3e101903	0.14072041
170	0x3d615c27	0.055019524
171	0x3ea12ad4	0.31477988
172	0xbecb34c3	-0.39688691
173	0xbe9debaa	-0.3084386
174	0xbee0d99c	-0.43916023
175	0xbe4dc191	-0.20093371
176	0xbf196d38	-0.5993228
177	0x3e94cdd2	0.29063278
178	0xbed094ad	-0.4073843
179	0xbcb1d2ea	-0.021707017
180	0x3eae5831	0.3405166
181	0x3e7488e2	0.23880342
182	0x3c10f766	0.008848047
183	0xbc19d0a1	-0.00938812
184	0x3ebaaaa1	0.36458305
185	0x3e409309	0.1880609
186	0xbe9b3948	-0.3031714
187	0x3e8b51a1	0.27210715
188	0xbee799d3	-0.45234546
189	0xbea14d39	-0.3150423
190	0xbf0ae499	-0.5425506
191	0x3ebec7a6	0.37261695
192	0xbf13cfcd	-0.57738954
193	0xbec18da1	-0.37803367
194	0xbe514331	-0.20435788
195	0xbe82f9a7	-0.25581095
196	0xbec0676a	-0.375789
197	0x3d9a37b2	0.07530154
198	0x3f1c992c	0.6117122
199	0xbe8ffcf4	-0.28122675
200	0xbec5b8d3	-0.38617572
201	0xbea7c525	-0.32767597
202	0x3ebf6065	0.3737823
203	0x3ea8ef1b	0.32994923
204	0x3f35cc69	0.7101503
205	0x3cabd299	0.020974444
206	0x3f30a099	0.6899505
207	0x3c482b6e	0.012217386
208	0x3cd2df02	0.025741104
209	0xbbac8ddc	-0.0052659344
210	0xbef2dc43	-0.4743367
211	0xbd908ab0	-0.070577025
212	0xbed6bf0b	-0.4194263
213	0xbc285e00	-0.010276318
214	0xbefd3554	-0.4945475
215	0xbe661bba	-0.22471514
216	0xbe71720d	-0.23578663
217	0x3a5bff8c	0.00083922665
218	0x3f364523	0.71199244
219	0xbe8d6324	-0.276147
220	0xbdc5f586	-0.096659705
221	0x3ef829a3	0.48469266
222	0x3eb9d307	0.36293814
223	0xbb164700	-0.0022930503
224	0x3f2d7196	0.67751443
225	0x3eea67cd	0.4578232
226	0xbf1a447f	-0.60260767
227	0x3e8f504c	0.2799095
228	0xb9ed8b75	-0.00045308066
229	0x3b6e0fb4	0.0036325278
230	0xbc942fce	-0.018089201
231	0x3ba54a49	0.005044256
232	0x3e43eda9	0.19133629
233	0x3caf009e	0.021362599
234	0x3e81c2be	0.2534389
235	0xbe8fd36e	-0.28090996
236	0xbe75b730	-0.23995662
237	0x3e442141	0.1915331
238	0x3dede7c4	0.116164714
239	0x3cc9a74d	0.024615908
240	0xbe908e57	-0.28233597
241	0x3eb3542b	0.35025153
242	0xbd77d9cf	-0.060510453
243	0x3f0ef110	0.5583658
244	0xbebcb531	-0.36856988
245	0xbe925767	-0.28582308
246	0x3e891ddd	0.26780596
247	0x3e1d9a0c	0.15390795
248	0x3eac2e30	0.33628988
249	0xbd884da0	-0.06655431
250	0x3f0b8ad3	0.54508704
251	0xbe23349d	-0.15938039
252	0x3d054778	0.03253886
253	0x3cd46ac2	0.025929812
254	0x3da3e9c9	0.08003575
255	0x3c645baf	0.013937875

encoder.0.bias f4 [128]
0	0x3e5d229f	0.21595238
1	0xbecc1bef	-0.39865062
2	0xbf2641e5	-0.649443
3	0xbf4394e1	-0.76399046
4	0xbf4c8d36	-0.7990297
5	0xbed58d23	-0.4170924
6	0xbedd67c1	-0.4324322
7	0xbf43b118	-0.764421
8	0xbe94bcd8	-0.29050326
9	0x3e25acaa	0.16179147
10	0xbe36cc5b	-0.17851393
11	0x3d89fbe3	0.06737497
12	0xbe8e4e00	-0.27793884
13	0xbe9a01b4	-0.30079424
14	0xbe0176f9	-0.1264304
15	0x3e0735f6	0.13204178
16	0xbe348da3	-0.17632155
17	0xbd0086f1	-0.03137869
18	0x3eb16d01	0.34653476
19	0xbdce26de	-0.10066007
20	0xbf03030e	-0.51176536
21	0xbf062167	-0.5239472
22	0xbe70ddc9	-0.23522104
23	0x3ea4aaaf	0.3216147
24	0xbd28ebea	-0.04124061
25	0xbea59a3d	-0.32344237
26	0xbf236635	-0.6382783
27	0x3e86bf83	0.26317987
28	0xbe24141f	-0.160233
29	0x3da4a4f3	0.08039274
30	0xbeb24c7b	-0.34823975
31	0xbe49c258	-0.19703043
32	0xbe6f8837	-0.23391806
33	0x3d370872	0.04468579
34	0xbf5688c5	-0.83802444
35	0xbf34645a	-0.70465624
36	0xbef03a89	-0.4691966
37	0xbd44c937	-0.048043456
38	0xbec92881	-0.39288715
39	0xbd6d34f8	-0.057911843
40	0xbf4f927e	-0.81082904
41	0xbef52301	-0.47878268
42	0xbebe124b	-0.3712333
43	0xbf1fb904	-0.62391686
44	0xbdf7a7c0	-0.12092543
45	0x3c8db10e	0.01729634
46	0xbf5672cd	-0.8376892
47	0xbf373a80	-0.7157364
48	0x3ea328fe	0.31867212
49	0xbea8994d	-0.3292946
50	0x3d313a7c	0.043268666
51	0x3eac261c	0.33622825
52	0xbedf6f5d	-0.4363965
53	0xbf4ae19b	-0.79250497
54	0xbe989d55	-0.29807535
55	0xbf124d9c	-0.5714967
56	0xbf6cdd6e	-0.92525375
57	0xbed0e143	-0.4079686
58	0xbf0231ec	-0.50857425
59	0xbec85acc	-0.39131773
60	0x3c88a219	0.016678857
61	0xbde0e228	-0.10980636
62	0xbe84ff32	-0.2597595
63	0x3e9b6eb5	0.303579
64	0x3d0c090a	0.034188308
65	0x3e616054	0.22009403
66	0xbe68015b	-0.22656767
67	0x3e131e5e	0.14367053
68	0xbec52945	-0.3850805
69	0xbe8a7b71	-0.27047303
70	0xbeace7fb	-0.33770737
71	0xbf16a1b8	-0.58840513
72	0x3e88abf4	0.2669369
73	0xbf0d1b27	-0.55119556
74	0xbeb44f1f	-0.35216615
75	0x3c15f105	0.009151702
76	0xbf04395e	-0.51650035
77	0xbdbb2dad	-0.09139571
78	0xbefc5dca	-0.49290305
79	0xbcac7416	-0.021051448
80	0x3eb5336a	0.35390788
81	0xbeba8932	-0.36432797
82	0x3e386abd	0.18009467
83	0xbec5dd6a	-0.38645488
84	0xbf2f344b	-0.6843917
85	0xbdd05c6c	-0.10173878
86	0xbe2669b9	-0.16251267
87	0xbf1ebe23	-0.62008876
88	0xbf00283c	-0.5006139
89	0xbf06cd59	-0.52657086
90	0xbdafd8b9	-0.085862584
91	0xbd5c6f83	-0.053817283
92	0xbe7d6aa5	-0.24747713
93	0x3eabaab6	0.3352868
94	0x3cbc0db7	0.022955758
95	0x3d6f8c19	0.058483217
96	0xbecfabab	-0.4056066
97	0x3edb336c	0.4281267
98	0x3e75da93	0.2400916
99	0xbe417546	-0.18892393
100	0x3e057848	0.13034165
101	0x3ee5df1a	0.44896775
102	0xbf2014ce	-0.62531745
103	0xbf457b34	-0.7714112
104	0xbcaf5b8f	-0.021405963
105	0xbf1d906b	-0.6154849
106	0xbf0affb8	-0.54296446
107	0xbeb6424a	-0.3559745
108	0x3e962946	0.29328364
109	0xbf163790	-0.5867853
110	0xbf2d6d18	-0.6774459
111	0x3e2ae8e4	0.16690403
112	0xbeeb9320	-0.46010685
113	0xbf323519	-0.6961227
114	0xbcbe387a	-0.02322029
115	0xbd8ac447	-0.06775718
116	0xbe93e1e3	-0.28883275
117	0xbf196281	-0.5991593
118	0xbf021f93	-0.5082943
119	0xbe91cd13	-0.28476772
120	0xbf015fe5	-0.5053695
121	0xbf4f6f02	-0.8102876
122	0xbf31af65	-0.69408256
123	0x3e68661b	0.226952
124	0x3e8d6c59	0.27621725
125	0xbf31e3f5	-0.6948846
126	0x3c745ae8	0.014914252
127	0xbe76e347	-0.24110137

encoder.2.weight f4 [128, 128]
0	0x3dd0cfda	0.101958945
1	0xbd350be8	-0.044200808
2	0xbe902304	-0.28151715
3	0xbe4ddd1b	-0.20103876
4	0x3d54cb25	0.051951546
5	0xbe3bd923	-0.1834455
6	0xbd63e549	-0.055638585
7	0xbeca56e7	-0.39519426
8	0xbd14efa4	-0.03636135
9	0x3aabe2ac	0.0013113818
10	0xbf2ffe4d	-0.6874741
11	0x3d497fac	0.049194023
12	0xbcd0e1fa	-0.025498379
13	0xbdcbe421	-0.099556215
14	0xbc9d8635	-0.019229034
15	0x3d0b35b1	0.03398675
16	0xbf688ba0	-0.9083805
17	0xbc9fcd00	-0.019506931
18	0x3bdbb173	0.006704503
19	0xbe758e9b	-0.23980181
20	0xbc2f29d2	-0.010691123
21	0xbdb0959e	-0.08622287
22	0x3cdc03e7	0.02685733
23	0x3e05ddb5	0.13072856
24	0x3ca45842	0.020061616
25	0xbe676115	-0.22595628
26	0xbe98451b	-0.29740223
27	0xbd5a1162	-0.053239234
28	0xbf149cf4	-0.5805199
29	0x3cd8c3ad	0.026460493
30	0xbdb6bb9f	-0.08922505
31	0xbeb06a0c	-0.34455907
32	0xbde0064a	-0.109386995
33	0xbda89432	-0.08231391
34	0xbcd9fb23	-0.02660901
35	0xbd6ac78a	-0.0573192
36	0xbec18370	-0.3779559
37	0x3cb1e2d2	0.021714602
38	0xbe829a17	-0.25508186
39	0x3d92e70d	0.07172976
40	0xbf420fed	-0.7580555
41	0xbe2833fa	-0.16426077
42	0xbf1775ff	-0.5916442
43	0xbde4c374	-0.11170092
44	0x3d6ee000	0.05831909
45	0x3da19165	0.0788906
46	0xbe9e7ec6	-0.30956095
47	0xbeee16a9	-0.46501663
48	0x3e117db0	0.14208102
49	0xbf5a68fb	-0.8531644
50	0x3df72931	0.120684035
51	0x3d62d8a6	0.055382393
52	0xbe6fc646	-0.23415479
53	0xbdecc980	-0.115618706
54	0xbf21e0b5	-0.632335
55	0xbdaccb5e	-0.08437227
56	0xbdcfa4e7	-0.101388745
57	0xbda53332	-0.08066405
58	0xbe9d850c	-0.3076557
59	0xbc9f9c9e	-0.01948386
60	0x3dda1c09	0.106498785
61	0xbd1c441b	-0.038150888
62	0xbf3d4b8c	-0.739434
63	0x3d12a51e	0.035802
64	0x3d8af711	0.067854054
65	0x3e00e75c	0.12588257
66	0x3c41b023	0.011821779
67	0xbd790327	-0.060794022
68	0xbece9472	-0.4034763
69	0xbe8cbf62	-0.27489763
70	0x3caa448a	0.020784635
71	0xbdaf5cd6	-0.08562629
72	0x3d140394	0.036136225
73	0xbeb4a98f	-0.35285613
74	0xbdd7c23e	-0.10535096
75	0xbd0bee51	-0.034162823
76	0xbd1c060b	-0.0380917
77	0xbd8ce2ad	-0.068791725
78	0xbeb7b54e	-0.35880512
79	0xbada78c0	-0.0016668066
80	0xbc589ea0	-0.013221413
81	0xbe65ebc7	-0.22453223
82	0x3dd64255	0.104618706
83	0x3c05245a	0.008126343
84	0x3d48c5f1	0.049016897
85	0xbde1baff	-0.11021995
86	0xbe2875d9	-0.16451205
87	0xbefed9b5	-0.49775472
88	0xbe43ef7f	-0.1913433
89	0xbda9184c	-0.082565874
90	0xbdc635dd	-0.09678242
91	0x3dc105a7	0.09424906
92	0xbdd6c971	-0.10487641
93	0x3cadc71d	0.021213109
94	0x3c5cedfb	0.013484473
95	0xbea6b96a	-0.32563335
96	0xbe8058aa	-0.25067645
97	0xbb9c09cd	-0.0047619105
98	0xbd1fa982	-0.038980015
99	0x3c8b8d71	0.017035218
100	0x3c0b1512	0.00848891
101	0xbdb6bd73	-0.08922853
102	0xbe647ba6	-0.22312793
103	0xbee6eae8	-0.45101094
104	0x3dadc070	0.0848397
105	0xbea6c209	-0.32569912
106	0xbdea9fd1	-0.11456264
107	0xbf1842d9	-0.59477
108	0x3c28f3a7	0.0103119975
109	0xbe04455c	-0.12917084
110	0xbdb417e2	-0.08793618
111	0x3d89f538	0.06736225
112	0xbe3af305	-0.18256767
113	0xbd96c43e	-0.07361649
114	0xbcb9f886	-0.022701513
115	0x3c898e9d	0.016791636
116	0xbe0951d4	-0.13410121
117	0xbdb0ad50	-0.08626807
118	0xbe048cc0	-0.12944317
119	0xbcd66e8d	-0.026175762
120	0xbe75c53c	-0.2400102
121	0xbdeaa70e	-0.114576444
122	0xbeb578a1	-0.35443595
123	0xbd8972ed	-0.067113735
124	0x3c4d71e1	0.012539358
125	0xbec14235	-0.37745824
126	0x3d02455a	0.03180442
127	0x3d34c28a	0.04413084
128	0xbded2879	-0.11579985
129	0x3bc826a5	0.0061081224
130	0x3d81549e	0.063149676
131	0xbd4c697d	-0.04990529
132	0x3c9ee700	0.019397259
133	0xbd9ffdf4	-0.078121096
134	0xbca9cb5e	-0.020726856
135	0x3d2b7d4f	0.04186755
136	0x3c9b4c33	0.018957233
137	0xbe09f199	-0.13471068
138	0x3c4ca70c	0.012490999
139	0xbcd0ec92	-0.02550343
140	0x3d41897b	0.047250252
141	0xbd52bfe8	-0.051452547
142	0xbd99be42	-0.07506992
143	0xbd3f2daf	-0.046674427
144	0x3c97c8dd	0.018528396
145	0xbdb3e7b0	-0.08784425
146	0xbd731835	-0.059349257
147	0xbd630319	-0.055422876
148	0xbdbfcd15	-0.09365288
149	0x3d83c55b	0.06434127
150	0x3c22527f	0.009907364
151	0xbd04fe57	-0.03246912
152	0x3d5575e0	0.052114367
153	0x3d50b5c7	0.050954606
154	0x3da1c7c0	0.078994274
155	0xbd6bdc2b	-0.057583015
156	0xbd3d4ff3	-0.046218824
157	0xbdee9d42	-0.11651088
158	0xbd9b7060	-0.07589793
159	0x3cd6d422	0.0262242
160	0xbdc8a147	-0.09796386
161	0xbda2ce56	-0.07949512
162	0xbc577c65	-0.013152217
163	0xbc97fcfb	-0.018553248
164	0x3d87eac9	0.066365786
165	0xbd7d8854	-0.06189759
166	0x3b6a3ef4	0.003574309
167	0x3a826f28	0.000995134
168	0xbdc7d678	-0.097577035
169	0xbcbd29e2	-0.02309126
170	0x3d5a8a59	0.053354595
171	0xbc660b47	-0.014040775
172	0xbdba4142	-0.09094478
173	0xbc3f9f74	-0.011695731
174	0x3a20cb72	0.00061338313
175	0x3da2fabb	0.07957979
176	0x3d22f555	0.039784748
177	0xbd1aee00	-0.03782463
178	0x3ac2e0e6	0.001486805
179	0x3cba593b	0.022747627
180	0xbdce0373	-0.10059252
181	0xbc3956e5	-0.011312221
182	0xbd1d1dd0	-0.03835851
183	0xbc64e114	-0.013969678
184	0x3d591db4	0.053006843
185	0x3dadab0e	0.08479892
186	0xbe3b5594	-0.18294364
187	0xbd62ea8f	-0.055399474
188	0xbc047ced	-0.008086425
189	0x3c8fa9a7	0.017536951
190	0xbda1385c	-0.07872078
191	0xbe0aab64	-0.13541943
192	0x3d0f1076	0.034927808
193	0x3cae3c4c	0.021268986
194	0x3b49f378	0.0030815285
195	0xbdc3e979	-0.09566016
196	0x3cc8278a	0.024432916
197	0xbdaca928	-0.084307015
198	0xbde9395a	-0.11387892
199	0xbd85c49d	-0.06531642
200	0xbe2c8935	-0.16849215
201	0xbd350764	-0.0441965
202	0xbc63d41e	-0.013905553
203	0xbce40a8b	-0.027837059
204	0x3cc2cfd1	0.023780735
205	0xbdd08590	-0.10181725
206	0x3d9fa96c	0.077959865
207	0x3d4471a7	0.04795995
208	0xbe6a2f1e	-0.22869536
209	0xbe12abd3	-0.14323358
210	0x3c69cc47	0.014269895
211	0x3d43e41a	0.047824956
212	0xbda665f9	-0.081249185
213	0xbdcce9c1	-0.100055225
214	0x3cf193eb	0.029489478
215	0xbcc31331	-0.023812862
216	0xbd5e4039	-0.054260466
217	0xbdad3ded	-0.08459077
218	0xbdf5e4ff	-0.12006568
219	0xbbd390e2	-0.0064564804
220	0x3d2b1a8f	0.041773375
221	0xbe1333a0	-0.14375162
222	0xbe0de294	-0.13855964
223	0xbe1c134b	-0.15241735
224	0xbded2153	-0.11578622
225	0xbc7e6f75	-0.015529503
226	0xbdd5739d	-0.10422442
227	0xbd236a40	-0.03989625
228	0xbdc0ea1a	-0.09419651
229	0xbe0be77a	-0.1366252
230	0xbe3d154c	-0.18465155
231	0xbdc88515	-0.097910084
232	0xbdb5816f	-0.08862578
233	0xbcf197a5	-0.029491255
234	0xbdef1f22	-0.1167586
235	0xbd3ba560	-0.04581201
236	0xbcde8809	-0.027164476
237	0x3bdcec10	0.006742008
238	0x3ccb58c6	0.024822604
239	0xbce04bf5	-0.02737997
240	0xbd8b4c3c	-0.0680165
241	0xbd6929b7	-0.056924548
242	0xbd75af4a	-0.05998162
243	0xbd820741	-0.0634904
244	0xbca516a5	-0.0201524
245	0x3d14c46e	0.036320142
246	0xbc232715	-0.009958048
247	0xbda373cd	-0.079810716
248	0x3cc1882b	0.0236245
249	0xbc29b9a4	-0.010359202
250	0x3d8952a3	0.06705215
251	0xbdaa85c4	-0.08326295
252	0x3bcbf527	0.006224293
253	0xbe226d2a	-0.15861955
254	0xbe12d53f	-0.1433916
255	0x3c80eaef	0.015737025

encoder.2.bias f4 [128]
0	0x3d53ec3c	0.051738963
1	0xbe2f9956	-0.17148337
2	0xbe59a35e	-0.21253726
3	0xbdbca2f1	-0.09210766
4	0x3d67bcb6	0.056576453
5	0xbdbf802e	-0.0935062
6	0x3d6cd5e2	0.057821162
7	0xbe45b04b	-0.19305532
8	0x3d88970b	0.06669434
9	0xbdfc1678	-0.12308973
10	0xbe361be8	-0.17784083
11	0xbe5e5550	-0.21712232
12	0xbddb3128	-0.10702735
13	0xbe5ae7a3	-0.21377425
14	0xbdf38551	-0.118906625
15	0x3e42df49	0.19030489
16	0xbd0d7115	-0.03453167
17	0x3e0b393b	0.1359605
18	0xbce4f75a	-0.027949978
19	0x3e694c8c	0.22783107
20	0xbd4cd4f9	-0.050007794
21	0xbe73946b	-0.23787086
22	0xbe0fa5d7	-0.14028107
23	0x3cefc804	0.02927018
24	0xbe4e7241	-0.20160772
25	0xbe514814	-0.20437652
26	0xbca19c8c	-0.019727968
27	0x3d954634	0.07288781
28	0xbea941d0	-0.33058023
29	0x3ddb804b	0.10717829
30	0x3d8bd504	0.06827739
31	0xbdb82493	-0.08991351
32	0xbde69505	-0.11258892
33	0xbde0eeba	-0.109830335
34	0xbe48baeb	-0.19602554
35	0xbeb02886	-0.34405917
36	0xbdc7a577	-0.09748357
37	0x3c68ebc3	0.014216366
38	0xbe700892	-0.2344077
39	0xbe43fa34	-0.19138414
40	0xbdfb2a05	-0.12263874
41	0xbd856a8d	-0.065144636
42	0x3d35be55	0.044370968
43	0x3d932106	0.07184033
44	0xbe79a300	-0.24378586
45	0xbe10201a	-0.14074746
46	0xbd5e7867	-0.054314043
47	0xbe5acb61	-0.21366645
48	0x3bc8b5f8	0.006125208
49	0xbe359c82	-0.17735484
50	0xbcdef85d	-0.027218038
51	0xbde4a5bb	-0.11164423
52	0xbd4c835d	-0.049929965
53	0xbdfbc7d2	-0.12293972
54	0xbd923d64	-0.071406156
55	0x3de772c1	0.113011844
56	0x3db6db58	0.08928555
57	0xbdd09785	-0.1018515
58	0xbe9f1db7	-0.31077358
59	0xbe0a3b03	-0.13499074
60	0xbe1daf84	-0.15398985
61	0x3e3e0ba4	0.18559128
62	0xbd046ff8	-0.032333344
63	0xbd95f577	-0.07322209
64	0xbdbf4efd	-0.09341238
65	0xbe8a33da	-0.26992685
66	0xbd8ad56b	-0.067789875
67	0x3c40ae0f	0.011760249
68	0xbd9e5da3	-0.077327035
69	0xbe726976	-0.23673043
70	0xbc66a978	-0.01407849
71	0x3dbee810	0.09321606
72	0x3d09af2a	0.033614315
73	0xbdc7cd80	-0.09755993
74	0x3d5973e4	0.053089038
75	0x3d0c7d02	0.034298904
76	0xbe60406d	-0.21899576
77	0xbe2bb99e	-0.16770026
78	0x3e04f58c	0.12984294
79	0xbd24cd86	-0.040235065
80	0xbe12d7bf	-0.14340113
81	0xbe15de1b	-0.14635508
82	0xbdf77038	-0.12081951
83	0x3e6af059	0.22943248
84	0xbe43d57e	-0.1912441
85	0xbd7f37c7	-0.062309053
86	0x3d1937e9	0.037406836
87	0xbd8e45e3	-0.069469236
88	0xbc589495	-0.0132190185
89	0xbe30378f	-0.17208694
90	0xbdf5179e	-0.11967395
91	0x3ccf19da	0.025280882
92	0xbc8047ff	-0.01565933
93	0xbeaf4e10	-0.34239244
94	0xbd5fdfcd	-0.054656792
95	0x3e037a91	0.12839724
96	0xbd482852	-0.048866577
97	0xbcd7ee9f	-0.0263589
98	0x3ddd6d5e	0.10811876
99	0x3d0fdb3a	0.03512118
100	0xbe6ffacf	-0.2343552
101	0xbec501c1	-0.384779
102	0x3c2bc0ac	0.010482948
103	0xbd272a45	-0.040811796
104	0xbd38e8c4	-0.045143858
105	0x3d3481c4	0.044069067
106	0xbd5e7a34	-0.05431576
107	0xbd9381a1	-0.07202459
108	0xbd102ff6	-0.03520199
109	0x3df0e810	0.117630124
110	0xbe14a633	-0.14516525
111	0xbe9e12f3	-0.30873832
112	0xbcca2086	-0.024673712
113	0xbd19cb69	-0.037547503
114	0xbc2f9839	-0.010717445
115	0xbd6322fb	-0.05545328
116	0xbd8f1497	-0.06986349
117	0x3d0361e7	0.03207579
118	0xbd407024	-0.046981946
119	0x3da26789	0.07929904
120	0xbe1b54dd	-0.15169092
121	0xbdd62624	-0.104564935
122	0xbe0fcd83	-0.1404324
123	0xbdcb4565	-0.09925345
124	0xbd2e9a81	-0.042627815
125	0xbd08bf93	-0.033385824
126	0xbcdcd598	-0.026957318
127	0xbdcb19e2	-0.09917046

encoder.4.weight f4 [128, 128]
0	0xbaa60a6c	-0.0012667901
1	0xbda0adba	-0.07845636
2	0xbd911f62	-0.07086064
3	0xbddc6b10	-0.10762608
4	0xbd8fe122	-0.070253626
5	0xbc97592b	-0.018475136
6	0x3d9cf8e9	0.07664663
7	0xbdb60cf2	-0.08889188
8	0xbcfdd3bc	-0.030984752
9	0xbd45771b	-0.04820929
10	0xbd823bd8	-0.063590705
11	0xbe016177	-0.12634836
12	0xbdd6e949	-0.10493714
13	0x3c1a0d5d	0.0094026
14	0xbbccc1b7	-0.0062486785
15	0xbd562833	-0.05228443
16	0x3d5aa6d5	0.05338176
17	0xbb99223e	-0.0046732714
18	0xbd94acca	-0.072595194
19	0xbd4125ef	-0.047155317
20	0xbc020a7b	-0.007937069
21	0xbe498238	-0.19678581
22	0x3d02d112	0.031937666
23	0x3cbab450	0.022791058
24	0x3d28c17f	0.041200157
25	0xbdfb527f	-0.12271594
26	0x3dac818f	0.08423149
27	0xbe1640e8	-0.14673197
28	0x3c57d7dd	0.013174024
29	0xbe060d72	-0.13091066
30	0xbbe9ec66	-0.0071387766
31	0xbb83bab9	-0.004020062
32	0xbd084768	-0.033271223
33	0x3c61cca8	0.013781704
34	0x3ca80d45	0.02051414
35	0x3b93275b	0.0044907755
36	0xbe357163	-0.17719035
37	0x3d8c7fef	0.06860339
38	0x3caeb671	0.02132723
39	0x3bbda2e9	0.0057872427
40	0xbdc91185	-0.09817795
41	0xbd954885	-0.07289223
42	0x3d331f26	0.043730877
43	0x3cbb23b0	0.022844166
44	0xbdc86007	-0.09783941
45	0x3d86a6ca	0.06574781
46	0x3b329d40	0.0027254373
47	0x3d8cc711	0.068739064
48	0xbdb2eed4	-0.08736959
49	0xbd589d14	-0.052884176
50	0xbccf1474	-0.025278307
51	0xbd616159	-0.05502448
52	0x3d36e843	0.044655096
53	0x3cef3f29	0.029204922
54	0xbc944430	-0.01809892
55	0xbd80bf67	-0.06286507
56	0x3cdd1cc1	0.02699125
57	0x3c0771fa	0.00826692
58	0xbde2a734	-0.11067048
59	0x3d08831b	0.033328157
60	0xbe6a2cbb	-0.22868626
61	0x3d8b669a	0.06806679
62	0xbda71c66	-0.081597134
63	0xbd89bf7e	-0.06725977
64	0xbd8eac74	-0.069664866
65	0x3cedd4ce	0.029032137
66	0xbb3ebac0	-0.002910301
67	0xbd85c66b	-0.06531986
68	0xbd9b6728	-0.07588035
69	0x3cb34a84	0.021886118
70	0x3c4857b0	0.012227938
71	0xbe52d58e	-0.20589277
72	0xbdc0a80f	-0.09407055
73	0x3c4ab174	0.01237141
74	0xbc819e31	-0.015822502
75	0xbd5c4ce6	-0.053784274
76	0xbc3145b4	-0.010819841
77	0xbd051cb0	-0.03249806
78	0xbe33df22	-0.17565587
79	0xbd864cc1	-0.065576084
80	0x3d014d7f	0.031568047
81	0xbcc59a38	-0.024121389
82	0xbe4d20f2	-0.20032099
83	0xbe570fe9	-0.21002163
84	0xbd0ae76f	-0.03391212
85	0x3d888927	0.06666785
86	0x3d33a5b1	0.043859188
87	0xbd98b4d9	-0.07456369
88	0xbe8a3354	-0.26992285
89	0xbb4c62d2	-0.0031186831
90	0xbd865aee	-0.06560312
91	0x3d1f1025	0.038833756
92	0xbafa8e51	-0.00191159
93	0x3ce01e84	0.027358301
94	0xbd4ccac4	-0.04999806
95	0xbd75d9e7	-0.06002226
96	0xbd33ae12	-0.04386718
97	0xbcb44a5c	-0.022008114
98	0xbd3efe90	-0.04662949
99	0x3d0fe70a	0.035132445
100	0xbd6f3992	-0.058404513
101	0xbdf7272f	-0.120680206
102	0xbdad684c	-0.08467159
103	0x3ce8c466	0.028413963
104	0x3d5b09e6	0.053476237
105	0xbdfe1877	-0.1240701
106	0xbb0ca7c4	-0.00214623
107	0x3c11b333	0.008892822
108	0xbd503452	-0.050831147
109	0xbd98b684	-0.07456687
110	0xbd66f0fe	-0.05638217
111	0x3d8a23cb	0.06745108
112	0x3d7f7ecb	0.06237678
113	0xbc819ee3	-0.015822833
114	0xbc74730a	-0.014920006
115	0x3d94b969	0.07261927
116	0xbdac14e1	-0.0840242
117	0xbddb8eda	-0.10720606
118	0x3cbd9111	0.023140462
119	0xbd462aa6	-0.048380516
120	0x3b4b9682	0.0031065051
121	0xbdeb7926	-0.114977166
122	0xbd4824e9	-0.048863325
123	0x3c2dd431	0.010609672
124	0x3ccdf998	0.02514343
125	0x3d31b6d3	0.043387245
126	0xbdb694c4	-0.089150935
127	0x3d22947d	0.03969239
128	0xbd79fd81	-0.061032776
129	0xbbdd51c1	-0.0067541306
130	0xbe073147	-0.13202392
131	0x3c1ece42	0.00969273
132	0xbe0515fe	-0.1299667
133	0xbe39718e	-0.18109724
134	0xbd83d2d2	-0.06436695
135	0x3dcbf06f	0.099579684
136	0xbeab8eaa	-0.33507282
137	0xbd589351	-0.052874867
138	0xbe02846a	-0.12745824
139	0x3d884330	0.0665344
140	0xbed1a025	-0.40942493
141	0xbd9b0d42	-0.07570888
142	0xbd61972e	-0.055075817
143	0xbe79f116	-0.24408373
144	0x3d974393	0.07385936
145	0xbda7fc91	-0.0820247
146	0x3c547ec7	0.012969679
147	0xbf1a1cd7	-0.60200256
148	0xbd264b47	-0.040599134
149	0xbe20c705	-0.1570092
150	0x3da55a9f	0.08073925
151	0xbda33efb	-0.07970997
152	0xbbdee9c6	-0.0068027703
153	0x3d3dba96	0.04632052
154	0xbd54cd98	-0.051953882
155	0xbdafb2a0	-0.08578992
156	0x3d08796b	0.03331892
157	0xbb7699d4	-0.003762831
158	0x3e4a5447	0.19758712
159	0xbdcd3d73	-0.10021486
160	0x3c248db4	0.01004355
161	0x3db4327d	0.087986924
162	0xbdee96dc	-0.11649868
163	0xbe7d201f	-0.24719284
164	0xbc373fc7	-0.011184639
165	0xbe498920	-0.19681215
166	0xbe23bfa3	-0.15991072
167	0x3c6851ed	0.014179689
168	0x3d03c727	0.03217235
169	0xbcac4851	-0.021030577
170	0x3da56561	0.08075977
171	0xbe36b78d	-0.17843457
172	0x3c010ca9	0.007876554
173	0xbe06490e	-0.13113806
174	0x3d88e38d	0.06684027
175	0xbdc9306c	-0.09823689
176	0xbce48212	-0.027894054
177	0xbd1db87e	-0.038506024
178	0xbd2d6c9f	-0.042339917
179	0xbd830bc8	-0.063987315
180	0x3c97e0a9	0.018539743
181	0x3cbb18bf	0.022838948
182	0xbdbc3205	-0.09189228
183	0xbe1151b6	-0.14191326
184	0xbe45eebe	-0.19329354
185	0xbe006255	-0.1253751
186	0xbd215987	-0.03939202
187	0xbdb537df	-0.08848547
188	0xbe06ac18	-0.13151586
189	0xbce074ff	-0.027399538
190	0xbd129986	-0.035790943
191	0x3d807a92	0.062733784
192	0x3d81b9c9	0.06334264
193	0x3d278bd9	0.040904853
194	0xbd08954b	-0.033345502
195	0x3c97384b	0.01845946
196	0x3d270b81	0.040782455
197	0x3d549938	0.051903933
198	0xbc959f7c	-0.018264525
199	0xbe51c860	-0.20486593
200	0x3bb959f5	0.0056564757
201	0x3d0cfc27	0.03442016
202	0x3d7c0e24	0.061536923
203	0x3dba1c92	0.090874806
204	0x3d9d6652	0.07685532
205	0xbd9b1607	-0.07572561
206	0x3d1b09ee	0.037851267
207	0xbd900b8e	-0.07033454
208	0x3d444473	0.04791684
209	0x3d43afbc	0.047775015
210	0xbde10142	-0.10986568
211	0xbf6fb119	-0.93629605
212	0x3d62da20	0.0553838
213	0x3c8e8036	0.01739512
214	0x3bf2d096	0.0074101193
215	0xbd35317c	-0.044236645
216	0xbe2e6d12	-0.17033795
217	0xbe13ebd8	-0.14445436
218	0x3d251f81	0.040313248
219	0x3d40ef10	0.047102988
220	0xbb0273db	-0.001990548
221	0xbd8b0b98	-0.06789321
222	0xbd9456f1	-0.07243145
223	0x3dd47758	0.103743255
224	0xbdb04c41	-0.08608294
225	0xbb097c60	-0.0020978674
226	0xbdb95c1a	-0.0905077
227	0xbd784cf4	-0.060620263
228	0xbdb92b12	-0.09041418
229	0xbee3c154	-0.44483435
230	0x3d3e8d90	0.046521723
231	0xbc89a971	-0.016804429
232	0xbd97f48b	-0.0741969
233	0x3d8dab84	0.0691748
234	0x3c818735	0.015811542
235	0xbd406f87	-0.04698136
236	0xbd23ca9f	-0.039988156
237	0xbe194611	-0.14968134
238	0xbcad6bc6	-0.021169554
239	0xbdeff894	-0.117173344
240	0xbd98111d	-0.07425139
241	0xbd95a85b	-0.07307502
242	0x3cad42ae	0.02114996
243	0x3d3e5152	0.04646427
244	0xbd2bb5f0	-0.041921556
245	0xbcf06168	-0.029343322
246	0x3b286540	0.0025695115
247	0xbea21cba	-0.31662542
248	0x3c33c5d1	0.010972456
249	0xbd5872df	-0.052843925
250	0xbdf6c65f	-0.12049555
251	0x3d4eb8c9	0.050469194
252	0x3d838499	0.06421775
253	0xbd9d965d	-0.07694695
254	0xbe4dd81e	-0.20101973
255	0x3d3d0223	0.046144616

encoder.4.bias f4 [128]
0	0xbdf28282	-0.11841299
1	0x3c9a376f	0.01882526
2	0xbdb13bd3	-0.08653989
3	0xbdec8ca1	-0.1155026
4	0xbe59a5f2	-0.2125471
5	0xbc61e037	-0.013786367
6	0xbd9ea4cc	-0.07746276
7	0x3af48a33	0.0018656909
8	0xbc173dde	-0.009231059
9	0xbde9cef3	-0.114164256
10	0xbd1fd8f4	-0.039025262
11	0xbe8e9909	-0.27851132
12	0xbd99ddf8	-0.0751304
13	0xbd16a070	-0.0367741
14	0xbda7c634	-0.08192101
15	0xbe1ca0c4	-0.15295702
16	0xbe845f11	-0.2585378
17	0xbe54283f	-0.20718478
18	0xbd57a934	-0.0526516
19	0xbe244960	-0.16043615
20	0xbdcc3158	-0.09970349
21	0x3c035447	0.008015699
22	0xbe6e22fe	-0.23255536
23	0xbe1fc863	-0.15603785
24	0x3e6d00cc	0.23144835
25	0xbdf8f24e	-0.12155591
26	0xbe076868	-0.13223422
27	0xbc93d85c	-0.018047504
28	0x3e56f9fb	0.20993797
29	0xbe0c2d3f	-0.13689135
30	0xbe79ec15	-0.24406464
31	0xbcc752a6	-0.024331402
32	0xbce6de46	-0.02818216
33	0x3dd014c5	0.101602115
34	0xbde59bc8	-0.112113535
35	0x3d915b3f	0.07097482
36	0x3c250c57	0.010073743
37	0x3e2970f7	0.16546999
38	0xbddbb7a2	-0.107283846
39	0x3d58e299	0.052950475
40	0x3dba4ac0	0.09096289
41	0xbe040b18	-0.12894857
42	0x3db11aab	0.08647665
43	0xbe185af1	-0.14878441
44	0x3dad4a11	0.08461393
45	0x3d8088da	0.06276102
46	0x3d8896e0	0.06669402
47	0xbe1c549e	-0.15266654
48	0xbda22966	-0.079180524
49	0xbe092691	-0.13393618
50	0xbdefceab	-0.11709341
51	0xbe01dc4f	-0.12681697
52	0xbe53fc7d	-0.20701785
53	0xbdf25e88	-0.11834437
54	0xb9ec0894	-0.0004501982
55	0x3e2fc82a	0.171662
56	0x3d0c2972	0.034219213
57	0x3d3ceecb	0.04612617
58	0xbd260a24	-0.040537015
59	0xbd9b5abe	-0.07585667
60	0xbd744c87	-0.059643295
61	0xbe4adef1	-0.19811608
62	0xbe1895b7	-0.14900862
63	0x3d887e31	0.06664694
64	0xbe0fb29d	-0.1403298
65	0xbedd285b	-0.4319485
66	0xbdd8ec07	-0.10591894
67	0x3dfb596a	0.12272914
68	0xbd3d0c21	-0.046154145
69	0x3da19dfe	0.07891463
70	0xbda4bb87	-0.080435805
71	0xbdbaa220	-0.09112954
72	0xbe4400bb	-0.19140904
73	0x3da0eb13	0.07857337
74	0xbe589cca	-0.2115356
75	0xbe128a96	-0.14310679
76	0x3da84364	0.08215979
77	0x3ca245ca	0.019808669
78	0xbd711481	-0.058857445
79	0xbd9b5b98	-0.075858295
80	0x3e07eba6	0.13273486
81	0xbdf12f1f	-0.11776566
82	0xbe5675c0	-0.20943356
83	0xbd7f7bb5	-0.062373836
84	0x3dd6987e	0.10478304
85	0xbe06fbb0	-0.13181949
86	0x3e2231f2	0.15839365
87	0xbe5576aa	-0.20846048
88	0xbe48247c	-0.19545168
89	0xbe10cfcb	-0.14141767
90	0xbe805c56	-0.25070447
91	0xbd3f2713	-0.046668123
92	0xbe948758	-0.2900951
93	0xbe57dc0f	-0.2108004
94	0xbe2767ee	-0.1634824
95	0xbe0a74f1	-0.13521172
96	0xbe572822	-0.21011403
97	0x3cc93e85	0.024565944
98	0xbe396be4	-0.18107563
99	0xbe023cec	-0.12718552
100	0xbdbcd699	-0.09220619
101	0xbe1795d3	-0.14803247
102	0xbde8de64	-0.11370543
103	0xbecc343d	-0.39883605
104	0xbd54d238	-0.051958293
105	0xbe955b22	-0.2917109
106	0x3d04b84e	0.03240233
107	0x3e3bddb1	0.18346287
108	0xbd885162	-0.066561475
109	0xbe12ed1a	-0.1434826
110	0xbc88996a	-0.016674716
111	0x3e3331ac	0.17499417
112	0xbdd1b62c	-0.10239825
113	0xbdbd7f65	-0.09252814
114	0xbd04989c	-0.032372102
115	0xbe1fe44c	-0.15614432
116	0xbb9fb988	-0.004874412
117	0xbc670e91	-0.014102594
118	0xbda8dc36	-0.08245127
119	0xbedb2ed7	-0.42809173
120	0xbde4ba6c	-0.1116837
121	0x3d964df2	0.07339086
122	0xbd6aff94	-0.057372645
123	0x3d579dba	0.052640654
124	0xbe794842	-0.2434397
125	0xbe48c89a	-0.19607773
126	0xbda62170	-0.081118464
127	0xbd6da60b	-0.05801968

encoder.6.weight f4 [128, 128]
0	0x3d7da723	0.061926972
1	0xbe263e40	-0.16234684
2	0xbead5208	-0.33851647
3	0xbd2092a1	-0.039202336
4	0xbc120013	-0.0089111505
5	0x3d42b47f	0.047535416
6	0x3e9d2e5c	0.30699432
7	0xbd6f6b82	-0.058452137
8	0x3e4aa65c	0.19790024
9	0x3cfcdd7b	0.030867329
10	0xbd4991bd	-0.049211252
11	0xbe8453a2	-0.25845057
12	0x3d58e8b9	0.052956317
13	0xbd5ac8cf	-0.053414162
14	0xbde94358	-0.11389798
15	0x3d978dc9	0.0740009
16	0xbed6ef6e	-0.41979545
17	0xbd94c47a	-0.072640374
18	0x3d3ff22a	0.046861805
19	0x3dd3269d	0.10310099
20	0x3eb994fa	0.36246473
21	0xbd24a0b0	-0.040192306
22	0xbc8533fc	-0.01626014
23	0xbe08d964	-0.13364178
24	0x3ddacad8	0.106832206
25	0x3de10d28	0.109888375
26	0x3dde769c	0.10862467
27	0x3dc3ea16	0.09566133
28	0xbdf4d1a1	-0.11954046
29	0x3ceb00f9	0.028686987
30	0x3e2b4240	0.16724491
31	0x3d4fa997	0.050698843
32	0x3d2b3a25	0.041803498
33	0x3c768e7d	0.01504862
34	0xbc3699d3	-0.011145073
35	0xbc07d73e	-0.008291064
36	0x3a3c8ef8	0.0007192935
37	0xbe13472f	-0.14382623
38	0x3ad64bcf	0.0016349497
39	0xbeb5941f	-0.3546457
40	0xbc031a33	-0.008001852
41	0xbd510234	-0.05102749
42	0xbd7f9541	-0.0623982
43	0xbd1219da	-0.035669185
44	0x3d4d80cd	0.050171662
45	0xbd0be312	-0.034152098
46	0x3e872454	0.26394904
47	0x3d43e26a	0.047823347
48	0x3d3c633d	0.04599308
49	0x3d90158f	0.07035362
50	0x3b18f22e	0.002333771
51	0xbdade9a5	-0.0849183
52	0x3e54a710	0.20766854
53	0x3d99be3e	0.07506989
54	0xbc3f17e6	-0.011663413
55	0x3e946cb9	0.289892
56	0xbc019274	-0.007908452
57	0x3d27b940	0.040948153
58	0xbdbc136d	-0.09183393
59	0xbbefb944	-0.0073157866
60	0xbd1b932c	-0.03798215
61	0xbdac80a7	-0.08422976
62	0xbd92f219	-0.07175083
63	0x3ea95e49	0.33079746
64	0xbd5c58c1	-0.05379558
65	0xbc7f7ae0	-0.0155932605
66	0x3cc61841	0.024181487
67	0x3e46930e	0.19392034
68	0xbd8b9d81	-0.06817151
69	0x3eab7ebe	0.33495134
70	0xbd0ec5fd	-0.034856785
71	0xbd92bb2a	-0.07164605
72	0x3e50db15	0.20396073
73	0xbece2c1d	-0.4026803
74	0x3db97f5b	0.09057494
75	0x3c9ccc1e	0.0191403
76	0xbd17ce3a	-0.037061907
77	0x3dc88822	0.0979159
78	0x3dbff4dc	0.09372875
79	0xbd61d47e	-0.05513429
80	0x3d3e459e	0.04645311
81	0xbca25684	-0.019816644
82	0xbe8a7229	-0.27040222
83	0xbd905eca	-0.070493296
84	0xbd7fa7b4	-0.062415794
85	0x3d3aa6ee	0.045569353
86	0xbd49778e	-0.04918628
87	0x3e871c39	0.2638872
88	0x3e00295f	0.12515782
89	0xbe3750be	-0.17901894
90	0x3e345b1d	0.17612882
91	0xbda01892	-0.078171864
92	0xbcd91d60	-0.026503265
93	0xbe3da4c1	-0.1851988
94	0xbe1d06a5	-0.15334566
95	0x3a4f3218	0.0007903888
96	0x3d96cad8	0.07362908
97	0x3e9ee7ba	0.31036168
98	0x3d94d394	0.07266918
99	0x3df1ab0b	0.11800202
100	0xbea45c2a	-0.32101566
101	0x3d4bfd46	0.049802087
102	0xbc5e98f0	-0.013586268
103	0x3c1dd15a	0.009632433
104	0xbe00d1e5	-0.12580068
105	0xbca3ed6d	-0.020010674
106	0x3ea44d68	0.32090306
107	0x3e86c432	0.2632156
108	0xbe4efdac	-0.20213956
109	0xbd8722bb	-0.06598421
110	0xbdab2bb0	-0.08357942
111	0x3d49c30e	0.049258284
112	0xbd4e6fb6	-0.050399505
113	0xbc9a21e4	-0.018814988
114	0xbcf9a379	-0.030473458
115	0xbd1fa312	-0.038973875
116	0xbea8f4c1	-0.32999232
117	0x3def5171	0.116854556
118	0x3d3007b8	0.04297611
119	0xbe1717b7	-0.1475514
120	0x3d9c0c78	0.07619566
121	0xbe59f621	-0.21285297
122	0xbe2250ab	-0.15851085
123	0xbe05b5e3	-0.13057666
124	0x3e5858fe	0.21127698
125	0xbdc39140	-0.095491886
126	0x3dc3324a	0.09531076
127	0x3b74e1f8	0.0037366133
128	0xbd5d35e7	-0.054006483
129	0x3eb70c89	0.3575175
130	0x3d4d037b	0.050052147
131	0x3dc16f31	0.09445036
132	0xbd4982b3	-0.04919691
133	0xbe726c26	-0.23674068
134	0xbdd7b9c0	-0.10533476
135	0xbcc42713	-0.023944413
136	0x3dc2eba2	0.095176
137	0xbcac4c36	-0.021032434
138	0xba97b48c	-0.0011574193
139	0xbd5a5034	-0.053299144
140	0xbcb9dce1	-0.022688331
141	0x3c0efc7e	0.008727191
142	0xbd3accc7	-0.045605447
143	0xbc5e8fbc	-0.013584074
144	0xbd7eeb5e	-0.062236182
145	0x3d4e6b3c	0.050395235
146	0xbc3de463	-0.011590096
147	0xbda8cabf	-0.08241796
148	0x3e50574c	0.20345801
149	0x3dfff463	0.12497785
150	0xbbe27575	-0.0069109746
151	0x3cdb965e	0.0268051
152	0x3e38c26e	0.18042919
153	0xbdef8168	-0.11694604
154	0xbe0a7de2	-0.13524583
155	0x3dcc020b	0.09961327
156	0x3e5be1e3	0.21472888
157	0x3cc07a84	0.02349592
158	0x3e8d9a6c	0.27656877
159	0x3d4576c1	0.048208956
160	0xbd3ffdaf	-0.04687279
161	0xbda39941	-0.07988215
162	0x3d2e599b	0.042565923
163	0x3e3ff53d	0.18745895
164	0x3e1abf12	0.1511195
165	0x3d80d70c	0.06291017
166	0xbdb613fe	-0.08890532
167	0xbd775034	-0.060379222
168	0x3e00a631	0.12563397
169	0x3d1a40c5	0.037659425
170	0x3bc15f15	0.0059012272
171	0xbdb068da	-0.08613749
172	0x3aa093e6	0.0012251108
173	0x3d0c1898	0.034203142
174	0xbdd9e531	-0.10639418
175	0xbddfbcba	-0.109246686
176	0x3cc0daf6	0.023541909
177	0x3d52e80d	0.051490832
178	0x3d6b4ec2	0.057448156
179	0xbcea9f36	-0.02864037
180	0x3dbe6daf	0.09298264
181	0xbd2270bf	-0.039658304
182	0xbd8633af	-0.065528266
183	0x3ce37bc7	0.027768983
184	0x3d4a19ce	0.049341016
185	0xbc60e8d1	-0.013727383
186	0x3e4264f9	0.1898383
187	0xbdc6b77a	-0.09702964
188	0xbea06408	-0.31326318
189	0x3d47e299	0.048800085
190	0x3d377587	0.044789817
191	0xbd828699	-0.06373329
192	0x3c99ff4d	0.018798495
193	0xbd6de08b	-0.05807547
194	0x3d16e142	0.036835916
195	0x3d1a36ea	0.037650026
196	0x3e0f8f2d	0.14019461
197	0x3da03f90	0.078246236
198	0x3e22c5a0	0.158957
199	0x3eb1afbd	0.3470439
200	0xbe11d4d3	-0.14241342
201	0xbc5fdecc	-0.013663959
202	0x3d9ec71f	0.07752823
203	0xbdb0eb6a	-0.08638652
204	0x3d56ba4f	0.05242377
205	0x3d9c6266	0.076359555
206	0xbccec733	-0.02524147
207	0x3c2fb3ed	0.01072405
208	0xbddd3f84	-0.1080313
209	0x3ccb7cce	0.024839785
210	0x3e152cd9	0.1456789
211	0x3d816440	0.06317949
212	0x3d852720	0.06501603
213	0x3b0c14bb	0.002137466
214	0xbdda3523	-0.10654666
215	0x3d8e9b09	0.06963164
216	0x3d6f1a73	0.058374833
217	0x3d1ce6af	0.038305935
218	0xbe1ef705	-0.15523918
219	0xbe3e2a7d	-0.18570895
220	0x3cb83caf	0.022489874
221	0xbe12916a	-0.14313284
222	0xbc808342	-0.015687589
223	0xbda80de1	-0.08205772
224	0x3e0e9891	0.13925387
225	0xbe07e8d7	-0.13272415
226	0x3d0eb063	0.034836184
227	0xbd2664f6	-0.040623628
228	0xbc2cb46d	-0.010541064
229	0xbda330a2	-0.0796826
230	0xbd2270c0	-0.039658308
231	0x3e169ce3	0.14708285
232	0x3d731746	0.059348367
233	0xbb50671f	-0.0031799746
234	0x3e16ab8f	0.14713882
235	0xbc8d232e	-0.017228689
236	0x3e92079c	0.2852143
237	0x3cc8b374	0.024499632
238	0x3d8b9410	0.0681535
239	0x3cd4ee4c	0.025992535
240	0x3d407678	0.04698798
241	0xbd515163	-0.051103007
242	0x3c173fe3	0.00923154
243	0x3cc183e3	0.023622459
244	0x3e98436c	0.2973894
245	0x3d80428a	0.06262691
246	0xbdaabeaa	-0.083371475
247	0xbbeaa4b0	-0.0071607456
248	0x3e8c512b	0.27405676
249	0xbb88335f	-0.0041565145
250	0xbe1f34aa	-0.15547433
251	0xbdcec509	-0.10096175
252	0x3cdbc8b7	0.026829107
253	0x3cac1f1f	0.021010933
254	0x3de7b594	0.1131393
255	0x3dd688b4	0.10475293

encoder.6.bias f4 [128]
0	0xbb464d64	-0.003025853
1	0x3c2df217	0.010616801
2	0xbc947918	-0.018124148
3	0x3dcfd7d7	0.1014859
4	0xbc83dc11	-0.016096147
5	0xbc947a7e	-0.018124815
6	0x3d273b6e	0.04082816
7	0x3d6a322a	0.057176746
8	0xbd6dcbf7	-0.058055844
9	0xbd0c25d4	-0.034215763
10	0xbd18039e	-0.037112825
11	0x3d88ea40	0.06685305
12	0x3c3ab169	0.011394837
13	0x3db512bb	0.08841463
14	0xbbac3bfd	-0.0052561746
15	0xbc9ea4c4	-0.019365676
16	0xbdbf18f1	-0.09330929
17	0x3db6aeb0	0.08920038
18	0xbd995ee1	-0.074888
19	0x3d3e9e0b	0.04653744
20	0xbd9965bd	-0.07490108
21	0xbdc14b5f	-0.09438204
22	0xbd0b6c7e	-0.034039013
23	0xbd55da58	-0.052210182
24	0x3d3caa42	0.046060808
25	0x3c35eb7e	0.011103509
26	0x3c95da0e	0.018292453
27	0x3e377cd7	0.17918716
28	0x3d81ab3d	0.06331489
29	0x3d8a2cea	0.06746848
30	0xba0c0f3e	-0.00053428474
31	0x3cc289ec	0.023747407
32	0x3d2f8e85	0.042860527
33	0x3d701dcb	0.058622163
34	0xbdc817f6	-0.09770195
35	0x3da5bbf1	0.080924876
36	0x3c930438	0.017946348
37	0xbcb2b547	-0.021814955
38	0xbc0c1b6f	-0.008551463
39	0x3d707f61	0.058715228
40	0x3d421b46	0.04738929
41	0xbd7bbbbe	-0.06145834
42	0xbd8e4f3d	-0.06948707
43	0xbd853da7	-0.065059
44	0x3d99c014	0.07507339
45	0x3b59d218	0.0033236798
46	0x3d97dfc5	0.074157275
47	0xbd11c843	-0.035591375
48	0x3d1d0334	0.038333133
49	0xbdbef28b	-0.09323605
50	0xbc591b65	-0.01325116
51	0xbd7450ad	-0.05964725
52	0xbd8c446b	-0.06848987
53	0x3cd62bf8	0.026144013
54	0xbcdf830d	-0.02728417
55	0x3d27b6d2	0.040945835
56	0xbd8370c4	-0.06417993
57	0xbe041f00	-0.1290245
58	0xbbbee940	-0.0058261454
59	0x3cc96a58	0.024586841
60	0x3ba8f440	0.00515607
61	0xbd0389d1	-0.032113854
62	0xbda5d4c3	-0.08097222
63	0xbdc0915c	-0.09402725
64	0x3d324db1	0.043531124
65	0xbde56cae	-0.1120237
66	0xbc967382	-0.018365625
67	0x3cb90411	0.022584947
68	0x3d42f0f2	0.047593065
69	0xbd7181f0	-0.05896181
70	0x3dd3c5eb	0.10340484
71	0xbd621dff	-0.055204388
72	0xbcb0ae1b	-0.021567395
73	0xbd8a9861	-0.06767345
74	0x3d00b202	0.03141976
75	0x3c21ec37	0.009882978
76	0x3c1828c3	0.009287062
77	0x3d08377c	0.03325604
78	0xbca7aa80	-0.020467043
79	0x3d1ae19e	0.03781282
80	0x3d084a2a	0.033273853
81	0xbd28992e	-0.04116171
82	0xbd775413	-0.060382914
83	0x3dc939d1	0.09825481
84	0xbdadf320	-0.08493638
85	0xbddac582	-0.10682203
86	0x3df3909c	0.118928164
87	0x3cd1e3d1	0.025621327
88	0x3df685d1	0.12037242
89	0x3d9a31e5	0.07529048
90	0x3d69690a	0.05698494
91	0x3d87d5d5	0.06632582
92	0x3c179d1f	0.009253769
93	0x3dd87f4d	0.10571156
94	0x3dbc1fa1	0.0918572
95	0xbdb5822d	-0.0886272
96	0xbd83664b	-0.06415995
97	0x3da24615	0.07923523
98	0x3c227615	0.009915848
99	0x3dfd24b5	0.12360517
100	0x3df508ee	0.11964594
101	0xbde09145	-0.10965208
102	0x3d9d400c	0.076782316
103	0x3e016ee9	0.12639965
104	0x3d73b7bb	0.05950139
105	0x3da0326e	0.07822119
106	0x3c596853	0.013269502
107	0xbd1c515b	-0.038163524
108	0x3d51c58d	0.05121379
109	0xbd7278d2	-0.059197254
110	0x3d1e1bdc	0.038600788
111	0xbd005586	-0.03133156
112	0xbd937762	-0.07200505
113	0x3cc4db73	0.024030423
114	0xbdd56814	-0.10420242
115	0x3c817fba	0.015807975
116	0x3d152ba3	0.03641857
117	0xbbd430ee	-0.0064755594
118	0xbc693c66	-0.0142355915
119	0x3a9e7bd9	0.0012091353
120	0x3cb9fd11	0.02270368
121	0xbbc74fc7	-0.0060825082
122	0x3d3b411a	0.045716383
123	0x3c699d1f	0.014258652
124	0xbd5d1910	-0.05397898
125	0x3daa96ae	0.08329521
126	0x3d2f7b21	0.042842034
127	0xbb93a5cf	-0.00450585

decoder.0.weight f4 [128, 129]
0	0xbe132d37	-0.14372717
1	0xbe9e2cd5	-0.3089358
2	0x3d2d7571	0.04234833
3	0x3e6f22a5	0.2335306
4	0xbe758bab	-0.2397906
5	0xbe7e0844	-0.2480784
6	0x3e9d2da8	0.30698895
7	0xbe29305f	-0.16522358
8	0x3e4e7e93	0.20165472
9	0x3dbec771	0.09315384
10	0xbd1b470c	-0.037909552
11	0x3da66b85	0.081259765
12	0xbd81f8c6	-0.06346278
13	0x3d615d90	0.05502087
14	0x3e1362e6	0.14393196
15	0xbf0adb68	-0.5424104
16	0x3e81633d	0.25271025
17	0x3e64195b	0.22275297
18	0x3d4feb83	0.05076171
19	0xbe8d3d5d	-0.2758588
20	0xbd1b2545	-0.03787734
21	0x3e1eb548	0.15498841
22	0x3e89c2a8	0.26906323
23	0xbe91dfdf	-0.28491113
24	0xbdadf8f7	-0.08494752
25	0x3c89c846	0.01681913
26	0xbda7a4a8	-0.081857026
27	0xbd8733df	-0.066016905
28	0xbe86d48f	-0.26334044
29	0x3e358990	0.17728257
30	0xbf471af4	-0.777755
31	0xbe1740ec	-0.1477086
32	0x3da9ee9c	0.08297464
33	0x3ed30949	0.41218022
34	0xbdb782ba	-0.08960481
35	0x3eb460d9	0.3523014
36	0x3dadceb0	0.08486688
37	0x3db3b90e	0.08775531
38	0x3f0703da	0.5274025
39	0x3db77e65	0.08959655
40	0x3e9ccabb	0.3062342
41	0x3cec122d	0.02881726
42	0xbe4159f3	-0.18881969
43	0x3dbc4428	0.09192687
44	0xbec63750	-0.38714075
45	0xbe081769	-0.1329018
46	0x3e832227	0.25611994
47	0x3ea7f96c	0.3280748
48	0xbc8d676d	-0.017261231
49	0xbcfa3c02	-0.030546192
50	0x3bc5b679	0.0060337153
51	0x3d852223	0.06500652
52	0xbe4115fa	-0.1885604
53	0x3e0659ad	0.13120146
54	0xbe0814ed	-0.13289233
55	0xbf01414d	-0.50490266
56	0x3e0c3169	0.13690723
57	0x3def8603	0.116954826
58	0x3e28a12c	0.16467732
59	0xbf4b4217	-0.7939772
60	0x3e3d08d2	0.18460396
61	0xbe910c24	-0.28329575
62	0xbd9c3266	-0.076268
63	0x3e385b7e	0.18003651
64	0x3e932a19	0.28743055
65	0xbe0e48ac	-0.1389491
66	0xbcea21a5	-0.028580496
67	0x3d60f180	0.054917812
68	0x3df5e796	0.12007062
69	0x3e8c4af4	0.27400935
70	0xbe226215	-0.15857728
71	0xbeac852d	-0.33695355
72	0x3e2cb56f	0.16866086
73	0x3d45a905	0.048256893
74	0xbd3d130f	-0.046160754
75	0x3d5d1431	0.053974334
76	0xbe7ce3d2	-0.24696282
77	0xbd3ccf37	-0.046096053
78	0x3de396d6	0.11112754
79	0x3c46381a	0.012098337
80	0xbee6c35b	-0.4507092
81	0x3d045af0	0.032313287
82	0xbe2d7bc1	-0.1694174
83	0xbe80122f	-0.25013873
84	0xbe75e043	-0.2401133
85	0x3d8fb8fe	0.07017706
86	0xbd7cb42e	-0.06169527
87	0xbdd42c0b	-0.10359963
88	0x3c736eee	0.014857991
89	0x3dd56380	0.10419369
90	0x3c1be57a	0.009515161
91	0x3c0eaea0	0.008708626
92	0x3c89a51e	0.016802367
93	0xbe0df79c	-0.13863987
94	0xbe670bba	-0.22563067
95	0xbe100b3d	-0.14066787
96	0xbeacdacc	-0.3376068
97	0x3e5611e1	0.20905258
98	0xbddce662	-0.107861295
99	0xbd3b47f8	-0.04572293
100	0xbe621ba2	-0.22080854
101	0x3bd87ba1	0.0066065346
102	0xbe984223	-0.29737958
103	0xbcb0fed7	-0.021605892
104	0xbd8f0ff5	-0.069854654
105	0x3e07135b	0.13190977
106	0x3d7f2187	0.062287834
107	0xbda7cfb0	-0.0819391
108	0x3df6bcae	0.120477065
109	0x3c7e865c	0.015534963
110	0x3e41d16b	0.18927543
111	0xbe62116a	-0.22076955
112	0xbd47eb29	-0.04880825
113	0x3caf7561	0.021418275
114	0xbdd69d39	-0.104792066
115	0x3c998af4	0.018743016
116	0x3e302b3a	0.1720399
117	0xbd8c061e	-0.06837104
118	0xbe3b4da1	-0.18291332
119	0x3d17a24d	0.037020016
120	0x3d6303c4	0.055423513
121	0x3f2b5a4a	0.66934645
122	0x3cd99add	0.026563102
123	0x3d647aa1	0.05578101
124	0xbe7b69f6	-0.2455214
125	0x3e991a33	0.299028
126	0xbe4f60c4	-0.20251757
127	0x3f04f126	0.51930463
128	0xbd808d47	-0.062769465
129	0xbd8cd803	-0.068771385
130	0xbd68e089	-0.05685476
131	0x3c8e64ea	0.017382104
132	0x3e925d26	0.28586692
133	0xbe1f40d7	-0.15552078
134	0xbc743a6c	-0.014906507
135	0x3e7fee47	0.2499324
136	0x3d50d0fc	0.050980553
137	0x3d789f64	0.06069888
138	0xbdbc28af	-0.09187447
139	0xbe27bcbf	-0.16380595
140	0xbd138ce9	-0.036023054
141	0xbe4bc76a	-0.19900289
142	0x3da79bc5	0.081840076
143	0x3d6b8bb2	0.05750627
144	0xbd5157f9	-0.051109288
145	0x3ef9dd37	0.48801586
146	0xbdb6c0c5	-0.089234866
147	0xbd4681f6	-0.048463784
148	0xbe66faf5	-0.2255667
149	0xbe34c62a	-0.17653719
150	0x3b6f51c9	0.0036517254
151	0x3baf761a	0.005354655
152	0x3c636690	0.013879433
153	0xbe04c8fa	-0.12967291
154	0xbf01b7ad	-0.5067089
155	0xbdbeae0c	-0.093105406
156	0x3e8c547a	0.274082
157	0x3d54b4a9	0.051930103
158	0x3e8f0bc1	0.27938655
159	0xbe72df0c	-0.23717898
160	0x3d129eec	0.03579609
161	0x3d507a64	0.05089797
162	0x3e92cc17	0.28671333
163	0xbd84be9c	-0.06481668
164	0xbcbf1b91	-0.023328574
165	0x39c109c9	0.0003681912
166	0x3dfe11e1	0.12405754
167	0x3e3ac324	0.18238503
168	0x3be206f2	0.0068978006
169	0x3d8ea225	0.0696452
170	0x3e38c562	0.18044046
171	0xbd3874c4	-0.04503323
172	0xbd3db459	-0.04631457
173	0x3ca27f66	0.019836139
174	0xbd8e78f6	-0.06956665
175	0xbd175158	-0.03694281
176	0x3c52a049	0.012855598
177	0x3cb56955	0.022144953
178	0x3e0d1a31	0.13779522
179	0x3cdbb014	0.026817359
180	0xbe993f00	-0.29930878
181	0xbdc2802c	-0.09497103
182	0x3dc067c3	0.09394791
183	0x3e138e7d	0.14409824
184	0xbd3500c5	-0.044190187
185	0x3d67921f	0.056535836
186	0x3d8ec5b4	0.06971303
187	0x3e097c79	0.13426389
188	0xbedd1331	-0.43178704
189	0xbd30ca9f	-0.043161985
190	0x3e344126	0.17602977
191	0xbe104663	-0.1408935
192	0x3da8bb7e	0.08238886
193	0xbdb5a683	-0.0886965
194	0x3d86cf6c	0.06582531
195	0x3e0450e6	0.12921485
196	0xbe576daf	-0.21037935
197	0x3e1a211c	0.15051693
198	0x3dcae96c	0.09907803
199	0x3c8c6876	0.017139655
200	0xbd85933f	-0.065222256
201	0xbca0cd60	-0.01962918
202	0x3c20c434	0.0098124035
203	0x3cb10765	0.021609971
204	0x3e103fe5	0.14086874
205	0x3d7a7b66	0.06115284
206	0xbd830041	-0.06396533
207	0x3e6bea4d	0.23038597
208	0xbe325a3d	-0.17417236
209	0xbb877cea	-0.004134764
210	0x3decea45	0.11568121
211	0xbd9d8cdb	-0.07692882
212	0xbe397dee	-0.18114445
213	0xbdeb44aa	-0.11487706
214	0x3da62fb0	0.081145644
215	0xbc3bd70d	-0.011464846
216	0x3d9b2223	0.075748704
217	0xbdc8b2b7	-0.09799712
218	0x3d3b1503	0.045674335
219	0x3dd7883a	0.1052403
220	0x3de98d32	0.11403884
221	0x3d344f82	0.044021137
222	0x3ea03ea2	0.31297785
223	0xbe0b08c7	-0.13577567
224	0xbd3f1cd8	-0.046658367
225	0xbd1d7ef2	-0.038451143
226	0x3d94664f	0.07246076
227	0xbe040e6c	-0.12896127
228	0xbe043dac	-0.12914151
229	0x3c880f3c	0.016608827
230	0x3e6734e8	0.22578776
231	0xbd554685	-0.052069206
232	0x3d1db838	0.038505763
233	0x3c4406ce	0.011964513
234	0x3d705e71	0.058683816
235	0xbe15a07f	-0.14612006
236	0xbde2ed08	-0.110803664
237	0xbd51ba19	-0.051202867
238	0x3e3c2088	0.18371785
239	0x3d2a9b74	0.041652158
240	0xbdf375eb	-0.118877254
241	0xbdf4f101	-0.1196003
242	0xbd951c8a	-0.07280834
243	0x3f0d344c	0.55157924
244	0x3dc98979	0.09840674
245	0x3e641ba9	0.22276177
246	0x3cb720e9	0.02235456
247	0x3dae9207	0.08523946
248	0xbcbb6962	-0.022877399
249	0xbdc0a5f3	-0.09406652
250	0xbde72b26	-0.11287527
251	0x3d555eaa	0.05209223
252	0x3cfdaf0c	0.030967258
253	0xbee17402	-0.4403382
254	0xbd6ea90d	-0.05826669
255	0xbd8cd940	-0.06877375
