weights/1dreg/eq/rbf_fill4.pth (torch_old, 135032 bytes, 84 tensors)

prelinear.0.module.weight f4 [8, 3]
0.011510054 -1.0081556 -0.67298985 -0.05646931 0.02591224 0.7284927 -0.013476607 -0.03629104
-1.014139 0.093662634 -0.042037293 0.5626215 -0.002178548 -0.05466648 -0.89060795 0.010339099
-3.1408737 0.26737884 -0.003416187 -0.089439005 0.92148286 -0.03784499 0.026861265 0.69351554
00000000: aa94 3c3c 3e0b 81bf 1049 2cbf 5d4c 67bd
00000010: e845 d43c 7f7e 3a3f fdcc 5cbc eaa5 14bd
00000020: 4fcf 81bf 32d2 bf3d 4c2f 2cbd f607 103f
00000030: f8c5 0ebb f5e9 5fbd e2fe 63bf 5365 293c
00000040: 1304 49c0 e1e5 883e 1be2 5fbb cc2b b7bd
00000050: 4de6 6b3f 5903 1bbd 280c dc3c 3c8a 313f

prelinear.0.module.bias f4 [8]
-1.0943468 0.33284017 0.111867964 0.12810779 0.08418754 -0.6662688 -0.41779354 -0.7648212
00000000: 8e13 8cbf 076a aa3e 081b e53d b02e 033e
00000010: 846a ac3d 9890 2abf 09e9 d5be 52cb 43bf

conv.0.weightnet.net.0.linear.weight f4 [32, 1]
0.38098407 0.07322315 0.13990958 0.09428569 0.4184516 0.63858247 -0.51225394 -1.1138909
-1.0742532 -0.6821006 -0.25053194 -0.3152225 -1.0919266 0.24958451 -0.6717593 -0.5867444
0.7297051 -0.4346887 -0.9342218 0.39964005 0.37961942 0.1959786 0.07800808 0.92243046
-0.45505843 -0.42698187 0.7938815 0.4157108 -0.20541523 -0.59915155 -0.20159625 1.0586828
00000000: 5810 c33e 05f6 953d 7544 0f3e db18 c13d
00000010: 4a3f d63e 247a 233f 1323 03bf fa93 8ebf
00000020: 2181 89bf 259e 2ebf b945 80be d864 a1be
00000030: 40c4 8bbf 1593 7f3e 6bf8 2bbf e234 16bf
00000040: f4cd 3a3f 848f debe 2929 6fbf 9f9d cc3e
00000050: 7a5d c23e 9dae 483e b3c2 9f3d 6724 6c3f
00000060: 6bfd e8be 5e9d dabe d13b 4b3f 0cd8 d43e
00000070: 5f58 52be ff61 19bf 3f6f 4ebe eb82 873f

conv.0.weightnet.net.0.linear.bias f4 [32]
-0.7395212 0.6144719 -0.4034344 0.9962189 -0.18928888 -0.60378253 0.050701607 0.3000843
6.957397e-05 0.80268943 0.23000586 1.0099494 0.1062735 0.052147146 0.6362991 0.781915
0.550945 0.70080745 -0.005120179 -1.2021551 0.45090744 0.6520443 0.37338305 0.36103836
0.032007772 -0.19977294 0.5753727 0.090573095 0.7757036 -0.12429032 0.04154673 0.21112463
00000000: 4351 3dbf 084e 1d3f f48e cebe 3408 7f3f
00000010: f2d4 41be 7e91 1abf 7dac 4f3d a6a4 993e
00000020: 3ee8 9138 0e7d 4d3f a886 6b3e 0646 813f
00000030: eca5 d93d 3f98 553d 7fe4 223f 952b 483f
00000040: bb0a 0d3f 1e68 333f 2dc7 a7bb 38e0 99bf
00000050: 57dd e63e 60ec 263f 102c bf3e 05da b83e
00000060: 951a 033d 4791 4cbe a04b 133f 637e b93d
00000070: 8394 463f ec8b febd e72c 2a3d 0e31 583e

conv.0.weightnet.net.0.bn.weight f4 [32]
1.4294575 0.97884464 1.408587 1.0159278 1.5661895 1.463671 1.0998001 1.210389
0.8888703 1.264931 1.0671217 1.245926 1.251274 0.7935188 0.7851837 0.694963
1.302112 1.0729916 1.3238554 1.1647769 1.4109976 0.49837053 1.453732 1.262105
1.1670628 1.207573 1.3495015 1.2024391 0.98660094 0.7754718 0.8904589 1.4679682
00000000: 77f8 b63f 9095 7a3f 944c b43f ec09 823f
00000010: e678 c83f 9259 bb3f 40c6 8c3f 07ee 9a3f
00000020: 018d 633f 42e9 a13f 7297 883f 817a 9f3f
00000030: bf29 a03f 0c24 4b3f cd01 493f 18e9 313f
00000040: 9bab a63f ca57 893f 1874 a93f 6917 953f
00000050: 929b b43f 6c2a ff3e e413 ba3f a88c a13f
00000060: 5062 953f c191 9a3f 77bc ac3f 86e9 993f
00000070: e191 7c3f 5285 463f 1df5 633f 62e6 bb3f

conv.0.weightnet.net.0.bn.bias f4 [32]
0.11170923 -0.16520141 0.2390416 -0.18194243 0.25431252 0.15122293 -0.23339051 -0.116714984
-0.047726236 -0.09004615 -0.16107248 -0.082092196 -0.08043251 -0.017468864 -0.31684625 -0.3505352
-0.015118801 -0.19534251 0.00964683 0.1385006 0.18295209 -0.7342542 0.2237232 0.09126533
-0.001286615 -0.1437519 0.22256292 -0.05347497 -0.119199924 -0.16222897 -0.15206759 0.12232439
00000000: cfc7 e43d 8f2a 29be 52c7 743e 1e4f 3abe
00000010: 4035 823e 2fda 1a3e ecfd 6ebe 4408 efbd
00000020: 967c 43bd 1e6a b8bd 2ff0 24be f41f a8bd
00000030: cdb9 a4bd dd1a 8fbc ac39 a2be 5a79 b3be
00000040: d9b4 77bc de07 48be bd0d 1e3c 1ad3 0d3e
00000050: cb57 3b3e 15f8 3bbf b217 653e 51e9 ba3d
00000060: a3a3 a8ba b333 13be 89e7 633e 9208 5bbd
00000070: 171f f4bd 5a1f 26be 9bb7 1bbe 3685 fa3d

conv.0.weightnet.net.0.bn.running_mean f4 [32]
-0.7387491 0.6141897 -0.40367502 0.9958217 -0.18900925 -0.6043621 0.05219393 0.30126023
0.00101089 0.8026809 0.22913313 1.010953 0.10668499 0.053358994 0.6365344 0.78269553
0.5497999 0.7004701 -0.0053584836 -1.2020481 0.45017362 0.6523568 0.3738002 0.36136618
0.032149162 -0.19918892 0.57556087 0.08956329 0.7759931 -0.12426092 0.04055465 0.21187292
00000000: a91e 3dbf 893b 1d3f 7eae cebe 2cee 7e3f
00000010: a48b 41be 79b7 1abf 4dc9 553d c83e 9a3e
00000020: d77f 843a 7f7c 4d3f e0a1 6a3e e866 813f
00000030: a97d da3d f68e 5a3d ebf3 223f bc5e 483f
00000040: b0bf 0c3f 0252 333f 3896 afbb b6dc 99bf
00000050: 287d e63e db00 273f bd62 bf3e fd04 b93e
00000060: d7ae 033d 2ef8 4bbe f557 133f f56c b73d
00000070: 7ca7 463f 827c febd a21c 263d 37f5 583e

conv.0.weightnet.net.0.bn.running_var f4 [32]
0.00084848894 3.1464206e-05 0.00011544468 5.2220363e-05 0.0010223448 0.002385678 0.001533984 0.0072595626
0.006762825 0.0027294208 0.0003666484 0.00058207393 0.007008979 0.00036535037 0.0026446688 0.0020148307
0.0031223763 0.0011052311 0.0051004374 0.0009346838 0.0008432921 0.00022433355 3.562942e-05 0.0049886038
0.001215519 0.0010707139 0.00368889 0.0010075425 0.00024609844 0.0020953221 0.00024084652 0.0065571396
00000000: 216d 5e3a 6ff8 0338 e41a f238 3007 5b38
00000010: 3300 863a 0959 1c3b f60f c93a a0e1 ed3b
00000020: b09a dd3b 15e0 323b b73a c039 5296 183a
00000030: 94ab e53b 7f8c bf39 2e52 2d3b 400b 043b
00000040: c8a0 4c3b 67dd 903a 9221 a73b 9105 753a
00000050: 6010 5d3a 143b 6b39 cc70 1538 7177 a33b
00000060: 0d52 9f3a 3257 8c3a 4ec1 713b 840f 843a
00000070: c606 8139 ac51 093b bf8b 7c39 46dd d63b

conv.0.weightnet.net.1.linear.weight f4 [32, 32]
-0.6376621 -0.25656348 -0.7121186 -0.55665934 -1.0103943 -0.88466465 0.14654541 -0.10550259
0.13881294 0.06974356 0.047229514 0.1383307 -0.1111398 -0.1464488 -0.067576125 0.016861439
-0.80862945 0.061382852 -0.04137715 -0.41185805 -1.3263069 -0.25718808 -1.2938827 -0.9995325
-0.011629646 -0.034817938 -0.6761751 -0.47213548 -0.034584124 -0.0066429297 -0.06725062 -0.9104048
-0.49066836 -0.10118774 -0.4915307 -0.2893505 -0.35861784 -0.3010035 -0.058229256 0.09678846
0.24367213 0.06708243 0.002959431 0.06353232 -0.047627684 -0.70029086 0.002566202 0.2190394
-0.42880687 0.26203802 0.11471454 -0.31797397 -0.39966187 0.017510107 -0.29465014 -0.3796893
0.11002839 0.14472981 -0.5221344 -0.39468887 0.072135404 -0.079894006 0.032530166 -0.45678827
0.018131193 0.16248707 0.03770809 -0.22771993 0.07371217 -0.090924196 0.49237636 0.3109588
1.0605496 0.58380216 0.29898134 0.5634195 0.51807654 -0.1809396 0.20116483 0.15531956
0.078700036 0.4851512 0.5570491 -0.20082194 -0.23083377 -0.32054383 -0.20203382 0.085249335
0.6260699 0.5293897 -0.02084249 0.080999345 0.33416128 0.57738435 0.30665025 0.10677634
-1.1130012 -0.36030546 -0.7520691 -0.2166938 -1.1078944 -1.1809305 0.18379249 -0.053138644
0.17987357 -0.018959245 0.22811307 0.16763945 -0.07911367 -0.17516464 0.036692202 -0.05934415
-0.5518255 -0.07624157 0.1930379 -0.28571823 -1.6294991 0.10137261 -1.3625686 -0.9006252
-0.09610669 -0.07272683 -0.9931719 -0.6273169 -0.07858211 0.13240442 0.03407897 -0.8815451
0.6454026 0.18065558 0.27723792 0.30125505 0.48885378 0.64871097 0.15828733 -0.02207674
-0.19795525 0.105356276 0.117600314 -0.025935603 0.11234164 -0.1639118 0.11439693 -0.14971288
1.0564517 -0.01109806 0.0878621 0.12600362 0.59917504 -0.39473945 0.57179505 0.21686804
0.1590752 -0.02171464 0.47480062 0.7378931 0.01280846 0.033607688 -0.1121072 0.67376393
-0.07522473 -0.014987015 -0.16267645 -0.20157494 0.028098825 -0.040041007 -0.4799686 -0.30527338
-0.45254552 -0.5752494 -0.28999054 -0.52210313 -0.4648743 -0.18045942 -0.4854585 -0.1591767
-0.13513854 -0.30416867 -0.28820443 -0.10524896 -0.110363685 0.04321382 0.006943116 -0.08163221
-0.22942227 -0.53099185 0.028569037 -0.24342446 -0.32997558 -0.30317047 -0.34652528 -0.18641263
-0.14457425 -0.26619446 0.06253307 -0.20132747 -0.09858052 -0.093175575 -0.42116845 -0.5556487
-0.19642812 -0.55821896 -0.3164809 -0.41740778 -0.36714506 0.0070733875 -0.3438064 -0.3304925
-0.12132688 -0.32472196 -0.6155545 -0.0016097355 0.017141081 0.060757026 -0.1890504 -0.028625406
-0.38948813 -0.5799582 0.036513828 -0.18430543 -0.48577997 -0.23155372 -0.39619797 -0.23433894
-0.23566024 -0.14603613 -0.079265185 -0.19945446 -0.07277883 -0.09496459 -0.09843695 -0.35702533
-0.34277475 -0.31013712 -0.3192443 -0.4635501 -0.4379371 0.033480212 -0.0335952 -0.095479235
-0.27077928 -0.18505141 -0.41727677 -0.07767677 -0.04850793 -0.15079334 -0.04795682 -0.21849188
-0.43095338 -0.20235355 0.0032223293 -0.26221433 -0.20990647 -0.27962956 -0.29864135 -0.16936122
00000000: d33d 23bf 4a5c 83be 684d 36bf 3a81 0ebf
00000010: 9a54 81bf 6279 62bf 0010 163e be11 d8bd
00000020: fb24 0e3e b6d5 8e3d bc73 413d 90a6 0d3e
00000030: 439d e3bd adf6 15be 5a65 8abd 0021 8a3c
00000040: 5702 4fbf 966c 7b3d 167b 29bd 0fdf d2be
00000050: 6dc4 a9bf 28ae 83be f39d a5bf 5de1 7fbf
00000060: 458a 3ebc 419d 0ebd d019 2dbf bebb f1be
00000070: 15a8 0dbd efac d9bb b1ba 89bd 4a10 69bf
00000080: e238 fbbe 853b cfbd e9a9 fbbe c025 94be
00000090: c29c b7be 211d 9abe cd81 6ebd 0739 c63d
000000a0: 3085 793e 8362 893d 03f3 413b 3c1d 823d
000000b0: 3f15 43bd 4346 33bf ba2d 283b dd4b 603e
000000c0: 938c dbbe d929 863e 75ef ea3d 7ccd a2be
000000d0: 7ba0 ccbe 5b71 8f3c 62dc 96be a366 c2be
000000e0: 9156 e13d 0d34 143e 9aaa 05bf a914 cabe
000000f0: babb 933d 789f a3bd 5a3e 053d 27e0 e9be
00000100: de87 943c 0363 263e cc73 1a3d 6a2f 69be
00000110: 68f6 963d 7736 babd c118 fc3e fe35 9f3e
00000120: 17c0 873f 0f74 153f 1514 993e 433c 103f
00000130: aaa0 043f 3b48 39be 27fe 4d3e 170c 1f3e
00000140: 7c2d a13d bd65 f83e c59a 0e3f 44a4 4dbe
00000150: b05f 6cbe 521e a4be f4e1 4ebe 3497 ae3d
00000160: 1e46 203f 1586 073f dfbd aabc fce2 a53d
00000170: 3017 ab3e 76cf 133f 4301 9d3e 8ead da3d
00000180: d376 8ebf f579 b8be 9a87 40bf fbe4 5dbe
00000190: 7ccf 8dbf bb28 97bf 1934 3c3e e8a7 59bd
000001a0: c730 383e 6b50 9bbc 7996 693e ada9 2b3e
000001b0: 5906 a2bd 5c5e 33be 904a 163d da12 73bd
000001c0: 7044 0dbf 8a24 9cbd baab 453e a949 92be
000001d0: 6d93 d0bf 719c cf3d a668 aebf 608f 66bf
000001e0: 96d3 c4bd cef1 94bd 8340 7ebf d797 20bf
000001f0: a8ef a0bd 0695 073e 6496 0b3d f1ac 61bf
00000200: 1b39 253f c7fd 383e 21f2 8d3e 1a3e 9a3e
00000210: 0b4b fa3e ec11 263f 1316 223e 48da b4bc
00000220: c8b4 4abe 08c5 d73d 6fd8 f03d e776 d4bc
00000230: 6013 e63d 7fd8 27be f048 ea3d 554e 19be
00000240: cf39 873f a3d4 35bc 0bf1 b33d 1807 013e
00000250: 8963 193f 4a1b cabe 2961 123f a812 5e3e
00000260: 9ce4 223e e7e2 b1bc 1119 f33e 90e6 3c3f
00000270: 93da 513c 37a8 093d 7698 e5bd cb7b 2c3f
00000280: 6c0f 9abd 198c 75bc a894 26be a969 4ebe
00000290: 822f e63c 0a02 24bd 72be f5be cb4c 9cbe
000002a0: 0cb4 e7be 8b43 13bf a479 94be 8da8 05bf
000002b0: 0104 eebe 5bca 38be 048e f8be 38ff 22be
000002c0: c261 0abe ffbb 9bbe 888f 93be c48c d7bd
000002d0: 5b06 e2bd f900 313d 1483 e33b ca2e a7bd
000002e0: aced 6abe 15ef 07bf 9d09 ea3c 4344 79be
000002f0: 8ff2 a8be 2939 9bbe c36b b1be f4e2 3ebe
00000300: 460b 14be a44a 88be 5711 803d ca28 4ebe
00000310: 95e4 c9bd d6d2 bebd 64a3 d7be fe3e 0ebf
00000320: 7424 49be 70e7 0ebf c909 a2be 79b6 d5be
00000330: 70fa bbbe e0c7 e73b 6407 b0be 5036 a9be
00000340: 3a7a f8bd f541 a6be fb94 1dbf c3fd d2ba
00000350: 746b 8c3c 5cdc 783d 6e96 41be d47f eabc
00000360: fd6a c7be 2478 14bf 868f 153d 90ba 3cbe
00000370: 27b8 f8be 6b1c 6dbe 76da cabe 8cf6 6fbe
00000380: eb50 71be 7f8a 15be c955 a2bd ca3d 4cbe
00000390: 110d 95bd cc7c c2bd 5099 c9bd 06cc b6be
000003a0: 2c80 afbe 4bca 9ebe fd73 a3be 7056 edbe
000003b0: 4b39 e0be 8c22 093d 1f9b 09bd 9e8a c3bd
000003c0: 95a3 8abe 1e7e 3dbe 4da5 d5be 0015 9fbd
000003d0: 40b0 46bd 9269 1abe 5f6e 44bd 56bc 5fbe
000003e0: eca5 dcbe c535 4fbe b72d 533b f540 86be
000003f0: b9f1 56be 9b2b 8fbe 85e7 98be 076d 2dbe

conv.0.weightnet.net.1.linear.bias f4 [32]
-0.18640052 -0.3079126 0.28594577 -0.4007715 -0.059161365 0.06935372 -0.033635333 0.035967432
-0.015087454 0.09120355 -0.28034407 0.2515884 0.1733622 0.7451107 0.12630184 -0.3307206
0.08657665 -0.29101223 -0.083508655 -0.13918814 0.2615762 0.010845659 -0.20944047 0.29021615
-0.32181227 0.29850754 0.07474421 -0.129925 -0.14087738 0.021258958 -0.13702776 0.1953206
00000000: c7df 3ebe b8a6 9dbe 7c67 923e ec31 cdbe
00000010: 3053 72bd 5309 8e3d 34c5 09bd 9652 133d
00000020: 5e31 77bc edc8 ba3d 4289 8fbe 32d0 803e
00000030: dc85 313e 93bf 3e3f 4555 013e 3654 a9be
00000040: 194f b13d 8eff 94be 9606 abbd 5687 0ebe
00000050: 51ed 853e feb1 313c 9077 56be 3697 943e
00000060: 94c4 a4be fbd5 983e 7e13 993d 0f0b 05be
00000070: 2942 10be 4427 ae3c 0151 0cbe 2002 483e

conv.0.weightnet.net.1.bn.weight f4 [32]
0.9641699 1.0397978 0.91494405 1.0633892 1.1327711 1.0276299 1.3668176 1.7072332
0.5075704 0.7555784 0.8483657 0.771527 1.164017 1.2167201 0.67097694 0.92954016
1.5261588 0.8612085 1.186939 1.2707723 0.8871926 1.733495 0.94460434 1.061001
0.9731373 1.4118013 1.8169408 0.9584537 1.3559284 1.2312174 1.4409888 1.0604155
00000000: d7d3 763f 1818 853f c639 6a3f 231d 883f
00000010: a5fe 903f 6089 833f e1f3 ae3f 9e86 da3f
00000020: 22f0 013f 966d 413f 7f2e 593f cb82 453f
00000030: 82fe 943f 7cbd 9b3f 25c5 2b3f 58f6 6d3f
00000040: 2c59 c33f 2978 5c3f 9eed 973f aba8 a23f
00000050: 0e1f 633f 2ae3 dd3f 97d1 713f e1ce 873f
00000060: 871f 793f e8b5 b43f 8491 e83f 395d 753f
00000070: 108f ad3f 8898 9d3f 5272 b83f b2bb 873f

conv.0.weightnet.net.1.bn.bias f4 [32]
-0.34724867 -0.009109773 -0.026354931 -0.121138416 0.09233383 0.06966983 -0.1892494 -0.23388614
-0.49187726 -0.22131298 -0.06894872 -0.013864795 0.27581158 -0.028221196 -0.24762492 -0.15328003
-0.21205066 0.10360465 0.045086414 0.037668545 -0.061532088 -0.20943475 -0.08919515 -0.120658055
0.16438149 -0.06468616 -0.19406688 0.031639796 -0.13777553 0.050925013 -0.10081567 0.02231227
00000000: 94ca b1be 2841 15bc 4ce6 d7bc 6b17 f8bd
00000010: 8519 bd3d 0eaf 8e3d 98ca 41be d97f 6fbe
00000020: 56d7 fbbe df9f 62be fd34 8dbd 2a29 63bc
00000030: 2d37 8d3e 2330 e7bc 6391 7dbe 71f5 1cbe
00000040: cf23 59be ad2e d43d 88ac 383d 554a 1a3d
00000050: 1209 7cbd 1076 56be f2ab b6bd 921b f7bd
00000060: 9f53 283e 2d7a 84bd 78b9 46be bb98 013d
00000070: 0715 0dbe bf96 503d 7278 cebd 39c8 b63c

conv.0.weightnet.net.1.bn.running_mean f4 [32]
-4.9500995 -2.3966649 1.6964018 -5.7483478 3.0631104 -1.5669097 -1.8314996 -1.5910718
-1.4082586 -1.514374 -1.8777895 -0.54437685 -1.4655155 -2.1400673 -0.02743341 1.744927
-1.9019357 -3.0568256 -3.8633704 -2.4160025 2.3006356 -5.0364785 2.9204054 -2.669921
-1.7214094 -5.6299 -6.2410045 -1.8548187 -6.1265326 2.9313414 -2.840782 3.2779202
00000000: 3767 9ec0 f562 19c0 b223 d93f 77f2 b7c0
00000010: 000a 4440 7f90 c8bf 946e eabf 3ea8 cbbf
00000020: d141 b4bf 02d7 c1bf 685b f0bf 485c 0bbf
00000030: 0396 bbbf ddf6 08c0 08bc e0bc c559 df3f
00000040: a172 f3bf 08a3 43c0 7641 77c0 c99f 1ac0
00000050: 9d3d 1340 d52a a1c0 ece7 3a40 fcdf 2ac0
00000060: 2557 dcbf 2428 b4c0 4fb6 c7c0 b36a edbf
00000070: 8e0c c4c0 199b 3b40 5fcf 35c0 72c9 5140

conv.0.weightnet.net.1.bn.running_var f4 [32]
79.7088 23.674854 19.332191 101.41215 27.215433 7.0422173 8.888757 3.5505314
17.169167 2.4055028 2.7239814 10.170509 2.3645394 35.742023 22.513538 29.354523
5.1092434 28.780773 57.94605 26.883646 21.033146 78.4102 33.854084 39.745213
1.7256575 115.0753 126.319824 8.427881 118.57113 15.757517 31.14353 58.177673
00000000: e86a 9f42 1a66 bd41 54a8 9a41 05d3 ca42
00000010: 35b9 d941 d859 e140 5938 0e41 e83b 6340
00000020: 745a 8941 c2f3 1940 b655 2e40 68ba 2241
00000030: 9d54 1740 d5f7 0e42 ba1b b441 10d6 ea41
00000040: ec7e a340 063f e641 c1c8 6742 b511 d741
00000050: e243 a841 06d2 9c42 956a 0742 19fb 1e42
00000060: 58e2 dc3f 8e26 e642 c0a3 fc42 9ad8 0641
00000070: 6b24 ed42 ca1e 7c41 f325 f941 f0b5 6842

conv.0.weightnet.net.2.linear.weight f4 [16, 32]
0.111170456 -0.031144165 -0.11174648 0.102538705 -0.1656353 0.15934747 0.052021254 0.08788172
-0.13788429 0.32757953 0.28321877 -0.23667952 0.74681866 0.1306035 -0.094265565 -0.25795984
0.55962837 0.26617572 0.070055515 0.07719849 -0.12785281 0.24844225 -0.094702914 -0.07387079
0.64348483 0.25035253 0.0063376985 0.14828147 0.05058421 -0.0111104585 0.17845021 -0.43711582
0.045235243 0.023305722 0.23445836 0.09505631 -0.25977 -0.44704795 -0.461074 -0.21998706
-0.01286398 -0.31927195 -0.21344483 0.11724514 -0.12997195 0.3265276 0.054347195 0.22262701
-0.18141595 0.059911653 0.25125387 0.32946 -0.07346792 -0.010282165 -0.35384038 0.22654931
-0.2111063 0.10836853 0.013388486 -0.37923002 0.12226729 -0.13843286 0.10017083 0.22125043
0.106544204 -0.2638248 -0.17771988 -0.048667356 -0.1352003 0.58767205 0.33581957 0.23951155
-0.25438544 0.22487533 0.32740363 -0.15548201 0.21560116 -0.09456228 -0.19385758 -0.14446393
0.15879717 0.15103842 -0.14751595 -0.28047383 -0.33728597 -0.15905036 -0.17595196 -0.05072945
-0.04195737 -0.063099466 -0.2930889 0.42350304 -0.17170075 -0.25757462 -0.0718836 -0.30037335
-0.038203523 -0.022113226 0.023485962 -0.078442454 -0.16558336 0.3333818 0.6450113 0.4203876
0.21052529 0.19244073 0.12349842 -0.12828565 0.18587798 -0.21509342 0.053175967 0.20081848
-0.21751726 0.13817714 -0.059885994 -0.15753426 -0.09006324 -0.3399476 -0.18083636 -0.17435485
0.076599054 -0.019484097 -0.30213338 0.27281508 -0.3143091 -0.27511257 -0.23579678 0.16762611
-0.22625822 -0.063093126 0.02562289 -0.12860829 -0.28621194 0.42312932 0.49782148 0.58909273
-0.12867488 -0.061289728 0.16893369 -0.10224554 0.22493479 -0.06403461 -0.16064847 0.1731503
-0.07382167 0.11270727 -0.2760675 -0.18844014 0.012987402 -0.18235876 -0.10835195 -0.24804524
0.2938761 -0.25573948 -0.24939926 0.26016453 -0.1602588 -0.3101596 -0.047486283 0.024123583
-0.010384784 0.60413694 0.15359765 0.10299152 -0.07635783 -0.45832327 -0.8404729 -0.4273513
-0.08804715 -0.09882828 -0.021974232 0.24231607 -0.100920096 0.46436986 0.06494838 0.05867876
-0.080661595 -0.07706451 0.20396282 0.5192672 -0.18230563 0.12704566 -0.20516007 0.20639804
-0.12993723 0.15427348 0.15670346 -0.38098663 0.2555758 -0.11421289 0.36009204 -0.032545235
-0.14415772 -0.3343132 -0.079033226 -0.2893653 0.3782729 -0.11980482 0.05310982 -0.15005751
-0.1073691 0.06851856 -0.26517949 -0.364457 -0.19211386 -0.052968528 -0.12150843 -0.1346418
-0.12556633 -0.15538223 -0.079072766 -0.22764568 0.3334697 -0.20246205 0.15924834 -0.07193422
-0.19956012 -0.34096336 -0.04649326 0.014593659 -0.014577756 0.40093297 -0.290608 -0.30749863
-0.1551031 -0.23818266 -0.00030229508 -0.24225235 0.16678292 0.051857743 0.05116116 -0.1670467
-0.25997937 -0.2161667 -0.2058896 -0.31199965 -0.013580668 -0.3370536 -0.031518817 0.0077150576
-0.06696135 -0.2877639 -0.61719984 -0.49360088 0.23765653 -0.12166822 0.30537593 -0.3984391
-0.19881772 -0.078262605 -0.18160939 0.015399989 -0.3072366 0.06952787 -0.08095799 -0.075313605
00000000: 56ad e33d 0c22 ffbc 57db e4bd d0ff d13d
00000010: 4d9c 29be fc2b 233e 3d14 553d 55fb b33d
00000020: 8a31 0dbe 81b8 a73e 0d02 913e 1e5c 72be
00000030: 822f 3f3f edbc 053e 4e0e c1bd 5013 84be
00000040: ce43 0f3f 2f48 883e 4479 8f3d 3e1a 9e3d
00000050: d9eb 02be a567 7e3e 9af3 c1bd 9249 97bd
00000060: 6cbb 243f 352e 803e 78ac cf3b 19d7 173e
00000070: 6331 4f3d a408 36bc a7bb 363e a5cd dfbe
00000080: 9748 393d a4eb be3c da15 703e e2ac c23d
00000090: 9300 85be 78e3 e4be e411 ecbe 4a44 61be
000000a0: 71c3 52bc 9d77 a3be 4891 5abe 381e f03d
000000b0: 5e17 05be a02e a73e 2a9b 5e3d 56f8 633e
000000c0: 1ac5 39be ec65 753d 59a4 803e fbae a83e
000000d0: 5976 96bd 8776 28bc 912a b5be 8bfc 673e
000000e0: 402c 58be 52f0 dd3d 615b 5b3c 702a c2be
000000f0: 4667 fa3d 58c1 0dbe 5d26 cd3d 798f 623e
00000100: d933 da3d 0b14 87be 33fc 35be 6c57 47bd
00000110: f371 0abe ad71 163f 8bf0 ab3e 8442 753e
00000120: cf3e 82be b845 663e 73a1 a73e ad36 1fbe
00000130: 8dc6 5c3e dea9 c1bd 9a82 46be 5aee 13be
00000140: ba9b 223e d1a9 1a3e 6c0e 17be 449a 8fbe
00000150: bfb0 acbe 19de 22be c02c 34be afc9 4fbd
00000160: 7edb 2bbd 4b3a 81bd c00f 96be 64d5 d83e
00000170: 52d2 2fbe d2e0 83be b537 93bd 89ca 99be
00000180: 4c7b 1cbd cc26 b5bc a265 c03c 70a6 a0bd
00000190: af8e 29be 05b1 aa3e 761f 253f 0b3d d73e
000001a0: f193 573e 2f0f 453e bdec fc3d 505d 03be
000001b0: cc56 3e3e 7341 5cbe 0bcf 593d 5ca3 4d3e
000001c0: d8bc 5ebe 4f7e 0d3e 044b 75bd a950 21be
000001d0: 1373 b8bd 9d0d aebe 2b2d 39be 148a 32be
000001e0: f7df 9c3d 1d9d 9fbc 3ab1 9abe 6bae 8b3e
000001f0: 1fed a0be 8edb 8cbe b674 71be 2ea6 2b3e
00000200: 3cb0 67be f836 81bd 18e7 d13c e4b1 03be
00000210: 5f8a 92be 68a4 d83e 75e2 fe3e c8ce 163f
00000220: 59c3 03be f00a 7bbd f4fc 2c3e 1c66 d1bd
00000230: 4e55 663e 9424 83bd 0881 24be 504e 313e
00000240: d12f 97bd 12d3 e63d b858 8dbe 74f6 40be
00000250: 1dc9 543c 41bc 3abe a1e7 ddbd 92ff 7dbe
00000260: ee76 963e 49f0 82be 8562 7fbe 4934 853e
00000270: e21a 24be 3dcd 9ebe fa80 42bd d29e c53c
00000280: f124 2abc b8a8 1a3f b448 1d3e 38ed d23d
00000290: 7e61 9cbd 59a9 eabe 3b29 57bf cacd dabe
000002a0: 1052 b4bd 7b66 cabd 4e03 b4bc b421 783e
000002b0: 32af cebd e3c1 ed3e a803 853d 2459 703d
000002c0: e831 a5bd ffd3 9dbd a1db 503e b2ee 043f
000002d0: 54ae 3abe 4218 023e 7b15 52be 025a 533e
000002e0: 440e 05be def9 1d3e df76 203e ae10 c3be
000002f0: d5da 823e 73e8 e9bd fc5d b83e 274e 05bd
00000300: 159e 13be 1a2b abbe 2cdc a1bd b027 94be
00000310: fcac c13e 3b5c f5bd af89 593d ada8 19be
00000320: 55e4 dbbd 7553 8c3d 9bc5 87be 1c9a babe
00000330: 7fb9 44be 87f5 58bd 69d9 f8bd 8adf 09be
00000340: 7694 00be 851c 1fbe e7f0 a1bd f31b 69be
00000350: 8abc aa3e 3652 4fbe ff11 233e 4052 93bd
00000360: 7d59 4cbe c092 aebe b76f 3ebd 3e1a 6f3c
00000370: 8ad7 6ebc 1647 cd3e 92ca 94be 7670 9dbe
00000380: 59d3 1ebe 28e6 73be 5c7d 9eb9 0011 78be
00000390: 24c9 2a3e c968 543d 5d8e 513d 4a0e 2bbe
000003a0: 041c 85be ce5a 5dbe b9d4 52be 6bbe 9fbe
000003b0: 7381 5ebc 4a92 acbe e019 01bd 98ce fc3b
000003c0: 0823 89bd ca55 93be cf00 1ebf 41b9 fcbe
000003d0: 3c5c 733e 302d f9bd 3c5a 9c3e 3600 ccbe
000003e0: df96 4bbe 2548 a0bd d0f7 39be 3c50 7c3c
000003f0: 1e4e 9dbe a164 8e3d 4dcd a5bd 053e 9abd

conv.0.weightnet.net.2.linear.bias f4 [16]
0.55563354 -0.06638038 -0.47305116 -0.22561921 0.034924906 -0.06662625 -0.19305867 0.27452755
0.1393947 0.10493418 -0.036593825 0.014580406 -0.3968568 0.445912 -0.2035616 0.04455644
00000000: 003e 0e3f 70f2 87bd c333 f2be b908 67be
00000010: 6b0d 0f3d 5873 88bd 2cb1 45be e08e 8c3e
00000020: 7cbd 0e3e bbe7 d63d 68e3 15bd a8e2 6e3c
00000030: d130 cbbe 944e e43e 7472 50be d080 363d

conv.0.weightnet.net.2.bn.weight f4 [16]
0.8552824 0.940175 0.7229671 0.80449843 1.0228024 1.0081797 0.78474665 0.9177235
0.9258536 0.8307238 0.96621615 0.73689014 0.8666466 0.9042815 1.0055933 0.8110312
00000000: caf3 5a3f 4faf 703f 5f14 393f 9cf3 4d3f
00000010: 30eb 823f 080c 813f 28e5 483f edef 6a3f
00000020: be04 6d3f 51aa 543f f159 773f d5a4 3c3f
00000030: 8ddc 5d3f fe7e 673f 48b7 803f be9f 4f3f

conv.0.weightnet.net.2.bn.bias f4 [16]
-0.13004966 -0.058806147 -0.25523633 -0.19970068 0.029520545 0.0032959979 -0.20364349 -0.08062044
-0.06088232 -0.16539161 -0.023750769 -0.26879582 -0.12524997 -0.079755306 0.008029576 -0.18444921
00000000: bd2b 05be b7de 70bd 56ae 82be 567e 4cbe
00000010: 12d5 f13c ab01 583b eb87 50be 541c a5bd
00000020: bd5f 79bd 6b5c 29be f990 c2bc 9b9f 89be
00000030: 8741 00be c056 a3bd 7c8e 033c 41e0 3cbe

conv.0.weightnet.net.2.bn.running_mean f4 [16]
1.541578 -0.23343399 -0.700898 -0.47544703 -0.023971109 0.14097236 -0.90535265 -0.6959223
2.0877411 1.5938917 -3.7955241 -1.8902087 -1.0107194 -2.617721 0.891577 -1.1363956
00000000: 6e52 c53f 5209 6fbe 0d6e 33bf cb6d f3be
00000010: 0f5f c4bc 0f5b 103e 31c5 67bf f727 32bf
00000020: 8d9d 0540 a504 cc3f dee9 72c0 5cf2 f1bf
00000030: 415f 81bf be88 27c0 643e 643f 6975 91bf

conv.0.weightnet.net.2.bn.running_var f4 [16]
2.80384 4.259829 2.8739333 1.6374992 2.411011 6.209201 5.0664268 4.784873
16.616034 9.692276 29.774908 4.974002 2.4261305 21.301308 2.1578786 5.9655304
00000000: 1d72 3340 8550 8840 86ee 3740 9399 d13f
00000010: 014e 1a40 c6b1 c640 2b20 a240 ae1d 9940
00000020: a3ed 8441 9013 1b41 0333 ee41 062b 9f40
00000030: b945 1b40 1469 aa41 af1a 0a40 a0e5 be40

conv.0.linear.weight f4 [16, 128]
0.007601795 0.125285 -0.43655813 -0.15501219 0.024300972 0.10271113 0.045911245 0.06777773
0.13095346 0.04365055 0.03766954 -0.004583101 0.08550271 -0.01969475 -0.06384848 0.012125753
0.008488824 -0.040259577 0.051880494 0.08587388 0.092622936 -0.067609824 0.09041537 0.08024423
-0.03793166 -0.0062090037 0.007570145 0.015199441 0.045482785 0.06905863 -0.077850275 0.050957065
0.25880408 0.28569195 0.17031279 0.2909183 0.33812433 0.33617383 0.2681882 0.23726322
0.17264044 0.16845709 0.3209771 0.22885513 0.29087827 0.22598067 0.29655853 0.32736486
0.04761333 0.046889223 0.063133106 -0.02650595 0.053024888 0.060958613 -0.022622574 0.008908818
0.071966484 -0.0070510637 0.011072394 0.10999623 -0.019570852 -0.03885516 -0.069459274 -0.042099174
0.15184951 0.115155935 0.10846747 0.21116666 0.16226546 0.12747447 0.18931149 0.1877045
0.14755964 0.20579253 0.2516439 0.10640313 0.1873215 0.21905054 0.18180282 0.13725756
-0.05197869 -0.060722154 -0.102810815 -0.07875709 -0.15696193 -0.047795344 -0.13688593 -0.18539464
-0.06580112 -0.16466437 -0.09075288 -0.098050065 0.02688567 -0.1040882 -0.16870055 -0.20557445
-0.18387215 -0.15226533 -0.15021318 -0.14827071 -0.1807701 -0.12646669 -0.12418629 -0.16915826
-0.16083185 -0.054584686 -0.09176478 -0.3512538 -0.13032271 -0.06928019 -0.076958396 -0.12941596
-0.050389238 -0.011035047 -0.06726062 -0.050150428 -0.01735113 0.02374093 -0.07907398 -0.05071493
-0.00909564 -0.10805537 0.019224683 -0.048550453 0.0025015527 -0.011112976 -0.023659183 -0.013733904
-0.084632315 0.013960407 -0.34983784 -0.20609264 -0.1489143 -0.13704652 -0.067678414 -0.092172846
-0.04600165 -0.06334603 -0.112656206 -0.028942183 -0.12822801 -0.08700899 -0.14780803 -0.07302138
0.006490897 -0.053583473 -0.028313382 -0.08569019 -0.059354186 0.022159677 0.040546056 0.09234199
-0.04019631 -0.064720854 -0.021330608 0.03743652 -0.09952532 0.04312516 -0.039760347 -0.040315464
0.19795454 0.20062533 0.09772411 0.14306891 0.12827826 0.17833392 0.031637836 0.20787835
0.24800846 0.18425533 0.20279744 -0.2075489 0.16582525 0.13551126 0.2471795 0.055157717
-0.04769739 -0.057331327 -0.091857605 0.04447892 -0.01978203 -0.08487349 0.0028006327 -0.047933687
-0.104394555 0.0043344838 0.027015788 0.015867835 0.040519528 0.01599787 -0.07305203 0.063266106
0.12165207 0.13160923 0.042047426 -0.0053293467 0.17689921 0.13595614 0.07798815 0.12219108
0.14360245 0.041858934 0.11808766 -0.35152724 0.04619174 0.023081426 0.16320767 0.08324533
-0.10579921 -0.16165087 -0.26413274 -0.30148068 -0.22445506 -0.1689702 -0.05352913 -0.10042773
-0.1882891 -0.39266744 -0.06270941 -0.075588815 -0.092590116 -0.2247028 -0.16136727 -0.07879781
-0.1557789 -0.21833673 -0.30441654 -0.08786516 -0.11167074 -0.18493943 -0.08057916 -0.07359761
-0.15889433 -0.26231772 -0.1566927 0.088666044 -0.12438026 -0.077371605 -0.182042 -0.014309758
-0.083318226 -0.056417763 -0.21899898 -0.00754788 -0.12009703 -0.11354831 0.038595993 0.056898132
-0.039605822 -0.04713004 -0.058968034 0.031350914 -0.1294389 -0.048343472 -0.047246102 0.0297353
00000000: 7a18 f93b b64a 003e 8c84 dfbe 84bb 1ebe
00000010: d512 c73c 375a d23d 6e0d 3c3d 0dcf 8a3d
00000020: aa18 063e ebca 323d 604b 1a3d d62d 96bb
00000030: 0b1c af3d e256 a1bc fec2 82bd 18ab 463c
00000040: b514 0b3c 3ae7 24bd a480 543d a5de af3d
00000050: 18b1 bd3d 0577 8abd b22b b93d 1657 a43d
00000060: 3a5e 1bbd e674 cbbb fb0e f83b 1407 793c
00000070: 284c 3a3d 9c6e 8d3d f76f 9fbd 5bb8 503d
00000080: f881 843e 3746 923e 7a66 2e3e 3ef3 943e
00000090: a21e ad3e fa1e ac3e f74f 893e 21f5 723e
000000a0: a8c8 303e 0480 2c3e 1c57 a43e 0059 6a3e
000000b0: ffed 943e 7a67 673e 85d6 973e 5e9c a73e
000000c0: 3206 433d ea0e 403d ee4b 813d 0223 d9bc
000000d0: a030 593d bdaf 793d fa52 b9bc 4af6 113c
000000e0: 2a63 933d 9c0c e7bb fd68 353c b445 e13d
000000f0: 0d53 a0bc 9726 1fbd aa40 8ebd 2f70 2cbd
00000100: 707e 1b3e e0d6 eb3d 3124 de3d 133c 583e
00000110: eb28 263e ab88 023e dfda 413e 9c35 403e
00000120: e019 173e 47bb 523e 78d7 803e e2e9 d93d
00000130: 35d1 3f3e c94e 603e 852a 3a3e 3f8d 0c3e
00000140: 9be7 54bd cbb7 78bd 7a8e d2bd 664b a1bd
00000150: a1ba 20be 0dc5 43bd d32b 0cbe 18d8 3dbe
00000160: bdc2 86bd c79d 28be a5dc b9bd 79ce c8bd
00000170: 563f dc3c 322c d5bd d6bf 2cbe 1c82 52be
00000180: fb48 3cbe 71eb 1bbe 7cd1 19be 47d4 17be
00000190: cc1b 39be 7c80 01be 6255 febd d337 2dbe
000001a0: 1bb1 24be 3194 5fbd 2cef bbbd 8ad7 b3be
000001b0: 5173 05be c6e2 8dbd 5d9c 9dbd 9e85 04be
000001c0: f264 4ebd 57cc 34bc f0bf 89bd 896a 4dbd
000001d0: f523 8ebc 577c c23c 8af1 a1bd 75ba 4fbd
000001e0: e105 15bc 224c ddbd 157d 9d3c d7dc 46bd
000001f0: 17f1 233b 3313 36bc e7d0 c1bc 2b04 61bc
00000200: b553 adbd 31ba 643c f21d b3be f309 53be
00000210: fe7c 18be ec55 0cbe fb9a 8abd 1ec5 bcbd
00000220: 3a6c 3cbd 90bb 81bd 4cb8 e6bd 2818 edbc
00000230: 344e 03be c531 b2bd fd5a 17be 3c8c 95bd
00000240: 97b1 d43b 587a 5bbd 77f1 e7bc 577e afbd
00000250: 601d 73bd 3688 b53c 9f13 263d cc1d bd3d
00000260: e3a4 24bd 5e8c 84bd 87bd aebc 0957 193d
00000270: eed3 cbbd 02a4 303d bfdb 22bd d421 25bd
00000280: 98b4 4a3e ba70 4d3e 9423 c83d a880 123e
00000290: 605b 033e 2b9d 363e ad96 013d 10de 543e
000002a0: eef5 7d3e 6ead 3c3e 22aa 4f3e b387 54be
000002b0: 18ce 293e 77c3 0a3e 9f1c 7d3e 0fed 613d
000002c0: 575e 43bd 41d4 6abd d71f bcbd 872f 363d
000002d0: ec0d a2bc 27d2 adbd d28a 373b 1d56 44bd
000002e0: d0cc d5bd 4908 8e3b 3750 dd3c 43fd 813c
000002f0: cef7 253d f70d 833c 4d9c 95bd a991 813d
00000300: b824 f93d 92c4 063e ec39 2c3d cda1 aebb
00000310: 1125 353e 1638 0b3e 40b8 9f3d 513f fa3d
00000320: 850c 133e 4674 2b3d f1d7 f13d 61fb b3be
00000330: 8d33 3d3d 4215 bd3c e91f 273e 877c aa3d
00000340: 42ad d8bd ce87 25be 683c 87be ad5b 9abe
00000350: 8cd7 65be 8606 2dbe 5c41 5bbd 0ead cdbd
00000360: dcce 40be b50b c9be cb6d 80bd 4fce 9abd
00000370: e39f bdbd 7e18 66be 763d 25be bf60 a1bd
00000380: 8184 1fbe aa93 5fbe 7cdc 9bbe a6f2 b3bd
00000390: a1b3 e4bd c360 3dbe b006 a5bd 58ba 96bd
000003a0: 32b5 22be 824e 86be 0d74 20be 8b96 b53d
000003b0: 14bb febd 0175 9ebd 3869 3abe 7a73 6abc
000003c0: bfa2 aabd 5016 67bd 4541 60be 3554 f7bb
000003d0: 6ff5 f5bd 048c e8bd d516 1e3d 040e 693d
000003e0: b739 22bd 6e0b 41bd 7788 71bd d169 003d
000003f0: a28b 04be ce03 46bd 2185 41bd 7297 f33c

conv.0.linear.bias f4 [16]
0.1611066 -0.033441078 0.45195472 0.037778545 -0.0026073558 -0.07911088 0.06727151 -0.08768138
-0.02068564 -0.03328635 -0.020957587 0.023560321 -0.057738107 -0.045997962 0.006618872 0.056899883
00000000: 21f9 243e 83f9 08bd 9c66 e73e adbd 1a3d
00000010: 2ce0 2abb e304 a2bd a5c5 893d 4c92 b3bd
00000020: ee74 a9bc 4557 08bd 3faf abbc 9301 c13c
00000030: cb7e 6cbd 5c68 3cbd 1fe3 d83b da0f 693d

conv.2.weightnet.net.0.linear.weight f4 [32, 1]
0.16926636 -0.15462497 1.1054647 0.22131036 -0.99652326 -0.07576463 0.36561018 -0.08967834
0.3304314 1.0245334 1.4872152 -1.2309228 -0.07966697 0.7280439 -0.18213393 0.38319245
-0.9673042 -1.001243 0.097894475 0.30724022 0.093242645 0.9549606 -0.22576073 -0.57023335
0.64993674 -0.40064844 -0.12257687 0.9283289 -0.35210013 -0.11158022 -0.26723695 -0.4776878
00000000: 2954 2d3e 0256 1ebe de7f 8d3f 2f9f 623e
00000010: 261c 7fbf 7d2a 9bbd 4231 bb3e 47a9 b7bd
00000020: 4e2e a93e e923 833f 115d be3f e18e 9dbf
00000030: 7028 a3bd 1661 3a3f 5181 3abe cd31 c43e
00000040: 40a1 77bf bb28 80bf e67c c83d 974e 9d3e
00000050: 00f6 be3d 4c78 743f d22d 67be d0fa 11bf
00000060: 4162 263f cb21 cdbe 9509 fbbd f6a6 6d3f
00000070: 7846 b4be 2c84 e4bd 48d3 88be 7f93 f4be

conv.2.weightnet.net.0.linear.bias f4 [32]
0.29709664 -0.7538842 0.80743796 0.43821967 0.61649424 -0.18584123 0.5771612 0.9655521
1.1238506 -1.0105952 -0.099928014 -0.50995535 -0.4846715 0.54391897 -0.94210815 0.13768998
-0.6421971 1.0557601 -0.8907126 0.091585845 -0.42096794 0.26600963 -0.8675737 0.32816237
-0.25557682 -0.30874515 -0.29063395 -0.50142807 -0.5051463 0.172072 -0.24531075 -0.25199705
00000000: 0d1d 983e 8efe 40bf 41b4 4e3f 545e e03e
00000010: 91d2 1d3f 2a4d 3ebe d6c0 133f 6c2e 773f
00000020: 56da 8f3f 2f5b 81bf 0fa7 ccbd 6f8c 02bf
00000030: dd26 f8be 463e 0b3f 002e 71bf 9afe 0c3e
00000040: 0767 24bf 2623 873f be05 64bf 5c91 bb3d
00000050: 1c89 d7be 6a32 883e 4f19 5ebf e604 a83e
00000060: f7da 82be d813 9ebe f9cd 94be 975d 00bf
00000070: 4551 01bf a433 303e be32 7bbe c205 81be

conv.2.weightnet.net.0.bn.weight f4 [32]
1.2042483 0.947204 1.2652047 1.4455472 0.7980665 0.9351297 0.7823022 1.3912345
1.0879838 1.2159714 1.4326109 1.3772413 1.1846945 1.1631773 0.8673219 1.5022964
0.74596846 1.2288923 0.6488772 1.3771995 1.1583232 1.3308612 1.3389274 1.104156
1.228857 1.2024527 1.3171945 1.1939001 1.1462628 1.0264441 1.1662143 1.0090307
00000000: cf24 9a3f f67b 723f 3af2 a13f b107 b93f
00000010: 164e 4c3f a964 6f3f f544 483f f913 b23f
00000020: 0e43 8b3f f3a4 9b3f cb5f b73f 7149 b03f
00000030: 12a4 973f fee2 943f cf08 5e3f 404b c03f
00000040: caf7 3e3f 584c 9d3f d11c 263f 1348 b03f
00000050: ef43 943f a959 aa3f f961 ab3f fc54 8d3f
00000060: 304b 9d3f f8e9 993f d499 a83f b8d1 983f
00000070: bdb8 923f 8562 833f 8346 953f eb27 813f

conv.2.weightnet.net.0.bn.bias f4 [32]
-0.056191877 -0.06028073 -0.054622244 0.0146855 -0.077777654 -0.07574251 -0.102503024 0.025051631
-0.10220645 -0.035834298 -0.021450482 0.079666406 0.06956253 -0.0032016265 -0.2512492 -0.00669131
-0.08206857 0.0094731795 -0.5090876 -0.009825416 -0.04192924 -0.06327596 0.01589214 0.06329722
-0.068425596 -0.078368746 0.057666328 -0.018260099 0.0707043 -0.017960304 0.021183236 -0.058755297
00000000: 7429 66bd ede8 76bd 93bb 5fbd 749b 703c
00000010: e449 9fbd e41e 9bbd 1bed d1bd 1439 cd3c
00000020: 9e51 d1bd fcc6 12bd ecb8 afbc 2428 a33d
00000030: cd76 8e3d 61d2 51bb bca3 80be c742 dbbb
00000040: 9113 a8bd 6535 1b3c 9153 02bf c8fa 20bc
00000050: ffbd 2bbd d496 81bd 3c30 823c f9a1 813d
00000060: b822 8cbd cb7f a0bd 8733 6c3d 3496 95bc
00000070: 6bcd 903d 7d21 93bc 7788 ad3c 65a9 70bd

conv.2.weightnet.net.0.bn.running_mean f4 [32]
0.29806605 -0.75417995 0.80717844 0.43818164 0.6159588 -0.1855517 0.57702124 0.96613866
1.1239293 -1.01015 -0.09988566 -0.5095465 -0.48436195 0.5428022 -0.94192135 0.13805874
-0.64190966 1.0544446 -0.89022875 0.09120002 -0.42087865 0.26491672 -0.86744756 0.32953924
-0.2553948 -0.30839074 -0.29025608 -0.5020075 -0.5042887 0.17255591 -0.24529406 -0.25343043
00000000: 1d9c 983e f011 41bf 3fa3 4e3f 5859 e03e
00000010: 7aaf 1d3f 4401 3ebe aab7 133f dd54 773f
00000020: eadc 8f3f 984c 81bf da90 ccbd a471 02bf
00000030: 4afe f7be 16f5 0a3f c221 71bf 455f 0d3e
00000040: 3154 24bf 0af8 863f 08e6 63bf 13c7 ba3d
00000050: 687d d7be 2aa3 873e 0b11 5ebf 5eb9 a83e
00000060: 1bc3 82be 64e5 9dbe 729c 94be 9083 00bf
00000070: 1019 01bf 7fb2 303e 5e2e 7bbe a2c1 81be

conv.2.weightnet.net.0.bn.running_var f4 [32]
0.00016847983 0.00013807746 0.0071684713 0.00028705888 0.0058150524 3.3731874e-05 0.0007834336 4.68139e-05
0.00064085796 0.0061346316 0.012953546 0.008887211 3.7476388e-05 0.003096401 0.00019431188 0.0008591902
0.0054774345 0.005875503 5.612763e-05 0.00055426045 5.1156992e-05 0.0053442633 0.00030114848 0.0019020175
0.002475557 0.00094385695 8.831972e-05 0.00505278 0.0007267031 7.320977e-05 0.00041728362 0.0013330433
00000000: f6a9 3039 e3c8 1039 7fe5 ea3b 6480 9639
00000010: 328c be3b 537b 0d38 575f 4d3a 0b5a 4438
00000020: 40ff 273a 0505 c93b 1c3b 543c aa9b 113c
00000030: f72f 1d38 fdec 4a3b 33c0 4b39 473b 613a
00000040: 0d7c b33b 4b87 c03b 956a 6b38 ca4b 113a
00000050: 6791 5638 ee1e af3b 77e3 9d39 1e4d f93a
00000060: f43c 223b 2b6d 773a 4a38 b938 ca91 a53b
00000070: 3880 3e3a 3288 9938 dcc6 da39 83b9 ae3a

conv.2.weightnet.net.1.linear.weight f4 [32, 32]
0.0955918 -1.8872186 -0.10285286 0.07419752 -1.198444 -1.3175356 0.050789528 -0.5389499
0.028900709 0.017111681 -0.050952725 -0.6506629 -0.517376 0.15422057 -0.24061374 -0.0070629297
-0.6710562 -0.5085645 -0.10630072 -0.022970468 -0.0052556205 0.034334388 -0.34650755 -1.0017756
-0.022605982 -0.4830423 -0.6370072 0.13159834 -0.76684165 -1.1653924 -0.60998666 -0.7001712
-0.789481 0.051697746 -0.68635106 -0.55712783 0.17335844 -0.070957236 -0.6730815 -0.05946888
-1.6813792 -0.9287021 -0.65624 0.11868779 0.036229327 -1.7792699 -0.14642033 -0.5642392
0.002736686 -0.1544108 -0.57691514 -0.54065275 -2.9478922 -0.3837873 0.05089404 -0.07745291
-0.88785976 0.03276911 -0.03968091 -1.573515 0.11609695 0.17236117 -0.0072949175 0.053874575
-1.3248442 0.16282713 -1.0930599 -0.7152358 0.07216206 0.12739497 -0.44890484 0.018737694
-2.027967 -1.187773 -0.49998516 0.12360912 -0.0057559926 -1.6896119 -0.31831253 -0.7266393
-0.105838396 0.16077743 -0.2873234 -0.9945443 -2.704296 -0.9276498 0.048468247 0.07763511
-1.0522777 -0.04796634 -0.011458614 -2.570738 0.019619834 -0.08236446 -0.080625705 -0.07763488
-0.6757282 -0.009556364 -0.45461905 -0.5727984 -0.0019442206 0.20749253 -0.89974 0.09179502
-0.45457098 -0.39056543 -0.51484424 0.09663165 0.008636576 -0.70405966 -0.44006926 -0.5373915
0.13747087 0.105242744 -0.3341797 -0.5852645 -0.43431875 -0.28877 0.14023432 0.15965036
-0.57438785 -0.009150463 -0.021641325 -0.63191664 -0.11151548 -0.06405418 0.16183569 0.08624851
-0.35569417 -0.12235133 -0.54132223 -0.50864774 -0.19874373 -0.078620836 -0.18929897 -0.1801886
-0.41629705 -0.28302166 -0.49032444 -0.049918737 -0.07444997 -0.28309834 -0.00060044165 -0.69025373
-0.0978894 0.040278662 -0.17936635 -0.37700823 -0.52557415 -0.67618495 -0.232951 0.029052347
-0.33389834 -0.2773018 -0.08948934 -0.5316445 -0.14266843 -0.035776608 -0.0087542115 -0.20366958
-0.44174865 0.08266509 -0.7309325 -1.600505 -0.22067454 -0.20125897 -0.22683369 -0.06685845
-0.5430617 -0.7341094 -2.0182903 0.026263442 -0.004261665 -0.6063519 0.039779518 -2.098167
0.055472683 -0.24397254 -0.4280018 -0.91485775 -0.37846655 -1.4373164 -0.09546101 0.07309093
-0.70041233 -0.013845992 -0.07005572 -0.5317806 -0.015927419 0.05583086 -0.08128554 -0.11683932
-0.038006123 -0.5079836 -0.17161329 -0.055344183 -0.17794241 -0.5789403 0.10252281 -1.0273931
-0.11609856 -0.067422695 0.014233518 -0.8994227 -0.8107349 0.025892021 -0.19352745 0.06362079
-0.1684603 -1.9714476 0.11039549 0.038382076 -0.04117092 -0.13146022 -0.93018156 -0.4281072
-0.009577373 -0.87133425 -1.2993768 0.09363916 -0.6430887 -0.33411846 -0.9349738 -0.5179904
0.23987351 -0.26069447 0.012403525 0.080252305 -0.3906101 -0.4261402 0.25004995 -0.41650707
0.23499966 0.060867008 0.25606272 -0.41643038 -0.46076095 0.214836 0.005346154 0.24901126
-0.69889903 -0.37326035 0.08860988 0.06491809 0.046598293 -0.02260301 -0.28354302 -0.46828872
-0.02505675 -0.13282786 -0.30456322 0.044919085 -0.47393703 -0.5363883 -0.4756364 -0.21627846
00000000: a2c5 c33d 6190 f1bf 85a4 d2bd dff4 973d
00000010: 9d66 99bf 02a5 a8bf ae08 503d 9ff8 09bf
00000020: 2ec1 ec3c cc2d 8c3c ceb3 50bd d891 26bf
00000030: c172 04bf ffeb 1d3e 7363 76be 2670 e7bb
00000040: 57ca 2bbf 4831 02bf 31b4 d9bd 902c bcbc
00000050: 5737 acbb 37a2 0c3d 7069 b1be 2f3a 80bf
00000060: 2e30 b9bc 5251 f7be e712 23bf b7c1 063e
00000070: bc4f 44bf 942b 95bf 1628 1cbf 6b3e 33bf
00000080: 6d1b 4abf 04c1 533d b4b4 2fbf ee9f 0ebf
00000090: e084 313e 0752 91bd 124f 2cbf a495 73bd
000000a0: 6f37 d7bf 6cbf 6dbf 58ff 27bf 9612 f33d
000000b0: 3465 143d 1ebf e3bf 36ef 15be fb71 10bf
000000c0: f959 333b dd1d 1ebe b6b0 13bf 3868 0abf
000000d0: 44aa 3cc0 c57f c4be 4576 503d a29f 9ebd
000000e0: c74a 63bf e738 063d 7388 22bd f168 c9bf
000000f0: 3dc4 ed3d 727f 303e 340a efbb 96ab 5c3d
00000100: 7f94 a9bf 28bc 263e 63e9 8bbf b219 37bf
00000110: b4c9 933d d473 023e dbd6 e5be cb7f 993c
00000120: 36ca 01c0 f208 98bf 0efe ffbe c726 fd3d
00000130: c49c bcbb 3445 d8bf dcf9 a2be 0805 3abf
00000140: cdc1 d8bd d7a2 243e 0d1c 93be 759a 7ebf
00000150: 3013 2dc0 757a 6dbf a486 463d 28ff 9e3d
00000160: 09b1 86bf 5a78 44bd e9bc 3bbc f986 24c0
00000170: c6b9 a03c b3ae a8bd 171f a5bd 09ff 9ebd
00000180: 86fc 2cbf 4c92 1cbc d4c3 e8be eaa2 12bf
00000190: 38d5 feba ec78 543e 5c55 66bf 07ff bb3d
000001a0: 87bd e8be 31f8 c7be d5cc 03bf d1e6 c53d
000001b0: 6d80 0d3c 413d 34bf c250 e1be 7d92 09bf
000001c0: 2ac5 0c3e 8289 d73d 9a19 abbe e5d3 15bf
000001d0: 075f debe a9d9 93be 9699 0f3e 627b 233e
000001e0: 150b 13bf d3eb 15bc 2649 b1bc 4ac5 21bf
000001f0: 3a62 e4bd d72e 83bd 41b8 253e 0fa3 b03d
00000200: 8c1d b6be 5693 fabd 1894 0abf bd36 02bf
00000210: 7a83 4bbe f603 a1bd 97d7 41be 5c83 38be
00000220: e324 d5be 37e8 90be ce0b fbbe 9777 4cbd
00000230: 3a79 98bd 44f2 90be f566 1dba 78b4 30bf
00000240: 3d7a c8bd 3dfb 243d d0ab 37be 3907 c1be
00000250: 078c 06bf 751a 2dbf b58a 6ebe 30ff ed3c
00000260: b9f4 aabe 80fa 8dbe 3046 b7bd db19 08bf
00000270: ac17 12be 7e8a 12bd d36d 0fbc c28e 50be
00000280: e12c e2be 514c a93d 641e 3bbf 59dd ccbf
00000290: 82f8 61be d516 4ebe 1747 68be 15ed 88bd
000002a0: 1706 0bbf 98ee 3bbf ab2b 01c0 6e26 d73c
000002b0: 70a5 8bbb e139 1bbf d9ef 223d 5e48 06c0
000002c0: 5337 633d f0d3 79be 0d23 dbbe 1e34 6abf
000002d0: 5ec6 c1be fcf9 b7bf 1081 c3bd b3b0 953d
000002e0: 394e 33bf 4dda 62bc 6079 8fbd c622 08bf
000002f0: 387a 82bc e6ae 643d 0879 a6bd 7449 efbd
00000300: 4fac 1bbd 370b 02bf 65bb 2fbe 95b0 62bd
00000310: 8936 36be 6e35 14bf 7bf7 d13d 9e81 83bf
00000320: 15c5 edbd e914 8abd b433 693c 9140 66bf
00000330: 538c 4fbf 811b d43c 0f2c 46be 9e4b 823d
00000340: db80 2cbe 6558 fcbf 0817 e23d 8636 1d3d
00000350: d7a2 28bd 829d 06be 6120 6ebf de30 dbbe
00000360: 6aea 1cbc c30f 5fbf fb51 a6bf e3c5 bf3d
00000370: 76a1 24bf 9311 abbe 715a 6fbf 059b 04bf
00000380: 67a1 753e bf79 85be 2838 4b3c 525b a43d
00000390: 0cfe c7be 0c2f dabe 8c06 803e 6a40 d5be
000003a0: c0a3 703e af4f 793d a71a 833e 5d36 d5be
000003b0: dce8 ebbe f8fd 5b3e ca2e af3b cffc 7e3e
000003c0: 0ceb 32bf fb1b bfbe 1979 b53d c7f3 843d
000003d0: dadd 3e3d f329 b9bc 8d2c 91be 8ac3 efbe
000003e0: d043 cdbc 0704 08be b6ef 9bbe 13fd 373d
000003f0: e0a7 f2be be50 09bf 9d86 f3be 1a78 5dbe

conv.2.weightnet.net.1.linear.bias f4 [32]
0.22748116 0.05253196 0.08843635 0.33916295 -0.09443458 0.1338099 0.042595547 -0.11271522
0.2731709 0.030629138 -0.044013638 -0.493767 0.39308393 0.16393584 0.20322783 -0.097585455
0.07740519 -0.032233883 -0.04437721 0.1796223 0.3567289 -0.10268815 0.13279264 -0.14472325
-0.5484911 0.17315193 0.19379555 -0.032787524 -0.0300328 0.19306836 0.13796021 -0.12663953
00000000: d2f0 683e c12b 573d 1e1e b53d c4a6 ad3e
00000010: eb66 c1bd 7605 093e ab78 2e3d 3dd7 e6bd
00000020: 0edd 8b3e f5e9 fa3c a547 34bd 07cf fcbe
00000030: 4c42 c93e ccde 273e f51a 503e e2da c7bd
00000040: 9d86 9e3d ad07 04bd e1c4 35bd e9ee 373e
00000050: 2ca5 b63e 2a4e d2bd cbfa 073e 5532 14be
00000060: ea69 0cbf bd4e 313e 5772 463e 364c 06bd
00000070: 5907 f6bc b6b3 453e 7145 0d3e cbad 01be

conv.2.weightnet.net.1.bn.weight f4 [32]
0.82077366 0.49868906 1.0157349 0.7333931 1.1795509 0.8265392 0.95099896 1.0058869
1.0257083 0.76723176 0.9497937 0.94318026 0.8925956 1.2795308 0.6614067 1.0207742
0.82163894 0.82645977 0.9115962 0.97660244 1.0266798 1.2851083 1.0753725 1.0655391
1.4399364 0.96569145 0.95013744 0.86621875 1.0663133 0.9707375 1.1444018 0.77834296
00000000: 391e 523f 2c54 ff3e 9a03 823f a6bf 3b3f
00000010: 86fb 963f 1398 533f ab74 733f e7c0 803f
00000020: 694a 833f 4d69 443f ae25 733f 4374 713f
00000030: 2581 643f aac7 a33f f351 293f bba8 823f
00000040: ee56 523f de92 533f 5e5e 693f 9e02 7a3f
00000050: 3e6a 833f 6e7e a43f cea5 893f 9663 883f
00000060: d64f b83f 8e37 773f 353c 733f 83c0 5d3f
00000070: f47c 883f 4182 783f c27b 923f 7c41 473f

conv.2.weightnet.net.1.bn.bias f4 [32]
-0.20159648 0.012744684 0.053815756 -0.09307017 0.08485011 -0.24220228 0.1654038 0.3347537
0.40572008 -0.36079007 0.25011948 0.09232841 -0.09071329 -0.009164792 0.21076863 0.22439201
-0.19039401 0.06470905 -0.19999312 0.09022287 0.19948086 0.15305813 0.1842801 0.23896237
0.26689062 -0.07998172 0.31500447 0.02424356 0.11449378 0.43227148 0.14150639 -0.09677836
00000000: 4f6f 4ebe 14cf 503c e96d 5c3d 939b bebd
00000010: e5c5 ad3d e003 78be 9d5f 293e d664 ab3e
00000020: 8bba cf3e 7ab9 b8be a90f 803e ad16 bd3d
00000030: e4c7 b9bd ec27 16bc bbd3 573e 05c7 653e
00000040: a6f6 42be 2e86 843d ffca 4cbe c5c6 b83d
00000050: b644 4c3e 45bb 1c3e ecb3 3c3e 8db2 743e
00000060: e3a5 883e 75cd a3bd 4448 a13e 6e9a c63c
00000070: b77b ea3d b052 dd3e 0de7 103e bc33 c6bd

conv.2.weightnet.net.1.bn.running_mean f4 [32]
-2.8008585 -3.9307988 -4.938343 -1.627601 -2.482144 -4.483424 -3.784923 -1.2878098
-3.0731227 -0.49309912 -2.054464 -1.8141325 -1.05403 -2.150482 0.12027835 -2.0447352
-2.410301 -1.5644225 -1.3992281 -6.148234 -1.2346439 -1.7671113 6.279152 -3.0150263
-2.3729558 -4.765317 -2.552117 -5.722048 -2.6919916 1.9035238 -4.176055 -1.9575386
00000000: 4441 33c0 3592 7bc0 e806 9ec0 3b55 d0bf
00000010: 73db 1ec0 3678 8fc0 2e3c 72c0 f4d6 a4bf
00000020: 0bae 44c0 7d77 fcbe 577c 03c0 7e35 e8bf
00000030: 74ea 86bf 7fa1 09c0 7f54 f63d f1dc 02c0
00000040: 5f42 1ac0 ff3e c8bf e819 b3bf 55be c4c0
00000050: d008 9ebf b430 e2bf d0ee c840 31f6 40c0
00000060: 82de 17c0 7a7d 98c0 e355 23c0 041b b7c0
00000070: 9749 2cc0 aba6 f33f 3ea2 85c0 a090 fabf

conv.2.weightnet.net.1.bn.running_var f4 [32]
58.328144 91.497635 139.0654 28.905483 13.45425 82.97415 62.485786 21.316803
63.882942 13.947715 9.448064 26.648304 29.570103 9.826003 8.788001 34.653442
44.285255 2.5443337 20.215765 164.01762 2.1608229 3.0360134 165.58037 54.44035
2.7284763 115.21077 46.63473 142.05583 20.936712 23.730167 104.05764 3.5823395
00000000: 0550 6942 cafe b642 be10 0b43 6e3e e741
00000010: 9c44 5741 c4f2 a542 72f1 7942 d088 aa41
00000020: 2288 7f42 d729 5f41 452b 1741 ba2f d541
00000030: 928f ec41 4f37 1d41 a79b 0c41 209d 0a42
00000040: 1a24 3142 5dd6 2240 e3b9 a141 8304 2443
00000050: ec4a 0a40 0b4e 4240 9394 2543 ebc2 5942
00000060: 5b9f 2e40 ea6b e642 f789 3a42 4b0e 0e43
00000070: 637e a741 62d7 bd41 831d d042 0d45 6540
